suboptimal_policies/AdroitHandDoor-v1_0.6.pth (torch, 364167 bytes, 6 tensors)

net.0.0.weight f4 [256, 39]
00000000: 9b8d 843d d05f 053f 239e 19be 8d22 9dbe
00000010: eff9 5fbe 3135 7bbe e92f 183e 196f 16be
00000020: d3fe 8bbe 1dcd 46be 1f9d f63d 9965 99be
00000030: d662 13bd c5cb e7bd 5df9 32be f9cd 6fbe
00000040: 8384 d9bd 60fa 173e c086 a03d ddc8 b93e
00000050: b0df a23d 1e91 063c c32d a2bd 8ff5 6abe
00000060: af44 b83e bebc 45bd d7e3 f43b 89c7 0bbe
00000070: 49de 00bf e173 15bf 587e b23e 065c a33d
00000080: 61ac e63e d509 e9be ccea a3bd 74f7 5cbf
00000090: f8e1 a83f 8f78 3d3e fa33 8d3c 417f 133f
000000a0: a283 26bb 6105 ab3d c1a2 8f3e 7d0f de3c
000000b0: 990c 1c3f 02ae 473e b9ea 003d e4e5 033e
000000c0: 5ca2 ec3d c53a bb3e 556d b13d 8f45 c6bc
000000d0: 1f7f 25be 5fc4 04bd a031 953d 804b ad3d
000000e0: 46e1 7fbe cd6e 9e3e 7f36 0dbe b12f 6fbe
000000f0: 4b5c 3fbe bd9e 0a3f 85e4 833e 314d d8be
00000100: 48f3 093e 6fa4 c4bd f62d e53b f1dc 81bf
00000110: 60de 9c3c 629a 07bf 2c45 16bf f44d 1b3e
00000120: c30c d73d 28d0 f2bd c906 1dbd ad53 04bf
00000130: 3fe7 31bf 2adc 78bb eaa5 5d3e 1007 b5bc
00000140: dc77 8cbe f906 9d3e 488c 1b3e 9cbb 633e
00000150: 357b 933b f5b7 0c3e 888e 343e db6c 4d3e
00000160: db38 53be 0778 88be d282 fcbd f72e 91bd
00000170: 0698 213e f70f 493e e9ec c43d b72f 0e3e
00000180: 2818 0cbe 28e8 213c 52cd 7c3d 9891 373d
00000190: 3af7 5a3d 21a0 8d3e 63fc f23e 8e94 f23e
000001a0: 008e e8bd baaf 58bd cea3 a7bf 9852 7abd
000001b0: f492 8fbe f6d8 9bbe c5ef b23e 9974 ff3e
000001c0: 0a05 dcbe 6a38 91be 6d24 35bf 6491 2ebd
000001d0: 35d8 073e 2018 1ebf 44e3 e03e a9af 23be
000001e0: 3525 2bbe 96d2 42be 76e0 49be ae8a 233e
000001f0: ba56 ca3c 94f4 78be 2e1b ad3d e806 ea3c
00000200: 3469 f5bd 13f3 e5bd 2fe0 373e d105 54bd
00000210: 4c53 95bd 9f4b 2e3d 473c 56be 2743 31be
00000220: 8488 6d3d a299 053d a25d d23d 814f 433e
00000230: 9ab2 123d 0277 3d3e 4b4e 113e a56b 853d
00000240: 19ec 1fbf 6871 15bf e6c2 4dbf 9190 d1bf
00000250: 63ae 99be 7d13 ebbd d25a 3140 d631 b6be
00000260: 8f77 3fbf aea3 58c0 fecb a2bc 9304 113e
00000270: 2bef 633e a509 25be d310 71bd 2ead 7c3e
00000280: d974 47be 1b8c 493f c710 f03b 9595 25be
00000290: 739a 91bd 4689 b8bd d56e 47be f9d3 773e
000002a0: 599b b33e 5b92 393f 0520 91be f422 6a3c
000002b0: 758e 19bd 7125 7a3e 24a3 fd3e 78af 25be
000002c0: f682 6abe 2631 663d a175 043e d1c8 56bd
000002d0: e08a 903e 5fbc 2dbd 6b7f dd3d 503b 6d3e
000002e0: 6196 c83d f8a6 d33d 05f7 a1be 336a 8fbd
000002f0: 9842 9d3e 663e 8cbe e29b b9bd 3555 36be
00000300: c4cf 47be c473 2a3d bfcb 8bbe dedd ef3d
00000310: 192f f6bc 64ee a6bd 45bd 8bbd 6562 54be
00000320: ca8e b0bd 7df2 57bd 08b8 8dbc fe42 0ebd
00000330: 0374 bd3d 6b0e 09be bf1f 673b 1d4a 463d
00000340: 9ebc 3ebc 83a7 963c b23a ccbd 1044 57bd
00000350: 8d95 bebd 7bea 843d e5f6 eb3d c1ac 4dbd
00000360: 34af 303e 0bba 0c3d 6417 31be 8603 023f
00000370: 89ff 0bbd b653 eebd 8aa9 cbbc a622 58c0
00000380: 228c 733d 8909 643e 2b07 f83c 3553 b93e
00000390: 49f3 4f3f 8a55 0fbe aac4 7fbe 422f 34bf
000003a0: 1541 543e 3ef4 eebd 8ebb 5e3f b7be 493f
000003b0: 787f 403e d32b 1ebe b9e9 0c3e 0ad4 d7bc
000003c0: 349f 23be 7487 39bd b2e5 6b3b ab8f 673f
000003d0: 9f3f b53d d4c5 15be e34c 8fbe 6e0a 493d
000003e0: 136e b53d 4e74 3cbd 90a6 16bd 92c8 21be
000003f0: c219 25be f18c a8be d961 9b3e 07c3 983d
0.064723216 0.52099323 -0.1500173 -0.30690423 -0.21872686 -0.2453201 0.14862026 -0.14690818
-0.27342853 -0.19414182 0.12041687 -0.29960325 -0.03598293 -0.11318163 -0.17477937 -0.23418416
-0.10620978 0.14841604 0.078382015 0.3628606 0.07952821 0.00821331 -0.079188846 -0.22945236
0.359899 -0.0482757 0.0074734497 -0.13650335 -0.5033918 -0.5837994 0.34862018 0.079765365
0.4505339 -0.45515314 -0.08003768 -0.86315084 1.319396 0.1850302 0.017236698 0.5761605
-0.002540805 0.08350635 0.2805386 0.027106995 0.6095672 0.19499972 0.03147385 0.12880665
0.11554405 0.36568275 0.086634316 -0.02420309 -0.16161774 -0.032413837 0.07284856 0.08461666
-0.24988279 0.3094391 -0.1379032 -0.23358037 -0.1868755 0.54148465 0.25760284 -0.42246392
0.1347171 -0.09601676 0.0069940044 -1.0145551 0.019149005 -0.52969944 -0.586993 0.15166456
0.10500481 -0.11856109 -0.03833655 -0.5169018 -0.6949348 -0.0037973025 0.21645322 -0.022098094
-0.27435195 0.30669382 0.15190232 0.22239536 0.0045007714 0.13742049 0.17632496 0.20061056
-0.20627157 -0.26654074 -0.123296395 -0.07089036 0.15780649 0.19634996 0.096154995 0.1388539
-0.1368109 0.0098820105 0.061719246 0.044816583 0.05345843 0.2766123 0.4745818 0.47378963
-0.11355209 -0.05290196 -1.3096864 -0.061113924 -0.28041804 -0.30438966 0.34948555 0.49893644
-0.42972594 -0.28363353 -0.70758706 -0.042619124 0.1326607 -0.6175556 0.4392339 -0.15984978
-0.16713412 -0.19025645 -0.19714531 0.15970871 0.024699558 -0.24312049 0.0845245 0.028567746
-0.119829565 -0.11228003 0.17956613 -0.05176336 -0.07291278 0.042552587 -0.20921431 -0.17310773
0.05799152 0.03261722 0.10271765 0.19073297 0.03581486 0.18502429 0.14190023 0.06514672
-0.6246963 -0.5837617 -0.80375516 -1.6372243 -0.3001586 -0.114783265 2.7711682 -0.35584897
-0.74791807 -3.3849902 -0.019872662 0.14161901 0.22259204 -0.1611696 -0.058853935 0.24675438
-0.19478168 0.7872941 0.0073262188 -0.16170342 -0.07109537 -0.09010558 -0.19475873 0.24201955
0.35079458 0.72488946 -0.2834474 0.01429056 -0.037489373 0.24428345 0.4953853 -0.16180217
-0.2290152 0.056199215 0.12935497 -0.052437607 0.28230953 -0.042415973 0.10815319 0.23167157
0.097943075 0.10334581 -0.31633773 -0.07002678 0.3071487 -0.27391356 -0.090629354 -0.17805941
-0.1951285 0.04161431 -0.27303883 0.1171224 -0.030051755 -0.08150938 -0.0682321 -0.2074066
-0.08620985 -0.05272149 -0.017299667 -0.034731857 0.09250643 -0.13384406 0.0035266725 0.048410524
-0.0116416495 0.018390423 -0.09972133 -0.052555144 -0.09305868 0.06490036 0.11521701 -0.05021358
0.17254335 0.034357112 -0.17294079 0.50786626 -0.034179244 -0.1163706 -0.024861116 -3.3771148
0.059459813 0.22269262 0.030276855 0.36196294 0.812306 -0.13997474 -0.24977365 -0.7038461
0.20727952 -0.11667679 0.87004936 0.7880663 0.18798625 -0.15446405 0.13761033 -0.026346225
-0.159787 -0.045295194 0.0035995063 0.90453595 0.088500254 -0.14626247 -0.27988347 0.049082212
0.088588856 -0.046009354 -0.03677994 -0.15799168 -0.16123107 -0.3292003 0.3034809 0.074590735

net.0.0.bias f4 [256]
00000000: 739e 51bc f663 3e3c 8b1b 32be b5b9 3abe
00000010: 9de6 173e 170d f73d 7d77 79be 08e0 2bbe
00000020: a474 1d3e 562e 1f3e d45e b6bd ff9b a9bd
00000030: 718a 15be 3a47 1bbe 5f9b 233e 577d 16be
00000040: b39d 5b3b 88ac 0d3b 2e9c 7dbd b49a 42be
00000050: c7d9 f2bd 0e38 a0bd 02c7 83bb a5e3 01be
00000060: 1dd4 b83d d796 f2bc 58ca c93d 5e81 0cbd
00000070: 9e55 21be 2764 48be 1ab1 493e 1b98 7e3d
00000080: 085e 143e 0309 afbd fa4f f9bd 499b 623b
00000090: 469e 943d d8c3 613d 800e 2fbe 6488 d9bd
000000a0: 0bda 4c3d d79a 0abe 31f7 90bd 3724 babd
000000b0: 3f7a 9f3d 1b99 bebe 94a0 963c 7ee0 903c
000000c0: 0c82 b83d 3304 31be bf03 2c3e 7936 333e
000000d0: 672c 88be 06c5 493d 5195 08ba 968b b9bd
000000e0: 8005 b8bd 8fba 82be f22d 96bc 81e7 a1bd
000000f0: 33e7 513c 094f a8bd 4c8b 0d3d 6520 f8bd
00000100: 05d9 46be 539b 80bd 8348 92bd c507 f6bb
00000110: 1874 76be e0f0 b73d 3f70 b8bc c7d6 933d
00000120: 7382 f43c d313 1abd fed4 a6bd bb94 94bc
00000130: ed8a 9abd 2059 083e 70d5 213c 267c 173d
00000140: 51d3 71bd 962f 34be c49f e13d 3203 babd
00000150: 0d95 b43d 6ff8 8bbd 3e84 0fbe 8401 5bbe
00000160: 9a0c c63d 0d5b b43c 7684 33be f0ab 87bd
00000170: e399 843d c65d 88bd b55c 0ebd 26d4 7f3d
00000180: 7f38 0f3e 8e97 96be 6a8e ddbc d96a 073e
00000190: 5db7 9f3d 5cd0 b13d 9d2d 35be 8f58 47be
000001a0: 053f 8fbe 05ca 71bd 8976 6dbd f73e a9bb
000001b0: 8e38 a83c 771b eebc 6960 993e 182c c0bd
000001c0: 0020 9cbd 4ef5 fbbd 0121 b93d 088b 6c3d
000001d0: 9c8a 31bd f04e bdbb d2bc 47be 8936 43be
000001e0: a706 6abd 302c bd3d c958 123e f9a2 c6bd
000001f0: bfc6 acbd 1fa1 a33b 0be5 423e 303f 88bb
00000200: b82e a3bc c596 ec3e 96d3 73be bbaf c9bd
00000210: ff69 c3bd 327e 333e 59a5 16be c3b9 dfbd
00000220: 2e53 813e e8a6 c73d 365b 643d 0cff 6a3d
00000230: 1282 d6bc 9e83 17bd edc1 a1bd 44a8 5c3d
00000240: 8ad0 143d 3d9b 29be 303a edbd 1e91 a6bd
00000250: e335 74bd 1ca0 a0bd 7264 ffbd 49cf d43d
00000260: 8e1c 9fbe 360d ecbd 8ffd 0cbe dfcf f13c
00000270: 5ccf a0bd 632f 8e3d e2bf 0ebd aeff f1bc
00000280: fd65 b53d 0109 833c 4f49 71bd 0de6 c33c
00000290: 5006 5abd b44f 9b3d 9e06 03be 9720 d83c
000002a0: 14f2 5e3d 6c95 8abd 54a5 bfbd a1d3 a03d
000002b0: 2cba 723d 2bc9 91bd d1ad acbe a7bd 1ebd
000002c0: 7d74 7abe ecf9 04be e3b0 c6bd ac75 f5bd
000002d0: d1a4 8c3d d35c debd f462 bd3d 66a2 dfbc
000002e0: 2f5a 65bd ac96 dabd 50a6 a83d a297 25be
000002f0: f7d9 efbd a7e3 99bd 7686 913d cbdc e1bd
00000300: 5718 a0bc 5631 423d 6a96 153d d5c7 1fbe
00000310: a83b ccbd 06e8 21be 69fd 58be 71e2 f4bc
00000320: d091 2fbc d3ed 0f3e 498a 4b3d 6e51 10bd
00000330: 3df5 7ebe a54a e1bd 5ce6 2d3e 0b50 08bd
00000340: 4379 84bd 46e8 983d 2e10 9d3d 264b 96be
00000350: a9ee a73d eec5 d1bd 4b45 1d3e 8086 52be
00000360: 3114 0bbe c589 25bc 4ceb 303d 9cce 53be
00000370: 115d da3e e6a6 74be c312 6a3e 1086 afbe
00000380: df1e 58bc 2107 2abe 0fa6 023d 556c 88bd
00000390: 5a68 153e 0e00 71bb 1a5a 10bd a5fc e7bc
000003a0: f9db bebe 8916 41bd 7866 2dbe 2975 99be
000003b0: 86e3 413b 2d12 7fbd 8bf3 473d df67 1bbe
000003c0: ffb2 e83d 392e eebd 26ca 023d 0dc2 08be
000003d0: f1eb 2cbe ba68 8bbd 9ea9 183e 1822 edbd
000003e0: 8eaf 0ebd 80c0 a3bd 101a bf3d 0ac3 25bd
000003f0: f6cb 44bd 416a d1be ce4a b83e 1cca d23b
-0.012794125 0.011620512 -0.1739332 -0.18234904 0.14834066 0.120630436 -0.24361987 -0.1678468
0.15376526 0.1554502 -0.08904806 -0.08281707 -0.14603592 -0.1516389 0.15977238 -0.14696251
0.0033510744 0.002161773 -0.061916523 -0.19004327 -0.11857944 -0.078231916 -0.0040215263 -0.12684496
0.090248324 -0.029612942 0.09853047 -0.03430306 -0.15755317 -0.19569455 0.19696465 0.062156778
0.14488995 -0.08546641 -0.121734574 0.003457742 0.07256751 0.05511841 -0.17095375 -0.106217176
0.05001263 -0.13535629 -0.07078398 -0.09088939 0.077869885 -0.37226185 0.018387116 0.017685171
0.090091795 -0.17286758 0.16798304 0.17501248 -0.26596376 0.04926016 -0.0005210238 -0.09059827
-0.08985424 -0.25532958 -0.018332455 -0.07905484 0.01281147 -0.082182 0.034556672 -0.12115554
-0.19418724 -0.06279626 -0.07142737 -0.0075082504 -0.24067724 0.0898149 -0.02251446 0.072187
0.02984736 -0.037616562 -0.08146094 -0.018137326 -0.07546029 0.13315248 0.009877548 0.03698363
-0.059039418 -0.17596278 0.11016801 -0.09082641 0.08817492 -0.06834494 -0.1401529 -0.21387297
0.09670372 0.022016073 -0.17530999 -0.06624591 0.06474664 -0.06658511 -0.03475638 0.06245818
0.13986395 -0.29412502 -0.027045447 0.13224353 0.07798646 0.086823195 -0.17693181 -0.19467376
-0.27977768 -0.05903055 -0.057974372 -0.0051649767 0.02053478 -0.02906583 0.29956368 -0.0938341
-0.07623291 -0.123026475 0.09039498 0.057749778 -0.04334508 -0.0057772323 -0.19505623 -0.19063772
-0.05713525 0.09236944 0.14291681 -0.09699053 -0.08436345 0.0049935724 0.19032685 -0.004157923
-0.019919738 0.46208778 -0.23811182 -0.09847971 -0.095417015 0.17528608 -0.14711513 -0.10924103
0.25258774 0.09748632 0.055751048 0.057372138 -0.02618507 -0.036990754 -0.078983165 0.053871408
0.03633169 -0.16563125 -0.11583364 -0.08133148 -0.059621703 -0.078430384 -0.1247033 0.10391099
-0.31076473 -0.11525957 -0.137686 0.029518066 -0.07852051 0.06942632 -0.034850962 -0.029540863
0.08857343 0.015995504 -0.058907803 0.023913408 -0.053228676 0.075835615 -0.12795493 0.026382728
0.054430082 -0.06766781 -0.09357706 0.07852865 0.05925958 -0.07118448 -0.3372636 -0.038755085
-0.24458499 -0.12985963 -0.09701707 -0.11985335 0.06867374 -0.108575486 0.092473894 -0.027299117
-0.05599421 -0.1067327 0.082348466 -0.16171125 -0.11711495 -0.07514124 0.071057245 -0.11028441
-0.019542856 0.04741033 0.0365204 -0.15603574 -0.09972316 -0.15811166 -0.21190418 -0.029893132
-0.010715917 0.14055566 0.049692426 -0.035233907 -0.24898238 -0.110005654 0.16982406 -0.03327946
-0.06468441 0.07466178 0.07669102 -0.2935421 0.08199818 -0.1024283 0.15358464 -0.2055912
-0.13581921 -0.010103648 0.043193147 -0.20684284 0.4264913 -0.23891792 0.2285872 -0.3428197
-0.013190954 -0.16604282 0.031896647 -0.06661288 0.14590588 -0.0036773714 -0.035242178 -0.028318712
-0.372772 -0.04714063 -0.1693362 -0.299722 0.0029585077 -0.062273193 0.048816245 -0.15176342
0.11362266 -0.1162991 0.031931065 -0.13355274 -0.1688688 -0.068070844 0.14908454 -0.115787685
-0.03483539 -0.07995701 0.09331143 -0.040469207 -0.048046075 -0.40901378 0.3599457 0.0064327847

net.1.0.weight f4 [256, 256]
00000000: eff5 b93e 905e 0d3e b366 a73c 1ccb 613e
00000010: 6f26 efbd 9baa 2ebe 174d e03d 5c9c 66be
00000020: 44a8 7d3d 1ef9 ac3c b2d9 7f3e 97b1 793d
00000030: a433 3c3e 7f80 1abd 5d29 b13d 77f9 353e
00000040: 520b 8dbe 33df 4cbe e70f e9bd 572e e1bd
00000050: 12dc 23bd 033e 163e 930d b5bd e70e 11be
00000060: c6dc 073d 3ad9 04bc 45b4 2e3d 94a0 8f3e
00000070: bd6c 383d 0e55 e9be 66c4 b8be dde8 843e
00000080: 387c e3bc 803d 3d3e 86ff bc3d bf24 033e
00000090: 633c 443e 2355 f43d 0afe 0dbe eaf9 823e
000000a0: 61b0 51be daa1 2a3d 700e f13d 6b3c 863e
000000b0: aebf 7bbd 180a 393e 3a8a d1be a469 08be
000000c0: 1ba7 803e 2b2f 323d 8697 173c dd47 8cbe
000000d0: 5912 68be 4554 21be a753 99be 9b8b 93be
000000e0: e30e 56be 9dff e1ba 2220 babd 26d2 21be
000000f0: 8d28 aa3e d50f 51bb 1aaf 39be f895 bebd
00000100: 34df 61bd b3b2 1bbe 78ad 33be cc87 7b3e
00000110: fc93 013d d3ae 6abd 0d85 8d3c 2f8f 803e
00000120: 4017 cfbd 2d77 63bd 34a2 6c3d 4e96 90bd
00000130: f4de 2bbf 862f 42be 5023 88be ed95 9fbe
00000140: 9a48 a33c b819 04bf a2b5 933d 9320 d0bd
00000150: f10e fd3b fc1c a4bd a2ce 5bbe d04a 633c
00000160: 147b cdbd 8637 c23d 53bb 383e 9109 d3bd
00000170: 82f0 2abe 8c43 7ebe a78a bb3d 16e5 34be
00000180: 6096 babe 1a45 b6be 017c a3be 0c5d eabc
00000190: 789e c7be fd8b 283e f3f4 af3e fa0d 4cbe
000001a0: 8513 bf3d 9139 8fbe 47c0 c4bc 74be e8bc
000001b0: 2324 a53e 8cf2 a6bd 8906 01bf 3e2a 363e
000001c0: 5bfe 85bd ec75 5f3e 650e 36be 77a6 83bd
000001d0: e05d a2bc 6e2e 71be 1a5d 2a3c 8891 1dbe
000001e0: 1edf 08bd a4c1 29bc 3b62 283e 0e59 5abd
000001f0: a8f2 283d 203d 07be fa68 aabd 94aa 533e
00000200: c251 0fbd 5f40 b43d 5587 9dbd 321f 5dbe
00000210: 122d 1a3d c3cc 8cbd 79fd cdbc 71bf 083e
00000220: 9a45 e03d 867c 00be 2abc ddbd 13fb b7bd
00000230: 8b66 a1be c585 e63d b151 343e 8b7f babe
00000240: 710d 0fbf 93e3 7b3e 6f44 02bd 1a38 14bc
00000250: 9dd3 5ebd 8ccc 84bb 608c 3dbe 4ec1 ddbd
00000260: 5e6c dc3b 5091 b83e af6d dcbe 63f2 033e
00000270: 48c4 24be 9451 1f3e 347a c73d e0eb 593e
00000280: e0e2 b03d 634d fd3d bd53 bd3d f2c5 afbd
00000290: 1d1f 3f3d 14c5 023c 8d57 053e 007c 02be
000002a0: 0951 803d ea4d a0bd c59a 67bd 39b3 703e
000002b0: 3d9e 303d 53cd 3d3d 8b52 e43d ae25 d23d
000002c0: 2a79 663d 00ad cfbd f175 513e 4cc1 063d
000002d0: 70b2 12be 20dd 553e f61a d13e c9f1 ddbd
000002e0: ceda a03e c034 2a3e 971e c9bd dc3e 35bd
000002f0: b9d4 4c3d 559e d6bc 10de 44bd 1a06 9ebd
00000300: ce72 9abe cf48 993d 8566 f8bd 3c05 4a3c
00000310: c759 0bbf a112 9abc 453b 273e 7ac2 d13d
00000320: 0d43 99bc d39f 99bd 55d4 563d 1386 d1bc
00000330: 3436 abbd 1d0c 29bd 7af7 eabd faf2 bb3d
00000340: ed2e 21be 487b 9a3e f6b8 25be 0299 f93d
00000350: 566e 3a3e 9e5c 2cbe fc16 52bd e891 593c
00000360: f7dd 8abd e445 a23e af7f 68bc ae2e 7d3e
00000370: d343 7a3e 4257 193e 4a40 85be befa 553d
00000380: 0cbc 773b 71dc 05be 9173 84bc db6d d1bd
00000390: 278d 383e 0d5e d93e c8a8 02be 1a86 8dbd
000003a0: 9fa0 693e e060 603e d768 0fbe 0491 abbe
000003b0: f7d6 6d3e c2dd 0c3c 27c3 27be 4a70 e0bc
000003c0: 5d90 80be ace9 21bc e36e 5e3e 8a3c 0f3e
000003d0: 27b4 ae3d 1be4 503e f57e 143e afe4 d13e
000003e0: eaff 443e ff95 82be acb1 54bd 3c46 4f3d
000003f0: 8df1 e73b 39e2 7abe f829 58bd facb 003e
0.36320445 0.13805604 0.020434713 0.22050136 -0.116772525 -0.17057268 0.10952204 -0.22520584
0.06192805 0.021114882 0.24985388 0.06096038 0.18379074 -0.0377202 0.086504675 0.17770945
-0.275477 -0.20007019 -0.11379986 -0.10995167 -0.040004797 0.14672093 -0.0884048 -0.14165841
0.03316953 -0.0081084315 0.042652387 0.280522 0.045025576 -0.45572704 -0.3608734 0.2595891
-0.027769193 0.18480492 0.09228425 0.12806986 0.1916366 0.11930301 -0.1386644 0.25581294
-0.2047744 0.04165826 0.11770332 0.2621797 -0.061462097 0.18070257 -0.4092577 -0.13321549
0.2512749 0.043502014 0.009252435 -0.27398577 -0.22663249 -0.15754803 -0.29946634 -0.28817448
-0.20904116 -0.0017242316 -0.0908816 -0.15802822 0.33234063 -0.0031900306 -0.18133202 -0.09305948
-0.055144504 -0.15204887 -0.17546642 0.24563521 0.03163527 -0.05729563 0.017275358 0.2510924
-0.101118565 -0.055533577 0.057771876 -0.07059918 -0.67137074 -0.18963441 -0.2658944 -0.31169072
0.01993208 -0.51601744 0.07212378 -0.10162463 0.0077227284 -0.08013341 -0.21465543 0.013872817
-0.10033241 0.094832465 0.18040209 -0.10304559 -0.16693309 -0.24830455 0.09157305 -0.17665514
-0.36442852 -0.35599595 -0.31930545 -0.028608821 -0.3898809 0.16459651 0.3436657 -0.19927207
0.09329895 -0.27973607 -0.024017466 -0.028411128 0.32254133 -0.08151731 -0.50400597 0.17789552
-0.06542655 0.21822327 -0.17778929 -0.06428235 -0.019820154 -0.23552868 0.010398174 -0.15387547
-0.033415906 -0.010361109 0.16443722 -0.053307585 0.04124704 -0.13206911 -0.08320804 0.20670539
-0.03499008 0.0880134 -0.07691828 -0.21593931 0.03764064 -0.06874993 -0.02514528 0.13354279
0.109507754 -0.12547502 -0.10826905 -0.089834355 -0.31523547 0.11255983 0.17609288 -0.36425433
-0.55879885 0.24598531 -0.031803545 -0.009046579 -0.05440103 -0.004052704 -0.1851058 -0.108278856
0.0067267856 0.36048365 -0.43052432 0.12885432 -0.160905 0.15558463 0.09740105 0.21281385
0.08637023 0.12368276 0.092444874 -0.08582677 0.04666053 0.007981557 0.13021679 -0.12742615
0.06265456 -0.07827361 -0.056544084 0.23505868 0.043119658 0.04633839 0.11148556 0.10261093
0.056267895 -0.10140419 0.20455147 0.032899186 -0.14325881 0.20885134 0.40840882 -0.108371325
0.31416935 0.16621685 -0.09820288 -0.0442494 0.050007556 -0.026198545 -0.048063338 -0.077160075
-0.30165714 0.0748459 -0.12128929 0.01233035 -0.54433864 -0.018807711 0.16331203 0.102421716
-0.01870873 -0.07501187 0.05244859 -0.025576627 -0.08359948 -0.041271318 -0.11472984 0.091772035
-0.15740557 0.3017218 -0.16183838 0.12187387 0.18206152 -0.16832206 -0.05129145 0.013279416
-0.06780618 0.31693947 -0.014190598 0.24724838 0.24439935 0.14974692 -0.2602561 0.05224108
0.0037801294 -0.13072373 -0.016168388 -0.102260314 0.18022595 0.42454568 -0.12759697 -0.069103435
0.22815178 0.21911955 -0.14004837 -0.33509076 0.23226534 0.008597793 -0.16383038 -0.027397294
-0.2511014 -0.009882372 0.21721987 0.13987938 0.08530455 0.20399515 0.14501555 0.40994784
0.19238248 -0.25505063 -0.051927254 0.05060409 0.0070783556 -0.2450036 -0.0527744 0.12577811

net.1.0.bias f4 [256]
00000000: 1f5d 38bd 6886 ab3d 64b1 163c 6c88 7c3e
00000010: b979 033e 636c fa3c 6682 0a3e 8714 b23d
00000020: 2a96 f63c 3a0a 1f3e 44d0 963d efb6 423e
00000030: 80d6 08be bfc3 d93d debd 3f3c a39f b83d
00000040: 910e e23c 2b0a 8a3c eb11 18bd 1d64 de3d
00000050: c59e e23c b440 c63d 6f5c 153d 0784 053e
00000060: 140b cd3d e866 59bc 3980 ea3d 24f7 9dbb
00000070: c480 59bd 6346 073d f51b 173e 29ec 3a3e
00000080: 553d 9c3d fc3b 0b3e 9891 5b3d fbaa 2d3e
00000090: fee3 d53d efcb 3a3c f8d9 013d 05a5 0dbd
000000a0: f880 d23f 3f26 babd 03f2 b93d 28d1 253b
000000b0: 5523 aa3d cd13 443d 801d 193e ead0 8d3e
000000c0: 0577 eebd df41 e23d 424e bbb9 7a15 5d3d
000000d0: a788 74bd 42c6 923d df5b 94bc 4a5c b9bc
000000e0: 7346 3a3e 62a0 273e 3906 7e3e 0137 f53d
000000f0: f1f2 663e b40a e93d 2170 0b3e 7646 ff3d
00000100: 8d88 6c3d 7cbc 303d 55ad 7b3e 343b 153e
00000110: 38a5 0c3e 5a2c ea3d 564f 18bd f749 e23d
00000120: f517 2a3e 7119 af3c 7bca c73c c86d b93c
00000130: ba58 f63c a427 a53e 493a 0c3e eed0 553e
00000140: 3421 d63d 75cd 5e3d 2917 683d cdfb 583d
00000150: e05f 283e 10b3 eb3d 33c3 f33d 1602 443e
00000160: 9aaa 233e 6ea0 023e 0b0f 9e3e 1a6a 393e
00000170: 88ef 2abc bf52 733e f997 913a 0c3e d13d
00000180: 5b00 003e 4340 93bc 603a da3d 736e 213e
00000190: aa1d 463e bcf3 d93d 4b7e 553e 9435 403e
000001a0: 0b8e 963d d716 6d3c 0c0d e13d 243c 03bc
000001b0: aaf6 513e a66c 5dbe 5f36 873e 2a2c d23d
000001c0: 0983 423e 796e 3bbe 11cb 6bbc f71f 6b3d
000001d0: e67f 88bb 0fe9 853d dd85 a63d 4ca7 7abc
000001e0: 9bd4 2c3e 885d 1e3e 5975 113e 5f98 2e3e
000001f0: 32d4 883e 7b34 ba3d 3119 973d 2830 323e
00000200: 92c4 f1bd ca18 2f3e 4671 e73b b7e0 673b
00000210: 45de f13d e646 093e 72d7 363d e88a 4d3e
00000220: 45b0 e43d 5bba 2a3e 6c69 133e b08a 4c3e
00000230: beb2 dd3d 4837 d63d 404e 9c3d 0428 6cbb
00000240: 3186 0d3e 0f3b 183d 9295 273e 3d9b d33d
00000250: 82c1 1f3e e383 393d 7682 173e fd31 473e
00000260: a2b6 923e 0d5d b63d f2e6 0c3e 9a59 6d3d
00000270: 37f9 2b3e e7fb 7d3d 494d af3d c2d2 0bbc
00000280: 8064 f23a 1c13 093c fe38 773e bb74 0e3c
00000290: bb9d 3b3c e3f5 d1bb 4e20 0e3e c0a5 9d3d
000002a0: 24b1 4b3e 7a68 a63d 767f 1b3e 7859 b0bd
000002b0: 0a0e 6a3e 0e9a 853d 9573 653d ee2b 063e
000002c0: a8a3 2b3e b0ec e03d e10a 643e fdce 2a3e
000002d0: 5278 843d a793 923d a4e6 f7bd b29f e13d
000002e0: e27d 1e3d 1bf5 073e 001c a4bd 5141 54bb
000002f0: b115 a73d 025a dc3d bdfc d33d 5bb8 85bb
00000300: 6b45 fbbc 48a1 dd3d 8562 8339 f175 453d
00000310: 4a9c bb3d 53bb 043e 0346 563e 8b17 883d
00000320: 22e9 0bbc d40b ba3d 2f05 cd3d e0c1 9d3d
00000330: c4e5 173e b4f9 6d3d 15d6 a83d 6566 06be
00000340: 5742 a0bc cad5 fa3d b9f5 2f3e a564 a83d
00000350: add9 eb3d ce72 0e3d dcbc 1a3d 9fd8 933d
00000360: 2a2a 4f3d 2f26 193e 0a4e de3d 68a0 db3d
00000370: 3921 0ebe b0fe e13d d170 a53c 0cc3 b73e
00000380: b3d9 193d 389b ea3d 57c9 4a3e 616f 273e
00000390: 557d 67bc 5e45 d73d baf9 a03d 30f0 bb3d
000003a0: 8dfb 813e c6b6 1a3e 38ed 023d 12e1 303e
000003b0: 79dd 1f3d 959a 403c ea81 413e 1034 6d3b
000003c0: 1880 9e3d 23c7 ea3c 6e4f 083c b1d2 be3d
000003d0: b12f f2ba a9dc 043d 2394 eb3d e78e 803e
000003e0: db92 703d cdec 833e 5194 a53b d54d e83c
000003f0: cf7c bf3d ef61 773d 2853 ed3d 7245 d33d
-0.045010682 0.08375245 0.009197567 0.24661416 0.12839402 0.030569261 0.13526306 0.086953215
0.0301009 0.15531245 0.07363942 0.19015096 -0.13363075 0.10633039 0.011702983 0.09014823
0.027594836 0.016850552 -0.037126463 0.10858939 0.027663598 0.0968031 0.036465105 0.13038646
0.100118786 -0.013269164 0.11450238 -0.004820721 -0.053101316 0.03302611 0.14756759 0.1825415
0.07628886 0.13597101 0.053605646 0.16959755 0.10443877 0.011401161 0.03170201 -0.034581203
1.6445608 -0.09089326 0.09079363 0.0025301669 0.0830752 0.047870446 0.1495266 0.2769845
-0.11643795 0.1104772 -0.00035725726 0.05397556 -0.059700634 0.07166721 -0.018110214 -0.022627015
0.18190937 0.16369775 0.24807061 0.11973382 0.22553612 0.113789946 0.13616993 0.12464611
0.057747412 0.043148503 0.2457784 0.14573365 0.13734901 0.11434241 -0.037185036 0.11049264
0.16610701 0.021374436 0.024388542 0.022635356 0.030071605 0.32256806 0.13694109 0.20880482
0.10455552 0.054395158 0.056662712 0.05297451 0.16442823 0.11508763 0.11902466 0.1914142
0.15983048 0.12756512 0.30870852 0.18106881 -0.010433085 0.23762034 0.0011107913 0.102169126
0.12500136 -0.017974978 0.106556654 0.1576479 0.19347253 0.10642192 0.20848958 0.18770438
0.07351311 0.0144707775 0.109888166 -0.008009944 0.20504251 -0.21623477 0.2640867 0.1026233
0.18995298 -0.1830386 -0.0143916765 0.05740353 -0.0041656373 0.06538593 0.08131001 -0.015298676
0.16877978 0.15465367 0.14204921 0.17050312 0.26724392 0.09092041 0.07377852 0.17401183
-0.11805071 0.170993 0.007063064 0.0035381743 0.11809973 0.13405952 0.04463906 0.2007252
0.11166433 0.16672651 0.14395684 0.1997478 0.10825108 0.10459763 0.076321125 -0.0036034593
0.13820721 0.037165698 0.1636565 0.10332344 0.15601161 0.045291793 0.1479586 0.19452663
0.28654963 0.08904467 0.13759974 0.05794678 0.16794287 0.06200781 0.08559663 -0.008534135
0.0018493086 0.008366372 0.24142835 0.008694823 0.01145118 -0.006407486 0.13879511 0.0769763
0.19891793 0.08125396 0.15185341 -0.08610815 0.22856918 0.06523524 0.05601843 0.13102695
0.16761649 0.109826446 0.22269775 0.16680522 0.06468262 0.07157069 -0.12104538 0.110167876
0.03869427 0.13277094 -0.08013153 -0.0032387564 0.08158434 0.10759355 0.103509404 -0.004080815
-0.03067275 0.108217776 0.0002505967 0.04820818 0.09160669 0.12962084 0.20925145 0.066451155
-0.00853947 0.09084287 0.10010754 0.07702994 0.14833742 0.058099464 0.08243958 -0.13124998
-0.019562883 0.12247808 0.1718358 0.082223214 0.11516128 0.034777455 0.037777767 0.072190516
0.05057732 0.14955972 0.108547285 0.107239544 -0.13879861 0.11034906 0.020195397 0.35890996
0.03756113 0.11455387 0.19803368 0.16351081 -0.014129003 0.105112776 0.078601316 0.091766715
0.2538723 0.15108785 0.03196451 0.17273358 0.039029572 0.011755605 0.18897215 0.0036194362
0.07739276 0.028659409 0.008319719 0.0931753 -0.0018477348 0.032437 0.11502864 0.25109026
0.058733802 0.25766602 0.005053081 0.028357426 0.09349977 0.06039613 0.115881264 0.1031598

net.2.0.weight f4 [56, 256]
00000000: 1748 9dbd c2af 193b 41ec 0b3f 4c67 cbbe
00000010: 09eb 163e fa28 78be 800a 313e 6efb 56be
00000020: 9e33 523e d8d1 233d c1ad d93e a0db 37bd
00000030: 1ac7 883e f33e 85bd 4c15 a4be 0128 cabc
00000040: 18dd 67bd 274c c43c b08a e5bc bd84 693e
00000050: 3b7e 3b3e f3ae 2abc 06eb a23d 2ad1 9e3d
00000060: 726d 9a3e eebf bb3b 0123 54be 1722 433c
00000070: 709a 1ebe a871 bebe 9b7b c23e 9baf 383e
00000080: 0247 32be a2b6 1b3d 9d60 883d 416e 5bbe
00000090: 0f55 7e3e f168 813e 7ed8 8d3d 49f5 7abe
000000a0: 8b40 f63e 572f 76be 73c7 fb3d 1a47 88be
000000b0: 6e80 4f3e 940c 4d3f 7fd7 b8bc 718d db3c
000000c0: 2bde c23c ccad b63d b809 613d aafa af3d
000000d0: 311e bc3c 0e12 1fbf 3a26 48bd c5f3 adbc
000000e0: 6724 93bd 14ed cabe 8d47 683e efe5 cfbe
000000f0: 0614 053d e80c 0fbd 5205 863d 90a7 2bbe
00000100: 05f1 c1bd a833 483e ef68 163d 62bc 61be
00000110: 52fd eebd f499 573e 885f 16bf 4871 193d
00000120: 37a3 c7bc 23c9 f43d 1c07 cc3d d17a a13d
00000130: 6dc1 4cbe f84b 723d 18ca 84bd 6675 cf3d
00000140: ed41 95bc fa82 813d fdb3 2b3e 3cc4 833d
00000150: 7c7b cfbd 409f b63e 998e e3bd ccca 303c
00000160: bb8b bcbe 4181 613e e0fb 063f 85c8 bf3e
00000170: 2cda 24bc 75ae 53be d77b 01bb 9b5a adbd
00000180: 2926 ac3c 9f27 ca3d aa38 453d ff58 df3e
00000190: 1653 2ebe 63bd 203e 5d89 ccbe f2ea f63d
000001a0: 8d6a 3f3e 174b e23d 15a3 b03e 2be4 7c3e
000001b0: 2b34 bcbc 2715 a9be 6360 56be b71d 793c
000001c0: a487 033e 2fb9 20be 88b8 0d3c 8a15 2abd
000001d0: 3eeb 0d3e 3756 e4be 7109 993d 0669 f63d
000001e0: 3a2f 30bd 2b31 cabe 0b3c fdbd 8387 e83d
000001f0: 570b b03e 9fa3 10be 0ca3 83be ecf3 9c3e
00000200: 568e d9bc 5ab0 9c3c 5677 fc3d 7d94 9ebd
00000210: de63 2b3e e80c 77be 8cd5 cdbe 2773 17be
00000220: cabb 1a3e e7f7 4ebe c696 f23d b95e 54bf
00000230: 1a85 a83e 714d a33e e1f9 ba3a 2f2b babd
00000240: 7431 e73d badb 213e 4260 103e 79ea 863e
00000250: 1eef 3fbe 9bf6 21be a6fb 34bd 5092 40bf
00000260: 4264 ab3d fe66 00be e00f e03e 3f93 c6bd
00000270: 612c 5ebe f493 2bbe e4e2 29bc 99c2 6e3d
00000280: 5a1b 0fbe 8f47 cebd 5f3d a7be 8a6e a73e
00000290: 6a97 7e3d 79e7 31be fc4d 263d 6576 0f3d
000002a0: 9ef6 9f3b aac0 7ebe 7c0c a1bd 617a 97bb
000002b0: 43bd 193e 9e39 793d 4984 7c3d 0f23 b5be
000002c0: ab59 0abf 63be 0d3d a6b3 153e 3060 4a3c
000002d0: bed3 a5be d056 253e 3113 8d3e eabc 00bd
000002e0: 2eff 34be 0e1b 6abe 9961 63be f82e b03e
000002f0: a985 1ebe 6d88 163e 61c7 ed3c 1145 b63a
00000300: 0b5c cd3d 156a 35bd e3d5 bbbe 08f8 f3bd
00000310: 2546 a23e dd7a 873e 2d79 a0be 5443 603d
00000320: 813f bfbc a3c4 9cbd df8f 853e 665e 04bf
00000330: 373b 8fbe 3120 8cbe 8130 efbd af28 0dbf
00000340: edb8 0abc bbae 1fbe 4c4d 4d3e 3a31 1b3e
00000350: 2c4c cbbd 8927 2e3e d2b5 623e 2075 37bf
00000360: 0049 673e f8bc e23e 860b 02bd 828f 583e
00000370: 3df6 9abe 097e 16be 2dd7 d3bd 2e6e 093b
00000380: 43a9 cebd d7e7 03be b518 18bd ddd8 abbe
00000390: dd29 c6bb aefc 263d 5bed 9abe 8b8e 7fbd
000003a0: 502d 94be 18fe 2ebe 2545 653d f346 8dbd
000003b0: 2f8f e2bc 0afe 50be 44c2 a63d f3f7 b4bd
000003c0: 212c cf3e f656 edbe 895c 32bd 1874 153e
000003d0: 30c0 f1b9 50e9 a73d 6f5a 90be 080e 8cbd
000003e0: b73e c6bd 2af5 133e 8fd5 29bc 1267 27be
000003f0: 00f8 7c3c c337 bdbc 7ccd 4d3e 2b71 6ebe
-0.07679766 0.0023450707 0.5465737 -0.39727247 0.14738096 -0.24234381 0.17289162 -0.2099435
0.20527503 0.039995044 0.42515376 -0.044887185 0.26714402 -0.06506147 -0.32047498 -0.024677278
-0.056607336 0.023962094 -0.028020233 0.22804542 0.18309872 -0.010417688 0.079549834 0.07754739
0.30161625 0.005729667 -0.20716478 0.011909983 -0.154886 -0.37196088 0.37984928 0.18035738
-0.174099 0.03801597 0.066590525 -0.21428777 0.24837135 0.25275376 0.06926058 -0.24507631
0.48096117 -0.24041496 0.12293901 -0.26616746 0.20263836 0.8009732 -0.022563694 0.026800843
0.023787579 0.08919868 0.05494091 0.08592732 0.022963615 -0.62136924 -0.04886458 -0.021234402
-0.071846776 -0.39634 0.22683544 -0.40605113 0.0324898 -0.034924418 0.065439835 -0.16763139
-0.09469799 0.19550955 0.036721166 -0.22044519 -0.11669411 0.21054822 -0.5873952 0.03746155
-0.02436982 0.11952426 0.099622935 0.078847535 -0.19995661 0.05915448 -0.06483859 0.10129814
-0.018219912 0.0632381 0.16767879 0.06433913 -0.10130975 0.35668373 -0.11111183 0.010790538
-0.36825356 0.22021963 0.5272808 0.37457672 -0.010061782 -0.20672019 -0.0019757652 -0.08464547
0.02101429 0.098708384 0.048149742 0.43622586 -0.17023882 0.15697245 -0.3994855 0.12056531
0.1869299 0.110494785 0.34499422 0.24696414 -0.022974094 -0.3302395 -0.20935206 0.0152048385
0.12844712 -0.15695642 0.008649953 -0.041524448 0.13859269 -0.44597027 0.07472504 0.120317504
-0.04301379 -0.39490637 -0.12364968 0.11353972 0.34383652 -0.14124916 -0.25710332 0.30654848
-0.026557129 0.01912706 0.12327449 -0.07743166 0.16737315 -0.24126017 -0.40201986 -0.14790021
0.15110698 -0.20211755 0.11845164 -0.82957035 0.32914048 0.3189502 0.0014265144 -0.09090268
0.11288729 0.15806475 0.1409922 0.26350763 -0.1874356 -0.15816729 -0.044185303 -0.75223255
0.08368732 -0.12539288 0.43762112 -0.09696054 -0.21696617 -0.16755658 -0.010369036 0.05829105
-0.13975278 -0.100722425 -0.3266401 0.32701522 0.06215612 -0.17373456 0.040601715 0.03502502
0.004881694 -0.24878183 -0.07863709 -0.004622743 0.15013604 0.060845964 0.061649594 -0.3537831
-0.5404307 0.034605395 0.14619312 0.012352034 -0.3238811 0.16146398 0.27553704 -0.031430162
-0.17675468 -0.22861883 -0.222052 0.34410834 -0.15480675 0.1470048 0.029025735 0.0013906081
0.100273214 -0.04429062 -0.3668662 -0.119125426 0.3169414 0.26460925 -0.3134245 0.05475171
-0.02334571 -0.07654693 0.26086327 -0.5170654 -0.27974865 -0.2736831 -0.11679173 -0.55140203
-0.008466941 -0.15593998 0.20049018 0.15155497 -0.09926638 0.17007269 0.22139671 -0.71663094
0.22586441 0.44284797 -0.03174927 0.21148494 -0.3026599 -0.14696516 -0.10343776 0.0020970213
-0.10090878 -0.12881409 -0.037132937 -0.3356389 -0.006047471 0.040768318 -0.30259213 -0.0623918
-0.2894082 -0.17089117 0.055974144 -0.06898298 -0.027656166 -0.20409408 0.08142522 -0.08836355
0.40463355 -0.46355408 -0.04354528 0.14595068 -0.00046110293 0.08198798 -0.28193995 -0.06838614
-0.09679931 0.14448991 -0.010365858 -0.16347912 0.015439987 -0.023097878 0.20097917 -0.23285358

net.2.0.bias f4 [56]
00000000: 1650 ae3d 6147 50bd f25e 853c db4d 06bd
00000010: 29b8 453d ef89 5ebd f569 4d3d a8fa 7cbc
00000020: 4292 adbd 1202 b73d 99bf bbb9 cc33 62bd
00000030: cfc1 7bbd 3a6a 1bbd d4f7 de3c bf5d 173c
00000040: 652f aabc 73b6 043d 7c47 30bd 375b 813d
00000050: 99cd c2bc a683 473d 3c02 cdbd 8187 89bd
00000060: 3955 a6bd c085 d13c c1e1 f4bd 4f00 893c
00000070: bd77 a9bd 08fa dbbd 2b06 8abd b5fa eebd
00000080: 63c6 6ebd 44d8 43bd b5a2 a1bd a956 5dbd
00000090: 1511 37bd b61d 88bd b506 8dbd 38cb 68bd
000000a0: 0a18 7abd 2a92 69bd c8ca 5fbd 448d a4bd
000000b0: dfcc 95bd c195 6fbd aa16 6bbd d8a7 6ebd
000000c0: a0ed bdbd 97c3 38bd c6e6 6bbd 0088 bcbd
000000d0: 982e a9bd 837a a6bd 25d3 62bd e97f 5bbd
0.08511369 -0.050849322 0.016280625 -0.032789093 0.048271332 -0.054330762 0.050149877 -0.0154406205
-0.08475162 0.08935942 -0.0003581017 -0.05522518 -0.061464127 -0.037943102 0.027217783 0.009238659
-0.020774553 0.03240056 -0.043036923 0.06316226 -0.023779677 0.048709534 -0.10010192 -0.067152984
-0.08121724 0.025576472 -0.11957122 0.01672378 -0.082747914 -0.10741049 -0.06739458 -0.11668912
-0.058294665 -0.04781367 -0.07892362 -0.054037724 -0.044694025 -0.06646292 -0.06886045 -0.05683443
-0.06105808 -0.05702416 -0.054636747 -0.08034757 -0.07314467 -0.058492426 -0.05739466 -0.058265537
-0.09273839 -0.045108404 -0.05759313 -0.092056274 -0.0826084 -0.08128836 -0.055377144 -0.05358878
