suboptimal_policies/AdroitHandDoor-v1_0.98.pth (torch, 364175 bytes, 6 tensors)

net.0.0.weight f4 [256, 39]
-0.52401507 0.58815 -0.0076228892 0.16155547 0.14043204 -0.09612104 0.015831074 -0.11039202
0.0027102805 0.047229126 -0.09640938 0.05760463 0.021270104 -0.4589429 0.108334824 0.0019018245
-0.028083557 0.030872473 -0.08330559 -0.0062807268 0.057896674 -0.058769464 -0.031323593 -0.15680814
-0.41911724 -0.131716 -0.0023710653 0.21450599 -0.70514303 -0.19206013 -0.6352801 0.085872926
-0.77322334 0.109328255 -0.57868534 0.42715624 -0.74250704 0.44258007 0.120080784 0.12609607
-0.4121125 0.08453865 0.9142955 0.23763119 0.21119146 -0.6353586 -0.029941756 0.047806572
0.033836942 -0.11545296 -0.064507075 0.06308931 -0.21742958 -0.38383287 0.07626312 0.23060426
-0.164937 -0.4642911 -0.12676978 -0.22991282 -0.061290458 -0.11477641 -0.26499328 -0.18262719
0.44023052 -0.009243459 0.12720193 -0.16150087 0.31934977 0.3861564 0.15354775 -0.58214253
-0.19551794 0.26846218 0.7586788 0.794058 -0.009861129 -0.09406327 0.320338 -0.09808508
-0.1403625 -0.13994972 -0.18958443 0.160687 0.024387443 0.14878418 0.012579868 -0.0048178798
0.016006652 -0.08270179 0.089971825 0.07538201 0.044899344 -0.09482695 -0.01969301 -0.1839222
-0.2327883 -0.048976343 0.026450498 -0.034535285 0.047815584 0.03952274 -0.279542 0.11412843
-0.075589284 -0.15222144 -0.23722322 0.20870672 0.6035818 -0.6454622 -0.14438118 0.022322273
0.9544016 0.27541375 0.6401273 -2.6836467 -0.138459 0.52032554 0.0731006 0.03161814
-0.85798013 0.10816197 0.10308453 0.09188163 0.08074453 0.1963012 -0.1707194 0.026732637
-0.18879235 -0.17802952 0.14254032 -0.21593045 -0.0019937183 0.016650327 -0.07062496 0.37507868
-0.025913348 0.07052279 -0.08358197 -0.07988379 -0.18634123 -0.43141598 -0.10254841 0.025390867
0.0019200651 -0.8771906 -0.21278636 0.13967705 -0.24957657 -0.40367413 -0.21615522 -0.28084862
-0.0058860066 0.3130055 -0.08095416 -0.081454515 -0.40243086 0.20836999 0.03275146 0.11800702
0.19372772 -0.013841623 -0.08935789 -0.12767893 -0.09931527 -0.1415236 0.010321026 -0.10186658
-0.09077449 -0.01907009 0.018711057 -0.03758997 -0.009058827 -0.044207368 0.1586618 -0.041947477
0.02429909 -0.10598579 0.09376731 -0.001253485 0.18380788 -0.038848653 0.051131498 -0.20923768
-0.016991867 -0.49437696 -0.26213443 0.2211758 0.54413503 -0.3153975 -0.3886651 -0.9207266
0.10042688 0.86806345 -0.49712652 -0.517248 0.3475271 0.04444655 0.041325558 -0.1730208
0.03413346 -0.23758559 0.027509855 -0.032859527 -0.034718398 0.25675377 -0.0003295298 -0.00370561
0.14153132 -0.02577113 0.10554273 0.07719208 -0.09798304 -0.3743655 -0.09782038 -0.10744255
-0.036274664 -0.34141257 -0.29053035 -0.213334 0.072249904 0.1660805 0.121855356 0.08079325
-0.16919637 -0.22669053 0.12202725 0.53000385 -0.34983075 -0.31883755 -0.7953117 0.11016443
0.5927452 -0.054731023 0.56736964 0.24491824 -0.048266143 0.1103468 0.25810993 0.018597787
-0.06446908 0.243122 0.2556143 0.1204135 -0.17543913 -0.052959215 -0.22419086 0.24399303
0.0565477 -0.08286735 0.17528397 0.32036948 -0.03552391 -0.10567751 -0.16084093 -0.18971135
00000000: da25 06bf 0091 163f 6ec9 f9bb cc6e 253e
00000010: 6bcd 0f3e 1cdb c4bd 2bb0 813c 3615 e2bd
00000020: f69e 313b 5473 413d 4872 c5bd d5f2 6b3d
00000030: a43e ae3c 90fa eabe a6de dd3d a446 f93a
00000040: 7d0f e6bc 45e8 fc3c 1f9c aabd 8ece cdbb
00000050: 1025 6d3d 40b8 70bd 2b4d 00bd 5092 20be
00000060: 8996 d6be 8fe0 06be e063 1bbb 75a7 5b3e
00000070: 4184 34bf 69ab 44be b7a1 22bf 25de af3d
00000080: f7f1 45bf 7ee7 df3d b924 14bf 39b4 da3e
00000090: f114 3ebf db99 e23e eaec f53d 541f 013e
000000a0: 6900 d3be 9a22 ad3d 450f 6a3f 9755 733e
000000b0: 9342 583e dca6 22bf 6a48 f5bc d3d0 433d
000000c0: 9b98 0a3d 9a72 ecbd 491c 84bd f834 813d
000000d0: dca5 5ebe be85 c4be d72f 9c3d 8623 6c3e
000000e0: 3fe5 28be 90b7 edbe f0cf 01be 446e 6bbe
000000f0: b40b 7bbd e50f ebbd 33ad 87be 9f02 3bbe
00000100: e565 e13e e171 17bc 3941 023e 7c60 25be
00000110: d081 a33e 4bb6 c53e 9f3b 1d3e 4b07 15bf
00000120: db35 48be e073 893e c638 423f 6347 4b3f
00000130: 9390 21bc 3ea4 c0bd 5803 a43e d5e0 c8bd
00000140: 30bb 0fbe fb4e 0fbe 6c22 42be 228b 243e
00000150: 2dc8 c73c e15a 183e ca1b 4e3c 4edf 9dbb
00000160: 6220 833c 8e5f a9bd 2643 b83d e261 9a3d
00000170: 60e8 373d a234 c2bd 3c53 a1bc 1a56 3cbe
00000180: 0e60 6ebe 6b9b 48bd b7ae d83c df74 0dbd
00000190: 46da 433d 99e2 213d 2120 8fbe 2bbc e93d
000001a0: 8ece 9abd f0df 1bbe a5ea 72be 37b7 553e
000001b0: 5684 1a3f 033d 25bf a9d8 13be 33dd b63c
000001c0: aa53 743f 0803 8d3e 62df 233f dec0 2bc0
000001d0: 32c8 0dbe 0e34 053f c4b5 953d 0682 013d
000001e0: 96a4 5bbf 0684 dd3d fb1d d33d 702c bc3d
000001f0: 635d a53d 2f03 493e 11d1 2ebe 67fe da3c
00000200: c852 41be 5f4d 36be 17f6 113e df1c 5dbe
00000210: 0ba9 02bb 4466 883c d2a3 90bd 500a c03e
00000220: 3b48 d4bc 416e 903d 062d abbd 1d9a a3bd
00000230: 3cd0 3ebe 8ee2 dcbe e704 d2bd 8200 d03c
00000240: b2aa fb3a 908f 60bf abe4 59be 8007 0f3e
00000250: 0091 7fbe 60ae cebe cb57 5dbe 64cb 8fbe
00000260: 67df c0bb 4242 a03e 4bcb a5bd a0d1 a6bd
00000270: 6b0b cebe f15e 553e 6526 063d aaad f13d
00000280: 8f60 463e fac7 62bc 4501 b7bd 44be 02be
00000290: ce65 cbbd 90eb 10be 8519 293c 6d9f d0bd
000002a0: fae7 b9bd e138 9cbc ee47 993c f1f7 19bd
000002b0: 796b 14bc c912 35bd 3d78 223e 1ed1 2bbd
000002c0: e30e c73c 140f d9bd 1309 c03d fa4b a4ba
000002d0: 2238 3c3e c41f 1fbd 436f 513d 6742 56be
000002e0: 8732 8bbc fa1e fdbe 7c36 86be e97b 623e
000002f0: 6f4c 0b3f c87b a1be 1dff c6be bdb4 6bbf
00000300: 9cac cd3d 6839 5e3f 5e87 febe 5d6a 04bf
00000310: 12ef b13e 960d 363d fd44 293d 5d2c 31be
00000320: 87cf 0b3d a349 73be 595c e13c b697 06bd
00000330: e134 0ebd 3b75 833e bec4 acb9 d2d9 72bb
00000340: 96ed 103e fa1d d3bc c926 d83d e216 9e3d
00000350: 55ab c8bd d6ac bfbe 0d56 c8bd d70a dcbd
00000360: be94 14bd a1cd aebe 65c0 94be 3a74 5abe
00000370: c2f7 933d 0211 2a3e 4d8f f93d ee76 a53d
00000380: d041 2dbe 9021 68be 6ce9 f93d 55ae 073f
00000390: 041d b3be ad3e a3be 8c99 4bbf e49d e13d
000003a0: 26be 173f a32d 60bd 233f 113f d9cb 7a3e
000003b0: b8b2 45bd 81fd e13d fc26 843e 635a 983c
000003c0: 5d08 84bd f9f4 783e e1df 823e 5a9b f63d
000003d0: 51a6 33be c3eb 58bd 4a92 65be 4fd9 793e
000003e0: 909e 673d 5bb6 a9bd a47d 333e 7807 a43e
000003f0: 8581 11bd 736d d8bd 7cb3 24be b143 42be

net.0.0.bias f4 [256]
-0.21419427 0.195282 0.2745805 0.07174148 -0.1367924 -0.19137818 -0.097210765 -0.048217982
-0.12747262 -0.4331282 -0.07689984 -0.07567595 -0.017568951 -0.05920385 0.011734472 0.12289759
-0.054678332 0.23206505 -0.1421231 -0.15807347 -0.087893486 -0.012718495 -0.09588088 -0.036352422
0.0022381037 -0.11903031 0.020311648 -0.3396017 -0.030577129 -0.1564466 -0.059968818 -0.23222733
-7.198525e-05 -0.07930941 -0.121571206 -0.26333353 0.0067855525 0.027444256 -0.2732878 -7.127396e-05
0.039746143 0.1146153 0.021664899 0.07225167 -0.05125828 0.0687953 -0.10189689 -0.1035289
0.02861979 -0.2211675 -0.17087045 -0.015762523 -0.21153869 0.051189736 -0.40260366 0.09989579
-0.09056049 0.17749405 -0.013789486 -0.050032545 0.15560806 0.2610731 -0.055083785 -0.06934188
-0.108919494 -0.0073953164 0.056555685 -0.21106829 1.8771883e-07 -0.09779091 -0.037065595 3.3684898e-07
-0.08276397 0.0037497645 -0.022171795 -0.11565333 -0.064501934 -0.0747949 -0.09967606 0.042550925
0.005600319 -0.041305833 0.0016109461 -3.4933084e-05 -0.0053444696 0.16266164 0.012602593 -0.121055745
-0.034731835 -0.1331745 0.047100842 -0.11899671 0.053845715 0.0060573216 -0.012234193 0.11780713
-0.17788461 -0.17807648 0.088021204 -0.12823027 -0.015265522 -0.07665281 -0.15545528 -1.3181828e-07
-0.054270867 -0.11305755 0.09112545 -0.035925232 -0.08270315 -0.120836094 0.14511192 0.086072996
-0.03195452 -0.13047229 -0.11842424 -0.045772705 0.08007483 -0.20126526 -0.023289619 -0.17608511
-0.096638344 -0.04116437 0.14504755 0.04380146 0.04142676 -0.29297554 -0.13266324 -0.09617022
0.03997834 -0.07144701 -0.13521045 -0.101265505 0.04607553 -1.7194628e-08 -0.28075206 -0.024067914
0.11353875 -0.19323397 -0.14307879 0.028775314 -0.028503051 -3.183033e-08 -0.18304215 0.018185124
-0.06838955 0.18520893 0.1114449 -0.1345245 -0.05712256 -0.10221928 0.07770375 -0.06629904
0.08389973 -0.079346985 -0.028200634 -0.20046327 -0.086460166 -0.11110509 -0.11749607 -8.911998e-07
-0.38330364 -0.13866939 -0.12742849 0.030270994 -0.30696854 0.14312463 -0.2026464 -0.02145187
-0.05155613 0.074201606 -0.06599561 -0.1804103 -0.081583135 0.09818501 -0.046308704 -0.1661428
-0.05085323 -0.01849 -0.17148973 -0.029209398 -0.101332135 -0.013160873 0.055471305 -0.03604875
-0.12519698 0.13019454 -0.021364242 -0.124437116 -0.11580999 0.023826435 -0.13398801 -0.39167994
0.03510423 -0.0019987442 0.15141833 0.011433867 -0.038180854 -0.021305384 0.009127581 -0.04557207
-0.060699347 -0.102128446 0.04203465 -0.094490655 -0.018586187 -0.04067652 -0.19348921 -0.46029416
-0.03648656 -0.1689189 0.12444455 0.06420672 -0.009053164 -0.1051847 -0.0672099 -0.2995905
-0.28173625 -0.102827504 -0.33345702 0.02582468 -0.046210643 -0.36595252 -0.1759412 0.006836989
-0.21665536 0.11773749 -0.060889486 -0.029347071 -0.21548007 0.33768094 0.19987798 -0.111930735
0.11829799 -0.12963806 0.0030108208 0.10587315 -0.082375705 0.047680512 -0.14085667 0.009575883
0.016168172 -1.421724e-06 -0.031047741 -0.027707372 0.08504033 -0.04497291 -0.009000951 -0.117852546
-0.07934369 -0.2288926 -0.02914014 0.05598023 -0.17477608 -0.03287074 0.075270034 -0.121611096
00000000: be55 5bbe 01f8 473e d195 8c3e 32ed 923d
00000010: 4f13 0cbe a4f8 43be 7016 c7bd 3880 45bd
00000020: 2f88 02be fbc2 ddbe aa7d 9dbd fefb 9abd
00000030: c3ec 8fbc bc7f 72bd f141 403c bbb1 fb3d
00000040: 63f6 5fbd 76a2 6d3e b888 11be 03de 21be
00000050: 8001 b4bd 3c61 50bc 325d c4bd 47e6 14bd
00000060: 26ad 123b 2ac6 f3bd 9d64 a63c 46e0 adbe
00000070: e37c fabc 8a33 20be dda1 75bd 00cd 6dbe
00000080: c9f6 96b8 f96c a2bd 53fa f8bd a7d3 86be
00000090: 5759 de3b c7d2 e03c 61ec 8bbe ea78 95b8
000000a0: dacc 223d 6dbb ea3d 967a b13c aff8 933d
000000b0: 34f4 51bd 8de4 8c3d 51af d0bd f606 d4bd
000000c0: 0d74 ea3c bc79 62be aaf8 2ebe 6820 81bc
000000d0: 999d 58be 54ac 513d 1122 cebe 2a96 cc3d
000000e0: c777 b9bd 00c1 353e 4ced 61bc edee 4cbd
000000f0: b857 1f3e 60ab 853e 899f 61bd 1e03 8ebd
00000100: 2f11 dfbd 6954 f2bb efa6 673d 4922 58be
00000110: c28f 4934 9a46 c8bd 18d2 17bd 2cd8 b434
00000120: 2880 a9bd 9cbe 753b a0a1 b5bc a7db ecbd
00000130: 9719 84bd 122e 99bd f622 ccbd e149 2e3d
00000140: e182 b73b 4e30 29bd 6226 d33a 1d85 12b8
00000150: a920 afbb c690 263e 1b7b 4e3c 13ec f7bd
00000160: f842 0ebd e55e 08be d0ec 403d 8cb4 f3bd
00000170: 538d 5c3d 7f7c c63b ed71 48bc dd44 f13d
00000180: 6227 36be ae59 36be 7644 b43d cc4e 03be
00000190: 3d1c 7abc 26fc 9cbd ab2f 1fbe ef89 0db4
000001a0: 214b 5ebd b78a e7bd fb9f ba3d 5626 13bd
000001b0: 4560 a9bd ea78 f7bd 3898 143e 0a47 b03d
000001c0: bee2 02bd 879a 05be 6888 f2bd 297c 3bbd
000001d0: 46fe a33d 7b18 4ebe dfc9 bebc a84f 34be
000001e0: 53ea c5bd f89b 28bd 5887 143e 2969 333d
000001f0: 1baf 293d e400 96be dfd8 07be e4f4 c4bd
00000200: 54c0 233d cf52 92bd 9c74 0abe 4a64 cfbd
00000210: b2b9 3c3d 63b3 93b2 bcbe 8fbe 132a c5bc
00000220: 0187 e83d 20df 45be 3f83 12be 35ba eb3c
00000230: 3b7f e9bc d1b5 08b3 676f 3bbe f8f8 943c
00000240: d20f 8cbd 69a7 3d3e 393d e43d cac0 09be
00000250: 58f9 69bd 5858 d1bd 2523 9f3d cbc7 87bd
00000260: 9fd3 ab3d ac80 a2bd 0405 e7bc 3e46 4dbe
00000270: 0712 b1bd 118b e3bd c8a1 f0bd c93a 6fb5
00000280: 6040 c4be 59ff 0dbe 9d7c 02be e0fa f73c
00000290: fb2a 9dbe 438f 123e 8a82 4fbe d5bb afbc
000002a0: 852c 53bd 03f7 973d b528 87bd 7abd 38be
000002b0: 0f15 a7bd 3915 c93d 32ae 3dbd 5721 2abe
000002c0: 7a4b 50bd 5778 97bc 019b 2fbe 8c48 efbc
000002d0: 3987 cfbd b4a0 57bc e135 633d dba7 13bd
000002e0: a333 00be b851 053e 1004 afbc e3d8 febd
000002f0: ca2d edbd a82f c33c 2734 09be 468a c8be
00000300: 74c9 0f3d 5dfd 02bb 680d 1b3e 1d55 3b3c
00000310: 8763 1cbd a188 aebc d98b 153c c7a9 3abd
00000320: e19f 78bd b828 d1bd 862c 2c3d 5184 c1bd
00000330: 0f42 98bc 6c9c 26bd 0922 46be adab ebbe
00000340: ee72 15bd 13f9 2cbe c9dc fe3d d07e 833d
00000350: b953 14bc 136b d7bd 58a5 89bd ed63 99be
00000360: bc3f 90be 3a97 d2bd e1ba aabe 488e d33c
00000370: 5f47 3dbd 215e bbbe ee29 34be d208 e03b
00000380: e7da 5dbe 5a20 f13d 4167 79bd 4569 f0bc
00000390: cfa6 5cbe 84e4 ac3e d0ac 4c3e f13b e5bd
000003a0: 3746 f23d d7bf 04be 3151 453b 06d4 d83d
000003b0: 98b4 a8bd a44c 433d bb3c 10be 2ae4 1c3c
000003c0: 1d73 843c 11d2 beb5 d557 febc 92fa e2bc
000003d0: a029 ae3d 8435 38bd ba78 13bc ad5c f1bd
000003e0: f27e a2bd d262 6abe 4eb7 eebc 874b 653d
000003f0: 80f8 32be 78a3 06bd 2d27 9a3d 3d0f f9bd

net.1.0.weight f4 [256, 256]
-9.901422e-08 -9.4478146e-08 7.284218e-08 -1.08321025e-07 -3.2887662e-08 -6.984567e-08 3.096904e-08 -4.343397e-08
-8.1831736e-08 -8.939066e-08 7.350552e-08 3.093323e-08 -5.566664e-08 6.592544e-08 6.11958e-08 -1.0941977e-07
6.4053815e-08 -8.5982435e-08 -9.4843436e-08 -5.6217463e-08 -2.5282224e-08 -2.2531033e-09 2.151189e-08 -5.0571536e-08
-1.4613514e-08 -5.466091e-08 6.8569015e-08 -2.0952458e-08 -9.6256194e-08 -6.191545e-08 -1.1214396e-07 -3.3928305e-08
-5.9484993e-08 4.3913047e-08 -7.529035e-08 3.6645407e-08 -7.2249044e-08 -4.7008413e-08 -2.8793686e-08 -3.302856e-09
-5.4733867e-08 -8.1146986e-08 -1.2399006e-07 -8.3702965e-08 6.2208905e-08 -7.578577e-08 3.7358494e-09 -1.1079463e-07
2.310683e-08 3.7186492e-08 -7.956041e-08 -1.15262495e-07 3.026391e-08 -3.1449517e-08 -1.0153877e-07 -4.2218666e-08
-6.85377e-08 1.5113112e-09 -5.3385232e-08 -3.8960426e-08 6.136056e-08 -3.0108087e-08 -3.676208e-08 -6.356448e-08
-1.1174869e-07 -3.350399e-08 -7.807746e-08 -4.93953e-08 -5.105451e-08 4.600196e-09 5.3129224e-08 3.009202e-08
-3.241406e-08 -1.252937e-07 5.114341e-08 5.499114e-08 -5.919618e-09 -9.450338e-08 4.9061565e-08 -4.20759e-08
-1.1532577e-07 -6.5059986e-08 8.483577e-08 5.281967e-09 -1.0932832e-07 -3.268549e-08 -5.4155745e-08 5.580138e-08
-1.9798112e-09 3.8786588e-08 5.5046428e-08 -5.532771e-08 -4.8533792e-08 -3.407408e-09 -1.3889748e-08 1.4938566e-08
-1.1636309e-07 2.983389e-08 -2.2677026e-08 -5.8685018e-08 7.09697e-08 6.899549e-08 -1.1098538e-07 1.6103366e-08
-1.8303258e-08 -5.5469783e-08 -1.17701795e-08 -5.8651956e-08 -6.58166e-08 7.553417e-08 -9.048561e-08 -9.571365e-08
-8.748141e-08 1.8497301e-08 -4.739705e-08 -1.1820572e-07 -2.8847607e-08 7.72175e-08 -9.5410535e-08 -2.1727343e-08
-8.786474e-08 -8.401321e-08 -1.3536275e-07 -9.6107705e-08 -8.714404e-08 -8.003555e-08 -1.1072106e-07 -4.0426727e-08
-1.5548963e-07 -4.322124e-08 -6.579872e-08 -5.7208794e-08 -1.3862949e-07 -3.2220417e-08 1.6512185e-08 -3.2993086e-08
-5.238686e-08 4.5929898e-08 2.5826925e-08 6.3374934e-08 -1.2791118e-07 7.9039765e-08 -2.4331671e-08 4.9654933e-08
-4.4131692e-08 -3.09913e-08 -8.098207e-09 -1.3937195e-08 -3.397623e-08 5.571879e-08 -2.6336886e-09 -9.780971e-08
-7.3535816e-08 -8.837213e-09 2.6770064e-09 -4.962489e-08 -7.9501575e-08 -1.0086564e-07 -3.5526345e-08 -2.076895e-08
5.0526783e-08 -5.4537164e-08 -5.0313545e-08 -2.709315e-08 -1.3564086e-07 2.5433495e-08 -8.928481e-08 -1.0375196e-07
-1.6603137e-07 -1.564893e-10 -4.4305242e-08 2.3249266e-08 -1.1457396e-08 -3.8399918e-08 -2.6550117e-08 -3.484117e-09
-1.3342093e-07 4.8573263e-08 -9.651749e-08 -3.1794006e-08 5.162265e-09 -1.5449977e-07 4.411766e-08 3.086596e-08
-8.958322e-08 -8.9303974e-08 -5.616285e-08 -1.06164656e-07 5.3047156e-08 1.4321412e-08 -5.8377147e-08 -3.5530396e-09
-8.67494e-09 1.1539457e-09 -1.1672943e-08 -1.4075364e-07 -7.814968e-08 -5.283878e-08 -5.72022e-08 -7.852057e-09
1.9269926e-08 -3.879331e-08 -5.4279056e-08 -2.053842e-08 -7.7606e-08 -2.5579347e-08 -9.813603e-08 -5.6622852e-08
-9.599528e-08 8.2184276e-10 -5.706896e-08 -8.481638e-09 -5.1753375e-08 9.8133786e-09 2.9322813e-08 -6.594026e-09
-2.1138513e-08 -1.6162135e-08 2.1756938e-08 4.170347e-09 2.2505803e-08 7.093716e-09 -1.13756386e-07 5.88998e-08
-9.2839294e-08 -8.347888e-08 1.5091187e-08 -3.8416875e-08 -8.021173e-08 -6.7603885e-08 -1.2807799e-07 -1.0914541e-07
-3.1159537e-08 -6.2624466e-08 -6.153744e-08 -2.6850996e-08 6.490817e-08 -1.31055184e-08 -5.734933e-09 -7.64833e-08
-4.2447386e-08 5.528874e-09 5.0481635e-08 7.424258e-09 3.9768054e-08 -1.4054366e-08 -2.5586044e-08 -1.2868078e-08
-6.433698e-08 6.56026e-08 -1.3659614e-07 -1.000058e-07 -1.0749053e-07 -4.0877136e-08 -7.814069e-09 -1.7132349e-09
00000000: a5a1 d4b3 e9e3 cab3 696d 9c33 1d9e e8b3
00000010: 5e40 0db3 10fe 95b3 d202 0533 288c 3ab3
00000020: 79bb afb3 09f7 bfb3 16da 9d33 72db 0433
00000030: 1e16 6fb3 e592 8d33 bf6a 8333 28fa eab3
00000040: f58d 8933 58a5 b8b3 bbac cbb3 c173 71b3
00000050: 332c d9b2 03d5 1ab1 25c9 b832 fe33 59b3
00000060: ea0e 7bb2 4ec4 6ab3 3740 9333 f1fa b3b2
00000070: 67b5 ceb3 61f6 84b3 cbd3 f0b3 91b8 11b3
00000080: 717c 7fb3 e89a 3c33 4faf a1b3 0d64 1d33
00000090: 5527 9bb3 4ce6 49b3 fc55 f7b2 75f8 62b1
000000a0: 8614 6bb3 0743 aeb3 2122 05b4 31c0 b3b3
000000b0: b597 8533 abbf a2b3 e15c 8031 feed edb3
000000c0: 757c c632 fbb6 1f33 ccda aab3 3a86 f7b3
000000d0: 85fb 0133 1c13 07b3 870d dab3 ea53 35b3
000000e0: 002f 93b3 89b6 cf30 af49 65b3 7155 27b3
000000f0: 53c5 8333 3150 01b3 56e4 1db3 f180 88b3
00000100: 7efa efb3 07e6 0fb3 8aab a7b3 b526 54b3
00000110: 0747 5bb3 c00f 9e31 3330 6433 873e 0133
00000120: a337 0bb3 7888 06b4 c6a8 5b33 662f 6c33
00000130: 8365 cbb1 c8f1 cab3 c3b7 5233 f1b6 34b3
00000140: 03a9 f7b3 1bb7 8bb3 f52e b633 ac7c b531
00000150: e1c7 eab3 1462 0cb3 df98 68b3 44aa 6f33
00000160: 350d 08b1 4e96 2633 306c 6c33 76a1 6db3
00000170: 7873 50b3 c127 6ab1 c29f 6eb2 4152 8032
00000180: 49e3 f9b3 b522 0033 4fcb c2b2 dc0c 7cb3
00000190: 0168 9833 ac2a 9433 dc56 eeb3 ad53 8a32
000001a0: 4a39 9db2 ac3d 6eb3 cc35 4ab2 82e8 7bb3
000001b0: 0f57 8db3 5935 a233 fd50 c2b3 238b cdb3
000001c0: 6add bbb3 ffe3 9e32 9c91 4bb3 48d8 fdb3
000001d0: 8fcc f7b2 c5d2 a533 7fe4 ccb3 efa2 bab2
000001e0: 27b0 bcb3 c06a b4b3 3b58 11b4 c563 ceb3
000001f0: f123 bbb3 02e0 abb3 8cc5 edb3 a8a1 2db3
00000200: aaf4 26b4 42a2 39b3 3b4d 8db3 bcb5 75b3
00000210: 2fda 14b4 b962 0ab3 aed6 8d32 48b4 0db3
00000220: f6ff 60b3 7544 4533 02da dd32 bd18 8833
00000230: f557 09b4 92bc a933 e901 d1b2 2d44 5533
00000240: 4f8b 3db3 4b1b 05b3 4b20 0bb2 6f70 6fb2
00000250: 43ed 11b3 754f 6f33 57fc 34b1 750b d2b3
00000260: beea 9db3 79d2 17b2 65f6 3731 2523 55b3
00000270: 74ba aab3 799b d8b3 a195 18b3 6767 b2b2
00000280: c902 5933 3f3c 6ab3 5418 58b3 78ba e8b2
00000290: ada4 11b4 d978 da32 d8bc bfb3 3ece deb3
000002a0: 5b46 32b4 d20f 2caf 214a 3eb3 adb5 c732
000002b0: 29d6 44b2 28ed 24b3 5310 e4b2 3c6d 6fb1
000002c0: 7742 0fb4 de9e 5033 0d45 cfb3 e18d 08b3
000002d0: c35f b131 93e4 25b4 e17b 3d33 7b91 0433
000002e0: e560 c0b3 61c7 bfb3 b537 71b3 a3fc e3b3
000002f0: f7d5 6333 3c0a 7632 5aba 7ab3 bc29 74b1
00000300: ca08 15b2 db98 9e30 258a 48b2 1122 17b4
00000310: 3ed3 a7b3 daf0 62b3 7cae 75b3 b6e5 06b2
00000320: 0487 a532 b29d 26b3 7420 69b3 776c b0b2
00000330: 5aa8 a6b3 94b9 dbb2 dabe d2b3 7c31 73b3
00000340: f725 ceb3 0be8 6130 fc1b 75b3 a3b6 11b2
00000350: 7047 5eb3 b297 2832 8ce1 fb32 ab91 e2b1
00000360: 1594 b5b2 e9d4 8ab2 03e4 ba32 c34a 8f31
00000370: c952 c132 fcbc f331 3c4a f4b3 04f9 7c33
00000380: f15e c7b3 0045 b3b3 dfa1 8132 cdff 24b3
00000390: dd40 acb3 a12d 91b3 cf85 09b4 5363 eab3
000003a0: 46d4 05b3 2a7c 86b3 9126 84b3 f7a5 e6b2
000003b0: a563 8b33 ae26 61b2 010d c5b1 243f a4b3
000003c0: 654f 36b3 7df8 bd31 25d1 5833 7718 ff31
000003d0: 70cd 2a33 c173 71b2 4ec8 dbb2 6812 5db2
000003e0: a129 8ab3 69e1 8c33 43ab 12b4 c5c2 d6b3
000003f0: 8bd5 e6b3 e390 2fb3 a43e 06b2 1877 ebb0

net.1.0.bias f4 [256]
-1.2249164e-07 0.19080785 0.2505243 0.24999295 -0.036324065 -0.1626338 0.09854234 0.036870405
-2.0623359e-06 0.18413292 0.09651739 0.23543136 0.12443483 0.093379974 0.43564168 0.013274762
0.28478864 0.43886906 0.090524144 0.26891932 0.37771183 -1.2405365e-05 0.1399394 0.027591793
0.12440543 0.1985968 0.19535781 0.13678658 0.101361535 0.060041733 -0.10547119 0.3004377
-0.0729264 0.1904499 -0.07675404 0.20343491 0.19203629 0.2344582 0.11378914 -0.19379975
0.09809673 0.04824593 -0.09263677 -0.036122482 0.066675775 0.0109158885 0.072050296 0.12296858
0.08100314 -2.3499706e-07 -0.06336426 -0.06337461 0.2709318 -0.11007258 -2.3300976e-07 0.15821803
0.28709674 -0.0029322684 -0.079775885 0.1580011 0.12585762 0.34613296 0.27996635 0.15381508
0.018139036 0.27879465 0.21701881 0.036070816 0.4683693 -0.042307843 0.1374109 0.41449684
0.15326533 0.18732022 0.028185835 0.064120725 0.16390888 0.15508705 0.37777415 0.12888472
0.11733054 0.1910424 0.10277818 -0.03176401 0.2748484 0.026970264 0.018160442 -0.0135224
0.16100267 -0.05300455 0.047404345 -1.6764771e-07 0.07363392 0.36266327 0.04463096 -7.468644e-07
0.040442362 0.13396189 -1.6501929e-07 0.08777479 0.70752335 0.14744303 -1.5072693e-07 0.037826065
-0.1263995 0.07357043 0.13239367 -0.10897582 0.12055477 -0.08914298 -0.06207994 -9.580662e-05
0.33457857 0.09618667 0.20504883 0.2838923 0.18627293 -5.524494e-07 0.030453464 0.15203261
-6.856971e-05 -0.013048438 -1.649343e-07 0.1341743 0.13068157 0.17238371 0.1222322 0.06990319
0.18771543 -0.117669754 0.03758539 0.43268612 0.19615726 -0.21585353 0.27532685 0.16421777
0.10225298 0.2536058 -1.0328998e-07 -0.007816886 0.2176546 0.1310237 -0.15969434 -0.07300575
0.06724763 0.04092615 0.21642436 0.13909714 0.07527848 0.23161368 0.31998792 0.16186608
-1.6856676e-07 -0.026417699 0.055571515 0.1967672 0.27377257 0.0076735066 0.08961925 0.032612324
0.14476037 0.28944394 0.1353872 0.19649288 0.028852021 0.37286898 0.23327129 0.38453168
-0.14347832 0.09597237 0.10697476 0.032185964 0.172059 0.045036398 0.23184189 0.043566287
0.30801016 0.87223315 0.23742059 0.2246774 -0.027170323 0.26585093 0.05331132 -0.062479794
0.082250655 -1.7472328e-07 0.04894579 0.24291976 0.0591552 0.079731695 -0.014583931 0.107890725
-0.095656164 0.22786218 0.29455757 0.49759847 0.18489808 0.12456584 0.32673338 0.17444004
0.36753577 0.19906227 0.15212083 0.028332317 0.22192939 0.044459663 0.07751386 -0.21309523
0.06389911 0.3627253 0.28724506 0.23227207 -0.16463798 0.07468221 0.13292728 0.25651097
0.2626267 0.049082406 0.08957542 0.22570863 0.15522228 0.04018949 -8.153279e-06 0.15383336
0.03596756 -9.5182365e-08 -0.16791692 0.020600984 0.02864561 0.016874967 0.24359213 0.09917428
0.113311194 -0.07152846 0.1939839 0.104540616 0.39929238 0.10050917 0.12164189 0.05689268
-0.09468955 0.04725003 0.3186091 0.08485303 0.27179617 0.29924783 0.42897013 0.18081026
-1.2195481e-07 0.09120904 0.20842703 0.07852918 0.13565297 0.0035981887 0.23322935 0.22457236
00000000: 3f86 03b4 2263 433e b944 803e 27fe 7f3e
00000010: 8bc8 14bd 7a89 26be 91d0 c93d 6c05 173d
00000020: a966 0ab6 578d 3c3e e9aa c53d eb14 713e
00000030: b0d7 fe3d 003e bf3d 6d0c df3e 637e 593c
00000040: d1cf 913e 72b3 e03e b964 b93d cbaf 893e
00000050: 7263 c13e a320 50b7 464c 0f3e 2f08 e23c
00000060: 46c8 fe3d f65c 4b3e e10b 483e c811 0c3e
00000070: a396 cf3d 52ee 753d 4701 d8bd f8d2 993e
00000080: 705a 95bd 4c05 433e 3931 9dbd 3e51 503e
00000090: 29a5 443e cf15 703e 480a e93d 7173 46be
000000a0: f0e6 c83d 869d 453d 59b8 bdbd 2bf5 13bd
000000b0: 4f8d 883d 8ed8 323c 1b8f 933d f3d6 fb3d
000000c0: f9e4 a53d 8053 7cb4 1fc5 81bd 8cca 81bd
000000d0: 93b7 8a3e bc6d e1bd 3c31 7ab4 e803 223e
000000e0: 58fe 923e 4d2b 40bb 8a61 a3bd 0acb 213e
000000f0: d2e0 003e 5738 b13e c057 8f3e b381 1d3e
00000100: 5198 943c 2cbe 8e3e 2e3a 5e3e febe 133d
00000110: 1ace ef3e fd4a 2dbd 71b5 0c3e ee38 d43e
00000120: 96f1 1c3e dfd0 3f3e fbe5 e63c ba51 833d
00000130: bbd7 273e 24cf 1e3e 9d6b c13e 5bfa 033e
00000140: ff4a f03d 9ea0 433e 5e7d d23d fb1a 02bd
00000150: eeb8 8c3e bef0 dc3c 35c5 943c 0e8d 5dbc
00000160: e2dd 243e 4d1b 59bd 0f2b 423d a702 34b4
00000170: 61cd 963d 00af b93e f4ce 363d 217c 48b5
00000180: e4a6 253d 4e2d 093e 2830 31b4 45c3 b33d
00000190: 4020 353f 4efb 163e 81d7 21b4 81ef 1a3d
000001a0: df6e 01be 18ac 963d 3592 073e b72e dfbd
000001b0: 6be5 f63d 9890 b6bd 8947 7ebd caeb c8b8
000001c0: e24d ab3e 84fd c43d 52f8 513e 555a 913e
000001d0: 55be 3e3e 094c 14b5 8b79 f93c 70ae 1b3e
000001e0: 15cd 8fb8 1ec9 55bc cc18 31b4 fd64 093e
000001f0: 64d1 053e 5b85 303e e054 fa3d 6729 8f3d
00000200: 7938 403e d7fc f0bd 23f3 193d 0989 dd3e
00000210: 73dd 483e b508 5dbe a4f7 8c3e b428 283e
00000220: 036a d13d 9fd8 813e 44d0 ddb3 6512 00bc
00000230: d9e0 5e3e 142b 063e ea86 23be 0a84 95bd
00000240: 20b9 893d 2ea2 273d 599e 5d3e 7b6f 0e3e
00000250: 9b2b 9a3d 232c 6d3e 75d5 a33e 39c0 253e
00000260: 47ff 34b4 ee69 d8bc f59e 633d 577d 493e
00000270: eb2b 8c3e 0a72 fb3b 4c8a b73d 8094 053d
00000280: 103c 143e ff31 943e f1a2 0a3e 6e35 493e
00000290: 135b ec3c afe8 be3e abde 6e3e 56e1 c43e
000002a0: fbeb 12be 298d c43d 9515 db3d 6ed5 033d
000002b0: 3c30 303e 1678 383d f667 6d3e 9072 323d
000002c0: 82b3 9d3e ac4a 5f3f 621e 733e d511 663e
000002d0: 4c94 debc 9d1d 883e f85c 5a3d d0ea 7fbd
000002e0: 0873 a83d 929b 3bb4 617b 483d f5bf 783e
000002f0: b94c 723d 5f4a a33d 71f1 6ebc d0f5 dc3d
00000300: 61e7 c3bd b454 693e 40d0 963e 3ac5 fe3e
00000310: ec55 3d3e 601c ff3d 9949 a73e 69a0 323e
00000320: a62d bc3e fbd6 4b3e 90c5 1b3e 2d19 e83c
00000330: 7541 633e 561b 363d 96bf 9e3d a335 5abe
00000340: 89dd 823d 21b7 b93e c911 933e bbd8 6d3e
00000350: dc96 28be fdf2 983d 171e 083e 6855 833e
00000360: 0277 863e a20a 493d 5173 b73d 2a20 673e
00000370: 97f2 1e3e bc9d 243d 11ca 08b7 7e86 1d3e
00000380: b852 133d 0f67 ccb3 6af2 2bbe 65c3 a83c
00000390: 33aa ea3c 5f3d 8a3c 3770 793e e31b cb3d
000003a0: b30f e83d 837d 92bd b7a3 463e 6419 d63d
000003b0: 0d70 cc3e c0d7 cd3d 621f f93d 4c08 693d
000003c0: 98ec c1bd 3f89 413d bb20 a33e 6dc7 ad3d
000003d0: de28 8b3e 0337 993e f9a1 db3e 5326 393e
000003e0: aff2 02b4 cecb ba3d e56d 553e e8d3 a03d
000003f0: 9de8 0a3e 97cf 6b3b add3 6e3e 4cf6 653e

net.2.0.weight f4 [56, 256]
-9.2345296e-08 -0.23980045 1.1299204 -0.46025822 -0.49352178 0.12416084 0.25011533 0.3409357
-4.151569e-06 0.22487931 0.18268102 0.5000252 -0.008992044 0.5729016 -0.46750963 0.26523483
0.072151236 -0.7491013 -0.72907406 0.106770836 0.38903555 -3.1942254e-05 -0.09300681 0.16362436
-0.21358383 -0.24692407 0.16690002 -0.30916867 0.27916658 0.13439535 0.13582392 0.20753667
-0.12233539 0.3678758 0.6211498 -0.35964552 0.12282468 -0.76679397 0.28143084 0.06485324
0.14840586 -0.16306718 -0.14937785 -0.16372219 -0.20720132 0.0674014 -0.008561386 -0.044696763
0.027531277 1.3304498e-07 -0.16614996 0.1312871 -1.0407624 -0.25589693 6.5429338e-09 -0.070215
0.14670098 -0.09885564 -0.35899258 0.22508846 -0.12331928 -0.039473902 -0.37264627 -0.21315715
0.24839213 0.17736527 0.12529379 -0.029173486 -0.42455664 -0.008378951 0.077570654 0.20015138
0.017718384 -0.27444726 -0.7863636 -0.22006133 0.18836983 0.09454637 0.06901365 -0.10890607
-0.22580226 -0.09881217 -0.12328279 -0.34911638 0.38776848 1.0139054 -0.19142081 0.028556751
0.28331187 0.12801802 0.08785219 -2.075954e-07 0.054123987 -0.18045269 0.08005175 1.1350592e-09
-0.2805823 0.478936 4.442195e-08 0.1785179 0.20027505 0.010600767 1.6624377e-07 0.08978288
-0.5587693 -0.50962424 -0.057389557 -0.209475 -0.76488525 -0.4741857 0.23686829 5.9475748e-05
0.81457454 -0.03483755 -0.15731172 0.039018687 -0.10141577 -1.461161e-07 -0.08603781 0.17640382
-0.000115303425 -0.9339636 -4.272825e-08 0.46191466 0.09878512 -0.0074322326 0.29817277 0.06230468
-0.17397672 0.1719489 -0.4546505 -0.52633053 0.07327462 -0.42653373 -0.64472264 -0.11072807
0.22048455 0.6445709 -1.4928855e-07 -0.3746699 -0.6839639 0.41501242 0.83487463 0.784294
0.034104615 -0.21909371 -0.0940999 0.33868113 -0.3614461 -0.109168895 -0.017859718 -0.022035133
-1.2988491e-07 0.01438633 0.27568632 -0.20772035 -0.5567011 0.06751276 -0.16379355 -0.49325138
0.09687522 -0.21830241 0.06376044 0.41360462 -0.24627587 -0.06618337 -0.28457984 0.04631405
0.0061414074 -0.4195904 0.07622493 0.23329563 -0.07873739 0.062355366 -0.3106293 -0.019008473
0.21025825 0.08744917 -0.7728128 0.019295566 -0.1845786 0.11170124 -0.66903746 0.10488844
0.052656513 1.08974206e-07 -0.2670153 -0.11191263 0.59617054 -0.42086387 -0.4237694 -0.051257428
-0.008075535 0.26641124 -0.13280992 -0.072752446 -0.08636901 -0.5100727 -1.1114229 0.0038934778
0.6358575 0.042990915 0.1956714 0.31230313 0.48216662 -0.32018712 0.23873685 0.61290526
-0.5532906 -0.048886664 -0.058539495 -0.12524533 0.2190197 -0.66192025 0.10825241 -0.00012087317
-0.046169236 0.7814477 -0.044997476 0.16476098 0.39658356 -0.02851078 -6.420489e-06 -0.16547829
0.23556197 -2.7232718e-07 0.023679553 0.513119 -0.42651403 -0.12880728 -0.84891695 -0.10796066
0.1756413 -0.022055494 -0.21903668 -0.3640623 -0.053135663 -0.35227948 0.03664103 -0.22074705
0.2775096 -0.2563009 0.105098285 0.09720389 -0.12681948 0.161091 0.19460599 0.21868145
-5.4643138e-08 -0.09044299 -0.051524848 0.31436688 -0.14809868 0.9999239 -0.0014045298 -0.48941207
00000000: 5d4f c6b3 408e 75be 3ba1 903f f7a6 ebbe
00000010: e3ae fcbe 0a48 fe3d 1e0f 803e 208f ae3e
00000020: b54d 8bb6 c346 663e bc10 3b3e a701 003f
00000030: 5e53 13bc aea9 123f 6c5d efbe dccc 873e
00000040: 07c4 933d 1ac5 3fbf 99a4 3abf abaa da3d
00000050: ab2f c73e bcf9 05b8 5b7a bebd 258d 273e
00000060: b8b5 5abe aad9 7cbe d7e7 2a3e 5b4b 9ebe
00000070: ecee 8e3e ef9e 093e 6d15 0b3e 7e84 543e
00000080: fa8a fabd 385a bc3e ac03 1f3f 7523 b8be
00000090: 818b fb3d 9c4c 44bf b417 903e c7d1 843d
000000a0: b5f7 173e 15fb 26be 82f6 18be caa6 27be
000000b0: 952c 54be bf09 8a3d 0e45 0cbc f413 37bd
000000c0: 4689 e13c 20db 0e34 3723 2abe 2070 063e
000000d0: b437 85bf ec04 83be 41d0 e031 e2cc 8fbd
000000e0: c838 163e d374 cabd e0cd b7be 977d 663e
000000f0: d28e fcbd 63af 21bd 7ecb bebe de45 5abe
00000100: 825a 7e3e 3e9f 353e 044d 003e 3cfd eebc
00000110: 7d5f d9be de47 09bc 5ddd 9e3d 7cf4 4c3e
00000120: 2526 913c 5a84 8cbe 204f 49bf c257 61be
00000130: 05e4 403e 87a1 c13d 0757 8d3d 250a dfbd
00000140: b538 67be 095e cabd b07b fcbd 62bf b2be
00000150: 9789 c63e a7c7 813f d103 44be d9ef e93c
00000160: 410e 913e 2817 033e d9eb b33d 64e7 5eb4
00000170: 1db1 5d3d 97c8 38be 2cf2 a33d 5800 9c30
00000180: 7ca8 8fbe 1937 f53e 73ca 3e33 65cd 363e
00000190: e714 4d3e d7ae 2d3c bd80 3234 16e0 b73d
000001a0: 810b 0fbf bc76 02bf 5011 6bbd 9d80 56be
000001b0: 85cf 43bf 78c8 f2be 9a8d 723e 9975 7938
000001c0: f587 503f d2b1 0ebd 5316 21be 0fd2 1f3d
000001d0: 12b3 cfbd 16e4 1cb4 9734 b0bd 34a3 343e
000001e0: 0ecf f1b8 3d18 6fbf 3584 37b3 1480 ec3e
000001f0: da4f ca3d 168a f3bb 1aaa 983e 3133 7f3d
00000200: f426 32be 5f13 303e f3c7 e8be 99bd 06bf
00000210: 0111 963d a162 dabe 8b0c 25bf 66c5 e2bd
00000220: b4c6 613e 9902 253f 204c 20b4 bcd4 bfbe
00000230: 4218 2fbf 827c d43e 58ba 553f 7ec7 483f
00000240: 48b1 0b3d 1a5a 60be 73b7 c0bd 9d67 ad3e
00000250: 770f b9be f193 dfbd 8b4e 92bc 0683 b4bc
00000260: 7e76 0bb4 a4b4 6b3c c226 8d3e a5b4 54be
00000270: f783 0ebf 2144 8a3d 7fb9 27be 728b fcbe
00000280: 8466 c63d ab8a 5fbe d594 823d fcc3 d33e
00000290: be2f 7cbe 268b 87bd 73b4 91be cdb3 3d3d
000002a0: dc3d c93b 8ed4 d6be d11b 9c3d 0de5 6e3e
000002b0: 1241 a1bd 5768 7f3d ce0a 9fbe a8b7 9bbc
000002c0: f04d 573e 8d18 b33d 0fd7 45bf bc11 9e3c
000002d0: 2c02 3dbe 9fc3 e43d 0a46 2bbf c0cf d63d
000002e0: 5bae 573d 3405 ea33 3bb6 88be 7332 e5bd
000002f0: a29e 183f 787b d7be 4ef8 d8be 4ff3 51bd
00000300: 404f 04bc 0e67 883e 53ff 07be 3cff 94bd
00000310: 3ce2 b0bd 2094 02bf 1b43 8ebf b829 7f3b
00000320: 8fc7 223f 3e17 303d 155e 483e 32e6 9f3e
00000330: 8bde f63e 91ef a3be 6f77 743e 5ce7 1c3f
00000340: 74a4 0dbf 623d 48bd 1cc7 6fbd 5040 00be
00000350: b346 603e 9b73 29bf 71b3 dd3d 4a7d fdb8
00000360: f41b 3dbd f50c 483f 464f 38bd 1ab7 283e
00000370: 000d cb3e 708f e9bc 956f d7b6 2473 29be
00000380: 2837 713e 5d34 92b4 9ffb c13c c45b 033f
00000390: 0c60 dabe 0ee6 03be 9f52 59bf 7a1a ddbd
000003a0: 50db 333e b9ad b4bc 274b 60be 6066 babe
000003b0: c8a4 59bd fa5d b4be e814 163d 840b 62be
000003c0: bd15 8e3e df39 83be c53d d73d d512 c73d
000003d0: f7dc 01be 0af5 243e cb46 473e 08ee 5f3e
000003e0: c4b0 6ab3 2d3a b9bd b80b 53bd b2f4 a03e
000003f0: 2ea7 17be 03fb 7f3f 3318 b8ba 3894 fabe

net.2.0.bias f4 [56]
0.041603293 -0.025083607 -0.08436333 0.7196228 0.3980634 0.43089938 0.21276689 -0.0409019
-0.13529181 -0.035309665 -0.032686222 0.04487022 -0.048403352 -0.4968279 0.00913574 0.19546342
-0.0651046 0.004399023 0.018942937 0.07055699 0.15144771 -0.2388598 0.068639815 0.19429275
-0.25940457 -0.22267607 0.0780355 0.0397043 -0.79035544 -0.93423164 -0.8032069 -1.4081581
-1.0130434 -1.1744252 -0.6577382 -0.62151724 -0.5644408 -0.5221 -0.47453034 -0.4542349
-0.46311134 -0.9544108 -0.5273938 -0.8269802 -0.49652222 -0.62448823 -0.5603202 -0.6452669
-0.49845546 -0.98510385 -0.56069946 -0.8831025 -1.0224452 -0.7765714 -0.51676875 -0.5496544
00000000: 3768 2a3d 237c cdbc aec6 acbd 3339 383f
00000010: f7ce cb3e d89e dc3e 90df 593e c088 27bd
00000020: f089 0abe dea0 10bd fde1 05bd d6c9 373d
00000030: 9842 46bd 3a60 febe 12ae 153c 9027 483e
00000040: 8f55 85bd ae25 903b 382e 9b3c 2f80 903d
00000050: 1c15 1b3e aa97 74be 0893 8c3d aef4 463e
00000060: add0 84be 3205 64be 14d1 9f3d faa0 223d
00000070: bc54 4abf ce29 6fbf f89e 4dbf 863e b4bf
00000080: 68ab 81bf 9153 96bf 8861 28bf c11b 1fbf
00000090: 317f 10bf 58a8 05bf a4f5 f2be 7a91 e8be
000000a0: ee1c edbe 4454 74bf 4803 07bf f9b4 53bf
000000b0: 2938 febe 76de 1fbf 2571 0fbf 3630 25bf
000000c0: 8e35 ffbe c42f 7cbf 008a 0fbf 0113 62bf
000000d0: 7cdf 82bf 62cd 46bf f54a 04bf 27b6 0cbf
