suboptimal_policies/AdroitHandHammer-v1_0.6.pth (torch, 367319 bytes, 6 tensors)

net.0.0.weight f4 [256, 46]
0.06762443 0.18000288 0.18257788 0.062191647 -0.21218407 -0.19071373 -0.100665085 -0.04563298
0.45949516 0.5070114 0.19501543 0.027321586 0.12002633 -0.051698454 -0.23453464 -0.26805148
0.057726715 -0.17331402 -0.07648926 0.1692925 0.13087982 0.051657416 0.12745611 0.053739313
-0.06457659 -0.22014156 -1.4324167 -0.19074838 -0.08536545 0.14454311 -0.036453318 0.05158706
0.06529627 -0.23281734 0.2823678 -0.5867303 -0.386412 0.7317969 0.18598492 -0.008032063
-0.20593205 -0.16107544 -0.59669083 -0.12175586 -0.38042924 0.4065886 -0.20934913 -0.2882469
-0.025488796 -0.10891607 -0.116886646 -0.11023107 0.12891762 0.08238717 0.27666298 -0.10165359
-0.03729599 0.0066881403 -0.16731378 -0.13753037 0.007101936 0.077868596 0.37279546 0.5885633
-0.1456077 -0.075308755 -0.072273746 -0.10467844 -0.253725 -0.15876049 0.3295847 -0.09790874
1.379189 -0.10175447 -0.31623802 -0.40775222 -0.124711886 0.3293972 0.1623804 0.28718007
0.0671375 0.15898874 -0.24932374 -0.054697063 -0.408278 -0.03206813 0.08427934 0.12436806
0.9599946 0.4528157 0.42099458 -0.23641 -0.2428991 0.015594937 -0.16940778 0.2275033
-0.05944789 -0.14128599 -0.0759492 -0.07714394 0.19809246 -0.124835774 0.10367177 0.051154703
-0.24511181 0.20078658 0.16319083 0.11089591 0.15521607 0.2044625 -0.12678486 -0.12758566
-0.15531008 0.27713293 -0.2877631 -0.26178578 -0.22249343 -0.17476913 -0.45295662 -0.5437931
0.12380469 -0.031619415 -0.089905426 0.067778304 0.15754905 0.026051598 0.14550987 0.10935252
0.24819833 -0.27040145 0.696755 -0.052212752 0.08220818 0.07082962 -0.1879118 -0.074874744
0.12842108 -0.37409422 0.33103314 0.03357101 -0.32727924 0.4610105 0.114725634 0.06626159
0.23346259 0.0640742 0.22743896 0.0063924375 -0.028634345 0.0075378576 0.21148841 0.055117216
0.087037586 0.04061994 -0.5561258 -0.2925662 -0.38610443 -0.070297725 0.034113098 -0.64322984
-0.015774878 -0.08219459 0.2442279 0.19764626 -0.048077054 0.16560733 0.23827426 -0.09087436
-0.19572176 -0.16302119 0.08795056 0.039358534 0.13188672 -0.7031903 -0.3763483 -0.24137305
-0.42884272 0.04116912 -0.041946817 -0.07206518 0.31634322 0.29687452 -0.3471239 -0.14254308
-0.29096523 0.029369496 -0.020252883 -0.07078327 -0.06341688 -0.058621343 0.04700406 -0.019050311
-0.1866374 0.073476695 0.10300107 -0.008399796 -0.062951215 -0.17734808 -0.02883194 -0.08931646
0.51783985 0.033479977 0.17591727 -0.04412268 0.06484913 0.008046552 -0.19923416 0.29140273
-0.17188886 -0.077522725 -4.968248 0.28481686 -0.21693748 0.18333055 -0.064663984 0.049593493
0.020689536 -0.050221957 0.21608973 -0.23379642 3.2241833 -0.6027968 -0.49146974 0.019510297
0.25362727 -0.17485145 -1.6049719 -0.45074052 -1.1815238 -0.38135937 0.45299485 0.16667792
0.8888056 0.22299829 -0.01913862 -0.10003963 -0.041731585 -0.07223873 0.78093606 0.044950206
-0.03429263 -0.1661615 0.010077935 -0.12782033 0.113280214 0.1501911 0.1015367 0.093138896
0.15222692 0.06753869 -0.085913055 0.21495536 -0.35533786 0.020012585 0.23496465 0.10209787
00000000: ad7e 8a3d ad52 383e b2f5 3a3e abbc 7e3d
00000010: c846 59be 764a 43be 7f29 cebd a6e9 3abd
00000020: f342 eb3e 80cb 013f 20b2 473e 85d1 df3c
00000030: 5dd0 f53d c2c1 53bd d929 70be 0b3e 89be
00000040: d972 6c3d 3b79 31be 67a6 9cbd 035b 2d3e
00000050: 5c05 063e ba96 533d db83 023e c11d 5c3d
00000060: bb40 84bd ca6c 61be 6e59 b7bf 8b53 43be
00000070: 15d4 aebd 1c03 143e 1350 15bd f44c 533d
00000080: 0dba 853d ab67 6ebe 8392 903e f533 16bf
00000090: cbd7 c5be 0b57 3b3f d572 3e3e ea98 03bc
000000a0: dadf 52be f6f0 24be bbc0 18bf 235b f9bd
000000b0: 9fc7 c2be 622c d03e 9e5f 56be 1995 93be
000000c0: e1cd d0bc 630f dfbd 4462 efbd d4c0 e1bd
000000d0: fb02 043e 9bba a83d c5a6 8d3e c22f d0bd
000000e0: aec3 18bd 3028 db3b 4e54 2bbe c3d4 0cbe
000000f0: 5bb7 e83b 9279 9f3d 0cdf be3e 16ac 163f
00000100: 2f1a 15be 7a3b 9abd 4204 94bd a661 d6bd
00000110: 3ee8 81be 1c92 22be 53bf a83e 6184 c8bd
00000120: 4489 b03f a664 d0bd f3e9 a1be e6c4 d0be
00000130: f268 ffbd c0a6 a83e 0c47 263e 4409 933e
00000140: 637f 893d f2cd 223e b94e 7fbe 070a 60bd
00000150: d009 d1be df59 03bd a69a ac3d aeb4 fe3d
00000160: 35c2 753f 76d7 e73e 9a8c d73e 7715 72be
00000170: 8bba 78be e881 7f3c 3c79 2dbe a0f6 683e
00000180: a17f 73bd 46ad 10be 418b 9bbd a4fd 9dbd
00000190: c0d8 4a3e e6a9 ffbd dd51 d43d 9887 513d
000001a0: 97fe 7abe ff9a 4d3e 7f1b 273e 651d e33d
000001b0: f6f0 1e3e 9e5e 513e e4d3 01be d1a5 02be
000001c0: 9b09 1fbe 5ee4 8d3e af55 93be c908 86be
000001d0: 51d5 63be aef6 32be eee9 e7be 0636 0bbf
000001e0: 508d fd3d 5c83 01bd 5620 b8bd 5acf 8a3d
000001f0: 8a54 213e 296a d53c 8a00 153e 37f4 df3d
00000200: b427 7e3e 0f72 8abe 895e 323f 0add 55bd
00000210: c35c a83d 1f0f 913d f36b 40be ee57 99bd
00000220: d180 033e 4789 bfbe 2d7d a93e c181 093d
00000230: 2591 a7be 9109 ec3e 46f5 ea3d 28b4 873d
00000240: d110 6f3e 5639 833d c2e5 683e a777 d13b
00000250: 9392 eabc 2200 f73b 6b90 583e 97c2 613d
00000260: c340 b23d 1861 263d 435e 0ebf 3dcb 95be
00000270: 7baf c5be 41f8 8fbd 2dba 0b3d b6aa 24bf
00000280: 513a 81bc a355 a8bd e116 7a3e c863 4a3e
00000290: 72ec 44bd f894 293e 2bfe 733e 561c babd
000002a0: 496b 48be 07ef 26be 6c1f b43d 6a36 213d
000002b0: 500d 073e 4804 34bf b9b0 c0be 7f2a 77be
000002c0: 4691 dbbe f4a0 283d 6dd0 2bbd e996 93bd
000002d0: bdf7 a13e f0ff 973e 39ba b1be d0f6 11be
000002e0: 65f9 94be 4c98 f03c 60e9 a5bc d2f6 90bd
000002f0: b6e0 81bd ef1c 70bd 5487 403d 660f 9cbc
00000300: e01d 3fbe f37a 963d 3af2 d23d 4c9f 09bc
00000310: 91ec 80bd bc9a 35be f630 ecbc 8ceb b6bd
00000320: 2791 043f 4d22 093d a823 343e fcb9 34bd
00000330: 9fcf 843d afd5 033c 0a04 4cbe bd32 953e
00000340: a203 30be 3cc4 9ebd e3fb 9ec0 84d3 913e
00000350: dc24 5ebe 01bb 3b3e 8d6e 84bd 8c22 4b3d
00000360: 1a7d a93c 8ab5 4dbd a046 5d3e 5468 6fbe
00000370: 0559 4e40 e450 1abf eca1 fbbe 0fd4 9f3c
00000380: 6fdb 813e 420c 33be b86f cdbf 76c7 e6be
00000390: 2c3c 97bf 8941 c3be f1ee e73e 9ead 2a3e
000003a0: c488 633f aa59 643e 98c8 9cbc 94e1 ccbd
000003b0: bdee 2abd e6f1 93bd 6deb 473f b51d 383d
000003c0: 6e76 0cbd 3e26 2abe ec1d 253c 55e3 02be
000003d0: 75ff e73d b2cb 193e 79f2 cf3d 9bbf be3d
000003e0: 60e1 1b3e ba51 8a3d 2ff3 afbd 421d 5c3e
000003f0: d8ee b5be 6ff1 a33c 939a 703e b018 d13d

net.0.0.bias f4 [256]
-0.25018677 -0.055860624 -0.015448793 -0.26077577 -0.5068247 -0.123990074 0.031033468 -0.03288519
-0.054818764 -0.12140937 -0.2933445 -0.028958913 -0.0981489 -0.101671055 0.02264874 0.16584948
-0.10939022 0.009824473 0.022359608 -0.059098452 0.023079712 0.1311756 -0.07033323 -0.18849722
-0.062135972 -0.14185575 0.059443124 -0.20824651 -0.21111172 0.114043735 0.07268537 0.06392
-0.11915116 -0.06151119 -0.053148236 -0.07483792 0.056434132 0.06295501 -0.04983658 0.001929967
-0.2802649 -0.093290485 0.034818362 0.09413219 -0.1058459 -0.22765161 -0.062100627 0.035468
0.06839821 0.019264346 -0.008130664 -0.10160245 -0.14633918 -0.032286186 -0.030680224 -0.23936474
0.12942858 -0.14606825 -0.032919668 -0.28614643 -0.16027416 -0.25000083 -0.02717759 0.18087286
-0.15817532 0.09404979 -0.1530708 -0.15273197 0.029212348 -0.17416868 -0.12768978 -0.059896346
-0.2843598 -0.09662137 -0.08341557 -0.06007761 0.021432184 0.13640888 -0.10566313 0.189222
-0.094225645 0.049273413 -0.031036954 0.06630948 -0.101225965 0.0857964 -0.27518776 0.06378881
-0.19957235 -0.09185625 -0.04493128 -0.094831556 -0.14448027 -0.02900073 -0.047863297 -0.03936417
0.010226834 -0.10763278 -0.102128014 0.109644294 0.05222353 -0.18898587 -0.16206829 0.0064008227
-0.09833273 -0.1212734 0.061610237 0.17800814 0.037889145 0.04659819 0.018018734 0.046757556
-0.36339942 -0.3167128 0.13810983 -0.105565846 -0.12047524 -0.23186256 -0.0027387063 -0.08168716
0.20149244 0.078551844 -0.13745774 0.008179107 -0.26270205 -0.0065281815 -0.050873384 -0.3910835
-0.08915949 0.13305914 -0.15317254 -0.011952412 -0.14635484 -0.18634708 -0.09407446 -0.020731326
-0.03513024 -0.12345716 0.22199796 -0.09412079 -0.1284578 -0.386761 -0.15308139 0.005271814
0.01181809 0.014319085 0.079099946 0.14010262 -0.30621552 -0.0112425815 -0.1233046 0.063481785
-0.11020279 -0.056409262 0.062221132 -0.062042955 -0.07085489 -0.041260347 -0.07870702 -0.18029262
-0.032926437 -0.12557322 -0.017756753 -0.08405835 -0.014829213 -0.1341806 -0.030847453 -0.06576159
-0.120548636 -0.010618821 0.05696727 0.026415942 0.035690095 -0.1647545 -0.08433337 0.17628822
-0.16716212 0.051975634 0.0018372424 -0.26892582 0.07901735 0.12458213 0.057115197 -0.0632187
-0.0039326306 -0.3130313 -0.01785294 -0.15575233 -0.052870527 -0.23807909 0.088537335 -0.025140826
-0.09781952 -0.09081451 -0.20116775 -0.2947034 -0.13580754 0.010973163 0.0017942474 -0.12358832
0.10138219 0.0077903084 0.08281069 -0.14920355 -0.14811155 0.088808395 0.011019891 -0.10136884
0.1786501 -0.12977362 -0.048293673 -0.14514239 0.059560444 -0.07405015 0.02030808 -0.13256364
0.119036615 -0.1759615 -0.07653986 -0.1895374 -0.09491251 -0.08022937 0.08990931 -0.28057352
0.0015728276 -0.14195228 -0.24009797 -0.07092171 -0.12856989 0.14288951 0.21100593 -0.23141012
-0.036657803 -0.015382699 0.14342804 0.075863436 -0.3881401 0.04893344 -0.106904924 0.26033822
-0.0626143 -0.034835134 -0.0754145 -0.0007374969 -0.40686673 0.0053015016 0.029630195 -0.13477148
-0.017622916 -0.042098664 -0.08142115 -0.014444482 -0.06659125 -0.12324761 -0.008411068 0.0031005011
00000000: 7b18 80be 1cce 64bd ef1c 7dbc 6784 85be
00000010: 43bf 01bf 82ee fdbd e639 fe3c 9fb2 06bd
00000020: a489 60bd 7aa5 f8bd 4031 96be 3e3b edbc
00000030: 4a02 c9bd ea38 d0bd da89 b93c 72d4 293e
00000040: fb07 e0bd d4f6 203c 7f2b b73c 3811 72bd
00000050: aa11 bd3c e652 063e de0a 90bd 6a05 41be
00000060: 4a82 7ebd a242 11be a27a 733d 933e 55be
00000070: ac2d 58be c38f e93d 11dc 943d 7de8 823d
00000080: 8605 f4bd 28f3 7bbd f7b1 59bd a044 99bd
00000090: 7a27 673d 8eee 803d 7121 4cbd f2f6 fc3a
000000a0: e27e 8fbe 150f bfbd b39d 0e3d 61c8 c03d
000000b0: bcc5 d8bd 811d 69be 3a5d 7ebd e546 113d
000000c0: 5c14 8c3d 43d0 9d3c 7a36 05bc f214 d0bd
000000d0: f0d9 15be 853e 04bd 1855 fbbc 081c 75be
000000e0: ed88 043e ea92 15be c6d6 06bd c981 92be
000000f0: e91e 24be 1c00 80be 8aa3 debc bc36 393e
00000100: b6f8 21be 2d9d c03d 97be 1cbe c565 1cbe
00000110: bc4e ef3c 4659 32be 1cc1 02be df55 75bd
00000120: 9c97 91be 6de1 c5bd c8d5 aabd f113 76bd
00000130: 8c92 af3c c5ae 0b3e e965 d8bd 69c3 413e
00000140: 60f9 c0bd ebd2 493d 3641 febc 44cd 873d
00000150: 8f4f cfbd 06b6 af3d 69e5 8cbe b5a3 823d
00000160: b25c 4cbe 211f bcbd dd09 38bd 0c37 c2bd
00000170: a3f2 13be f092 edbc 4e0c 44bd 533c 21bd
00000180: 738e 273c 936e dcbd 7e28 d1bd 308d e03d
00000190: 57e8 553d 8385 41be 3bf5 25be febd d13b
000001a0: ac62 c9bd 305e f8bd 045b 7c3d c447 363e
000001b0: a631 1b3d bedd 3e3d 069c 933c da84 3f3d
000001c0: 7d0f babe 2e28 a2be aa6c 0d3e e832 d8bd
000001d0: b9bb f6bd 616d 6dbe de7b 33bb 994b a7bd
000001e0: 0954 4e3e cadf a03d b9c1 0cbe a901 063c
000001f0: e280 86be 5bea d5bb 9c60 50bd 193c c8be
00000200: 4099 b6bd a840 083e 43d9 1cbe 0dd4 43bc
00000210: 0bde 15be c5d1 3ebe 1caa c0bd bed4 a9bc
00000220: bae4 0fbd 1cd7 fcbd 6f53 633e 67c2 c0bd
00000230: 718a 03be 8a05 c6be 5ec1 1cbe 2ebf ac3b
00000240: aaa0 413c 989a 6a3c 27ff a13d 1077 0f3e
00000250: 48c8 9cbe ce32 38bc 1f87 fcbd bd02 823d
00000260: 00b2 e1bd 660d 67bd 96db 7e3d c120 7ebd
00000270: 5e1c 91bd 9c00 29bd 2531 a1bd a19e 38be
00000280: dfdd 06bd 4496 00be 9c76 91bc c926 acbd
00000290: 3af6 72bc a466 09be ccb3 fcbc 03ae 86bd
000002a0: 34e2 f6bd 90fa 2dbc 8356 693d 3f66 d83c
000002b0: c72f 123d 67b5 28be f9b6 acbd e684 343e
000002c0: 8c2c 2bbe 67e4 543d a0cf f03a a5b0 89be
000002d0: d9d3 a13d ea24 ff3d a0f1 693d ce78 81bd
000002e0: 4cdd 80bb a345 a0be 5440 92bc 8a7d 1fbe
000002f0: c48e 58bd 01cb 73be 1053 b53d 22f4 cdbc
00000300: 9a55 c8bd f5fc b9bd ebfe 4dbe 5de3 96be
00000310: 2211 0bbe c8c8 333c f42c eb3a e01b fdbd
00000320: 77a1 cf3d d845 ff3b a798 a93d d1c8 18be
00000330: 8eaa 17be 2de1 b53d c68c 343c 779a cfbd
00000340: 0df0 363e 60e3 04be 96cf 45bd 35a0 14be
00000350: a7f5 733d 9ba7 97bd 215d a63c c3be 07be
00000360: 78c9 f33d 402f 34be eec0 9cbd 1816 42be
00000370: 7d61 c2bd 4c4f a4bd 5f22 b83d 55a7 8fbe
00000380: 5627 ce3a f05b 11be 3edc 75be 673f 91bd
00000390: d3a7 03be a151 123e f011 583e c6f6 6cbe
000003a0: 7e26 16bd b707 7cbc cdde 123e 4a5e 9b3d
000003b0: 4dba c6be 6e6e 483d f8f0 dabd 0d4b 853e
000003c0: ed3b 80bd 49af 0ebd eb72 9abd 9454 41ba
000003d0: d650 d0be 38b8 ad3b 06bb f23c 8901 0abe
000003e0: ef5d 90bc a66f 2cbd 22c0 a6bd 8ca8 6cbc
000003f0: fe60 88bd 3e69 fcbd 93ce 09bc c731 4b3b

net.1.0.weight f4 [256, 256]
-0.25987917 0.08084282 0.0491449 0.08894641 -0.12481777 0.019198019 -0.06524916 -0.048264522
-0.049897574 -0.10355693 -0.06536445 0.23454696 0.046316773 0.19575231 0.0152737545 0.10109281
-0.16431057 0.17844184 0.27498856 0.072542384 0.008513391 0.034767106 -0.101474434 -0.40670648
0.07509914 0.17997006 0.02490129 -0.07851212 0.2536581 0.30274075 -0.1442263 -0.3248823
0.10383171 0.07785398 -0.4138411 0.107986726 0.10924431 -0.2509732 -0.025731917 0.057338655
-0.10779515 0.05934166 -0.039702073 0.38801816 0.040822037 0.2447391 0.26670772 -0.21885175
0.00729448 -0.15410328 -0.29738778 0.025640152 -0.35490522 0.32714993 -0.07513401 0.11341538
-0.42386648 -0.055043895 -0.16489033 -0.3569713 0.16398367 0.0960969 -0.08335318 0.16330834
-0.10411882 -0.18695357 0.25325087 0.10574655 -0.13547683 0.47165793 -0.055762403 0.1237977
0.2772559 -0.04962073 0.0647819 0.090700455 -0.0015433207 0.28483617 -0.08057801 0.08952675
0.22775106 -0.10006839 0.31687325 -0.22640015 0.081290275 0.011632644 -0.61700433 -0.4405192
0.026230387 0.09890533 -0.102193594 0.097401954 -0.07919349 -0.056517705 -0.07314167 0.25691774
-0.21686323 -0.0492275 -0.22228675 -0.46334445 0.18829183 -0.2293989 -0.041794706 -0.07152856
-0.1079041 0.46738082 0.015258558 -0.011762384 0.1508032 -0.26137415 0.28658915 0.052384134
-0.29687497 -0.017281521 0.02391383 0.14905539 0.20752701 -0.22234 -0.29535377 0.01974883
-0.09805576 0.138001 -0.26464072 0.040212277 -0.009342145 -0.13535988 -0.020707643 0.13664776
-0.0029928214 -0.24180086 0.053445276 0.08227492 -0.2423159 -0.1917771 -0.2623484 -0.14738563
-0.22930013 0.05296188 -0.096759595 0.3132404 0.0036976826 -0.679301 -0.20031655 0.037588388
-0.15638043 0.016612059 -0.11144472 -0.34124357 0.23251177 -0.4179997 -0.10373182 -0.25713277
0.35785052 0.23293985 -0.0829714 -0.23748401 -0.00060136436 -0.085977316 -0.47080344 0.19613197
0.106413 0.03434113 0.011954023 -0.09142909 -0.120108336 -0.273096 0.020473484 -0.21770316
-0.063694924 -0.09562392 0.28241655 0.00046175363 -0.015606989 -0.0154954605 -0.07027403 0.09532046
0.041449893 -0.26856166 0.09535146 -0.07942695 0.07702263 -0.13382956 -0.0370475 0.09511296
-0.01653041 0.16023874 -0.043855485 0.12543565 -0.019644678 -0.07292794 0.23597229 0.156734
0.049272787 -0.1509198 0.21913612 0.005806107 0.21429518 -0.019497983 0.24162205 -0.13780779
-0.031918567 -0.17695026 0.059240848 0.12934893 0.0048144693 -0.1373295 -0.10655792 -0.1837523
0.29861453 0.29994726 0.19528507 0.111086324 0.17887598 -0.13841979 0.11630147 -0.017920418
-0.0696276 0.12628207 -0.18266965 -0.17012714 -0.03655189 0.15788685 0.2824686 -0.003397571
0.18524154 -0.22070149 -0.017761085 0.066690326 -0.06829437 0.28811094 0.30969173 0.16820827
0.11622829 0.20843954 0.074333824 -0.299326 -0.8424242 0.09618295 0.089311495 0.48448116
-0.011904276 -0.081073575 -0.18832193 0.00019363545 -0.11952436 -0.11492829 -0.24643667 -0.010553865
-0.20639841 0.06306541 -0.35776064 0.17325869 0.046906494 -0.044954542 0.2621405 0.10488339
00000000: e20e 85be ec90 a53d 2a4c 493d 8929 b63d
00000010: 76a0 ffbd 2a45 9d3c 5aa1 85bd 05b1 45bd
00000020: 6661 4cbd a815 d4bd ccdd 85bd 142d 703e
00000030: a8b6 3d3d 4b73 483e c53e 7a3c bf09 cf3d
00000040: 0841 28be 75b9 363e 4dcb 8c3e 1a91 943d
00000050: c07b 0b3c f467 0e3d d4d1 cfbd d53b d0be
00000060: 94cd 993d 124a 383e cafd cb3c f6ca a0bd
00000070: 79df 813e d600 9b3e 0fb0 13be f956 a6be
00000080: b8a5 d43d e871 9f3d fbe2 d3be 2528 dd3d
00000090: 7bbb df3d 8f7f 80be becb d2bc f0db 6a3d
000000a0: b4c3 dcbd 3e10 733d a49e 22bd 51aa c63e
000000b0: 0235 273d e39c 7a3e ea8d 883e ac1a 60be
000000c0: 8906 ef3b 40cd 1dbe 3643 98be 4c0b d23c
000000d0: 23b6 b5be 3280 a73e dcdf 99bd 5346 e83d
000000e0: 0705 d9be b575 61bd 03d9 28be f1c4 b6be
000000f0: 56eb 273e 74ce c43d 12b5 aabd 4d3a 273e
00000100: 3f3c d5bd c270 3fbe 19aa 813e a691 d83d
00000110: 70ba 0abe 267d f13e 1e67 64bd a689 fd3d
00000120: 7cf4 8d3e 1b3f 4bbd 5fac 843d 29c1 b93d
00000130: 4049 caba 0cd6 913e 1506 a5bd cd59 b73d
00000140: 9337 693e a8f0 ccbd 363d a23e 71d5 67be
00000150: 847b a63d d896 3e3c fff3 1dbf bc8b e1be
00000160: 1ce1 d63c e18e ca3d e04a d1bd ad7a c73d
00000170: 3230 a2bd 1c7f 67bd 4dcb 95bd b98a 833e
00000180: 6511 5ebe c6a2 49bd 239f 63be 7c3b edbe
00000190: 93cf 403e 8ce7 6abe ed30 2bbd 917d 92bd
000001a0: d3fc dcbd 8a4c ef3e 08ff 793c 04b7 40bc
000001b0: 276c 1a3e d5d2 85be d0bb 923e bf90 563d
000001c0: ffff 97be fa91 8dbc f0e6 c33c faa1 183e
000001d0: f681 543e 19ad 63be 9c38 97be 4cc8 a13c
000001e0: 75d1 c8bd 2250 0d3e fd7e 87be a1b5 243d
000001f0: cc0f 19bc c89b 0abe 13a3 a9bc 64ed 0b3e
00000200: 3623 44bb a59a 77be 6fe9 5a3d c17f a83d
00000210: a921 78be 3761 44be 8852 86be 42ec 16be
00000220: a7cd 6abe 8eee 583d e529 c6bd 0c61 a03e
00000230: d254 723b ace6 2dbf c81f 4dbe 48f6 193d
00000240: 3122 20be 0316 883c 213d e4bd 7ab7 aebe
00000250: 9117 6e3e 0f04 d6be 5971 d4bd e8a6 83be
00000260: 2f38 b73e c987 6e3e e9ec a9bd 022f 73be
00000270: e1a4 1dba e014 b0bd 260d f1be d2d6 483e
00000280: 0fef d93d 49a9 0c3d ceda 433c 2d3f bbbd
00000290: 5cfb f5bd 3dd3 8bbe 02b8 a73c 94ed 5ebe
000002a0: 7c72 82bd 79d6 c3bd e798 903e 8617 f239
000002b0: 75b4 7fbc ace0 7dbc d5eb 8fbd 6037 c33d
000002c0: 5dc7 293d ea80 89be a047 c33d 99aa a2bd
000002d0: 0abe 9d3d 9e0a 09be 1fbf 17bd 95ca c23d
000002e0: c86a 87bc a015 243e cfa1 33bd 3472 003e
000002f0: e0ed a0bc 3e5b 95bd b8a2 713e e17e 203e
00000300: 43d2 493d b88a 1abe 3865 603e 2841 be3b
00000310: 3270 5b3e 3cba 9fbc c56b 773e 7c1d 0dbe
00000320: 0bbd 02bd 7332 35be 88a6 723d 0c74 043e
00000330: b2c2 9d3b 1ba0 0cbe 0a3b dabd 9029 3cbe
00000340: 01e4 983e b092 993e cff8 473e 3a81 e33d
00000350: 442b 373e ebbd 0dbe 772f ee3d d7cd 92bc
00000360: ea98 8ebd 1650 013e c10d 3bbe cf35 2ebe
00000370: 6fb7 15bd 17ad 213e b99f 903e c8a9 5ebb
00000380: f5af 3d3e 92ff 61be b27f 91bc f094 883d
00000390: ebdd 8bbd 4783 933e ea8f 9e3e ca3e 2c3e
000003a0: 1909 ee3d 2d71 553e 553c 983d 4241 99be
000003b0: 1da9 57bf 91fb c43d f2e8 b63d ea0d f83e
000003c0: 270a 43bc e709 a6bd 77d7 40be 9f0a 4b39
000003d0: 30c9 f4bd 865f ebbd e559 7cbe 1eea 2cbc
000003e0: 1b5a 53be 7028 813d 672c b7be ba6a 313e
000003f0: 0621 403d 4122 38bd 4837 863e 1acd d63d

net.1.0.bias f4 [256]
0.08836958 -0.14250283 -0.04814011 0.24772716 0.03365697 -0.041845538 0.2777442 0.17215225
0.13536477 0.25896356 0.21461424 -0.00018197122 -0.085186034 0.020741321 0.06842973 0.11281068
0.23782969 0.17590134 0.23628747 -0.17538008 0.045388058 -0.032420162 0.16378658 0.29663065
0.2561034 0.09144771 0.19502296 0.20307858 0.20446004 0.04812353 -0.073296554 0.045047026
0.27222002 0.11664315 0.09185299 0.14084157 0.06767868 0.22304298 0.10681082 -0.06359359
0.15644577 0.29029456 0.17543899 0.007099452 0.11078932 0.112666585 0.12197638 0.33836898
1.2238412 0.14964324 -7.745383e-05 0.33614436 0.015152804 -0.00011995161 -0.00011768071 0.26882058
-0.03968061 -0.047370754 0.17553967 -4.9788232e-05 -0.00010802052 -0.026102968 0.12705724 0.08472352
0.21327738 0.14361742 0.0144246835 -9.3757124e-05 0.107510634 0.07894558 0.1743804 -0.014870782
-3.215184e-05 -0.15955293 0.023508728 0.18899292 0.05072771 0.03177735 0.09743891 -6.52632e-06
0.16503702 0.2547212 0.07843746 0.22529973 0.06954886 -5.538802e-05 0.104124665 0.08396751
0.11255603 0.031162685 0.029275311 0.16380014 0.15167971 0.2683946 -0.24785808 0.17230473
0.2011833 0.18122238 -2.7417822e-05 -0.085324936 0.040734377 0.1697922 -0.0786697 0.02148591
0.0071258247 0.1653269 0.16163461 0.12997301 0.09873744 -0.012936215 -0.11672753 -0.05009102
0.12376346 0.032422766 0.2504097 0.08970708 -0.13676015 -4.659395e-05 0.2950238 0.04158342
0.20569049 0.28240168 0.09091324 0.17272842 0.19969828 0.1934561 0.19067734 -0.00014299722
0.20689692 0.17244004 0.29702932 0.14295538 0.20705006 0.20159401 0.1730166 0.051814508
0.10878135 0.17640488 0.13649812 0.11385866 -0.14751206 0.13249634 -0.00020902057 -0.039211467
0.16453438 0.19300193 0.36831883 0.05539599 -0.022066792 0.15485768 0.19767474 -0.00086958625
0.16307211 -0.1269785 0.039202876 0.15602525 0.20544226 0.38740578 0.02822077 0.13069502
0.07996028 0.062251437 0.33480352 0.05717842 0.19340663 0.26548573 0.21901928 0.283656
-0.058020223 0.11529112 0.3077136 0.010581008 0.22694828 -0.024842408 0.08532977 -0.0259767
-0.05878052 0.024692744 0.15783136 -0.1937852 0.33386242 0.087750696 0.12324774 -0.08096158
0.049767606 -0.2538939 0.16511662 0.058594503 0.28095767 -0.045654397 0.13141066 0.17585005
0.20916127 0.020689039 0.24957934 2.8475535e-05 0.2384478 0.011012235 -0.04265794 0.22263809
0.13875416 0.15311867 0.068078525 -0.1410331 0.19637929 0.19861989 0.24902008 0.16960175
0.044687755 0.23165235 -0.1429817 0.18742399 0.31322008 0.20976326 -0.0033263965 0.09590337
0.11438517 0.13235787 0.060449008 0.1746904 0.10352754 0.0751272 0.13485752 0.3215717
0.08887209 0.014092759 0.06662901 0.11025617 0.38233554 0.103151985 0.14814244 0.08826592
0.22681625 0.26964623 0.019887498 0.052317925 0.03484098 -0.0046857814 0.1696607 0.17659427
0.16986917 0.058382183 0.9106191 0.2121277 0.23111366 0.18094566 -0.11970671 0.110420115
0.054070123 0.091871805 -0.04290493 0.1931681 0.05668117 0.11767789 0.2219069 0.28517556
00000000: 1cfb b43d 43ec 11be 902e 45bd 30ac 7d3e
00000010: e4db 093d 3a66 2bbd 7d34 8e3e ae48 303e
00000020: 109d 0a3e df96 843e d6c3 5b3e 87cf 3eb9
00000030: 0476 aebd b4e9 a93c e324 8c3d 4909 e73d
00000040: a089 733e 7b1f 343e 58f5 713e d696 33be
00000050: d4e8 393d 01cb 04bd abb7 273e f9df 973e
00000060: fc1f 833e f048 bb3d 19b4 473e d5f3 4f3e
00000070: f95d 513e 2e1d 453d 811c 96bd 3b83 383d
00000080: 6c60 8b3e 9be2 ee3d 6c1d bc3d c638 103e
00000090: 1f9b 8a3d 6165 643e a2bf da3d 5b3d 82bd
000000a0: 5233 203e 7da1 943e 47a6 333e 85a2 e83b
000000b0: 83e5 e23d bdbd e63d c1ce f93d b33e ad3e
000000c0: d4a6 9c3f 143c 193e b56e a2b8 1d1b ac3e
000000d0: 7743 783c 888e fbb8 5acb f6b8 daa2 893e
000000e0: 2388 22bd d607 42bd acc0 333e b5d3 50b8
000000f0: 1389 e2b8 e4d5 d5bc 4b1b 023e 8683 ad3d
00000100: 6365 5a3e 7210 133e 8255 6c3c 799f c4b8
00000110: 892e dc3d 38ae a13d c790 323e 95a4 73bc
00000120: c6da 06b8 d861 23be 6095 c03c 5c87 413e
00000130: dcc7 4f3d f728 023d 0d8e c73d a9fc dab6
00000140: 77ff 283e d16a 823e d2a3 a03d f9b4 663e
00000150: a26f 8e3d 6f50 68b8 503f d53d 28f7 ab3d
00000160: c783 e63d e348 ff3c c7d2 ef3c 39bb 273e
00000170: ed51 1b3e 046b 893e 82ce 7dbe a770 303e
00000180: ff02 4e3e 5c92 393e 53ff e5b7 d7be aebd
00000190: 17d9 263d 02de 2d3e 941d a1bd 3803 b03c
000001a0: c07f e93b 744b 293e 8b83 253e a517 053e
000001b0: db36 ca3d 6bf2 53bc d80e efbd 3e2c 4dbd
000001c0: b277 fd3d bccd 043d b335 803e 58b8 b73d
000001d0: da0a 0cbe df6d 43b8 5c0d 973e 6053 2a3d
000001e0: 87a0 523e f496 903e b930 ba3d b8df 303e
000001f0: b57d 4c3e 5b19 463e ec40 433e 86f1 15b9
00000200: c9dc 533e 1f94 303e 3a14 983e e562 123e
00000210: ee04 543e a96e 4e3e 432b 313e 733b 543d
00000220: c2c8 de3d 7ba3 343e 2ac6 0b3e bb2e e93d
00000230: 670d 17be 1fad 073e 882c 5bb9 349c 20bd
00000240: b37b 283e 4ca2 453e 4994 bc3e e8e6 623d
00000250: 6bc5 b4bc 0393 1e3e 3f6b 4a3e f2f4 63ba
00000260: 60fc 263e a706 02be 3293 203d 15c5 1f3e
00000270: 755f 523e 0d5a c63e 3f2f e73c ead4 053e
00000280: 37c2 a33d 5dfb 7e3d 5e6b ab3e eb33 6a3d
00000290: 630c 463e bfed 873e 9746 603e 5c3b 913e
000002a0: 9da6 6dbd c01d ec3d a38c 9d3e f75b 2d3c
000002b0: 2165 683e 4e82 cbbc 60c1 ae3d 17cd d4bc
000002c0: d8c3 70bd 7048 ca3c 8b9e 213e a16f 46be
000002d0: 04f0 aa3e a3b6 b33d 5069 fc3d 2fcf a5bd
000002e0: 1ed9 4b3d 62fe 81be 5514 293e ca00 703d
000002f0: afd9 8f3e 1b00 3bbd 8490 063e 0912 343e
00000300: 5f2e 563e 0f7c a93c ba91 7f3e bfde ee37
00000310: a92b 743e a96c 343c 18ba 2ebd 3dfb 633e
00000320: 9215 0e3e 24cb 1c3e c16c 8b3d fb6a 10be
00000330: a717 493e 0363 4b3e 1fff 7e3e 15ac 2d3e
00000340: 820a 373d 4636 6d3e cb69 12be 13ec 3f3e
00000350: 625e a03e 2ecc 563e acff 59bb fc68 c43d
00000360: c642 ea3d d288 073e 6199 773d 0ae2 323e
00000370: 3f06 d43d 4adc 993d 1718 0a3e 0ca5 a43e
00000380: 9202 b63d 51e5 663c ca74 883d fdcd e13d
00000390: 7cc1 c33e 5941 d33d a7b2 173e c3c4 b43d
000003a0: 8542 683e 120f 8a3e 1beb a23c 524b 563d
000003b0: 6ab5 0e3d 2f8b 99bb 89bb 2d3e 21d5 343e
000003c0: 2ff2 2d3e 2822 6f3d 551e 693f 0138 593e
000003d0: 0fa9 6c3e d249 393e cb28 f5bd f123 e23d
000003e0: a278 5d3d 4927 bc3d 14bd 2fbd dccd 453e
000003f0: 842a 683d 1b01 f13d 903b 633e 8802 923e

net.2.0.weight f4 [52, 256]
0.25152928 0.11320346 0.2481115 0.19468223 0.15715894 -0.2654805 0.06816509 -0.23191631
0.32061246 0.08555835 0.11366 -5.8043734e-05 -0.08775829 -0.713758 0.84190756 0.31343713
0.13997 -0.14441897 0.24728864 -0.89183015 0.10133664 -0.03512985 0.06217763 0.2083997
-0.413659 -0.13599621 0.33948612 0.19323108 -0.045414515 -0.13967772 -0.874158 0.3776098
-0.4191149 -0.045907203 -0.2590655 -0.09243477 0.2783856 -0.3772269 -0.36844444 -0.7426685
0.042360175 -0.2761471 -0.012822484 -0.24196789 -0.018358476 -0.3315493 0.033543967 -0.050985795
-0.0055315066 -0.059391346 -2.8128736e-05 -0.015320281 -0.3506419 4.0035207e-05 -7.305479e-05 -0.14156619
-0.076005824 -0.17618644 -0.14892647 -4.23256e-05 0.00011369274 -0.11589055 0.34573728 0.3971303
0.009932665 -0.50058717 0.04837637 -5.9346872e-05 0.79078615 0.0055231117 -0.47280505 0.0072644097
6.0338516e-06 -0.42927212 0.11121193 0.5718335 0.12002842 0.031716883 0.15204008 -3.4862037e-06
0.28772232 -0.55729485 0.3736479 -0.22690983 -0.29211608 6.6225766e-05 0.24513641 0.013485003
0.46667817 -0.2734618 0.3037885 -0.27833825 0.19114923 0.103373595 -0.31341842 -0.25192645
0.4376557 -0.0031504212 -0.00011146931 -1.2251639 0.029462315 0.07645826 0.54098135 -0.04690951
0.05204188 0.36410928 0.16964516 0.38261974 0.11511718 0.032573145 0.10029043 -0.07511234
0.3206011 0.04832648 0.12894377 -0.0056200554 0.15858278 1.7114158e-05 0.5126557 -0.016265515
-0.52383894 0.06532361 -0.09261439 -0.26145482 -0.26612917 0.12135309 -0.10306821 -3.761614e-05
0.16919698 0.30291608 0.18796284 0.22686473 -0.6843408 0.0381911 0.057658367 -0.13358343
-0.06650556 -0.6584319 0.24985023 0.38860032 0.26360804 -0.15542296 6.287833e-05 0.04488359
-0.33706263 -0.21140459 -0.029364744 -0.33252597 0.29247102 0.012285582 -0.029929731 0.10084052
0.9725307 0.2665021 -0.20080246 -0.21227801 -0.028571943 -0.53642064 0.04832421 0.21565512
-0.52994376 0.078801505 -0.36132088 0.2979184 -0.2737904 -0.36874342 0.043415595 0.1800493
-1.536331 0.09084221 0.18567288 0.46651718 -0.062254485 0.08093809 0.2826939 -0.4734404
-0.1512908 0.3654156 0.1396288 -0.027929084 0.005903549 0.056581788 -0.031311106 -0.1381699
0.13841729 -1.1369369 0.18507285 0.2550194 0.2249137 -0.17291479 0.06507914 -0.22081293
0.16674474 0.093209326 1.0555182 0.0005060256 0.32835704 0.044438075 -0.2060809 0.47877955
-0.10852808 0.16214234 -0.22210777 0.06456401 0.19650602 0.18992977 0.087375864 -0.01368782
-0.16391276 0.03757342 0.52308947 0.030831512 -0.19207573 0.34423202 0.11192382 0.3009868
0.005583378 0.39739203 0.0056210007 -0.28468594 0.32055202 0.3742244 -0.029928347 0.119053684
-0.015390603 0.13449664 -0.10944221 -0.59444284 0.73619443 0.57015014 -0.042742178 0.049630865
-0.19263332 0.12745708 -0.6285587 0.3360319 -0.35973936 0.4505619 0.23283733 -0.17875788
0.07836189 -0.48307642 0.18914486 0.23148999 -0.3788379 0.008031479 0.4908214 -0.18210916
0.4244997 0.017549058 -0.2755303 0.01262505 -0.15969792 0.28658515 0.25003526 0.2704316
00000000: 72c8 803e 37d7 e73d f110 7e3e c75a 473e
00000010: 46ee 203e 0fed 87be 249a 8b3d 787b 6dbe
00000020: 5127 a43e 3739 af3d 93c6 e83d fc73 73b8
00000030: 9eba b3bd d8b8 36bf 4187 573f d57a a03e
00000040: 4c54 0f3e 91e2 13be 3c39 7d3e fb4e 64bf
00000050: 9689 cf3d 51e4 0fbd f8ad 7e3d bb66 553e
00000060: 1dcb d3be 9742 0bbe 20d1 ad3e 5ede 453e
00000070: 9204 3abd ad07 0fbe d2c8 5fbf 1256 c13e
00000080: 3a96 d6be 3109 3cbd 3ca4 84be 714e bdbd
00000090: 8f88 8e3e e223 c1be c0a4 bcbe 861f 3ebf
000000a0: dd81 2d3d 2763 8dbe 6515 52bc 6ec6 77be
000000b0: 8464 96bc d4c0 a9be 6665 093d 7bd6 50bd
000000c0: a441 b5bb 5744 73bd 00f6 ebb7 ea01 7bbc
000000d0: 5687 b3be 7aeb 2738 fe34 99b8 baf6 10be
000000e0: f1a8 9bbd 386a 34be 2e80 18be c486 31b8
000000f0: 536e ee38 0658 edbd 7a04 b13e aa54 cb3e
00000100: 9ebc 223c 7b26 00bf 4d26 463d 38eb 78b8
00000110: f670 4a3f 38fb b43b 8113 f2be 490a ee3b
00000120: 6476 ca36 8ec9 dbbe 15c3 e33d ae63 123f
00000130: 76d1 f53d 90e9 013d 65b0 1b3e 86f4 69b6
00000140: 5750 933e e0aa 0ebf c74e bf3e 0d5b 68be
00000150: 3d90 95be b0e2 8a38 0a05 7b3e 34f0 5c3c
00000160: 71f0 ee3e 2f03 8cbe 2b8a 9b3e 5a82 8ebe
00000170: a0bc 433e 89b5 d33d 6178 a0be 81fc 80be
00000180: 6814 e03e 4c77 4ebb a1c4 e9b8 2cd2 9cbf
00000190: f45a f13c 2696 9c3d c17d 0a3f 3024 40bd
000001a0: de29 553d 886c ba3e 76b7 2d3e bce6 c33e
000001b0: 8ec2 eb3d 6b6b 053d 1265 cd3d 80d4 99bd
000001c0: d425 a43e fdf1 453d d609 043e 7128 b8bb
000001d0: 8663 223e 6090 8f37 673d 033f 423f 85bc
000001e0: 4f1a 06bf 63c8 853d 9dac bdbd 68dd 85be
000001f0: 1542 88be f887 f83d 6d15 d3bd 06c6 1db8
00000200: f941 2d3e d117 9b3e 5579 403e 3a4f 683e
00000210: f530 2fbf 456e 1c3d 2e2b 6c3d 18ca 08be
00000220: 1134 88bd fe8e 28bf bdd8 7f3e 9ff6 c63e
00000230: a2f7 863e 3227 1fbe 8cdd 8338 dbd7 373d
00000240: 7993 acbe 727a 58be 558e f0bc d840 aabe
00000250: c3be 953e 7749 493c 322f f5bc 7985 ce3d
00000260: c6f7 783f f772 883e 299f 4dbe 685f 59be
00000270: b50f eabc dd52 09bf 9bef 453d b2d4 5c3e
00000280: 65aa 07bf af62 a13d 0dff b8be c388 983e
00000290: 412e 8cbe f0cb bcbe 8dd4 313d d85e 383e
000002a0: 7fa6 c4bf 7b0b ba3d 0821 3e3e 57db ee3e
000002b0: 8ffe 7ebd dfc2 a53d 41bd 903e c866 f2be
000002c0: faeb 1abe c117 bb3e dafa 0e3e 89cb e4bc
000002d0: 8f72 c13b 4ec2 673d 1340 00bd 697c 0dbe
000002e0: 43bd 0d3e 2687 91bf bd83 3d3e e791 823e
000002f0: c74f 663e 9310 31be 3648 853d c91c 62be
00000300: 22bf 2a3e 88e4 be3d 381b 873f cea6 043a
00000310: 6a1e a83e b304 363d df06 53be 9822 f53e
00000320: f843 debd a408 263e 3870 63be 233a 843d
00000330: e038 493e f37c 423e 1ef2 b23d e142 60bc
00000340: bfd8 27be 96e6 193d 31e9 053f 5e92 fc3c
00000350: 80af 44be 2e3f b03e 5138 e53d f11a 9a3e
00000360: c5f4 b63b f876 cb3e 5f30 b83b 5bc2 91be
00000370: 651f a43e 579a bf3e 4b2c f5bc 6bd2 f33d
00000380: de28 7cbc 7db9 093e 3d23 e0bd 682d 18bf
00000390: 3d77 3c3f 5cf5 113f 6c12 2fbd bc49 4b3d
000003a0: ab41 45be 1c84 023e 39e9 20bf 600c ac3e
000003b0: c22f b8be 0db0 e63e e96c 6e3e 4e0c 37be
000003c0: 337c a03d cb55 f7be 31af 413e b60b 6d3e
000003d0: 0bf7 c1be 7796 033c f14c fb3e d37a 3abe
000003e0: 0658 d93e 0bc3 8f3c 4f12 8dbe 4cd9 4e3c
000003f0: da87 23be 4abb 923e 9f04 803e 0376 8a3e

net.2.0.bias f4 [52]
0.13553615 -0.113827646 0.06256109 0.020785041 -0.035722207 -0.0046256944 -0.038635094 -0.0121258935
-0.041888673 -0.017089944 0.013457822 0.013995889 0.051721703 -0.029165009 -0.009229642 -0.055135798
-0.08301937 -0.104073875 0.006514375 -0.16057819 -0.16133985 0.045753885 0.043971524 0.03381932
-0.119419344 -0.014547819 -0.91003525 -0.6768704 -0.8087923 -0.677441 -0.61174136 -0.77214044
-0.750302 -0.73873913 -0.73514897 -0.8390301 -0.5823334 -0.7253129 -0.5197946 -0.71205986
-0.5802493 -0.6538374 -0.777657 -0.74391735 -0.7646426 -0.7631446 -0.8430586 -0.8463232
-0.57363015 -0.75280035 -0.65801656 -0.74799883
00000000: fdc9 0a3e 781e e9bd 0720 803d 6445 aa3c
00000010: 7351 12bd 2393 97bb d53f 1ebd afab 46bc
00000020: 7593 2bbd 3600 8cbc 327e 5c3c 034f 653c
00000030: 23da 533d 75eb eebc ed37 17bc 13d6 61bd
00000040: 0f06 aabd af24 d5bd 8a76 d53b 9c6e 24be
00000050: 4636 25be 6d68 3b3d 7c1b 343d 2186 0a3d
00000060: 2192 f4bd fa59 6ebc 12f8 68bf 6147 2dbf
00000070: 030d 4fbf c66c 2dbf 159b 1cbf ffaa 45bf
00000080: cb13 40bf 021e 3dbf b932 3cbf adca 56bf
00000090: cd13 15bf 1bae 39bf 4211 05bf 8e49 36bf
000000a0: 388b 14bf e361 27bf 8714 47bf 5e71 3ebf
000000b0: 9ebf 43bf 725d 43bf b0d2 57bf a3a8 58bf
000000c0: 6dd9 12bf 86b7 40bf c673 28bf da7c 3fbf
