suboptimal_policies/AdroitHandPen-v0_0.5.pth (torch, 362047 bytes, 6 tensors)

net.0.0.weight f4 [256, 45]
0	0xbbc3ce76	-0.00597554
1	0x3d1cc653	0.038275074
2	0xbe14d2b8	-0.14533508
3	0x3c4ebdbb	0.012618477
4	0xbd9fbf49	-0.078001566
5	0xbc199775	-0.009374489
6	0x3e145424	0.14485222
7	0xbd8eea91	-0.06978334
8	0xbdacbcff	-0.08434486
9	0xbd4b9acd	-0.049708176
10	0xbd88c49c	-0.06678125
11	0xbd13e288	-0.03610471
12	0x3c8d1f0a	0.017226715
13	0x3c84dcb2	0.016218517
14	0xbe075a06	-0.13217935
15	0x3d7c2e11	0.06156737
16	0xbcfbabde	-0.030721601
17	0x3e02f641	0.12789251
18	0x3dcb9f83	0.09942534
19	0xbd98ecc6	-0.07467036
20	0x3e07a3a9	0.13246025
21	0x3d9395b2	0.072062865
22	0xbdd58885	-0.1042643
23	0x3c7285f8	0.014802448
24	0xbc9de8a6	-0.019275974
25	0x3c3a20d3	0.011360365
26	0xbd4b71f4	-0.04966922
27	0xbda688ef	-0.08131587
28	0x3db7c8dc	0.08973858
29	0x3d7a62ee	0.061129503
30	0x3cd61447	0.026132716
31	0xbdaec0a8	-0.0853284
32	0x3e05ab61	0.13053657
33	0x3d693d0e	0.056942992
34	0x3e02f59f	0.1278901
35	0x3dd6d41b	0.10489675
36	0xbe01719c	-0.12640995
37	0x3dca499c	0.09877321
38	0x3ddbd650	0.10734236
39	0xbe053c81	-0.13011362
40	0x3e16a46d	0.14711161
41	0xbdb0c404	-0.08631137
42	0x3b6ed132	0.0036440608
43	0x3cfb16ea	0.030650575
44	0x3d48bdb4	0.04900904
45	0x3e0cbea4	0.13744599
46	0x3d636ec4	0.055525556
47	0x3cb4712e	0.022026625
48	0x3d971522	0.07377078
49	0x3e130ed8	0.14361131
50	0x3d4232e6	0.04741182
51	0x3def136f	0.116736285
52	0xbe0fffcd	-0.14062424
53	0xbe04b55e	-0.12959811
54	0x3db4ebc8	0.08834034
55	0x3d2db6ba	0.04241059
56	0xbe071b4b	-0.13194005
57	0xbda82e80	-0.08211994
58	0x3d9264c8	0.07148129
59	0xbdd79a13	-0.10527434
60	0x3e0e27a5	0.1388231
61	0xbceb0620	-0.028689444
62	0xbdcd47da	-0.1002347
63	0xbd567cc8	-0.052365094
64	0x3da822bd	0.08209751
65	0xbd925456	-0.07144992
66	0xbdbd0a7f	-0.092305176
67	0xbe149bff	-0.14512633
68	0xbd716c5b	-0.058941226
69	0xbdca5f4a	-0.09881456
70	0x3d3f976f	0.046775278
71	0x3c4d495a	0.012529695
72	0x3da7a258	0.081852615
73	0x3d594eef	0.053053793
74	0x3e133e4d	0.14379235
75	0x3d269ef3	0.04067893
76	0x3d8cb4fc	0.068704575
77	0x3da66d9b	0.08126374
78	0xbdf3f991	-0.119128354
79	0x3de2529f	0.11050915
80	0x3dae1782	0.085005775
81	0xbd2664b8	-0.040623397
82	0xbdbfae88	-0.09359461
83	0x3cfde139	0.030991184
84	0x3d3f0182	0.046632297
85	0xbd394571	-0.04523224
86	0x3c8a1e48	0.016860142
87	0x3da4a3a8	0.080390275
88	0x3e0d0809	0.13772596
89	0x3e02a190	0.12756944
90	0x3da4f02b	0.08053621
91	0xbb9049bf	-0.0044033225
92	0xbd24d137	-0.040238585
93	0xbb4d56bf	-0.0031332222
94	0xbd6b7feb	-0.05749504
95	0x3da3759c	0.079814166
96	0x3d9ab6a7	0.075543694
97	0xbc79699e	-0.015222935
98	0x3ce5400e	0.027984645
99	0xbdcdccaf	-0.10048806
100	0xbc1814da	-0.009282315
101	0x3dd5c06d	0.10437093
102	0x3d9ea96b	0.07747158
103	0xbb67ea08	-0.0035387296
104	0x3c17a676	0.009255996
105	0xbe127ccb	-0.14305417
106	0x3d6a46e8	0.057196528
107	0x3db82657	0.08991688
108	0x3dc99ccf	0.09844362
109	0xbd989572	-0.074503794
110	0xbdec433a	-0.1153626
111	0x3d0e38de	0.0347222
112	0x3ddce712	0.10786261
113	0xbde1e4ea	-0.1102999
114	0x3df62de4	0.12020472
115	0xbd9ccb16	-0.07655923
116	0xbbcb4307	-0.0062030586
117	0xbe0cb8ec	-0.13742417
118	0x3dbd0777	0.092299394
119	0x3dd4e9c2	0.10396148
120	0x3d84c720	0.064832926
121	0xbd52b039	-0.05143759
122	0xbd582bda	-0.052776195
123	0x3d3f9b6c	0.04677908
124	0xbdbf87a9	-0.09352047
125	0x3bafa04c	0.005359685
126	0xbe0e2a86	-0.13883409
127	0xbd43a091	-0.04776055
128	0x3c12a749	0.008951017
129	0x3dd557a9	0.104171105
130	0x3dca366d	0.09873662
131	0xbc1796da	-0.009252274
132	0xbc134ec3	-0.008990946
133	0xbd801dc3	-0.062556766
134	0xbdd9ceea	-0.10635169
135	0x3d40b393	0.047046255
136	0x3cc94534	0.024569131
137	0x3d9e9cda	0.07744761
138	0xbd939012	-0.072052136
139	0xbd0c0c26	-0.034191273
140	0x3d94bdc5	0.07262758
141	0xbdc72985	-0.09724716
142	0xbd943ecd	-0.07238541
143	0xbe0dbbe4	-0.13841206
144	0x3c21a631	0.009866283
145	0xbdd2c473	-0.10291376
146	0xbdd66d44	-0.104700595
147	0x3db1c602	0.08680345
148	0x3dc2f79c	0.09519884
149	0x3c1b4497	0.009476802
150	0xbdaaa31a	-0.083318904
151	0xbdd1507e	-0.10220431
152	0xbdc32540	-0.09528589
153	0xbcd282aa	-0.025697071
154	0x3dad9562	0.08475758
155	0xbe0829a9	-0.13297142
156	0x3d55a608	0.052160293
157	0x3d78e1cb	0.060762208
158	0x3d1cee01	0.038312916
159	0x3dcbdb36	0.099539205
160	0xbe15cd91	-0.14629199
161	0x3e136d65	0.143972
162	0xbda97ee0	-0.082761526
163	0x3bea9e4a	0.007159983
164	0xbc86f2ad	-0.016473139
165	0x3dacae9e	0.08431743
166	0x3de23a5a	0.11046286
167	0xbd27d351	-0.04097301
168	0x3ccf732f	0.025323479
169	0x3ceed785	0.029155502
170	0xbce7c8fb	-0.028294077
171	0xbc622261	-0.013802142
172	0x3dc53992	0.09630121
173	0x3d070839	0.032966826
174	0xbd6fa11d	-0.05850326
175	0xbdc7730e	-0.09738742
176	0xbb40fdd9	-0.002944818
177	0x3d913dc0	0.07091856
178	0xbb8b02df	-0.0042422856
179	0x3d72b9fa	0.059259392
180	0x3decf461	0.11570049
181	0xbd91f62b	-0.07127031
182	0xbdf50695	-0.11964146
183	0x3da3fe00	0.08007431
184	0x3c8bcc20	0.017065108
185	0xbe07f412	-0.13276699
186	0xbe0411d0	-0.1289742
187	0xbd15565a	-0.036459304
188	0x3dbf81f3	0.09350958
189	0x3c4d9822	0.012548478
190	0x3db664c3	0.089059375
191	0xbd959d64	-0.073054105
192	0xbe143300	-0.1447258
193	0x3c59840f	0.013276114
194	0x3d06f87b	0.032951813
195	0xbcbef5ce	-0.023310568
196	0x3d5c95dd	0.05385386
197	0xbd6c9d6d	-0.05776732
198	0xbd364518	-0.044499487
199	0xbc5ea1a5	-0.013588344
200	0x3d29229f	0.041292783
201	0xbdb043a0	-0.086066484
202	0x3b445ec9	0.0029963723
203	0x3c961e11	0.018324884
204	0xbd0ae10b	-0.033906024
205	0x3de55dac	0.11199507
206	0xbd9b63cf	-0.07587396
207	0xbce5b09a	-0.028038312
208	0xbb9ad035	-0.0047245272
209	0xbdc3243a	-0.09528394
210	0x3d6d93bf	0.05800223
211	0x3d517ab2	0.051142402
212	0xbd8020c7	-0.06256252
213	0xbdd85022	-0.10562159
214	0xbddaa68f	-0.106763
215	0xbde49c7a	-0.11162658
216	0x3da43fa8	0.08019954
217	0x3c211672	0.009832012
218	0xbda62dc3	-0.08114197
219	0xbe08e294	-0.13367683
220	0xbde96bb0	-0.11397493
221	0xbdd824b5	-0.10553876
222	0xbc88ef8e	-0.016715791
223	0xbbd62c2b	-0.006536027
224	0xbcf09341	-0.029367091
225	0x3e0ce294	0.13758308
226	0xbd719214	-0.0589772
227	0x3d7053d1	0.058673684
228	0xbda68e1d	-0.08132575
229	0x3d8aa60a	0.06769951
230	0x3d89b9cc	0.06724891
231	0x3e04d7df	0.12972973
232	0x3dbc40c2	0.09192039
233	0xbd8f950c	-0.0701085
234	0x3d42ba2e	0.047540836
235	0xb8a3022c	-7.77285e-05
236	0xbc9f8bed	-0.019475901
237	0x3e129fee	0.14318821
238	0xbe0def2a	-0.13860765
239	0x3d43e2bd	0.047823656
240	0x3d98b691	0.07456697
241	0xbc9aed51	-0.01891199
242	0xbcc7dfda	-0.024398733
243	0xbc31292a	-0.010813037
244	0x3de76376	0.112982675
245	0xbd21ee4c	-0.0395339
246	0xbc1efb89	-0.009703525
247	0x3d6b28b5	0.057411868
248	0xbd7e906f	-0.06214946
249	0xbd965874	-0.0734109
250	0xbe02b6ac	-0.12764996
251	0x38a2b66c	7.758741e-05
252	0x3d6b4e80	0.05744791
253	0xbda80bb5	-0.08205358
254	0x3dd1e4b7	0.10248702
255	0xbda50b26	-0.08058767

net.0.0.bias f4 [256]
0	0x3d0aea7f	0.03391504
1	0x3d3fa387	0.04678681
2	0xbdb78347	-0.08960586
3	0x3d54524f	0.051836308
4	0xbd900127	-0.0703147
5	0x3d1b6155	0.03793462
6	0xbdff625f	-0.12469935
7	0x3d256f85	0.040389556
8	0xbdc6d38b	-0.09708317
9	0x3da5b94d	0.08091984
10	0x3df40840	0.11915636
11	0xbdc92a85	-0.09822563
12	0xbdb71095	-0.0893871
13	0xbda44d5a	-0.08022566
14	0xbcc3c9a3	-0.023899859
15	0xbccf66ec	-0.025317632
16	0x3d4413c8	0.047870427
17	0xbdd2cd10	-0.10293019
18	0x3d865dea	0.065608814
19	0xbdc44f41	-0.09585429
20	0x3de1c03e	0.110229954
21	0x3db39fb3	0.087706946
22	0x3d7afb33	0.06127472
23	0x3dfa1923	0.12211826
24	0xbde35261	-0.11099697
25	0x3c9d93f5	0.01923559
26	0x3e036712	0.12832287
27	0xbe0342d6	-0.12818465
28	0x3bffb6bb	0.0078037656
29	0x3da95597	0.08268278
30	0xbdd7ca6b	-0.10536655
31	0xbcb9fa19	-0.022702264
32	0x3b8077a6	0.003920513
33	0x3d38040f	0.044925746
34	0x3d1d3f49	0.03839043
35	0x3dc4b870	0.09605491
36	0xbdee38bb	-0.11631914
37	0x3dec9dbe	0.115535244
38	0xbd092ba7	-0.033488896
39	0x3d844718	0.064588726
40	0x3d90b12a	0.07065041
41	0xbdbd9cca	-0.09258421
42	0x3e180c89	0.14848532
43	0x3cc64402	0.02420235
44	0xbd6dd599	-0.05806503
45	0x3ddb7073	0.10714807
46	0x3d654e84	0.05598308
47	0x3dbeaf3f	0.09310769
48	0xbe16651c	-0.14687008
49	0x3babb50a	0.0052400874
50	0x3d002bbf	0.03129172
51	0xbdc1f3ec	-0.094703525
52	0x3d4014d2	0.046894856
53	0x3d2fb5b3	0.04289789
54	0x3d62c875	0.055366952
55	0xbd73f76c	-0.05956213
56	0xbdafc811	-0.085830815
57	0xbdde3f10	-0.10851872
58	0x3df4e536	0.11957781
59	0xbe02cfba	-0.12774554
60	0xbe02b42a	-0.1276404
61	0x3e0a0da1	0.13481762
62	0xbd104165	-0.035218615
63	0x3e0afe8f	0.13573669
64	0x3ce60242	0.028077248
65	0x3db63f7d	0.08898828
66	0x3d392759	0.04520354
67	0xbad62595	-0.0016338105
68	0xbe135d97	-0.1439117
69	0x3cbd139a	0.023080636
70	0xbdf89b33	-0.12138977
71	0x3e04844e	0.12941095
72	0x3deb45ab	0.114878975
73	0x3e1664e1	0.1468692
74	0xbc14139c	-0.009037878
75	0xbe149f7f	-0.14513968
76	0x3df14412	0.117805615
77	0xbdad2400	-0.08454132
78	0x3c86e65f	0.016467271
79	0x3db618bf	0.08891439
80	0xbddc3b4f	-0.107535
81	0x3ccc303e	0.024925347
82	0xbbb37e6d	-0.0054777176
83	0xbd54697e	-0.051858418
84	0x3c685750	0.014180973
85	0x3e026e67	0.12737428
86	0xbc95fc6b	-0.018308839
87	0xbe0b84d4	-0.13624889
88	0xbdabe244	-0.08392766
89	0x3dc902f8	0.09815019
90	0x3d84f412	0.06491865
91	0xbd114373	-0.035464715
92	0xbd019e4d	-0.031645108
93	0xbda97339	-0.0827393
94	0xbd790737	-0.060797896
95	0xbcfa9203	-0.030587202
96	0x3d9745d8	0.073863685
97	0xbda44a4c	-0.080219835
98	0xbe0144fa	-0.12623969
99	0x3d5d4a00	0.05402565
100	0xbd420f58	-0.047377914
101	0xbd4a1839	-0.049339507
102	0xbcd49e60	-0.025954425
103	0xbd1a98a9	-0.037743244
104	0x3c8abf35	0.016936878
105	0x3debbec7	0.11510997
106	0x3df3a5a6	0.11896829
107	0x3cf11898	0.029430673
108	0xbdc29978	-0.09501928
109	0x3e16b1d9	0.14716281
110	0xbd39b2fd	-0.045336712
111	0x3d8e78cc	0.06956634
112	0xbd4641bc	-0.048402533
113	0x3cee6c7a	0.02910446
114	0xbe0c646d	-0.13710184
115	0x3dac777e	0.08421229
116	0x3d90a0f0	0.070619464
117	0xbc66e0b5	-0.01409166
118	0xbd7e229b	-0.06204472
119	0xbd9ffe80	-0.07812214
120	0x3cd17554	0.025568642
121	0xbd99c01c	-0.07507345
122	0xbdb5177f	-0.08842372
123	0x3df45953	0.119311
124	0x3d3e1a7c	0.046411976
125	0xbc79b679	-0.015241259
126	0x3bdd5b3e	0.0067552617
127	0x3ddee540	0.1088357
128	0xbd664230	-0.056215465
129	0x3df610f9	0.12014956
130	0xbda98601	-0.08277512
131	0x3e13de03	0.1444016
132	0x3db3eaa5	0.08784989
133	0x3da41846	0.08012442
134	0x3deff766	0.117171094
135	0xbcb9911d	-0.022652203
136	0xbd8099ef	-0.062793605
137	0xbd4a9b08	-0.049464256
138	0xbd43de22	-0.047819264
139	0x3a24b7d0	0.0006283494
140	0x3d84896b	0.06471523
141	0x3d86cd88	0.06582171
142	0x3e017258	0.12641275
143	0xbdb8f6f0	-0.090314746
144	0x39631200	0.00021655113
145	0xbda893ec	-0.08231339
146	0x3c3ec766	0.01164422
147	0xbd99a7de	-0.07502721
148	0x3d125515	0.03572567
149	0xbe138814	-0.14407378
150	0xbe0d8052	-0.13818482
151	0x3c9d95b6	0.019236427
152	0xbdead5ac	-0.11466536
153	0x3cd5f33a	0.026116956
154	0x3cae63c7	0.021287812
155	0xbb2842d8	-0.0025674608
156	0xbdfb900a	-0.12283333
157	0x3cf59d20	0.02998215
158	0x3cd4d080	0.025978327
159	0xbd6ee7cd	-0.05832653
160	0x3ddfadef	0.10921847
161	0x3d997730	0.07493436
162	0x3dc4e4db	0.09613963
163	0xbdb747f0	-0.08949268
164	0x3e0b5527	0.13606702
165	0xbd97130c	-0.0737668
166	0xbdcc1776	-0.09965412
167	0xbe0c9ca9	-0.13731636
168	0xbd947a9e	-0.0724995
169	0x3d9882c4	0.074468166
170	0xbd16cbad	-0.036815334
171	0xbdc3635e	-0.09540437
172	0x3c686c20	0.014185935
173	0xbd93ac3d	-0.07210586
174	0xbda6623f	-0.08124208
175	0x3df58170	0.11987579
176	0x3cd7cb5e	0.02634209
177	0x3db37759	0.08762998
178	0x3db0a55c	0.0862529
179	0x3db300e4	0.08740404
180	0x3d8a3941	0.067492016
181	0x3e135f1f	0.14391755
182	0x3e0eb400	0.13935852
183	0x3df37453	0.118874215
184	0x3c9ae13a	0.018906225
185	0x3def1a00	0.11674881
186	0x3e01e892	0.12686375
187	0x3c9b45f0	0.018954247
188	0xbd56d947	-0.052453306
189	0xbd3f0942	-0.04663969
190	0x3d4e8131	0.050416175
191	0xbd3c2114	-0.045929983
192	0x3e133763	0.14376597
193	0xbcb07446	-0.021539818
194	0xbd0333f0	-0.032031953
195	0x3d118fd0	0.03553754
196	0xbdd4b6dc	-0.1038644
197	0x3aafc318	0.0013409583
198	0x3d5b5bd4	0.05355437
199	0xbbb7c2f2	-0.005607956
200	0xbd87f7d6	-0.06639068
201	0xbe099a5e	-0.13437793
202	0xbdccad4b	-0.099939905
203	0x3d925195	0.07144467
204	0xbbe9b9a6	-0.0071327267
205	0x3e10a9d3	0.14127283
206	0xbaccfedd	-0.001563992
207	0x3d3a0457	0.045414295
208	0x3c821c14	0.01588253
209	0xbe164f0a	-0.14678589
210	0xbc19549b	-0.00935855
211	0x3d7193cd	0.058978844
212	0x3dcfc5a4	0.10145119
213	0xbd8baa24	-0.06819561
214	0x3d470348	0.048587114
215	0x3dda1304	0.10648158
216	0x3dcab799	0.098983
217	0xbdb259dc	-0.087085456
218	0xbdd8f097	-0.10592764
219	0x3d829dc5	0.063777484
220	0x3db393ff	0.087684624
221	0x3c5d5d56	0.013511023
222	0xbcd0a70e	-0.025470283
223	0x3dde0767	0.10841256
224	0xbdbfac6d	-0.093590595
225	0x3e03ff8e	0.12890455
226	0x3d3e901f	0.046524163
227	0x3cdecb9b	0.027196696
228	0x3d3df8d0	0.046379864
229	0x3d022ac7	0.031779077
230	0x3e076838	0.1322335
231	0xbd5f3b30	-0.054499805
232	0xbd737b5c	-0.059443817
233	0xbe1152d1	-0.14191748
234	0xbdeab828	-0.11460906
235	0xbd42f743	-0.04759909
236	0x3bcae8af	0.006192289
237	0x3e055967	0.13022386
238	0x3d9ad620	0.07560372
239	0xbdbdb339	-0.092627
240	0x3d386597	0.04501876
241	0xbdd78c86	-0.105248496
242	0x3def5499	0.116860576
243	0x3d9070d5	0.07052771
244	0xbc996ec3	-0.018729573
245	0xbbb9193a	-0.005648759
246	0xbd2c62a8	-0.042086273
247	0xbdd3298a	-0.10310657
248	0xbdeb3990	-0.114855886
249	0xbda30f46	-0.079618976
250	0x3dccac11	0.099937566
251	0xbd1cc5df	-0.038274642
252	0x3cebc8da	0.028782297
253	0x3db23047	0.087006144
254	0xbe17ebfe	-0.14836118
255	0x3de36f28	0.11105186

net.1.0.weight f4 [256, 256]
0	0x3ccf09e5	0.025273273
1	0x3ced4a86	0.0289662
2	0xbc6226f7	-0.013803235
3	0x3d43e818	0.047828764
4	0x3c81af36	0.015830617
5	0x3d52c574	0.051457837
6	0xbab5e410	-0.0013877172
7	0xbc431c3d	-0.011908588
8	0xbbdc0d36	-0.006715442
9	0xbd663fc0	-0.05621314
10	0xbd371076	-0.044693433
11	0xbd1a26be	-0.037634604
12	0xbc9c3e08	-0.019072548
13	0x3cc38b54	0.023870148
14	0xbd305d94	-0.043057993
15	0xbd546047	-0.05184963
16	0x3c962d44	0.018332131
17	0xbd2dc85f	-0.042427417
18	0x3d2064a6	0.039158486
19	0xbc4d39fa	-0.01252603
20	0x3d4ed99d	0.0505005
21	0xbcf2c9a1	-0.02963716
22	0xbbb10a34	-0.0054028276
23	0xbc21a0c6	-0.0098649915
24	0xbcca92ea	-0.024728257
25	0xbc8337cf	-0.016017823
26	0x3d7d9823	0.061912667
27	0x3c5bf0dd	0.0134241255
28	0x3d38fc73	0.04516263
29	0xbd55931b	-0.052142244
30	0x3d7481f6	0.059694253
31	0x3c998cdc	0.018743925
32	0x3d5fec4f	0.05466872
33	0x3c46eb3a	0.012141043
34	0xbd005cd1	-0.031338517
35	0xbd10e590	-0.035375178
36	0xbcb8f35c	-0.02257698
37	0x3d6e8070	0.058227956
38	0x3c1a19c0	0.009405553
39	0x3d63a8c8	0.055580884
40	0xbd4b9153	-0.04969914
41	0x3c2e7a7a	0.010649318
42	0x3c5c8856	0.013460239
43	0x3cba4b0e	0.022740867
44	0xbc1d1458	-0.00958737
45	0xbc6996ad	-0.014257115
46	0xbcb733ed	-0.022363627
47	0x3d4b0b4a	0.049571313
48	0x3d4f37d2	0.050590344
49	0xbcc96d64	-0.024588294
50	0x3cbe236e	0.023210254
51	0x3d11dd8a	0.035611667
52	0xbcdf72f2	-0.02727649
53	0xbbf5809f	-0.0074921395
54	0xbd7c501e	-0.061599843
55	0xbd540b69	-0.051768694
56	0x3d6c95b4	0.057759956
57	0x3b06d0fd	0.0020571344
58	0xbd073529	-0.03300968
59	0xbc5a12d8	-0.013310157
60	0xbd2cfdf8	-0.04223439
61	0xbd1d1661	-0.03835142
62	0x3d78d92c	0.060753986
63	0xbd193930	-0.037408054
64	0xbcb76c10	-0.022390395
65	0xbc0bdacc	-0.008536052
66	0xbd438ffc	-0.047744736
67	0xbae5d3cd	-0.0017534435
68	0x3d20b98c	0.03923945
69	0x3d7337d6	0.05937942
70	0xbb93e869	-0.0045137894
71	0xbd118b10	-0.03553301
72	0xbd724a5f	-0.059152957
73	0x3d0df458	0.034656852
74	0x3d32e9d7	0.04368004
75	0x3a667e26	0.00087926013
76	0x3d27d8ca	0.04097823
77	0xbc2e33ec	-0.010632496
78	0x3cecc902	0.028904442
79	0xbc472c75	-0.0121565955
80	0xbd805ecc	-0.06268081
81	0xbd6f7730	-0.058463275
82	0xbca8f455	-0.02062432
83	0x3d0fcd8a	0.035108127
84	0xb9b28518	-0.00034049968
85	0xbcb080f3	-0.021545863
86	0xbd044806	-0.03229525
87	0x3d432ec3	0.047652017
88	0x3d6cac66	0.0577816
89	0xbc5f1d17	-0.013617775
90	0x3cdb6f8a	0.026786584
91	0xbc9d358e	-0.019190576
92	0xbc041828	-0.0080624
93	0x3d06c6e5	0.032904524
94	0xbc2403f7	-0.010010711
95	0x3cee4f85	0.029090652
96	0x3c659f26	0.014014995
97	0x3cba266f	0.022723405
98	0x3cfa88dc	0.030582838
99	0x3cf017ec	0.029308282
100	0xbb36d8d0	-0.0027900226
101	0xbc604a95	-0.013689657
102	0x3d75a3cf	0.059970673
103	0x3d26adca	0.040693082
104	0x3d6d73c7	0.057971742
105	0xbc8911f9	-0.016732203
106	0xbc646af6	-0.013941517
107	0x3c88ced7	0.016700191
108	0x3c1a5cc6	0.009421533
109	0x3c9897d8	0.018627092
110	0x3d222b63	0.039592158
111	0xbc1a1a91	-0.009405748
112	0xbd30c5b0	-0.04315728
113	0xbcf596ed	-0.029979194
114	0xbc6a0464	-0.014283273
115	0x3c5b3634	0.013379622
116	0x3d00d4ba	0.03145287
117	0x3c27f472	0.010251151
118	0xbd149906	-0.036278747
119	0xbd2c344f	-0.042042073
120	0xbce8ec9f	-0.028433142
121	0xbd6d0347	-0.057864454
122	0xbd4ce892	-0.050026484
123	0xbd37e22f	-0.04489344
124	0xbd3bd981	-0.045861725
125	0x3d5548ea	0.05207149
126	0x3d7b21bc	0.06131147
127	0xbcf1cdad	-0.02951702
128	0xbd115424	-0.035480633
129	0xbb764948	-0.00375803
130	0x3cfec579	0.031100022
131	0x3c2e74c1	0.0106479535
132	0xbc26358c	-0.0101446025
133	0x3d6e9ae2	0.058253177
134	0xba11d9f6	-0.000556379
135	0xbc8c7f03	-0.017150408
136	0xbd67d5be	-0.056600325
137	0x3c9a4483	0.018831497
138	0xbd42f6cf	-0.047598656
139	0xbd7e4372	-0.06207604
140	0x3b426553	0.0029662445
141	0x3d3c50a9	0.04597536
142	0x3d5b483b	0.05353568
143	0xbd643367	-0.055713084
144	0x3d1483ab	0.03625838
145	0xbb311472	-0.0027020243
146	0x3c9fd405	0.019510278
147	0x3c86ea7d	0.016469235
148	0xbce23609	-0.027613657
149	0xbc808962	-0.01569051
150	0x3d045b01	0.03231335
151	0x3d3f1762	0.04665316
152	0x3d03b356	0.03215345
153	0x3d45de2e	0.04830759
154	0xbd7a473f	-0.0611031
155	0xbbb50e21	-0.005525366
156	0xbd1b61f5	-0.037935216
157	0xbd388f50	-0.04505855
158	0xbd212096	-0.039337717
159	0xbd23e4c3	-0.040013086
160	0xbd44398b	-0.04790644
161	0x3d308ea1	0.04310477
162	0xbc5fb047	-0.013652868
163	0x3cdb7f23	0.026794022
164	0x3adaa936	0.0016682509
165	0xbd028706	-0.03186705
166	0xbd30b400	-0.04314041
167	0x3d7c24e2	0.06155861
168	0xbd50a648	-0.05093983
169	0x3c3ad77d	0.0114039155
170	0xbcf1ae99	-0.0295022
171	0xbb753120	-0.0037413314
172	0x3ccd34d1	0.025049599
173	0x3c115d6a	0.008872369
174	0x3cd6b83b	0.026210895
175	0xbd0f7b33	-0.0350296
176	0xbd0a2c24	-0.033733502
177	0xbd2e7dcf	-0.04260045
178	0x3c70ccf6	0.014697304
179	0xbd0d8b2e	-0.03455656
180	0xbbc4dd19	-0.006007802
181	0x3b987e63	0.0046537383
182	0xbcede58a	-0.029040117
183	0xbd0eaee7	-0.03483477
184	0x3cb30cd1	0.021856697
185	0x3bd9da67	0.00664835
186	0xbb986304	-0.0046504755
187	0xbd56acc8	-0.05241087
188	0x3d64feec	0.055907175
189	0x3cc55d0d	0.024092222
190	0x3cc8fbc7	0.02453412
191	0x3cdb071a	0.026736785
192	0x3d32ad1b	0.043622117
193	0xbc267f3c	-0.010162171
194	0x3d06b4aa	0.03288714
195	0x3be368c9	0.0069399816
196	0xbd7c0aba	-0.061533667
197	0x3bd17e69	0.006393243
198	0x3d073a36	0.0330145
199	0x3d602e0f	0.054731425
200	0x3c7987ff	0.015230178
201	0xbcc5c41c	-0.024141364
202	0x3d0b2513	0.033970904
203	0x3c756a96	0.014979025
204	0xbc56471a	-0.013078475
205	0x3ce5a53f	0.028032897
206	0xbcb626a5	-0.022235224
207	0xbcacdb6d	-0.021100724
208	0x3b9b1ab5	0.0047334083
209	0xbc7d4c7e	-0.015460132
210	0x3d7b1832	0.06130237
211	0x3c96a688	0.018389955
212	0xbcec2487	-0.028826011
213	0x3c2e46b4	0.010636974
214	0x3d34dd72	0.0441565
215	0xbcd8a297	-0.026444716
216	0xbd625665	-0.055258173
217	0xbd3d2207	-0.04617503
218	0x3cd44700	0.025912762
219	0x3d191590	0.03737408
220	0xbd7d1fb0	-0.061797798
221	0xbd7a9187	-0.061173942
222	0x3d2869a2	0.041116364
223	0x3c330643	0.010926786
224	0xbca8c998	-0.02060394
225	0x3d5122e5	0.05105867
226	0xbd5450eb	-0.051834982
227	0x3d3c83c0	0.046024084
228	0x3c47effa	0.012203211
229	0x3cf90a5a	0.030400444
230	0x3aa0a516	0.0012256231
231	0x3c3ba13d	0.011452016
232	0xbc33c5a1	-0.010972411
233	0x3c37d8a7	0.011221088
234	0x3d49c735	0.049262244
235	0x3d380603	0.04492761
236	0xbd0dbb85	-0.03460266
237	0xbb87d3a1	-0.004145101
238	0xbc5b6358	-0.013390385
239	0x3d060d0d	0.03272729
240	0x3c5ddbb4	0.013541151
241	0x3ba83341	0.005133063
242	0xbd1f79d1	-0.038934533
243	0x3d530eec	0.051527902
244	0xbd54808f	-0.051880416
245	0xbc7e8ab5	-0.015536
246	0x3d453e8e	0.04815536
247	0xbd227cd9	-0.039669845
248	0x3d62a7e6	0.0553359
249	0xbccec146	-0.025238644
250	0xbd011101	-0.031510357
251	0xbd1a740d	-0.03770833
252	0xbb878e5d	-0.004136844
253	0xbd6e182c	-0.05812852
254	0xbd7c5158	-0.061601013
255	0xbd153735	-0.036429603

net.1.0.bias f4 [256]
0	0xbd712de9	-0.058881674
1	0xbd07ba38	-0.033136576
2	0x3cbf8725	0.023379872
3	0xbc99d311	-0.018777402
4	0x3d2d969b	0.042379957
5	0x3d7979cd	0.060907174
6	0xbd681faa	-0.056670822
7	0x3d10d673	0.035360765
8	0xbc9d3c5f	-0.019193826
9	0xbd35c27c	-0.044374928
10	0xbca84339	-0.020539867
11	0x3b5fd4bd	0.0034153902
12	0x3ba811f8	0.005129095
13	0x3b14d050	0.0022707172
14	0x3c96d435	0.018411735
15	0xbc955e82	-0.018233541
16	0xbd663b4a	-0.056208886
17	0x3d0eabb7	0.03483173
18	0x3c9891d0	0.018624216
19	0x3d544a8a	0.0518289
20	0xbcdd8765	-0.0270421
21	0xbbe887b3	-0.0070962547
22	0xbc707bc6	-0.014677947
23	0xbd7112ef	-0.058855947
24	0xbcdaaa42	-0.026692513
25	0x3d381d9c	0.044950113
26	0x3ce572c3	0.028008824
27	0x3d0c6fe9	0.034286413
28	0xbc376795	-0.0111941295
29	0xbc5d3b48	-0.013502903
30	0xbba6e1d4	-0.005092839
31	0xbd7dfd14	-0.062008932
32	0xbd2f7b6c	-0.042842314
33	0x3d45f53e	0.048329584
34	0xbd44d469	-0.048054133
35	0xbc1f5471	-0.009724722
36	0x3d3e5567	0.046468165
37	0x3be7a28e	0.0070689386
38	0x3cecc48f	0.02890232
39	0x3d340d71	0.04395813
40	0xbc84a552	-0.016192112
41	0xbcd62523	-0.026140755
42	0x3b9f00f2	0.0048524076
43	0x3cdd0eab	0.026984533
44	0xbd487739	-0.048941825
45	0x3ba2f553	0.0049730926
46	0xbb6f6e58	-0.0036534276
47	0x3d283d80	0.041074276
48	0x3c5d645b	0.013512696
49	0xbbe67498	-0.007032942
50	0x3c919f9b	0.017776301
51	0xbd495876	-0.04915663
52	0x3d22829f	0.03967535
53	0x3c0c3512	0.008557575
54	0x3d73f94e	0.059563927
55	0xbd27013f	-0.040772673
56	0xbd647231	-0.055772964
57	0xb9676641	-0.00022067969
58	0x3bb7f5e0	0.0056140274
59	0x3d7ce62f	0.061742958
60	0x3d3ddff4	0.046356156
61	0xbd14d4c3	-0.036335718
62	0xbd69cf31	-0.05708236
63	0x3d201a70	0.039087713
64	0xbb413231	-0.002947938
65	0xbcd411e1	-0.025887432
66	0x3d24883f	0.040168997
67	0xbd13edba	-0.036115386
68	0x3d5c2cd8	0.053753704
69	0xbcd483fd	-0.025941843
70	0xbd4d2143	-0.05008055
71	0x3c5bcebe	0.01341599
72	0x3c33b69e	0.010968832
73	0xbc129d2c	-0.0089486055
74	0xbd2712fe	-0.040789597
75	0xbc6fb5ff	-0.014630794
76	0xbc2394aa	-0.009984175
77	0x3d1cc223	0.03827108
78	0xbd39f1be	-0.04539656
79	0x3c884835	0.016635993
80	0x3d54cdec	0.051954195
81	0x3cefd7ec	0.029277764
82	0xbd7e6460	-0.062107444
83	0x3d5f3615	0.054494936
84	0x3d52607f	0.051361557
85	0x3d05247b	0.032505494
86	0x3d7e3996	0.062066637
87	0x3bebf3a7	0.0072006765
88	0x3d2073a8	0.0391728
89	0x3d5fd6f2	0.054648347
90	0xbd769e4f	-0.06020957
91	0xbd641455	-0.055683453
92	0xbd4cdfa8	-0.050017983
93	0xbd7cfdca	-0.06176547
94	0xbd48fe27	-0.049070504
95	0xbcf90caa	-0.030401547
96	0x3d7f9f9a	0.062408067
97	0xbc677026	-0.014125859
98	0x3c537d83	0.012908342
99	0x3d5f8244	0.05456759
100	0x3d22d0ae	0.039749794
101	0x3cee7649	0.029109137
102	0x3d12355f	0.03569543
103	0x3c623fdd	0.0138091715
104	0x3d531241	0.05153108
105	0x3d33d24b	0.043901723
106	0x3d61be29	0.05511299
107	0x3c20ba1e	0.009809999
108	0xbd50408f	-0.050842818
109	0x3d456b8f	0.04819828
110	0x3c7769cd	0.0151009085
111	0xbd4ab969	-0.049493227
112	0x3d05b15b	0.032639842
113	0x3ccb3152	0.024803791
114	0x3d0ff5f9	0.035146687
115	0x3b9fbe92	0.0048750127
116	0xbd4536e8	-0.048148066
117	0x3cb0d6b1	0.021586748
118	0xbd46c7e2	-0.048530467
119	0x3cecca1d	0.028904969
120	0x3d607aad	0.054804493
121	0x39dd0c13	0.000421614
122	0x3c2737f7	0.010206214
123	0x3cfb7169	0.030693727
124	0xbd325c7a	-0.043545224
125	0x3d26ed4d	0.04075365
126	0xbceea9b6	-0.029133659
127	0xbd41ef22	-0.047347195
128	0x3d770966	0.060311697
129	0xbc583f6e	-0.013198717
130	0xbcb530c8	-0.022117987
131	0x3cade097	0.021225257
132	0x3b9948e9	0.004677881
133	0x3c2d597d	0.010580418
134	0x3d5c083a	0.053718783
135	0xbd261241	-0.040544752
136	0xbc90935d	-0.017648393
137	0x3c98dd51	0.01866022
138	0x3bb0ffc5	0.005401584
139	0xbd558166	-0.052125357
140	0xbd1c5d8e	-0.03817516
141	0x3ce125ec	0.027483903
142	0xbca10793	-0.019656932
143	0x3c9caf0e	0.019126441
144	0x3b05c694	0.0020412551
145	0xbd402f45	-0.04692008
146	0x3cdc4ac1	0.026891114
147	0x3ca4f912	0.020138297
148	0x3be2d210	0.006922014
149	0x3d4acf33	0.049514007
150	0xbd30fa8e	-0.043207698
151	0xbc9fc336	-0.019502264
152	0x3d36ddc6	0.044645093
153	0xbcd7cf58	-0.026343986
154	0xbd4521b4	-0.048127845
155	0x3d488bd8	0.04896149
156	0xbd0ac251	-0.03387672
157	0x3bce976c	0.006304672
158	0xbb8f29df	-0.004369005
159	0x3d47c5e7	0.04877272
160	0x3c9337a1	0.017970862
161	0xb9d21315	-0.00040068539
162	0xbd1c62b7	-0.03818008
163	0xbd78c535	-0.060734946
164	0x3cd9684e	0.026538994
165	0xbd61f707	-0.055167224
166	0x3d785121	0.060624246
167	0x3d14db33	0.036341857
168	0xbd3ca6fb	-0.046057682
169	0xbce1b77a	-0.027553309
170	0x3b02f4de	0.0019982378
171	0x3d3ae88c	0.04563193
172	0x3d5e3add	0.054255355
173	0x3a7d6ee0	0.0009667706
174	0xbd6120be	-0.054962866
175	0xbd6bb2a1	-0.0575434
176	0xbd56cd7d	-0.052442063
177	0x3cd86160	0.02641362
178	0x3d5b81be	0.05359053
179	0x3d2bf52f	0.041981872
180	0x38f7c218	0.000118140306
181	0xbcbed33b	-0.023294082
182	0xbcecb93e	-0.028896924
183	0x3c50649f	0.012719302
184	0x3d0c77a4	0.034293786
185	0xbd1a66c1	-0.03769565
186	0xbd0e2c00	-0.03470993
187	0x3d6f4490	0.058414996
188	0x3d003c68	0.031307608
189	0x3d6da702	0.0580206
190	0xbcc532ac	-0.024072014
191	0x3d01529f	0.031572934
192	0x3d2aacde	0.041668765
193	0x3d3ebd56	0.046567284
194	0x3c4b7c0d	0.012419713
195	0x3d4a869b	0.049444776
196	0xbcfd099f	-0.030888377
197	0x3d71761f	0.05895054
198	0x3c9f77cd	0.019466305
199	0xbcbf3053	-0.023338472
200	0x3aab90c4	0.0013089408
201	0xbcd23799	-0.025661277
202	0x3d4e2f5e	0.05033814
203	0x3d53992d	0.05165975
204	0xbd4278ac	-0.047478363
205	0x3d0e44d9	0.034733627
206	0xbccbe82b	-0.02489098
207	0xbc555450	-0.01302059
208	0x3d4e67f6	0.050392114
209	0xbd3ef042	-0.046615846
210	0x3cea53ce	0.028604414
211	0x3d7ebb06	0.06219008
212	0xbd2af251	-0.041734997
213	0x3d1f5b28	0.038905293
214	0x3b463256	0.0030242405
215	0x3cabcf0f	0.020972757
216	0x3c0ee0ab	0.008720557
217	0xbc7f50ab	-0.015583198
218	0xbd5ea816	-0.054359518
219	0xbc3f3291	-0.011669771
220	0xbd5fc960	-0.054635406
221	0x3cc3c2a4	0.023896523
222	0xbd5441e8	-0.051820666
223	0x3d45a94c	0.048257157
224	0xbcb277f2	-0.02178571
225	0x3d29ad7b	0.04142521
226	0xbd371566	-0.04469814
227	0xbd348a69	-0.04407731
228	0xbd4301bb	-0.047609072
229	0x3cd8fc97	0.026487632
230	0xbd6b4b06	-0.057444595
231	0x3cfafd4b	0.030638358
232	0x3d549807	0.051902797
233	0xbc5471d3	-0.012966591
234	0x3d3fe13e	0.046845667
235	0xbc740ab2	-0.014895128
236	0x3c34c366	0.011032915
237	0x3d7aff8d	0.06127887
238	0x3d67d04a	0.056595124
239	0xbd6fddef	-0.05856126
240	0x3d5ff8db	0.054680686
241	0x3d33e0de	0.043915622
242	0xbd77c4d4	-0.060490444
243	0x3a6e231e	0.00090842124
244	0x3cb99e7f	0.022658585
245	0xbc2cd960	-0.010549873
246	0xbd4488db	-0.047982078
247	0x3d7cc367	0.061709788
248	0x3b005108	0.0019579548
249	0x3d427511	0.047474924
250	0x3d62bc6b	0.05535547
251	0x3d3d971f	0.0462867
252	0xbd0c70d6	-0.034287296
253	0xbc0ca20d	-0.008583558
254	0x3d7a7aac	0.061152145
255	0xbd1601ca	-0.0366228

net.2.0.weight f4 [48, 256]
0	0xbd0387bc	-0.03211187
1	0x3d315178	0.043290585
2	0xbc9aac73	-0.018881058
3	0x3c5f1a23	0.013617071
4	0xbd0b7f91	-0.034057204
5	0x3d6d2bcc	0.057903096
6	0x3d1ffe4d	0.03906088
7	0xbd5a7b3e	-0.05334019
8	0xbd417cbb	-0.047238093
9	0x3bdec247	0.006798062
10	0xbcfe570c	-0.031047367
11	0xbd254522	-0.040349133
12	0x3b9eccbf	0.004846185
13	0xbbceef8b	-0.006315177
14	0xbc5f773c	-0.0136392675
15	0xbd6ba47d	-0.057529915
16	0x3ccce1d2	0.025010023
17	0x3c1a13f0	0.0094041675
18	0x3d5017aa	0.050803818
19	0xbc390366	-0.011292314
20	0xbc240a7a	-0.010012263
21	0xbd3981d9	-0.045289848
22	0xbd04f777	-0.032462563
23	0xbd4715c9	-0.04860476
24	0x3d03104c	0.031997964
25	0xbbc1d08a	-0.0059147524
26	0xbc85909e	-0.01630431
27	0x3d43a203	0.04776193
28	0x3d358db2	0.044324584
29	0xbc9cc5b7	-0.019137247
30	0xbd529589	-0.05141214
31	0xbd04eb1f	-0.03245079
32	0xbc86f382	-0.016473535
33	0xbc0ecf19	-0.008716368
34	0x3d12e520	0.035863042
35	0x3d471c28	0.048610836
36	0x3cb9d394	0.022683896
37	0x3c66dc72	0.014090644
38	0x3d4997e6	0.049217127
39	0xbcfaac6a	-0.030599792
40	0xbd758a46	-0.05994632
41	0xbc86007c	-0.016357653
42	0x370e05c0	8.465198e-06
43	0x3d1ed277	0.038774934
44	0xbd1bc25d	-0.038027156
45	0x3cb12c72	0.021627638
46	0xbc036a84	-0.008021001
47	0x3d6fc7d4	0.05854018
48	0xbce7734f	-0.028253226
49	0x3d1cd101	0.03828526
50	0xbd0f2d10	-0.034955084
51	0xbd266ad1	-0.04062921
52	0xbd047bba	-0.032344557
53	0x3b522d72	0.0032070545
54	0xbb33e790	-0.0027451254
55	0x3c2fad38	0.010722451
56	0x3d33f938	0.043938845
57	0x3d7b809b	0.061401945
58	0x3c492c93	0.012278694
59	0x3d625215	0.05525406
60	0x3d2677e4	0.04064168
61	0xbccfb835	-0.025356391
62	0xbc81e12f	-0.015854446
63	0x3d54f854	0.051994637
64	0x3d74e03e	0.059784167
65	0xbc9dd3e6	-0.01926608
66	0x3d77aa70	0.060465276
67	0x3caaeb60	0.020864189
68	0xbd0579ab	-0.032586735
69	0xbd30fc0a	-0.043209113
70	0x3d6859a6	0.05672612
71	0x3d5c2cf8	0.053753823
72	0xbd0455c5	-0.03230836
73	0x3d1bef4c	0.03807001
74	0xbcca59f4	-0.024701096
75	0xbd314b5d	-0.043284763
76	0x3bdd8dcb	0.006761288
77	0x3c377e38	0.0111995265
78	0xbd33b086	-0.043869518
79	0xbd4bf93f	-0.049798246
80	0x3d4b0f45	0.04957511
81	0x3d636047	0.05551174
82	0xbd2818e1	-0.04103935
83	0x3c67b4dd	0.014142242
84	0x3d26571b	0.040610414
85	0x3d5ef72c	0.05443494
86	0xbd52112d	-0.05128591
87	0xbd469e02	-0.04849053
88	0xbcf9fa2e	-0.030514803
89	0x3d681882	0.056663997
90	0x3b1b715f	0.0023718697
91	0xbc473581	-0.012158752
92	0x3d2526d5	0.040320236
93	0x3cb2fbe9	0.021848636
94	0xbd4ab3b5	-0.04948779
95	0xbc14a17e	-0.009071706
96	0xbd4dd27f	-0.050249573
97	0xbd360975	-0.044442613
98	0x3c2dcad9	0.010607445
99	0x3d518218	0.051149458
100	0xbd64fa53	-0.05590279
101	0x3d4880c2	0.048950918
102	0xbcc85a0f	-0.024457006
103	0xbd457c3c	-0.048214182
104	0x3b9944d4	0.0046773944
105	0xbd723ce2	-0.059140094
106	0xbc2be29a	-0.010491038
107	0xbd7a2387	-0.061069038
108	0xbc06560a	-0.008199224
109	0x3c484d24	0.012225423
110	0xbd608f4c	-0.05482416
111	0x3b991184	0.0046712775
112	0x3b747b28	0.0037304852
113	0x3d158e4d	0.03651266
114	0x3cd04869	0.025425153
115	0x3aea3053	0.0017867185
116	0xbc271554	-0.010197956
117	0x3d43ac3a	0.04777167
118	0x3cd08187	0.025452388
119	0xbc8c8247	-0.017151965
120	0xbc33e739	-0.010980421
121	0x3d7c91a9	0.06166235
122	0x3d0999a8	0.033593804
123	0x3c2dd5e5	0.010610078
124	0xbce34a94	-0.027745523
125	0xbccbd5cf	-0.024882225
126	0xbc098364	-0.008393142
127	0xbaf86abf	-0.0018952711
128	0x3d21844e	0.039432816
129	0x3c6ca614	0.014443893
130	0xbc670869	-0.014101126
131	0xbb0ca082	-0.0021457975
132	0xbc6e9d35	-0.014563848
133	0x3c1fa455	0.00974377
134	0x3d06564b	0.03279714
135	0xbd0349ce	-0.032052808
136	0x3c02c2d0	0.007981017
137	0x3d4833a2	0.048877366
138	0xbcb0cddf	-0.021582542
139	0x399fc719	0.00030475183
140	0xbd58b454	-0.05290635
141	0x3c650556	0.013978323
142	0xbced5f9f	-0.02897626
143	0x3c904ddb	0.01761525
144	0x3c0b90a5	0.008518373
145	0xbc3dc1b0	-0.011581823
146	0x3cc90a10	0.024540931
147	0x3bbddf6d	0.0057944567
148	0x3d682704	0.056677833
149	0xbcb94f1c	-0.02262073
150	0xbc9d46e3	-0.01919884
151	0x3d0d8065	0.034546275
152	0x3d420a7d	0.047373284
153	0x3d421506	0.04738333
154	0x3d199e20	0.037504315
155	0xbc36cfc6	-0.0111579355
156	0xbd57a318	-0.052645773
157	0x3d2dfb15	0.04247578
158	0x3cc23297	0.023705764
159	0x3cc23361	0.02370614
160	0xbd1791d8	-0.03700432
161	0xbaff5d2c	-0.0019482723
162	0xbd2e8a7a	-0.04261253
163	0xbce0c05d	-0.027435476
164	0xbcdfbcd5	-0.027311722
165	0xbd14f9d5	-0.03637107
166	0xbd091d4c	-0.033475205
167	0xbd398ef5	-0.04530235
168	0x3d5d19f4	0.05397983
169	0xbd2fd1b8	-0.042924613
170	0xbd26bc5c	-0.040706977
171	0x3d27357d	0.040822495
172	0xbccf1c19	-0.025281953
173	0xbd323648	-0.043508798
174	0xbd4e7912	-0.05040843
175	0x3d0e3cfb	0.034726124
176	0x3d3b4cd9	0.045727585
177	0xbd017466	-0.031605147
178	0x3ba7bf54	0.0051192436
179	0xbd2a4676	-0.041571103
180	0x3bf95ee8	0.0076101907
181	0xbd206658	-0.039160103
182	0xbd25500f	-0.040359553
183	0x3d73995f	0.059472438
184	0xbb548fc0	-0.0032434314
185	0xbcf47225	-0.029839585
186	0xbd5e9981	-0.05434561
187	0xbd2aeda3	-0.041730534
188	0xbcdc5b25	-0.02689893
189	0x3c1de095	0.009636064
190	0xbd6fa493	-0.05850656
191	0xbb9fca32	-0.0048763985
192	0xbd15700a	-0.036483802
193	0x3cbab148	0.022789612
194	0xbd5fd5c9	-0.05464724
195	0xbbdb4b27	-0.0066923085
196	0x3cf7818d	0.030213142
197	0x3d091a31	0.033472244
198	0xbd5b9dc8	-0.05361727
199	0x3cfec128	0.031097963
200	0x3d6ba5ca	0.057531156
201	0xbd52fe6b	-0.051512163
202	0xbd01aed4	-0.03166087
203	0x3d3f9718	0.046774954
204	0x3cdab56b	0.026697835
205	0xbb8f462b	-0.0043723783
206	0x3d4eabb2	0.05045671
207	0xbd23c635	-0.039983947
208	0x3c8fdbdf	0.017560897
209	0xbd50ed7b	-0.05100773
210	0xbcff5df2	-0.031172726
211	0x3b35ce29	0.002774129
212	0xbce15aa4	-0.027509041
213	0x3c7076bb	0.014676745
214	0x3d51e889	0.051247153
215	0x3d26d556	0.040730797
216	0x3d4d381e	0.050102346
217	0x3c95aafe	0.018270012
218	0x3d5f6d6e	0.05454772
219	0xbd3c200c	-0.045929
220	0xbd31dde3	-0.0434245
221	0x3d5f63a2	0.054538377
222	0xbb436aad	-0.0029818222
223	0x3c892e1a	0.016745616
224	0xbcbe6753	-0.023242628
225	0x3d619ef9	0.05508325
226	0x3d530861	0.051521663
227	0x3bf134e4	0.0073610414
228	0x3ce239a2	0.027615372
229	0xbbcd26dd	-0.0062607364
230	0xbc68cc03	-0.014208796
231	0x3ce35489	0.02775027
232	0xbceeaf2e	-0.029136267
233	0x3d2c6391	0.04208714
234	0xbd71f450	-0.059070885
235	0xbccc288a	-0.024921674
236	0x3d191578	0.03737399
237	0xbd20897e	-0.039193623
238	0xbcdfc49e	-0.027315434
239	0xbd03702a	-0.03208939
240	0xbd304d2f	-0.043042358
241	0xbd0bcd5f	-0.034131404
242	0x3d1ec719	0.038764093
243	0xbd0d48fb	-0.034493428
244	0xbd5fffa9	-0.054687176
245	0xbbdc90b7	-0.0067311185
246	0xbd7f4b8d	-0.06232791
247	0x3c4a55d2	0.012349563
248	0x3cce0de3	0.025153106
249	0x3d471f10	0.048613608
250	0x3d2b3430	0.041797817
251	0x3c8089bb	0.015690675
252	0x3c026ce0	0.007960528
253	0xbcc2b0ab	-0.023765882
254	0x3d387099	0.045029256
255	0xbd0cadae	-0.03434532

net.2.0.bias f4 [48]
0	0xbce63ae3	-0.028104251
1	0xbd191396	-0.037372194
2	0xbbc06f2a	-0.005872627
3	0x3be94527	0.0071188393
4	0xbc7d21c0	-0.015449941
5	0x3d793096	0.06083735
6	0xbc180f3b	-0.009280975
7	0x3d758baa	0.059947647
8	0x3d6616fc	0.056174263
9	0xbd35aaa8	-0.044352204
10	0xbce8245c	-0.02833765
11	0x3cb9fe2e	0.02270421
12	0x3bd2c714	0.0064324234
13	0xbb2ed03c	-0.002667441
14	0xbad18c9d	-0.0015987341
15	0xbc927e1b	-0.017882397
16	0x3c12ca94	0.008959431
17	0x3ba096ca	0.004900788
18	0x3ccf47e5	0.025302837
19	0xbb908b2f	-0.004411123
20	0x3ce00541	0.027346255
21	0x3ce1b4de	0.027552065
22	0xbbeb82ce	-0.007187224
23	0x3ccfa96b	0.02534934
24	0xbbf33de5	-0.00742315
25	0x3ce5f5e3	0.02807135
26	0x3c192445	0.009347026
27	0x3d1f817a	0.038941838
28	0xbbc65af1	-0.0060533215
29	0x3cbbec0e	0.022939708
30	0x3a70011a	0.00091554376
31	0xbb7e2027	-0.0038776489
32	0xbd6441b9	-0.05572674
33	0x3c5aabd4	0.013346631
34	0x3d6537fe	0.0559616
35	0x3c4fac1f	0.012675314
36	0x3d3b938a	0.045795
37	0x3c81edf9	0.015860545
38	0xbc166a6b	-0.009180645
39	0xbd1cfc71	-0.038326684
40	0x3c1eed24	0.009700093
41	0x3d49f811	0.04930884
42	0x3d648540	0.05579114
43	0xbc87d6e1	-0.016581954
44	0x3c6610a1	0.014042051
45	0xbc6d826d	-0.014496428
46	0xbd5ae743	-0.053443205
47	0xbcc1fbae	-0.02367958
