suboptimal_policies/Ant-v4_100.pth (torch, 60247 bytes, 6 tensors)

net.0.0.weight f4 [100, 27]
000000 bf 79 4f bd 89 22 9f 3d 1f 4f 6f 3e ef 70 7c be
       -0.050653215 0.07770259 0.23370026 -0.24652456
000010 8b e0 48 be 0c 87 43 3e 6f c8 31 3d b6 ad 8f 3e
       -0.19616906 0.19094485 0.04340404 0.28062218
000020 dc 59 fb bc 2c 16 43 bd b3 0b 6d 3d ca 42 ee 3d
       -0.030682497 -0.047628567 0.057872485 0.11633833
000030 60 65 f2 3c fb da 91 be 64 05 53 3e a6 b7 f1 3d
       0.029589355 -0.2848738 0.20607525 0.11802606
000040 9a b5 6a 3e 83 34 15 3c 81 dc 35 be 24 a9 d4 bb
       0.22920838 0.009106758 -0.17759897 -0.0064898897
000050 6c 76 6c 3d 7e 09 ec bc 2a 67 96 3d c1 f9 93 3d
       0.057730123 -0.02881312 0.07343896 0.07225371
000060 37 a9 a2 bc 1d 5a 7a 3d 9d 25 16 be 98 48 a2 bd
       -0.019856079 0.061121095 -0.14662786 -0.079240024
000070 ee bb 6e 3e ce db 85 3e af 7b 9f be 72 f0 b8 be
       0.23313877 0.2614426 -0.3114905 -0.36120945
000080 bd d7 a1 3c fc 76 89 3d 37 69 a5 3e f1 a9 0c 3e
       0.019756192 0.067121476 0.32306835 0.13736703
000090 7a ff 2b bd d3 48 42 bd 5d ba 05 3e b7 56 96 bd
       -0.04199169 -0.04743273 0.13059373 -0.07340758
0000a0 ce b6 02 be e7 76 99 3d ad 4b b0 be 32 f0 d6 3d
       -0.12765047 0.07493382 -0.34432736 0.10495032
0000b0 17 57 ae 3d 0f 82 d2 3d 64 a7 0a 3e db 43 b7 3b
       0.08512705 0.10278713 0.13540417 0.005592806
0000c0 fb fe 07 be 52 dc 6f bd 8f 82 b7 3d 57 4e bc bd
       -0.13280861 -0.058559723 0.08960449 -0.0919463
0000d0 12 1f b7 bc 02 5e 1b 3d 0b 18 ee 3c a8 7a 3a be
       -0.022353683 0.03793145 0.029064199 -0.18210852
0000e0 5e 07 4d bd 9b 47 12 3e d9 db fd 3e 07 e0 cd bd
       -0.050055854 0.14285128 0.49581793 -0.100524954
0000f0 8e 93 70 3d 88 7e 16 3d e7 15 e5 3d 95 cf 8a 3c
       0.05873447 0.036741763 0.11185818 0.016944686
000100 c5 25 e7 3d ff 74 8f bd 2d f8 3b 3e 1e 34 fe bd
       0.11286501 -0.07004737 0.1835639 -0.12412284
000110 eb be 06 be 0d 82 cd 3d b3 5b cf 3d 6c 69 8e 3d
       -0.13158767 0.10034571 0.10124912 0.069537014
000120 3f c1 93 3d 00 a3 0e be f4 fb f3 bc 60 73 c7 3d
       0.07214593 -0.13929367 -0.029783227 0.09738803
000130 1a ea 56 3e 45 63 29 3d 61 d3 5d 3d 85 a5 ea bd
       0.2098774 0.041354436 0.054156665 -0.114573516
000140 03 a6 00 be df 29 26 3c 98 2b 2e be 18 46 67 3d
       -0.12563328 0.010141819 -0.17008817 0.05646333
000150 bf 7f 37 be 43 8c e4 be 72 12 8b be 99 53 d1 3d
       -0.17919825 -0.4463826 -0.2716251 0.10221023
000160 b0 cb 3c 3e 23 8b f6 3b 7a f1 b0 bd c5 52 f2 bd
       0.18437076 0.0075239106 -0.08639808 -0.11832193
000170 07 8d 28 bd dc e1 29 3e c4 80 2c 3e ee be 0e 3e
       -0.04115012 0.16590065 0.16845995 0.13940021
000180 c0 69 3d be bf b2 02 be d1 a5 a0 3d f5 51 af bd
       -0.18497372 -0.12763499 0.07844127 -0.08560554
000190 6b 37 05 3e e4 0d 4f be ae ff c2 3c f3 4f 05 be
       0.13009422 -0.20220143 0.023803558 -0.1301878
0001a0 f9 09 95 bc 06 e3 57 3d f3 bb b4 3d bc 91 72 bc
       -0.018193232 0.05270674 0.08824911 -0.014805254
0001b0 32 f9 9f bc 81 61 38 3d 48 00 51 3e da a7 43 bc
       -0.019528005 0.045014862 0.20410264 -0.011941874
0001c0 a8 19 e0 3d a0 ea 2f 3e df 94 4d bd 78 f0 ac 3d
       0.109423935 0.17179346 -0.050190803 0.08444303
0001d0 da 1d bc ba 13 8c 40 be ca f5 f9 bd 39 95 3c bd
       -0.0014352158 -0.18803434 -0.12205084 -0.046040747
0001e0 91 18 ef 3d 33 8a 3b be 05 92 26 3e 95 00 da 3c
       0.116746075 -0.18314438 0.1626664 0.026611606
0001f0 50 a7 ae bd 47 14 23 3d 44 f6 1e 3d 85 c4 62 be
       -0.08528006 0.03981426 0.038809076 -0.22145279
000200 d6 d7 16 3e a8 b6 07 be 43 8e 9b 3d c9 df 34 be
       0.14730772 -0.13253272 0.07595494 -0.17663492
000210 e3 98 d6 bd 1f dc c4 3d fe 3c d1 bd a5 59 04 3e
       -0.104783796 0.09612297 -0.102167115 0.12924822
000220 c5 95 35 3e 7e 99 e3 3d c3 f8 9c 3e 41 8b 9d be
       0.17732914 0.11113261 0.3065854 -0.30770305
000230 66 e8 05 3e 67 ff 80 3e da d7 34 3e b6 58 d3 bd
       0.13076934 0.25194857 0.17660466 -0.10319655
000240 02 27 ef bc 51 4d 13 be db b6 1e be fa 68 3f 3e
       -0.029193405 -0.14384963 -0.15499441 0.18692389
000250 2a 3f 82 be f5 bd 1a 3c 23 7d 0c 3d 21 80 89 3d
       -0.25438815 0.009444703 0.034299027 0.06713892
000260 1b f6 ad 3d af d8 bc 3d 29 f3 54 bd 21 59 e9 bd
       0.084942065 0.092210166 -0.051989708 -0.11393953
000270 01 b4 fd bd 97 d6 c1 bc 26 08 d6 3d 19 1b 9e bd
       -0.12387849 -0.023661895 0.10450773 -0.07720012
000280 fd cb 8e ba 5c 43 cc bd 2d 2b b1 3c 56 a9 74 be
       -0.0010894533 -0.09973785 0.021627033 -0.23892722
000290 95 19 64 3e d8 9b b8 bd fa 83 c7 3e 51 dc 11 3d
       0.22275384 -0.090141 0.38967878 0.0356105
0002a0 b0 f7 97 3d 5d 67 cf 3c 03 85 3a be f3 72 2c 3e
       0.074202895 0.025317842 -0.18214802 0.16840725
0002b0 80 a4 3c 3e 69 c7 15 be 3c a7 5c bd 93 c4 11 3e
       0.18422127 -0.1462685 -0.053870425 0.14235143
0002c0 24 0e a6 bc 3a a9 09 3c d1 2c 82 3e 5b c7 41 3c
       -0.020270415 0.008402163 0.25424817 0.011827315
0002d0 01 c4 81 bd 96 75 c2 bd 87 ee ec bd 3c f3 6d bc
       -0.06336213 -0.09495084 -0.11568933 -0.014523324
0002e0 71 49 03 bd 27 da b0 3d 82 78 8a 3d f2 5a 22 bd
       -0.03205246 0.08635359 0.06761266 -0.039637513
0002f0 6b 93 69 bc 9c 57 ff 3d 67 a9 48 3e d6 59 d7 bd
       -0.014256339 0.12467882 0.19595872 -0.10515182
000300 9e 2b db 3d f3 d9 6c be cb 44 34 3e 58 b9 d2 3c
       0.10701679 -0.23130016 0.17604367 0.025723144
000310 2e 71 3b 3c 84 0a f9 bc f5 a4 05 be 11 35 9e 3d
       0.011440558 -0.030400522 -0.13051207 0.07724965
000320 0b 7d e3 3c f6 a5 12 3e 0d 49 04 be de 97 2f 3e
       0.027769586 0.14321122 -0.12918492 0.17147776
000330 ba 2f d5 3c cf fb 3d 3d d2 cb 0e be e8 80 01 3e
       0.026023734 0.04638272 -0.13944939 0.1264683
000340 ac 3d de bd 6b a4 80 3d e5 01 4a ba 6e fd e2 bd
       -0.10851607 0.0628136 -0.0007705971 -0.11083494
000350 2d 3f 67 bd cb cc 77 bd 43 9a 04 3d c2 cf b0 3d
       -0.056456733 -0.06049804 0.032373678 0.08633377
000360 d0 43 42 bd 9f fd 7f bc b0 4e 67 3e 21 20 1f 3e
       -0.047427952 -0.015624433 0.2258861 0.155396
000370 c7 ef 90 3e 5b d1 2c bd a7 6c 13 bd 47 80 85 3d
       0.28307936 -0.042191844 -0.03599229 0.065186076
000380 1c db 96 3d ca 3f b8 3c 63 af f0 bc 7e 79 1d be
       0.073660105 0.022491354 -0.029380506 -0.15378377
000390 dc 92 9b 3d 3f 08 b7 bd 3a a5 62 3d a7 35 86 3d
       0.075963706 -0.0893712 0.055333354 0.06553202
0003a0 17 c1 18 be 7d 60 2b be 7e 01 d6 bd 35 69 bb 3d
       -0.14917408 -0.16736026 -0.10449503 0.09150926
0003b0 7d 45 4d 3e 3f 33 26 3e db 8d bf bd 1c 8b ce bb
       0.20046039 0.16230486 -0.09353229 -0.006303204
0003c0 f2 33 ed bd b7 1f d4 bd ff eb a0 bd 34 85 ea 3d
       -0.115821734 -0.103576116 -0.07857513 0.11451188
0003d0 eb 87 0a bf 85 a8 40 3e a9 44 dd 3e 4f 17 ab 3e
       -0.54113644 0.18814285 0.43216446 0.3341622
0003e0 dd 14 4c 3e 25 8a 0a be 86 d3 96 3e d1 ad 67 be
       0.19929834 -0.1352926 0.29458255 -0.226249
0003f0 53 75 1a 3e 4a b4 be bd 0f ca 2d 3e 5c 2a 2c be
       0.15083818 -0.09311731 0.1697161 -0.16813034

net.0.0.bias f4 [100]
000000 47 df 45 3d 9d 4e a3 3d d0 10 4a bd ae 64 21 3e
       0.048308637 0.07973979 -0.04933244 0.15761063
000010 c7 c8 e6 bc d5 38 1c 3d e8 c0 bc 3e bf e8 76 3e
       -0.02817191 0.038140137 0.36865926 0.24112223
000020 00 1f 59 be bf 44 27 bb 85 29 9e 3e 15 a1 bf 3e
       -0.21203232 -0.0025523154 0.30891052 0.37427583
000030 d7 7e cf bb 03 ee b2 3e c2 56 bd 3e c1 73 7f be
       -0.006332259 0.34947214 0.36980253 -0.249465
000040 42 3c b7 3e 0b 11 2f be a6 79 00 3e b8 97 33 be
       0.3578816 -0.17096345 0.12546405 -0.17538345
000050 8b a1 0c 3e c4 8a ed 3e 25 56 97 bd 73 bf e1 3e
       0.13733499 0.46394932 -0.07389478 0.44091377
000060 3a 4d 12 3e 79 b7 cf 3d fb 41 20 3e 98 ef ad 3e
       0.14287272 0.101424165 0.1565017 0.33971858
000070 2f f3 ef 3d 63 c9 34 bd 73 be aa bc 24 86 66 bd
       0.117163055 -0.04413737 -0.020842766 -0.05628027
000080 3c 14 33 be 24 e9 34 3e f2 8c 8a 3e 9d 3d fe bd
       -0.17488188 0.17667061 0.27060658 -0.124140956
000090 33 dc 64 3e e8 02 d4 3d 29 d4 30 3e e7 c0 96 3e
       0.22349624 0.10352117 0.17268433 0.29444048
0000a0 00 c8 aa be b2 bd a3 bd 57 90 fc bd ac 37 14 3e
       -0.33355713 -0.07995166 -0.12332218 0.14474362
0000b0 e2 48 62 bd 23 51 b6 3e 6d 56 e5 be 6f 81 e3 3e
       -0.055245288 0.35608777 -0.447925 0.44434687
0000c0 e2 1d e0 3c fc c2 ca 3d 9c 99 1e 3e e0 19 77 be
       0.027358 0.099004716 0.15488285 -0.24130964
0000d0 4d 8c f7 3e 1d 7f 20 be c3 ea 05 3e 2a ab ad 3e
       0.48349229 -0.1567349 0.13077836 0.3391965
0000e0 99 15 88 be 2a 47 d1 3e 48 70 48 3c 2d 6b 6d be
       -0.26578978 0.40874606 0.012233801 -0.23185416
0000f0 66 2d 20 bd e8 d8 34 3e 6f b0 c2 bd 68 c3 a6 bd
       -0.039105795 0.17660868 -0.09506308 -0.081427395
000100 a4 1e a0 bd a3 cc c0 bd a8 70 fd 3e ad fb 86 bd
       -0.07818344 -0.09414031 0.49500012 -0.06590972
000110 42 24 8c 3e a6 c7 66 bd 3d fa 2a 3e a6 d5 4a be
       0.27371413 -0.056342743 0.16697021 -0.19808063
000120 37 26 27 be 25 4d 3d be 8b c5 95 be da e5 17 bd
       -0.16323172 -0.1848646 -0.29252276 -0.037084438
000130 55 53 a0 3d 04 95 e5 bc c5 fb 0d 3f b1 6b 9e bd
       0.07828394 -0.028025158 0.55462295 -0.07735384
000140 a6 38 3e be 2a 13 cd bd 08 4f e3 3d 54 d2 be be
       -0.18576297 -0.10013421 0.110990584 -0.37269843
000150 5f 5d 7d be fb 9a e9 3c 23 5f 84 bd 1e ed b3 3e
       -0.2474265 0.028516283 -0.064634584 0.35141844
000160 67 44 65 bd 78 2d 91 3e f3 3f 45 be 2b 25 3e 3f
       -0.055973437 0.28355002 -0.19262676 0.74275464
000170 f9 47 59 be ea 72 99 3e 3a 3f 30 bb ae 08 3b 3e
       -0.21218862 0.29970485 -0.0026893155 0.1826503
000180 20 89 18 3e f7 90 1c be 5b 01 90 bd 51 de b5 be
       0.14896059 -0.15289675 -0.070315085 -0.35521176

net.1.0.weight f4 [100, 100]
000000 ab 4a 4f 3d 58 83 95 3c 08 47 3a 3d 2a c2 0b be
       0.05060832 0.018251106 0.045477897 -0.13648286
000010 46 65 fc bd 7f 80 a2 bd 37 0b 26 bc 40 79 99 3c
       -0.12324004 -0.07934665 -0.01013451 0.018734574
000020 25 78 fd bb 38 54 3d 3d 23 57 0e be 7e 32 1d 3d
       -0.0077352696 0.046222895 -0.13900428 0.03837823
000030 ea c7 a9 3d a6 c0 5a 3c 42 76 25 bd fe 1d 50 bd
       0.08290084 0.013351595 -0.040395983 -0.050809853
000040 c6 57 b1 3b 8f 0d 09 be c6 7f c2 bd 0c 27 8e 3c
       0.0054120747 -0.13384078 -0.09497027 0.017352603
000050 9e 28 cd bd ee e8 f5 3d ad c9 ae 3c 8c e6 e3 3d
       -0.10017513 0.120073184 0.0213364 0.11127958
000060 fb 0d dc bd 13 66 40 3c 0c db 4b 3d 79 0d 07 be
       -0.10744854 0.011743086 0.049769446 -0.13188733
000070 f2 ae 02 be c0 28 d4 3c 33 de d3 bc 05 a2 4c ba
       -0.12762049 0.025898337 -0.025862789 -0.0007806125
000080 f2 a1 f9 bd f1 0e 92 bc 34 e7 a1 3d 4f c4 0f 3d
       -0.12189092 -0.01782939 0.079054266 0.035099324
000090 a5 5c 0a bd 90 84 36 bd 2f ad 00 3e 7a 6e a5 bc
       -0.03377976 -0.044560015 0.12566064 -0.02019428
0000a0 3a 66 47 be 73 c1 57 bb b0 d9 0d 3d 20 90 b1 3c
       -0.1947259 -0.0032921701 0.03463143 0.02167517
0000b0 f5 57 1e be 35 80 06 bd 16 8b be 3c 6e 4a 38 3d
       -0.1546324 -0.03283711 0.02325968 0.044992857
0000c0 4f 17 8d 3c fb a6 9b bc e6 59 93 bd b7 36 8c 3d
       0.017223028 -0.01900052 -0.07194881 0.068463735
0000d0 37 85 57 be c8 83 65 bd 4c af 7d 3d 0a f1 0f 3e
       -0.21046911 -0.05603388 0.061934754 0.14056793
0000e0 85 a3 1d 3e b3 c4 3f bd 3b 53 6c bd 6d 1c ce 3c
       0.15394409 -0.046818446 -0.057696562 0.025160039
0000f0 99 5a e3 3c 06 b5 d9 bc 40 b1 df 3d 0d de b3 bd
       0.027753161 -0.026575577 0.1092248 -0.08782587
000100 e9 11 41 bd 20 0e f7 3c 4b 48 0d be 38 1d 51 3d
       -0.04713622 0.030158103 -0.13797109 0.051053256
000110 e4 54 88 bc 62 7e 02 bd 51 53 01 3e 91 7b f3 3c
       -0.016642042 -0.03185881 0.12629439 0.029722007
000120 b8 b4 db bd c5 c0 7d 3d c8 22 92 3d 82 0d 74 3c
       -0.10727829 0.061951417 0.0713554 0.014895799
000130 ab 2a a1 bd f3 35 fa 3d 96 10 18 be cc c2 ad 3b
       -0.078694664 0.12217321 -0.14850077 0.0053027626
000140 d2 ed f7 bd ee 28 08 3e 31 2f 7a bd e1 e4 8d bc
       -0.121059075 0.13296863 -0.06108016 -0.017321052
000150 1a ad b3 3d be 01 a8 bd 9a 5e dd 3c 87 d4 1f 3e
       0.08773251 -0.08203457 0.027022649 0.15608416
000160 3d 2e 09 bd eb 47 99 bd 41 8d a7 bd e2 e0 a8 3d
       -0.033491362 -0.074844204 -0.08181239 0.08246018
000170 15 ea 18 be f9 20 cd 3c 49 a4 a5 3d f4 5d 7b bd
       -0.14933045 0.025040137 0.080879755 -0.061368898
000180 57 96 d0 bc cf 34 dd 3d c3 5a 17 3e 38 31 6f bc
       -0.025462313 0.10801088 0.14780717 -0.014599137
000190 c7 5b 77 3d 8f 58 c4 ba f9 4b 16 bd bc d8 3a 3d
       0.06039026 -0.0014980006 -0.036693547 0.04561685
0001a0 7a 65 c5 3b 21 14 27 3d ac 31 3e 3d 57 1a 2f bd
       0.00602406 0.04079068 0.04643409 -0.04274973
0001b0 80 1a ac bd 57 44 b9 3c d1 15 9f bd 31 44 d3 bc
       -0.08403492 0.022615595 -0.07767833 -0.025789352
0001c0 b0 3f 6b bd 14 6c cc bd 94 5b 08 bd 10 62 85 bd
       -0.057433784 -0.09981552 -0.03329046 -0.065128446
0001d0 92 c4 49 3d f9 49 b2 bd e8 9b 38 3c b0 d8 b6 3c
       0.04925973 -0.087055154 0.01126764 0.022320122
0001e0 d4 48 06 3d 79 05 59 3c 59 d9 44 3d 88 53 75 bd
       0.032784298 0.013245934 0.04805884 -0.059894115
0001f0 42 fc d8 3c 8e 15 6d 3d 3e 00 98 bc d6 d5 d9 bb
       0.026487473 0.057881884 -0.018554803 -0.0066478057
000200 be 27 66 3b 33 43 c0 bd 5d da ec bc f2 38 66 3d
       0.0035118903 -0.09387817 -0.028912717 0.05620665
000210 b9 dc 79 bd 11 bd d2 3c 99 6a 88 3c 1d 45 a3 bd
       -0.061001513 0.02572492 0.016652392 -0.07972167
000220 d9 91 af bd 5a ff 06 bd b8 4d 05 bd 84 46 96 bc
       -0.0857274 -0.032958366 -0.03254482 -0.018344171
000230 50 c0 1e 3d 9a 4f 51 3d e5 12 ab 3b 8e f1 5c 3d
       0.038757622 0.051101305 0.0052207583 0.053941302
000240 44 cd 41 3d 43 99 70 bc 99 4f a4 bb ea 9b c2 bd
       0.047314897 -0.014684978 -0.0050143716 -0.095023945
000250 71 ab 8c bd eb 7a 5a bd b3 8c 70 bd 6f 2f dc bc
       -0.06868637 -0.05333988 -0.05872793 -0.026878087
000260 4b 2c 94 bc bf 41 1c bc e3 6a 49 3b 19 3a 50 bb
       -0.018087527 -0.009537159 0.0030733875 -0.003177291
000270 19 16 c7 3c 10 b6 a2 bd 05 da a2 bc 2c 1c c0 bd
       0.02430253 -0.07944882 -0.01987935 -0.09380373
000280 40 bd 95 3c 91 e5 73 3c e2 ee 29 3d f2 9c b8 bc
       0.018278718 0.014886276 0.041487582 -0.022535775
000290 15 84 28 bc f2 42 21 3d 35 5c 0c bc c9 e6 72 3c
       -0.010285397 0.039370485 -0.008566906 0.014825531
0002a0 89 37 32 3d 8c 7c ef bc d8 9f 7c bd 5e 21 cb 3c
       0.043509994 -0.029234193 -0.061675876 0.024796184
0002b0 e1 71 78 bd d6 5b 53 3c 88 61 97 3c 4b c4 50 3d
       -0.06065548 0.012900313 0.018479124 0.05096845
0002c0 dc 4b c5 bd be 20 5f bc ed fb 1a 3a 1f 8c 91 bc
       -0.0963361 -0.013618646 0.00059121737 -0.01776701
0002d0 b5 53 fc 3c d5 1e 8c 3d dd bd 16 3d 07 eb 32 3d
       0.030801633 0.06841818 0.03680216 0.04368117
0002e0 f5 13 f9 ba f6 56 ca bd f3 01 dd bc 6f f2 c1 bd
       -0.001900314 -0.09879868 -0.026978469 -0.09470069
0002f0 31 7d ce bd 7e cb 50 bd 90 9b b1 bd d7 e4 77 bd
       -0.10082472 -0.050975315 -0.08672249 -0.060520973
000300 19 3d 9d bc df 09 c9 bd fe c2 5d ba 72 c4 fb 3c
       -0.019194173 -0.09816336 -0.0008459537 0.03073332
000310 44 cd 39 3d 98 ce be bc b8 16 5b bd 61 20 6b 3d
       0.045361772 -0.023291871 -0.053488463 0.057403926
000320 3e 4c a6 3b 20 c9 d2 3c f2 c9 47 3d 82 c7 99 bd
       0.0050750067 0.02573067 0.048776574 -0.07508756
000330 fe 9b 14 3d ba 64 52 bc 9b 51 7d bd bd 6c 8b 3d
       0.03628158 -0.012841398 -0.061845403 0.068078496
000340 aa f4 14 bd 7d df 6c 3d 05 90 33 3d 0d a6 e0 3d
       -0.036366142 0.057830323 0.04383852 0.10969172
000350 c3 46 d3 bd 6f fa 6b bc 35 94 67 3c bb 03 a1 3d
       -0.10316231 -0.01440297 0.014134456 0.0786204
000360 ac 50 7d 3d 5e ff 3a be c6 e1 73 bd e3 32 cb 3c
       0.061844513 -0.18261477 -0.059541486 0.024804538
000370 37 85 3c bd 6c f4 bc bd bd 89 33 bd 96 af 00 3d
       -0.04602548 -0.09226307 -0.04383253 0.03141745
000380 bf 29 a8 3b 96 32 0c bc 0c c1 66 bb 51 76 c5 bd
       0.0051319296 -0.0085569825 -0.003521028 -0.09641708
000390 89 b5 4f 3d a7 4e 00 3d 6d 6c 41 3d 32 db 01 3e
       0.050710235 0.03132501 0.047222544 0.12681273
0003a0 1f 79 76 bc 50 28 2b 3d bf 19 c5 3d e2 2f ad bc
       -0.015043526 0.041786492 0.09624051 -0.021140996
0003b0 ee 3e 8f 3d 4f c4 43 3d dc 42 47 3d 76 e5 65 bd
       0.06994425 0.047794636 0.048647746 -0.056127034
0003c0 9d b5 f4 3d ea 5e da 3d d2 92 d8 bc be 1e 99 3c
       0.119487025 0.10662635 -0.026437197 0.018691417
0003d0 2b 5a ff bd 14 2e e3 3b ff 4b 2d bb 58 b9 f0 3d
       -0.1246837 0.006932983 -0.0026443002 0.117541015
0003e0 91 32 24 bd 1c 1a 75 bd d6 6e 19 3e 0d 4c da 3c
       -0.040087286 -0.059839353 0.14983687 0.026647592
0003f0 6d e5 e1 3d c8 c2 5d bd 3e 07 c3 3d 24 e5 0c 3c
       0.110300876 -0.054140836 0.09522866 0.008599553

net.1.0.bias f4 [100]
000000 7c 53 d2 3c 59 08 8a bc 79 98 17 3e 6a 04 a6 3a
       0.025674574 -0.016849684 0.14804257 0.001266611
000010 aa fe a7 3c f2 82 44 bd 7d 92 14 bc 27 de ae 3e
       0.020507175 -0.04797644 -0.009068129 0.34153864
000020 fc 88 b5 3d bd e3 57 3e 28 a7 0b 3c 46 73 c5 bc
       0.08864018 0.21082969 0.00852374 -0.024102818
000030 8e d8 6b bd 92 79 25 3d 05 17 e1 3c 56 b2 37 3e
       -0.05757957 0.04039914 0.027476797 0.17939124
000040 f7 18 13 3e 09 28 d1 bb c6 f2 80 bd d6 dd e0 bd
       0.14364992 -0.0063829464 -0.06296305 -0.10979812
000050 37 33 6e 3d 11 db 0f bc e6 37 8e bd fc 9a a8 3d
       0.05815431 -0.008780257 -0.069442555 0.08232686
000060 28 04 95 bd df bc 85 bd e0 95 19 3e d2 f9 b4 bc
       -0.07276183 -0.06530165 0.14998579 -0.02209178
000070 df e4 ad 3d 07 0f 00 3f 5d 19 a3 3d 0c c0 6a 3c
       0.08490919 0.5002293 0.07963822 0.014328014
000080 55 74 38 bd ff ca 3d 3d 05 cb 81 bd 02 ec 9f bd
       -0.045032818 0.04633617 -0.06337551 -0.07808687
000090 46 08 03 3e 0e 41 21 bd 4f 79 b3 3d 81 f8 3e 3e
       0.12796125 -0.03936868 0.08763372 0.18649484
0000a0 65 b8 db 3d ee 04 67 3d e8 68 09 3e b3 1e 7d 3d
       0.1072853 0.056401186 0.13418925 0.061796855
0000b0 29 b7 4c bd 78 98 06 be c3 61 05 3d a0 67 38 3e
       -0.049979363 -0.131441 0.032563936 0.1800828
0000c0 7f 74 f9 3c 85 52 9d bc ef 7d 23 3e dd 1c d4 3b
       0.030451057 -0.019204387 0.15966009 0.0064731673
0000d0 3f 60 0f 3b 2d 96 4c 3a 76 db 74 bd c3 21 9b 3d
       0.0021877436 0.00078043604 -0.059779607 0.07574799
0000e0 90 24 a0 bc 8c c5 a8 bc 92 c2 82 bd 2f 8a 4a 3e
       -0.019548684 -0.02060201 -0.063847676 0.19779275
0000f0 ed 58 94 3d 22 f4 8b 3b 26 88 1d 3d e4 1c 62 bd
       0.07243524 0.0042710463 0.03845992 -0.055203333
000100 f6 72 79 3e 27 77 e6 bc 4c 21 75 bd e8 69 8a 3d
       0.2436026 -0.028132988 -0.059846207 0.06758481
000110 61 05 02 3d a8 6d 57 3d 57 ea 8c bd 9f dc 41 be
       0.03174341 0.05259481 -0.06880634 -0.18931817
000120 ed fd aa 3d 7e 29 9d 3b de 3c af bd 00 cf 22 3e
       0.08349214 0.004796206 -0.08556531 0.15899277
000130 90 87 86 bd de bd 2e bd cc f0 25 3d dc af 8d 3a
       -0.06568825 -0.04266154 0.040512845 0.0010809856
000140 c6 09 03 3e bb 1c f3 bb e4 e5 ba 3d 7f a9 c0 bd
       0.12796697 -0.0074191964 0.091258794 -0.09407329
000150 33 d2 b7 bd 81 45 8a bc e9 17 9c 3c ee c7 a0 bd
       -0.08975639 -0.016878845 0.01905437 -0.078506336
000160 10 ac 47 3c 2d 50 31 3c b2 51 1f bd 1b ad 3c 3e
       0.012187019 0.010822338 -0.03889627 0.1842541
000170 f4 17 29 3e 5d 9b a7 3b 73 bf 03 3e c5 fb 2d 3e
       0.16513044 0.0051149563 0.12866001 0.16990574
000180 f1 5e c1 bb 9f 2e 65 3e c4 3d de bd 08 cb b7 bd
       -0.0059012105 0.22381066 -0.108516246 -0.08974272

net.2.0.weight f4 [16, 100]
000000 b1 5b b4 bc 13 7e b4 bd 77 c4 2d bb 16 78 d0 3d
       -0.022016378 -0.08813109 -0.0026514807 0.101791546
000010 57 04 49 bd e3 ae 96 bd 6b 1f 0e 3d b4 37 33 be
       -0.049076404 -0.07357576 0.03469793 -0.17501718
000020 22 f9 54 bc a5 8c da 3d d0 9e 5c 3d 54 bb dc bb
       -0.012998851 0.10671357 0.053862393 -0.0067361984
000030 a2 a9 62 3e a4 08 2f be 00 75 d0 bd 3b 9e a7 3d
       0.22135022 -0.1709314 -0.10178566 0.08184477
000040 9c 28 95 bd 21 68 1e be 16 d7 b9 3d fd cd 60 bd
       -0.07283136 -0.1546941 0.090742275 -0.054883946
000050 81 19 04 3e 7f 26 a2 3d e8 97 86 3d 70 e0 97 bd
       0.12900354 0.07917499 0.065719426 -0.07415855
000060 37 ce 69 bc 4e 1d 5f be 27 e4 20 bb 2f e4 03 bc
       -0.014270357 -0.21788523 -0.0024550052 -0.008050009
000070 70 d0 c6 bc fa fa fa bc 0e 25 8e 3d 28 1e 02 be
       -0.024269313 -0.030637253 0.06940661 -0.12706816
000080 24 73 ae 3d 52 72 60 3d 7a b1 49 3d d5 32 08 bd
       0.08518055 0.054796524 0.04924152 -0.033251602
000090 27 03 55 bd 3f 00 56 3d 00 9e e6 bc 09 51 d2 bd
       -0.05200496 0.05224633 -0.028151512 -0.102693625
0000a0 9d cd fc bd 82 d7 c3 3d 67 69 08 be de 36 fa 3d
       -0.12343905 0.09562589 -0.13321458 0.12217496
0000b0 ff 95 ae bd 72 c7 85 3c 5d 16 d9 bd 39 7b e8 bc
       -0.08524703 0.016330454 -0.105999686 -0.02837907
0000c0 0a a3 b7 3d 05 00 ea 3b 7a 62 79 3d 9a a4 46 bc
       0.08966644 0.0071411156 0.06088493 -0.012124205
0000d0 6f 53 0d bc 6a 45 73 bc e5 ac bc bd 3b 09 d3 3c
       -0.008625849 -0.014848093 -0.092126645 0.025761237
0000e0 83 c6 97 bd 44 c8 b1 bc c2 4c c2 3d 88 b7 15 3d
       -0.0741091 -0.02170194 0.09487297 0.036551982
0000f0 1e 03 43 3d 1f 0f e7 3c 50 f4 8c bd a5 2c ac bb
       0.047610395 0.028205452 -0.068825364 -0.0052543455
000100 3f 11 89 3b d3 08 de bc eb 2c 41 bc 68 4c 8f 3d
       0.004182964 -0.027103817 -0.011790494 0.06996995
000110 7f 4a 9f 3d 1f c8 91 be 9b 12 4e 3e 0e 8c 84 bd
       0.07777881 -0.28472993 0.20124285 -0.06472026
000120 9f d0 ac 3b 81 c9 d2 3d 3e 98 5d be 94 7b f8 3d
       0.005273893 0.1029234 -0.21640107 0.12132946
000130 c4 8b 9d bd 62 96 0a bd 13 4a d0 3b f8 23 51 be
       -0.07692674 -0.033834822 0.0063564866 -0.20423877
000140 07 36 b5 bc 60 e5 23 3e 5b 00 8c 3d c3 c2 e3 bd
       -0.022120489 0.16005468 0.06836005 -0.11121132
000150 d5 fa e7 bc 08 09 12 3e 19 6e c8 3c fa dd 53 bd
       -0.028317848 0.14261258 0.024466561 -0.051725365
000160 51 f7 2f 3d ca e2 61 be 90 9a 87 3d e5 45 d5 3c
       0.04296047 -0.2205917 0.06621277 0.026034305
000170 30 bc 58 3d 21 a9 8b 3d b7 41 8d bd 6b d9 43 3d
       0.052913845 0.06819368 -0.068973 0.047814768
000180 c2 90 14 be 14 29 6e 3d c3 a5 8b bd 5d dc 0d 3e
       -0.14508346 0.058144644 -0.06818726 0.13853593
000190 40 98 b0 3d 6d 3e c1 3d b2 3a 10 bd dc ab d2 bd
       0.086227894 0.09435735 -0.035212226 -0.10286686
0001a0 e9 f0 ce 3d 5c 3f d7 3d d1 39 d7 3d 0a 15 80 bd
       0.10104544 0.10510132 0.105090745 -0.06254013
0001b0 b4 36 7f bd 90 f8 6f 3b df 3f 41 be 0f 3e 34 3d
       -0.06230803 0.003661666 -0.18872021 0.044004496
0001c0 c7 cd a8 bd 19 51 b1 bd ee 29 96 bd 8b 6e 89 bd
       -0.08242374 -0.08658046 -0.07332216 -0.067105375
0001d0 0f be 40 bd 98 c2 c7 3d a4 37 1d bd d0 64 0c be
       -0.047056254 0.09753913 -0.03838314 -0.13710332
0001e0 c3 2f 6b bd d5 4a b2 bd 06 a6 93 3d eb cd 32 bd
       -0.057418596 -0.08705679 0.07209401 -0.04365341
0001f0 5f ec 01 bd 90 b6 3d 3e cb 35 1d bc 12 9c d0 bc
       -0.03171956 0.18526673 -0.009595345 -0.025465045
000200 b7 e8 c9 bc 10 59 9b bd fa 91 3b 3d 04 8b 88 be
       -0.0246471 -0.07585347 0.04579351 -0.2666856
000210 fd 35 e8 bb bb c6 8f bd aa 91 a8 ba 4c 20 d0 bd
       -0.007086514 -0.07020327 -0.0012860794 -0.1016241
000220 1b 7b a3 3d 25 32 32 3e 75 91 be 3d 34 35 ab 3c
       0.07982465 0.17401941 0.093050875 0.020899393
000230 53 81 73 bd 3b 28 aa bd 46 00 4a 3d f5 d2 7d bd
       -0.059449505 -0.083084546 0.049316667 -0.061968762
000240 d4 7b 70 bb b8 77 58 bd 25 c0 d5 3c 80 6f e9 bd
       -0.00366949 -0.052848548 0.026092598 -0.1139822
000250 81 5c 05 be 0f c7 52 3d 5e 9e 12 bd 1b 2f 22 3e
       -0.13023569 0.05145937 -0.035795562 0.15838282
000260 bb 91 4f 3d 24 61 79 3d b6 59 a7 3d d7 88 ca bc
       0.05067609 0.060883656 0.08171408 -0.024723453
000270 b2 ec bd 3d e5 e9 68 3d 98 91 58 bd 11 57 06 bd
       0.09273662 0.056863684 -0.052873224 -0.032797877
000280 5c bd da 3c 0f e2 cf bd 1f 83 a2 3d dc 4a 02 3d
       0.026701622 -0.10150539 0.079351656 0.031809673
000290 3f 9a b0 bd c1 a8 71 bd 9b ba 89 bd 9b c0 94 3d
       -0.0862317 -0.058998827 -0.06725045 0.07263299
0002a0 d3 a1 2d 3c ae 5c 74 3d 4e 82 98 bb ab 80 37 bd
       0.010597664 0.0596587 -0.0046542054 -0.04480044
0002b0 c8 36 0c 3e fd 2f b3 bd a7 04 ca 3c 5c 9b 36 3e
       0.13692772 -0.087493874 0.024660422 0.17832702
0002c0 1c 50 4d bc 6f 23 d9 3b ce f0 16 bd ab 96 b3 3b
       -0.012531307 0.0066265385 -0.036850743 0.0054806075
0002d0 36 54 50 bd f6 5c f8 bd af 13 7d 3d e0 85 00 be
       -0.05086156 -0.12127106 0.06178635 -0.1255107
0002e0 34 7d fc bd 70 ab 3c bd 09 a4 42 bd 9c b2 87 3b
       -0.12328568 -0.046061933 -0.047519717 0.004141165
0002f0 71 1b ac bd 58 fc 97 3d 9b 86 f8 bc d2 88 71 3b
       -0.084036715 0.074211776 -0.030337622 0.0036855233
000300 5a f1 f9 3d ad 7a 0c 3d dc be 26 3d 3f 26 a1 3d
       0.12204237 0.03429668 0.04070936 0.07868623
000310 4f b5 89 bc a0 0a b7 3d 40 b3 9f bd 3b 56 ac bc
       -0.016810087 0.089375734 -0.07797861 -0.021037212
000320 c8 a9 11 3e 71 28 12 3b 9d 9d 9b 3d 17 eb 5a be
       0.14224923 0.0022301937 0.07598422 -0.21378742
000330 b2 49 4f bc 41 21 ae bc b9 da b4 bd 0a 91 21 be
       -0.012651848 -0.021256091 -0.088307805 -0.15777984
000340 88 19 34 be 93 12 fd 3c 42 ef d2 bb 0c 0a c2 bb
       -0.17587864 0.030892646 -0.006437213 -0.005921608
000350 4d 36 9a bd c4 3a 72 3d 97 e8 1b be d4 e9 bc 3c
       -0.07529888 0.059138075 -0.15225445 0.023060717
000360 ed f2 2e 3c ff bb c2 3b aa 2c 85 bd 07 a9 dd bd
       0.010678035 0.005942821 -0.065026596 -0.10823255
000370 31 1f 05 3d 22 76 31 3e 11 0b 40 3d df 8b 13 be
       0.03250045 0.1733022 0.046885554 -0.14408825
000380 45 a7 40 bd a5 36 a4 3d 00 35 88 bc d3 ac 43 3d
       -0.04703452 0.08018235 -0.016626835 0.04777224
000390 b1 fe 5c 3d 1a d1 92 3c 92 c1 c3 3c a9 f4 37 bd
       0.05395383 0.017921973 0.023896012 -0.04491106
0003a0 76 50 64 3b 39 0c 06 bc 4c 26 48 bd 3b d8 05 be
       0.0034837998 -0.008181625 -0.048864648 -0.13070767
0003b0 bb 75 8a 3d e0 a7 2c be a4 f1 14 3d 7b 5f 44 bc
       0.067607366 -0.16860914 0.03636326 -0.011985655
0003c0 9b 78 fa 3c ec f7 50 bd d2 d3 14 3e 59 a8 af bc
       0.030575087 -0.051017687 0.14533928 -0.02144258
0003d0 3c 9c 09 be cb 90 09 be a2 55 e2 bd e6 8a 4f bc
       -0.13438505 -0.1343414 -0.110514894 -0.012667393
0003e0 51 08 9b 3d 02 e3 c2 bb a2 51 6a 3d ea 99 e6 3c
       0.075699456 -0.0059474716 0.057206757 0.028149564
0003f0 34 43 05 3e 0f 0d f4 3d d3 00 8e bd 30 2c 34 bd
       0.13013917 0.11916553 -0.06933751 -0.043987453

net.2.0.bias f4 [16]
000000 cb b9 14 bd c7 00 81 3c 2b 53 49 bd 8b d8 b1 ba
       -0.03631 0.015747441 -0.04915158 -0.0013568563
000010 0a 7f 98 bd 92 e7 3c 3d 8a 0c 30 bd 70 5b 81 bd
       -0.07446106 0.04611928 -0.04298071 -0.063162684
000020 10 62 f5 bd 87 75 a0 bd 6a cd 19 bd 84 7e f2 bd
       -0.119815946 -0.078349166 -0.037549414 -0.11840537
000030 25 05 b8 bd 75 20 bf 3c bd 3b 9f bd 70 94 1f be
       -0.08985356 0.023330906 -0.07775066 -0.15583968
