suboptimal_policies/Ant-v4_200.pth (torch, 198231 bytes, 6 tensors)

net.0.0.weight f4 [200, 27]
000000 5c c7 13 3d 54 39 ac 3d 03 0f 84 be 81 74 83 be
       0.036078796 0.08409372 -0.25792703 -0.25674823
000010 10 99 8b be ac fc c3 3e 20 01 62 bd b7 ce 3b 3d
       -0.27265215 0.3827871 -0.055176854 0.045851436
000020 07 5b 32 3e 39 3a 01 3c 58 72 88 3e c8 4f dd 3e
       0.17417537 0.0078874165 0.26649737 0.4322493
000030 67 25 68 be be 99 80 be 6e 74 0b 3e ba f0 08 3f
       -0.22670518 -0.25117296 0.13618633 0.5349232
000040 97 ed 1c be ae 05 7f be 7c 38 2d be 03 b4 0a be
       -0.15325008 -0.2490451 -0.16916078 -0.13545232
000050 28 04 6b be b3 91 d9 bd 50 5b f6 3d 27 eb 8a bd
       -0.22950804 -0.10623493 0.12029135 -0.06783133
000060 cf e1 0f be 1b c2 38 be b1 08 ca 3d ad 57 a7 bd
       -0.14050983 -0.18042795 0.09864939 -0.0817102
000070 e3 3e 4a be c1 f5 df be 69 9c 2b be 8e b6 ba 3d
       -0.19750552 -0.43742183 -0.16758884 0.09116851
000080 c1 35 b5 be d7 d6 0d be 05 28 0d be f2 57 e0 3c
       -0.35392573 -0.13851486 -0.13784797 0.027385686
000090 7a b5 b0 be b6 e2 3a bd 10 33 d5 3d fb 1e 49 3e
       -0.34513456 -0.045626365 0.1041013 0.19640724
0000a0 29 33 05 be 36 27 c7 3d 9b 18 d1 3d 12 73 c1 3d
       -0.13007797 0.09724276 0.10209771 0.09445776
0000b0 4c d6 1b be ac 90 c9 ba f0 91 8b bd 98 55 26 3d
       -0.15218467 -0.0015378199 -0.06814945 0.040608972
0000c0 c2 f2 df 3d 2a 2c 3c bd bc 4b f6 bd b3 c9 0d 3d
       0.10934974 -0.045940556 -0.12026164 0.034616183
0000d0 0b 1c c7 bd b9 42 1b 3e ec 3b f5 bd 14 d5 83 be
       -0.09722146 0.15162171 -0.1197432 -0.25748503
0000e0 94 ea e2 3b e0 bc 55 be 52 90 a5 be c0 b3 51 3e
       0.0069249365 -0.20872831 -0.3233667 0.20478725
0000f0 60 37 ce be 9b 77 c1 bd 82 4d 88 3e 09 cc e4 3e
       -0.40276623 -0.09446641 0.26621634 0.44686916
000100 c4 13 89 3e af 68 62 be 6f 34 8a be d0 66 58 3e
       0.26772892 -0.22110246 -0.2699313 0.2113297
000110 19 2c 42 3e 87 45 09 3e fe d5 3f 3e 34 1d 85 be
       0.18962134 0.13405429 0.18733975 -0.25998843
000120 b7 df 22 3d 04 30 7f 3e e7 37 18 bd 19 2d 19 be
       0.039764132 0.2492066 -0.037162688 -0.1495861
000130 79 4a a7 be c0 55 24 be 34 f4 61 3e 18 59 9a 3d
       -0.32674006 -0.16048336 0.22065812 0.075365245
000140 70 3c 3b 3e ca fa 10 3b e0 9a 13 3b dc e6 09 3d
       0.18284774 0.0022122138 0.0022522733 0.03366743
000150 75 18 87 be 49 ce bd 3e f9 96 25 bf 09 42 39 bc
       -0.26385847 0.37071446 -0.6468349 -0.011307248
000160 ad e4 94 3d 12 56 c1 3d 02 55 87 be 26 d0 78 bd
       0.07270179 0.09440245 -0.26432043 -0.06074538
000170 9a 3d d2 3d 7a e2 29 3d bb 0b 6e be 2f 38 64 3e
       0.10265656 0.04147575 -0.23246662 0.22287057
000180 a6 e6 1e bd f7 db b3 3e 29 80 a8 3d 74 7a 78 bb
       -0.038794182 0.35128757 0.082275696 -0.0037914785
000190 64 e0 30 3e d8 ea fa bd 01 86 54 be f4 00 81 bd
       0.17273098 -0.12251824 -0.20754243 -0.0629901
0001a0 2f 30 9d bb 09 57 31 3d 10 ef b1 3d 2d 2b d5 3d
       -0.0047970037 0.043295894 0.08688176 0.10408626
0001b0 4e a2 ee be f3 27 11 bf 34 e9 3f be 09 8c 13 3e
       -0.46608204 -0.5670158 -0.18741304 0.14408888
0001c0 3a 57 ae bd 2e 26 26 3e e4 2d df 3d a3 3e 83 3d
       -0.08512731 0.16225502 0.10897425 0.064084314
0001d0 ab f9 af 3e 2e b1 7b 3d 38 7b 97 3b 06 07 15 3d
       0.3437017 0.06144827 0.004622843 0.03638365
0001e0 d4 c2 c2 bb 2a 2c 07 bf 54 ea d3 bd 69 13 c3 be
       -0.0059436355 -0.52801764 -0.10347429 -0.38100746
0001f0 9f d9 36 3d 24 a4 39 bc b8 94 23 be 81 db f0 3d
       0.044641133 -0.011330638 -0.159747 0.11760617
000200 05 18 97 bd 36 0a a2 be 48 13 1f 3e f2 e6 c4 3d
       -0.07377628 -0.31648415 0.15534699 0.09614362
000210 bc d7 b4 bd 7e 19 c7 3c 30 bc 15 3e fe bd 99 be
       -0.088302106 0.024304148 0.14622569 -0.30027765
000220 07 6a c0 be d4 fb 80 be a8 c7 25 bf dd 58 dd bd
       -0.37580892 -0.2519213 -0.64757776 -0.10807965
000230 da 10 af be e1 af 18 be d4 f6 50 3e f1 a2 01 3d
       -0.34192544 -0.14910842 0.20406657 0.031649534
000240 6f 46 81 3d 2c cd 44 3e 2f 3c 08 3f bd 61 6f be
       0.06312262 0.19218892 0.5321683 -0.23377128
000250 ec 45 65 bb 44 a9 01 be 83 db b6 3e 2c f5 92 be
       -0.0034984304 -0.12662226 0.3571435 -0.28702676
000260 ef 27 e9 be be 58 40 3d 80 1a d7 3d ee cf e7 bd
       -0.4553828 0.04695963 0.10503101 -0.11318956
000270 df eb d7 bc fb 39 12 be d1 11 35 be df 8e 1f bc
       -0.02635759 -0.1427993 -0.17682578 -0.009738653
000280 41 e7 ef bd f8 fd 46 be 0b ee 1c 3d 09 f1 07 bd
       -0.1171403 -0.19432819 0.038312953 -0.033188853
000290 90 a3 8a 3c 04 3d 75 be ce 24 f0 3e 54 2b a6 bc
       0.016923696 -0.23949057 0.4690308 -0.020284332
0002a0 2d 70 38 3e cb 95 fe 3b d5 4b 95 bd 0c a1 ab 3d
       0.18011542 0.0077693216 -0.072898544 0.08380327
0002b0 57 58 df bd a8 0e 98 3e e7 7c 84 bd 9d 34 4a be
       -0.10905521 0.29698682 -0.06469136 -0.19746633
0002c0 ea 5d 38 bc ed 4a a0 3d c0 2b da bc ef 42 46 bd
       -0.01125286 0.07826791 -0.02663219 -0.048403677
0002d0 0d 78 93 bc 67 66 1f 3c 67 ea 9c 3c 3b 6c 88 bb
       -0.01800158 0.009729004 0.01915474 -0.0041632927
0002e0 06 18 1b 3c 75 a4 9d 3c b0 d7 13 3d 2d f5 4f bc
       0.009466177 0.019243458 0.036094368 -0.012692732
0002f0 89 d3 0b 3c 20 2c 8d 3e b5 08 36 3e 92 9c 14 bd
       0.008534321 0.27572727 0.17776759 -0.03628213
000300 d2 1c a4 3e e4 32 a1 3d e1 68 70 3e 0a 36 0b 3e
       0.32053238 0.07871035 0.23477508 0.13594833
000310 58 fb f1 3d 2c 82 69 3e 33 10 30 bc 1d e4 89 3e
       0.11815518 0.22803563 -0.01074605 0.2693185
000320 55 38 1c ba b1 06 60 3d f4 31 84 bc f7 a5 07 be
       -0.0005959322 0.05469388 -0.0161371 -0.13246904
000330 55 73 1a 3e 1f ed e1 be 60 f3 0c bb bf 7d 66 be
       0.15083058 -0.44126222 -0.0021507367 -0.22508906
000340 c8 34 ab 3c cb 3e e6 3d 2c 9c de bd bd c6 23 3e
       0.020899191 0.112424456 -0.10869631 0.15993781
000350 f0 8f 13 3e 19 32 58 3e c8 b9 0a bd b1 d3 8b 3c
       0.14410377 0.2111286 -0.03386858 0.017068716
000360 f2 86 94 be 49 41 b7 be 8b fa 21 bf 13 62 09 3f
       -0.29009205 -0.35791996 -0.63272923 0.53665274
000370 15 35 0c 3e 0d d3 b9 3d f2 a7 31 be 7c e1 c1 bd
       0.13692124 0.09073458 -0.17349222 -0.09466836
000380 1f d5 f7 3e 40 9b 45 3d 82 e1 f2 3d e0 7f 25 be
       0.48404786 0.04824376 0.118594185 -0.16162062
000390 89 f2 27 3e 73 13 45 bd d2 77 e1 be da 9b 7f be
       0.16401114 -0.04811425 -0.44036728 -0.24961796
0003a0 07 2e 12 3e 8d 9a e2 bd c7 3b 21 be 36 44 ac bd
       0.1427537 -0.110646345 -0.1574546 -0.08411448
0003b0 73 64 4f 3e f1 98 05 3e 77 a9 d6 3a 13 bc 84 be
       0.20253162 0.13046624 0.0016377409 -0.2592474
0003c0 42 47 1d be 45 15 1b 3d a8 57 49 3e 67 6f 0d 3f
       -0.15359214 0.03786208 0.19662344 0.5524811
0003d0 b3 34 0a 3e a7 ec 02 be 5d c0 38 be ef ed ab 3e
       0.13496666 -0.12785588 -0.18042131 0.33579966
0003e0 ff f4 1c 3e ae 72 ca bd e9 e7 40 be 67 83 86 3d
       0.15327834 -0.09885155 -0.18838467 0.06568032
0003f0 d1 c0 fe 3e f9 f5 24 3f 5a f0 c1 be 56 39 c3 be
       0.49756482 0.64437824 -0.37878686 -0.3812968

net.0.0.bias f4 [200]
000000 a2 16 87 be 72 7e cd 3d fe ee 7f be 54 10 8d be
       -0.26384455 0.10033883 -0.24993512 -0.2755152
000010 c3 fa 88 3d 8d 72 1a be c7 83 bd 3d c0 f1 93 bd
       0.06688454 -0.1508276 0.0925365 -0.072238445
000020 e8 6d 62 be 26 78 96 3e c7 4b 9f 3d 33 f5 7e 3e
       -0.22112238 0.2938854 0.07778125 0.24898224
000030 dc 0f 5a bd 6a 89 9a bd 61 8f 02 3e 29 f6 24 3e
       -0.05323778 -0.07545741 0.12750007 0.16109528
000040 4f 73 90 3e d7 ef 6b be 1d aa 4a be 13 f4 a4 bc
       0.28212973 -0.2304071 -0.19791456 -0.020135915
000050 a2 cf 00 be 65 b2 a1 bd 38 2d dc 3d f8 aa b7 3d
       -0.12579206 -0.07895354 0.10750812 0.089681566
000060 4c 2f e8 bd 3a 86 3f be e1 30 82 be 73 23 0d be
       -0.11337146 -0.18703547 -0.25427917 -0.13783054
000070 1e 68 2f be 4c 6b 6c 3e ef 86 4a 3c 5f 90 d2 3d
       -0.17129561 0.23087806 0.012361272 0.10281443
000080 9c d2 1c bd ff 2c 23 3e 58 5d 85 be fa 4e 36 be
       -0.03828679 0.15935133 -0.26047778 -0.17803565
000090 7f 14 60 3c 29 8d 47 3e 9d a7 a0 be 50 14 70 3d
       0.013676762 0.19487442 -0.3137788 0.05861312
0000a0 83 73 bc be 75 d1 90 bd de 80 2a be 7b 49 eb 3d
       -0.36806878 -0.07071201 -0.16650721 0.11488625
0000b0 75 63 af be 9e 05 45 3e 41 24 83 bc 61 18 de 3d
       -0.34255567 0.19240424 -0.016008498 0.10844494
0000c0 38 c5 42 bd 00 ec 57 be 49 14 f6 3d 7c 1f ea 3d
       -0.047551364 -0.2108612 0.12015588 0.114317864
0000d0 aa 84 fd bd b9 63 89 bb 02 7c 96 3e 3a 01 9a 3e
       -0.12378819 -0.004192796 0.29391485 0.3007906
0000e0 7d bb 96 be bb 62 6f be 2f 36 09 be 4b de e3 3c
       -0.29439917 -0.23377506 -0.13399576 0.027815958
0000f0 1f ef 73 3e 9e 39 8b 3c 5f 0e e6 3d d0 e0 cb be
       0.23821686 0.016995247 0.1123321 -0.39819956
000100 6f a8 db bd 7c 57 2e 3d f7 0f 38 be 82 47 2f be
       -0.107254855 0.0425639 -0.1797484 -0.17117122
000110 06 7b 0d bd 49 7e 72 3d 00 cb 65 be 42 71 61 be
       -0.034541152 0.059202466 -0.2244072 -0.2201586
000120 f4 9e 17 3e 1d 72 9d 3e 9f 82 26 be 54 02 16 be
       0.1480673 0.30751124 -0.16260765 -0.14649326
000130 9f 95 d8 3d 92 00 10 be 7e 1d 87 be 42 7d 97 be
       0.10575413 -0.14062718 -0.26389688 -0.29587752
000140 ed 4c 4f be f6 95 f2 bd 22 83 0f 3e 2f 13 76 be
       -0.20244189 -0.11845009 0.14014867 -0.24030755
000150 a3 39 df bd 42 c5 8b be 49 67 ca bd 19 59 21 3d
       -0.10899665 -0.27298933 -0.09882981 0.03939161
000160 1c 48 93 be d6 49 fb bc ad 9c 04 be f6 21 47 be
       -0.28765953 -0.030674856 -0.12950392 -0.19446549
000170 22 7a 3b bd d9 cf 24 be c2 71 2d 3d b4 99 2d be
       -0.04577077 -0.16094913 0.042344816 -0.16953164
000180 5a df bb bd ca ba 9e 3e 0a c8 bc bc 52 c9 a4 3e
       -0.0917346 0.31001884 -0.023044605 0.32184845
000190 73 5b 18 3e 78 55 10 be cc f9 a5 3d 03 2b 86 be
       0.14878635 -0.14095104 0.081042856 -0.2620469
0001a0 c5 12 0a be eb a4 41 bd 27 b6 b8 bc 6f fb 2a bd
       -0.13483723 -0.04727642 -0.022547795 -0.041743692
0001b0 bd e4 52 be 7c 61 cd 3d 07 ed 0f 3e e4 8b 48 3d
       -0.20595069 0.10028359 0.14055263 0.048961535
0001c0 bb 2d 83 bb a7 12 86 3c da 65 aa bc b1 95 31 3e
       -0.004003254 0.016366316 -0.02080052 0.17342259
0001d0 28 ef 44 be 3a 99 08 be b4 27 c2 3d e7 26 f6 bd
       -0.19231856 -0.13339701 0.09480229 -0.12019139
0001e0 91 e1 57 be 4f a3 d5 bd d1 05 f1 bd 6e 68 7c bd
       -0.2108214 -0.10431539 -0.117686875 -0.06162303
0001f0 78 27 c6 be 41 71 8f be 73 bc 11 3e 0b a9 80 3e
       -0.38701987 -0.28016093 0.14232044 0.2512897
000200 5f 16 53 3e aa 67 61 bd e6 a2 cf bd 28 99 a2 3d
       0.20614003 -0.055030502 -0.10138492 0.079393685
000210 13 33 46 3d d0 bc e4 bd 33 ce bd bd d4 4d 09 bd
       0.048388552 -0.111688256 -0.09267845 -0.03352149
000220 cc 20 b2 bd ab 8c 31 be d5 23 e2 bd 55 e0 8d 3d
       -0.08697662 -0.17338817 -0.11041991 0.069275536
000230 f2 30 24 3e 89 50 ca be dc 85 a5 be 33 0e a6 bd
       0.16034296 -0.39514568 -0.3232869 -0.08108177
000240 7d 1a 69 3d c2 43 c8 3d 5f 06 c0 bd fc 54 2c 3d
       0.056910027 0.09778549 -0.09376215 0.042073235
000250 0a 33 9f bd c4 28 9b 3d bf 40 ab bd 74 ad 82 bc
       -0.07773407 0.07576135 -0.08361959 -0.01595185
000260 5b 83 df bd fb fb 5c be 3f 8a 17 bd 13 cb ea bd
       -0.10913726 -0.21580498 -0.036997076 -0.114645146
000270 6c df f1 bd fe 9a dd bc d1 9e ae 3d 0e 2b c2 3d
       -0.118101925 -0.027051445 0.085263856 0.09480868
000280 01 6b ef bd 48 0a 48 3e ea 42 00 be 7e 17 de bb
       -0.11690331 0.19535172 -0.12525526 -0.006777703
000290 32 1b b7 3c 71 78 2f 3e 5f d0 ae be 2f 48 97 bd
       0.022351835 0.17135789 -0.3414335 -0.07386815
0002a0 f2 ca 47 be 27 55 81 bb 5a 3f b4 3d e8 c5 8a be
       -0.19511011 -0.0039469185 0.08801146 -0.27104115
0002b0 5a e0 aa 3d cd 30 c6 3c 4a f8 38 be a4 7f 81 3d
       0.08343573 0.024193192 -0.18063465 0.06323174
0002c0 0f de 08 bd 82 53 a5 3c de e3 8c be f9 1a 5c be
       -0.033414897 0.020181421 -0.275176 -0.21494664
0002d0 11 9f 0d be d9 1a a4 3d 44 17 7b bd 51 7e 07 be
       -0.1383021 0.08012933 -0.061301485 -0.1323178
0002e0 ea 20 18 be fd b2 81 be e7 19 c4 be 6a 41 27 3d
       -0.14856306 -0.2533187 -0.38301012 0.040833868
0002f0 da 8f 1d 3e 64 b9 4c be 8e 0b b5 3d 17 d0 0a be
       0.15386906 -0.19992596 0.088400945 -0.13555942
000300 ae ef 8b 3e cb ad 07 be 42 aa 0b bd ee 72 90 3d
       0.273313 -0.1324989 -0.034097917 0.07053171
000310 76 89 f0 3d f6 16 62 3e af b7 ec 3d 12 56 77 bd
       0.117449686 0.22079071 0.11558472 -0.060384817

net.1.0.weight f4 [200, 200]
000000 d2 11 26 3d 88 ac d9 bc 42 28 0c be f5 56 ce 3c
       0.04054434 -0.026571527 -0.13687232 0.025187949
000010 2d 09 2c be 32 fb a2 ba 32 d4 cb bc 41 7b d4 3d
       -0.16800375 -0.0012434481 -0.024881456 0.10375071
000020 58 6f 8d be f2 76 f2 bd cb b1 2e 3d 86 1b b5 bb
       -0.2762401 -0.11839093 0.042650025 -0.0055269627
000030 69 a2 98 bc f4 a3 cf 3d e9 3d 32 be 5f c7 c4 3d
       -0.01863213 0.101386935 -0.1740643 0.096083395
000040 73 2e 89 3b 3e 4d 3a 3d e4 5b 20 3d da e9 d6 3d
       0.0041864454 0.04548382 0.039150134 0.104938224
000050 52 17 92 bd 69 ee 8c bd 58 7e 66 3d 64 2b 39 bd
       -0.07133354 -0.06881411 0.056272835 -0.045207396
000060 48 7f 4d bd aa eb a1 bc e9 7f f8 bd ca aa be 3d
       -0.050170213 -0.019765694 -0.12133772 0.09309919
000070 2e f7 24 be 4b 0d 0a bc 18 60 d7 3b 6f 2b 07 bd
       -0.16109917 -0.008426021 0.0065727346 -0.033000406
000080 2f 36 a4 3b 69 87 6f bd 4a 59 75 be 02 dd 22 be
       0.005011342 -0.058478747 -0.23959842 -0.1590462
000090 b9 15 c5 3d d4 5f f3 3c 21 2f ac bc 14 e8 2e 3b
       0.09623284 0.02970878 -0.021018567 0.0026688622
0000a0 4a 56 32 3d 49 65 0c 3e 4d d2 11 3d 4d a8 57 bd
       0.043539323 0.13710512 0.03560095 -0.05265074
0000b0 f6 73 af bc 73 d3 35 bd 52 89 e9 3d bf 33 15 be
       -0.0214176 -0.044391107 0.11403145 -0.14570521
0000c0 0c 77 06 bc 7f c5 08 bd ef 42 e2 3c f3 11 cd bc
       -0.008207094 -0.033391472 0.027619807 -0.025032973
0000d0 01 9e f3 bc 22 ef 86 bd 13 2a 24 bc 8b ba 5e 3d
       -0.029738428 -0.0658858 -0.010019797 0.05437712
0000e0 45 3c 1e 3e 54 a8 94 be e5 92 3d be d7 00 a2 3c
       0.15452679 -0.29034674 -0.18513067 0.019775791
0000f0 0e 8a af 3d e5 11 0a bc 03 05 85 bd 1b c9 c4 be
       0.08571254 -0.008427118 -0.064950965 -0.3843468
000100 20 64 01 3d 53 0d d8 3d 56 b2 f4 bd 92 c7 02 be
       0.031589627 0.105494164 -0.119480774 -0.12771443
000110 26 a1 8e 3e 3c 0c f7 3c 11 0f c5 bd af 6e 0c bd
       0.27857322 0.030157201 -0.09622014 -0.034285244
000120 cb e2 fe 3c 98 0a 8a bc fb d3 9a 3d 2d a5 a7 3d
       0.031114003 -0.016850755 0.07559963 0.08185802
000130 e8 3b 96 bc 2b 7a 0d 3d 9c 68 8b 3e 73 4e 56 3d
       -0.018339112 0.034540337 0.27228248 0.05232091
000140 c6 01 22 be 20 ea b5 bd 32 94 b0 bb 54 3a a0 bd
       -0.15820989 -0.088825464 -0.00538876 -0.07823625
000150 26 81 e3 bb be d2 87 3e 55 c1 03 3c cb b3 87 3d
       -0.006942886 0.2652797 0.008041699 0.0662609
000160 57 e2 40 3d 04 be 54 be 88 ab 90 3c c6 9d 24 be
       0.047090854 -0.2077561 0.017659917 -0.16075811
000170 f5 3e ae 3c a9 04 ec 3d 40 99 cd 3c 0d ea 84 bd
       0.021270255 0.11524326 0.02509749 -0.06489954
000180 e7 89 5b be 1a c8 c0 3c a4 63 6c be f2 2f 22 bd
       -0.21439324 0.023532916 -0.23084885 -0.039596505
000190 31 c2 cd 3d a8 1d 23 3d 64 47 8e 3d 9d bb 0b be
       0.10046805 0.039823204 0.069472104 -0.13645788
0001a0 d0 12 86 be ad 9d 11 39 f4 8b b1 3d f5 0a 0a 3e
       -0.26186228 0.00013887016 0.08669272 0.13480742
0001b0 91 7c 2a be 99 c6 16 bc 12 3f 82 3d d9 29 7f bd
       -0.16649081 -0.009202623 0.06359686 -0.06229577
0001c0 f2 16 7a bd 16 61 75 3d ee 85 83 bd 89 42 46 3d
       -0.06105704 0.05990704 -0.064220294 0.048403297
0001d0 c2 a6 48 bd e4 3c 9d 3e 68 28 d3 3d 0e b4 79 3d
       -0.048987158 0.30710518 0.10310441 0.06096273
0001e0 e2 cd 03 3e c2 56 a7 bd 6d 6b 14 be cf c8 0e be
       0.12871507 -0.081708446 -0.14494105 -0.1394379
0001f0 1c d8 01 be 1c ec ed 3d 23 88 eb ba b5 6f c6 bc
       -0.12680095 0.116173 -0.0017969649 -0.024223188
000200 27 ba af 3d 0b bb 4b 3d 35 3a 21 be 99 20 e6 3d
       0.085804276 0.049738925 -0.1574486 0.11236686
000210 82 19 95 3c bd d0 87 3d 1c 26 d0 bd b5 d3 20 bd
       0.01820064 0.066316105 -0.10163519 -0.0392644
000220 e5 83 86 be bf f8 e5 bc 9e e1 ef 3d 0f 32 f1 bc
       -0.26272503 -0.028072713 0.11712955 -0.029442815
000230 17 6b b4 3c 8c 01 b1 bd 98 5c 09 be 07 29 03 3e
       0.02202372 -0.08642873 -0.13414228 0.1280862
000240 a4 78 90 bd 0c fb 0e be 69 ca 76 3e 7b 8b ce 3b
       -0.070542604 -0.13962954 0.24100651 0.0063032485
000250 5c a6 fc bd d6 08 86 3c b7 27 f0 bd 91 8d 9c 3d
       -0.12336418 0.016361635 -0.11726325 0.07644189
000260 35 a0 86 3d e8 91 15 3e 28 6f c4 bd 11 8f e3 bd
       0.06573526 0.1460644 -0.09591514 -0.11111272
000270 19 84 24 3d f3 12 c3 3c aa e9 ad bc fc 09 01 3e
       0.04016504 0.023812747 -0.021229584 0.12601465
000280 96 23 0e 3d 32 e3 92 3e 13 50 a4 bb 4c 35 fe 3d
       0.034701906 0.2868896 -0.0050144284 0.12412509
000290 8c 4a a3 bd ca 84 f4 3c c5 6b f6 be af 6b 4d be
       -0.07973203 0.029848475 -0.48129097 -0.2006061
0002a0 9e 42 48 3d fa 71 26 3c 10 87 5d bb f6 41 bc bd
       0.048891656 0.01015901 -0.0033802427 -0.091922686
0002b0 37 23 ec 3c 78 90 f9 3d c5 64 4f bd 68 60 01 3e
       0.028825385 0.12185758 -0.05063321 0.12634432
0002c0 ad 46 c2 3d 7f dc 06 be b8 cc 92 3d 5e 31 d4 bc
       0.094861366 -0.1317005 0.07167953 -0.025902446
0002d0 7b 51 b0 bd 31 14 f2 3d 9e de 1e 3e cc cf 14 bc
       -0.08609291 0.118202575 0.15514609 -0.009082746
0002e0 d1 f9 35 be 97 4a 1f be 56 a1 18 3e 18 50 5b be
       -0.17771079 -0.15555798 0.14905295 -0.21417272
0002f0 a3 ea d9 bb 60 a1 1a be c0 55 1c be 09 4c 9f bd
       -0.0066502853 -0.15100622 -0.15267086 -0.077781744
000300 f2 e8 d5 3d 94 18 ec bd 5a d8 72 3d 1c 20 da 3d
       0.104448214 -0.115281254 0.05928836 0.106506556
000310 8e 5d 91 3c 3f 4e 91 3d 3b 32 9a 3e bb d0 5f bc
       0.017744806 0.070950024 0.30116448 -0.013660605
000320 9d 33 e9 bd dc 1e f3 bc b3 9c 1c be 7f f5 b8 3d
       -0.113867976 -0.0296778 -0.15294151 0.090312
000330 e4 75 c5 3d 93 72 5b be 15 7c 13 bd b0 7f 49 bd
       0.096416265 -0.21430425 -0.036007006 -0.049194038
000340 50 57 c4 bd e0 4e d2 bd 65 57 c7 3d 49 7d 97 3c
       -0.09586966 -0.102689505 0.09733466 0.018492358
000350 d2 42 1b 3d c5 b4 01 3e f6 fe 68 bd d5 a3 15 bd
       0.03790552 0.12666614 -0.056883775 -0.036533196
000360 bb 80 fa bd 36 a4 a1 bc 1b 99 49 be e6 d7 15 3e
       -0.12231585 -0.019731622 -0.19687311 0.1463314
000370 c3 78 e9 bb d1 bc 05 3c 89 3c 17 3c de 59 ae bd
       -0.0071249916 0.008162693 0.009230741 -0.085132346
000380 af 26 60 bd 3e d5 09 bd 8e 06 5d be bd 90 17 be
       -0.05472439 -0.03365063 -0.21584532 -0.14801307
000390 71 bf 9d 3d 6a ba 6b bd c8 61 91 bd b5 4b 94 3d
       0.0770253 -0.057550825 -0.070987284 0.072410025
0003a0 f4 23 e3 bd 85 83 d0 bd 20 55 70 bd e4 ae 06 3e
       -0.11090842 -0.10181335 -0.05867493 0.13152653
0003b0 a4 b7 12 be 5b 2a b6 3d c0 70 af bc 50 da 1f bc
       -0.14327866 0.088947974 -0.021416068 -0.00975664
0003c0 8b 0a 18 3e e6 ec 30 bd cc 6e 06 3e 2e 3f f5 3d
       0.14847772 -0.043194674 0.13128203 0.11974941
0003d0 5f a6 b9 bd d8 90 46 3d 3d ca 14 be 97 5e 9f bd
       -0.09064936 0.048477978 -0.14530273 -0.077817135
0003e0 8b 45 eb 3d 2e aa c1 bd 4f 08 a5 bd 73 2e 9a bc
       0.11487874 -0.09456287 -0.08058225 -0.018820977
0003f0 f6 57 7e bd fc 28 3e 3d a5 e9 b0 bd 9a 5b aa 3c
       -0.062095605 0.046425804 -0.08638314 0.020795632

net.1.0.bias f4 [200]
000000 a0 50 98 3d 72 5f 17 be d4 01 b2 bd 20 60 75 3d
       0.07437253 -0.14782503 -0.08691755 0.059906125
000010 b7 82 6e be db 52 28 3c 9e 49 06 be a8 00 5a bd
       -0.23292051 0.0102736605 -0.1311402 -0.053223282
000020 5a 92 ee 3a c8 3f 2e be ea a2 24 be 11 a2 91 bd
       0.0018201575 -0.17016518 -0.16077772 -0.0711099
000030 42 d7 01 be e9 d9 56 be 62 a1 3a be 6b 21 a0 3c
       -0.1267977 -0.20981564 -0.18225625 0.019547185
000040 e4 1e eb bc 5c 59 48 3d 4a 6d 33 3c a9 92 79 3d
       -0.028701253 0.048913345 0.0109513495 0.06093088
000050 e5 a6 04 bd d8 be d0 3d 1a 93 e2 3c 94 d5 b0 3e
       -0.032385726 0.101926506 0.027658034 0.34537947
000060 6e 83 4b bd eb 47 2c be 53 1f cc bd cc af 68 bd
       -0.049685888 -0.1682431 -0.09966912 -0.056808278
000070 f5 2d cc bc f6 13 4d 3c bc d4 a3 3d 89 c4 b0 3d
       -0.024924258 0.012516966 0.0799956 0.08631236
000080 2b 3c 07 bd 40 1f 61 bc af e6 6b 3d bd 17 55 bd
       -0.033016365 -0.013740361 0.057593044 -0.05202459
000090 51 df a5 3d cf 13 04 3d 3d cd ff bc 0d 67 9a bd
       0.08099235 0.032245453 -0.031225795 -0.075391866
0000a0 83 9f ba 3c 9a 43 68 3c 35 dc a6 bd 8d 11 03 be
       0.02278114 0.014176274 -0.0814747 -0.12799664
0000b0 39 3f 1d bd 0a 74 93 be 32 f7 df 3c ef b6 6c 3a
       -0.038390372 -0.28799468 0.027339552 0.0009029945
0000c0 1b 92 d4 bc 5b 61 bd 3d 0a d4 ca bd 2f 3d 41 3c
       -0.025948575 0.09247085 -0.099037245 0.011794372
0000d0 fe 14 03 3d 38 36 db 3c fa 20 0a be 0f 98 fc bd
       0.03200244 0.026759252 -0.13489142 -0.123336904
0000e0 58 a6 c6 bd d7 9a e3 bd 5c fc ef bb 9e cd 5a 3c
       -0.09699696 -0.11113518 -0.0073237848 0.013354687
0000f0 99 f8 ca bd 03 ea 4f bd 59 72 2e bd 3e 20 9a 3d
       -0.099106975 -0.05076028 -0.04258952 0.07525681
000100 19 8b 5f 3d aa bd a2 bc 9a 42 b0 3c 2e 74 b8 3e
       0.054576013 -0.01986583 0.021516133 0.36026138
000110 2e 4a bb bd ad 8e 5f bd 09 46 a3 bd 98 e0 3a be
       -0.09145008 -0.054579426 -0.079723425 -0.18249738
000120 b1 3b a8 bd 0b 62 55 bd eb 1e cb 3c 4e 48 85 bd
       -0.0821451 -0.052095454 0.024795016 -0.06507932
000130 f7 a2 1d 3d d8 c5 68 bd 9a 1a 38 bd b9 81 85 3e
       0.038485494 -0.056829304 -0.044947244 0.26075533
000140 30 ba cd 3d 43 7a 02 3e ee 48 69 bd ca d8 ed bc
       0.10045278 0.12741952 -0.056954317 -0.029034037
000150 c4 ed 7f bd 89 71 07 3e 0e 65 84 bd b8 0d 64 3f
       -0.06248261 0.13226904 -0.06464587 0.89083433
000160 ff 40 91 bd 3b 18 f2 ba db 0f 9b bd cc d1 c0 bd
       -0.07092475 -0.0018470356 -0.075713836 -0.094150156
000170 d5 db 03 bd 3a 56 08 3f ee a9 2b 3c b2 95 8f bd
       -0.03219207 0.5325657 0.010477526 -0.07010974
000180 e1 b9 cd bd dc 29 0c 3d ac 77 03 3d 69 e6 05 be
       -0.10045219 0.034219608 0.03209655 -0.13076176
000190 40 4d 63 be 0a 1d b5 bd 83 8d 93 bc 54 bc 9b 3f
       -0.22197437 -0.088434294 -0.018011814 1.2166848
0001a0 87 51 5e bc ce 58 f4 bd 11 fa e6 bb ad 76 87 3e
       -0.013569242 -0.11931001 -0.007048853 0.2645773
0001b0 1e 65 ad bd 25 af 9e bd d0 31 ce ba 6b b9 d3 bd
       -0.08466552 -0.0774825 -0.0015731398 -0.103381
0001c0 0d 00 1e 3d 0d ca 65 bd 40 17 67 3c 8c b6 e6 bc
       0.038574267 -0.056100894 0.014104664 -0.028163217
0001d0 75 68 a2 3d 02 89 b0 bb 07 74 3e be 54 fb 0a be
       0.0793008 -0.0053874264 -0.18598948 -0.13572437
0001e0 83 47 a4 bc 97 ad ac be 0c 5f af 3d bb 2d cc 3d
       -0.02005363 -0.3372619 0.08563051 0.0996966
0001f0 a1 50 fc 3d 51 df 02 3e bd 67 c2 3d ba ef ea bd
       0.12320066 0.12780501 0.09492443 -0.114715055
000200 fb 76 8a 3d 09 72 d8 bd be cc c1 bd 05 95 ec bd
       0.06760975 -0.105686255 -0.094628796 -0.11551861
000210 6d 5e 04 3d 85 da 54 ba 13 b2 8b bd 89 69 9d bd
       0.032316614 -0.000811972 -0.06821074 -0.07686145
000220 6e a0 4f bd 9c 8a 75 bc 4a 55 13 3d ab 3c 3a bd
       -0.050690107 -0.01498666 0.03597001 -0.045468014
000230 f1 10 95 3d a0 d5 b2 bd e3 4a 6a bd 54 d8 ba 3d
       0.07278622 -0.08732152 -0.057200324 0.091232926
000240 11 60 92 bd 64 41 12 3d da e0 f9 3c 46 fe be 3d
       -0.071472295 0.035706893 0.030502725 0.093258426
000250 2b 94 1e 3d 56 fc 0d 3c 67 8b 1c be c8 8b 1a be
       0.038715523 0.008666119 -0.15287553 -0.15092385
000260 d9 6e e7 bc 5c 5f 3b be 77 73 2b 3d 99 72 6d bd
       -0.028251098 -0.18298095 0.041858163 -0.057970617
000270 4a 23 9f bd ad 73 a8 bd 12 e0 9f 3d 1d 67 56 b7
       -0.07770403 -0.082251884 0.0780641 -1.2779402e-05
000280 1d ff 2d be 4c b8 a8 3d 5c 24 c5 bd 8c c3 90 bd
       -0.16991849 0.08238277 -0.096260756 -0.070685476
000290 73 04 a1 bd 51 76 22 be b0 22 fa bd 8a 0c 0f be
       -0.07862177 -0.15865447 -0.12213647 -0.13969627
0002a0 7d 21 cd 3d 23 61 53 3d 07 6e 1f be c7 35 89 bc
       0.10016153 0.05160631 -0.15569316 -0.016749276
0002b0 ea 73 e7 3c d2 45 ba bd 77 00 4f 3e f8 01 ef 3c
       0.028253514 -0.090953484 0.20215021 0.029175743
0002c0 9a ee 14 3d 71 c5 bf bc d9 8c d3 3d 63 a0 25 bc
       0.03636036 -0.023409577 0.10329599 -0.01010904
0002d0 50 a8 99 3c 2c d3 b0 bb f1 b2 9b 3c 26 88 97 be
       0.018757015 -0.0053962674 0.019006224 -0.2959606
0002e0 c6 60 78 bc 93 57 0b be fb f3 17 be a1 62 16 be
       -0.015159791 -0.13607626 -0.14839165 -0.14686061
0002f0 c2 ec a8 3d a8 41 58 be 43 f9 20 bd c1 50 20 be
       0.08248283 -0.21118796 -0.039300214 -0.15655805
000300 ca 6b 3d bd c1 e6 3d bd 8a 1e cc 3d bf cf 1d be
       -0.046245374 -0.046362642 0.09966762 -0.1541128
000310 8b 52 ab bd 29 d1 95 bb 36 7d 44 bd 2f 5e da 3c
       -0.08365353 -0.004572053 -0.047970973 0.026656238

net.2.0.weight f4 [16, 200]
000000 de e9 01 be 9f d4 08 be 5f 6e 2c 3e 3e 20 83 bd
       -0.1268687 -0.13362359 0.16838978 -0.06402634
000010 38 b3 89 be 1d 23 4e 3e ee f6 0c 3e 84 df d6 3d
       -0.26894546 0.20130582 0.13766071 0.10491851
000020 e8 fa ab 3d 41 b8 e1 bd a4 4b 85 3d c4 d3 24 bd
       0.08397466 -0.11021472 0.06508568 -0.040241018
000030 b7 24 77 bd 31 43 93 be af a8 06 3e bf 87 ad 3d
       -0.06033775 -0.287622 0.13150285 0.08473157
000040 3d ca cc 3d 20 6d 22 be 63 95 b5 3e 45 ff e5 bd
       0.099995114 -0.1586194 0.35465536 -0.112303294
000050 f4 f7 1c 3c 7d 84 ee bd 8c 47 43 be 90 d6 ab bd
       0.009580601 -0.11646364 -0.19070262 -0.08390534
000060 72 83 37 be 90 63 b4 be 6d 32 1d 3e 34 99 a5 3c
       -0.17921236 -0.3523221 0.15351267 0.020214655
000070 00 cf 17 3e 1a 4c 92 3d 41 74 f3 bc 47 43 d6 3d
       0.14825058 0.071434215 -0.02971852 0.10462051
000080 2b 73 ef 3d c0 9d a1 3d 29 ad 8d 3d 49 ca 5e 3e
       0.116918884 0.078914165 0.06917793 0.21756853
000090 6b 02 11 3d 06 26 cf bd 99 fb b8 3c 7a 8a 98 3d
       0.035402697 -0.10114674 0.022580909 0.07448287
0000a0 6e 74 74 bd 02 9b 99 3d 18 18 9a 3d 59 d4 e7 bd
       -0.05968135 0.075002685 0.07524127 -0.11319799
0000b0 4f 6e 25 be 8d 13 96 be d3 45 2a 3e 8d 5b 26 3e
       -0.1615536 -0.2931179 0.16628198 0.16245861
0000c0 7e d3 45 bd 67 01 b9 bc 33 6f 93 bd 6c b7 1d be
       -0.048297398 -0.022583677 -0.07198944 -0.15402001
0000d0 47 ee 5e 3d 36 f1 f7 3b 9e 3e 11 3d d8 64 59 be
       0.054426458 0.0075665964 0.035460107 -0.21229875
0000e0 23 f2 e4 3d 87 21 57 be b0 a3 e7 3d 95 97 b6 3c
       0.111789964 -0.21008883 0.11310518 0.022289077
0000f0 06 87 b8 3e cc 7a b4 3d c1 28 77 3d c5 e1 12 bc
       0.36040515 0.08812484 0.0603416 -0.00896496
000100 db 76 2e 3d 3a 5e ae bd a4 69 13 be a8 64 ab bd
       0.04259382 -0.08514066 -0.14395767 -0.08368808
000110 49 df e3 3b 60 31 e2 3d 9c fd e6 bd c4 9a 4e be
       0.006954108 0.11044574 -0.11278841 -0.20176226
000120 27 f6 6d 3e a2 5c 59 be 9a 78 00 bd 7e 2b 33 3e
       0.23238431 -0.21226743 -0.031365015 0.1749706
000130 8e 56 f6 3d 12 93 58 be 17 43 f1 3c 31 ac 1f 3b
       0.12028228 -0.21149853 0.029450936 0.0024364109
000140 5d 7c 12 3e 52 ca b1 bd cb 8e 67 be 8a 57 e6 bd
       0.14305253 -0.08681168 -0.22613065 -0.112471655
000150 7c f8 e2 3c 90 7a 8f 3d 63 76 a9 3d 89 fb 1b bc
       0.027706377 0.07005799 0.082745336 -0.00952042
000160 76 d1 5b bd 5f 0f e3 3c f9 62 26 be 93 2f 01 be
       -0.053666554 0.02771729 -0.16248693 -0.12615804
000170 6b 22 30 bd 18 7e 24 3d 89 fd 71 3d 65 a8 2c be
       -0.043001574 0.040159315 0.05907968 -0.16861112
000180 98 78 a1 be 42 e4 b5 bd 28 25 c4 3d 6c ca c1 3d
       -0.31537318 -0.08881427 0.095773995 0.09462437
000190 dc c2 19 be b7 d9 09 3e 5c 18 bc bc 03 ac 40 bc
       -0.15015739 0.13461958 -0.022960834 -0.011759761
0001a0 ca db e5 3d 0c 4a a3 3e 60 62 95 3e 25 38 2d 3d
       0.11223562 0.3189243 0.29176617 0.04228987
0001b0 03 ad b2 3c 68 26 ae be 03 85 7f 3d 2a 3e 1f 3e
       0.021811014 -0.34013677 0.06238271 0.15551057
0001c0 f3 01 55 3c a9 f4 d6 bd 3a 0f 83 3d 28 10 90 3d
       0.013000953 -0.10495884 0.063993886 0.070343316
0001d0 25 eb 82 be 26 72 6c 3d 75 9e cd 3d e3 f4 0d 3e
       -0.25570026 0.057726048 0.10039989 0.13862948
0001e0 89 0e b8 3c fb 8a 29 3d 9a 83 f4 bd f0 2e 00 be
       0.022467868 0.041392308 -0.119391635 -0.12517905
0001f0 2c 8e f6 3b f7 d0 a8 3d 16 53 b9 3d 8a 2f d3 bd
       0.0075242724 0.08242982 0.090490505 -0.10311802
000200 dd 97 cb bc d6 0c d0 3d ad d8 6b be 41 c3 df bd
       -0.024852687 0.10158698 -0.23031874 -0.109259136
000210 de fd bf bd 72 0f 95 bd 5a 91 0b 3e 47 b2 63 bd
       -0.09374593 -0.072783366 0.13629666 -0.05558994
000220 64 39 12 3d 92 b5 5f bd 19 8e d9 3d 26 1a d6 3c
       0.035699263 -0.05461652 0.10622806 0.026135515
000230 94 cb ae 3d 79 4a 1a bc b1 49 9e 3d c3 1d d3 3d
       0.08534923 -0.00941717 0.07728899 0.10308411
000240 3d 02 24 bd fe b7 5a be af 7d b8 3d 91 7b 0c 3c
       -0.040041197 -0.2135925 0.09008347 0.008574382
000250 dd ec 4b 3c 97 e1 bd bc b2 9a 84 bd 16 43 aa 3d
       0.012446609 -0.023178859 -0.06474818 0.08313577
000260 e7 19 4b bc 74 4e e3 bc 2e e8 3a 3d fa ca d3 bd
       -0.012396312 -0.02774737 0.04563158 -0.10341449
000270 e8 f8 3f be 51 ce 29 be ac b9 48 bd 08 79 c8 bd
       -0.18747294 -0.1658261 -0.049005195 -0.0978871
000280 bb 2e f0 3d d5 6c 6d bd 83 43 4e 3c b6 21 3d 3e
       0.11727663 -0.05796512 0.012589338 0.18469891
000290 16 ee 9c bd 40 60 24 3e 8c 6b 02 3e 1d 4e a2 be
       -0.07662599 0.16052341 0.12736338 -0.3170022
0002a0 5f 3d dc 3c be 7d 96 bd f5 dc 12 be 33 ff 9e bd
       0.026884733 -0.07348202 -0.14342101 -0.07763519
0002b0 99 59 22 bc 9b 96 c1 3d 94 4c ea 3b 4c d3 53 3d
       -0.009909057 0.09452554 0.007150242 0.05171518
0002c0 5f 7c 2c 3d eb e1 86 3c fa 6c d9 bd 48 00 ca bd
       0.042110797 0.016465148 -0.10616489 -0.09863335
0002d0 ab 65 e4 bd 20 8d 5c bb 0d 35 54 3e 22 da 8b be
       -0.11152204 -0.0033653453 0.20723362 -0.2731486
0002e0 68 d8 80 3e 00 c3 13 3e 56 35 73 3e 10 70 03 3e
       0.25165105 0.14429855 0.23750815 0.12835717
0002f0 5a dd 7c bb 68 3f 0a bd a1 85 19 3d 86 88 28 3e
       -0.0038584084 -0.033751875 0.037480954 0.1645833
000300 40 32 cc bd ba ee 08 3e 45 42 da bd 84 2c 13 3e
       -0.09970522 0.13372317 -0.10657171 0.1437245
000310 a2 b5 48 be 77 79 43 be 11 d2 c7 bd 30 9a af bc
       -0.19600537 -0.19089304 -0.09756864 -0.021435827
000320 ed 9e d6 3c 27 b6 fd 3d c3 7b de bd 88 4b 67 bd
       0.026198829 0.123882584 -0.108634494 -0.056468517
000330 f9 5a 76 bd 96 ac 91 bd b6 4b 8c 3e 2b fd 6e 3d
       -0.060145352 -0.07112996 0.27401513 0.05834691
000340 d4 bd ae bd 6a 09 29 bd f5 54 15 3d 43 94 a8 bd
       -0.085323006 -0.041268744 0.036457974 -0.08231404
000350 ae 32 ad be 64 9b cf bc 2f a3 da bc 76 85 3f 3e
       -0.33827728 -0.02534265 -0.02668914 0.18703255
000360 fd fb 03 be bd 93 1c 3d e6 62 08 be ad af 2d 3e
       -0.12889095 0.03822683 -0.13318977 0.16961546
000370 43 2a 04 bd 9f b9 31 3d 87 18 11 bd 5e e2 83 bc
       -0.032266866 0.043389913 -0.03542378 -0.016099151
000380 08 63 54 3e 88 be 1c 3e 6b e9 96 3d b0 43 67 3e
       0.20740902 0.15307057 0.0736874 0.22584414
000390 f3 19 18 be 07 16 29 be 7f 9e 6c be 7f 77 87 bd
       -0.14853649 -0.16512309 -0.23107336 -0.06614589
0003a0 ba 1f 90 3e 73 52 b5 3d 0c 43 a8 3c d7 5d 6c bd
       0.28149205 0.088536166 0.020539783 -0.05770668
0003b0 d5 69 53 3b b0 90 2d be cb b3 d1 bd 71 3b 3b 3e
       0.0032259126 -0.16949725 -0.10239371 0.18284394
0003c0 e0 a8 03 3d da 50 35 bd 04 e0 b5 3e 36 85 3c 3e
       0.032143474 -0.04426656 0.35522473 0.18410191
0003d0 38 9e 10 bd c4 e6 98 3d 9c 9f 6d bd 81 55 f3 bd
       -0.03530714 0.0746589 -0.058013543 -0.11881543
0003e0 b3 78 20 be 88 1d af 3d 67 3e c5 3d e4 a2 13 bd
       -0.15671043 0.085505545 0.09631043 -0.036044016
0003f0 d2 25 0d 3d 61 f3 0a be bb 48 76 3d df d3 48 be
       0.034459896 -0.13569404 0.060127955 -0.19612072

net.2.0.bias f4 [16]
000000 99 ac 1f 3b 5b 36 58 3c 74 e8 c1 bc fb aa 28 3c
       0.002436435 0.013196553 -0.023670413 0.010294671
000010 34 1a 4b 3c f5 5b 1e bc 35 c8 3a 3c 56 02 d5 bc
       0.012396384 -0.009665479 0.011400272 -0.02600209
000020 d9 d0 cb bd 53 ca da bd bb b5 fe bd 92 1b a7 bd
       -0.09951944 -0.106831215 -0.12437006 -0.081595555
000030 e5 14 ae bd 7e 42 26 be 05 70 c0 bd f6 1e 0e be
       -0.08500079 -0.16236302 -0.09396366 -0.13878998
