suboptimal_policies/AntPyBulletEnv-v0.pth (torch, 30295 bytes, 6 tensors)

net.0.0.weight f4 [64, 28]
0.023919892 0.017849013 0.21218911 1.5843278 0.4698389 -1.0103526 -0.6479476 1.123288
-0.050152954 -0.33843726 0.06606479 0.08424999 0.04439002 -0.2053193 -0.8593553 -0.51536816
0.10718749 0.077307805 -0.47150195 -0.42211875 -0.06268691 0.323503 0.08030702 0.05172529
-0.022714958 -0.01903345 0.05312648 0.017023774 0.027742786 -0.0760183 -0.06735156 -0.45530322
-0.5069751 -0.15487704 -0.4056436 0.22026451 -0.29792815 -0.20142534 -0.053594995 0.0010157829
0.04173534 -0.19427629 -0.05189526 0.26028642 -0.2860776 -0.17513146 -0.033574894 0.12813498
-0.10024891 -0.48973256 -0.054560095 -0.32021463 -0.079329915 0.0026803964 -0.13102612 0.03385907
0.09123176 -0.81320196 -0.099310815 0.7639164 -0.18620527 0.16906007 0.56364584 -0.14858137
0.07065327 0.15837799 0.2297642 0.44877407 -0.0280245 -0.24741378 -0.47177926 -0.16832118
0.46260816 0.060901545 -0.10227955 0.036569305 -0.016758291 -0.062550366 0.036936413 -0.19594476
-0.25938147 -0.059339695 -0.07017145 -0.008135027 -0.068471156 0.75965893 -0.14239734 -0.47448188
-0.34634626 0.08195455 0.1716997 0.44274712 -0.10412363 0.45022854 0.029019462 -0.090831384
0.22520979 0.009224527 -0.034865107 -0.11691078 0.0013726817 -0.39055613 0.177685 0.19118439
-0.14890806 -0.049336962 -0.15438634 -0.2001889 -0.01019488 -0.049284294 -0.031089583 0.007806382
0.7647033 0.1483251 -0.29783028 -0.64567196 -0.4197672 0.2129222 -0.142293 -0.020927696
-0.12923907 0.021717135 -0.41217318 -0.3245629 0.15188836 0.22049035 0.53808624 -0.39698723
-0.34380564 0.026917167 0.20075943 -0.22898264 -0.23961769 -0.09732586 -0.07803024 0.24566627
-0.1313813 -0.42041007 -0.15886262 -0.11197734 0.11039807 -0.54989237 -0.005269913 0.42151135
0.047174938 1.2375242 0.21418017 -1.0674646 0.12395077 0.6706886 0.16803251 0.2085486
-0.10656082 -0.11160124 0.0003290899 0.2697119 0.15013294 0.0271765 -0.11979041 0.16599119
0.06494958 -0.058154408 -0.1177353 -0.5156335 -0.031332087 -0.061270297 -0.046383318 -0.028840287
0.11479414 0.20332049 -0.1852458 -0.6243852 1.6456064 -0.5073334 2.321695 -1.0228395
-0.77791554 0.07572724 -0.29811144 0.8343519 -0.15660167 -0.22956187 0.28086686 -0.07335974
-0.15636884 0.112483755 0.18496169 -0.32989904 -0.25058085 -0.58169276 0.1462857 0.23804009
-0.1413289 -0.06994831 0.22781786 0.022797091 -0.019906703 0.07967981 -0.069699526 0.7297192
0.048716094 -0.42670617 -0.29571795 0.5101534 0.37437215 -0.24344383 0.25770462 -0.06956683
0.20277502 -0.026825137 -0.27382988 -0.19360647 0.09428202 0.28422892 -0.6414674 -0.16233365
-0.18555665 0.027186947 -0.051362142 0.052696973 0.06057834 -0.02114573 -0.13988115 -0.012378273
-0.1869103 -0.7297923 -0.11757436 0.8798797 0.044719342 -0.016864058 -0.18334681 0.1947209
-0.11597436 -0.24067262 0.08640274 -0.17527416 -0.48106033 -0.08160002 0.24786313 0.15835743
-0.21741201 -0.102994986 -0.026471233 0.070803575 -0.023078794 0.27184436 0.16864702 -0.0532732
-0.08781931 0.009427426 0.123281196 -0.13232729 0.48213798 1.1378863 0.54578185 -0.6026787
00000000: a6f3 c33c 1838 923c 1a48 593e 41cb ca3f
00000010: b98e f03e 3c53 81bf e5df 25bf e7c7 8f3f
00000020: 2f6d 4dbd a647 adbe fa4c 873d 428b ac3d
00000030: 4fd2 353d 393f 52be b5fe 5bbf 2bef 03bf
00000040: 1d85 db3d 8e53 9e3d b468 f1be f31f d8be
00000050: ff61 80bd 2fa2 a53e 0278 a43d e6dd 533d
00000060: b814 babc 0aec 9bbc 279b 593d 7175 8b3c
00000070: d744 e33c 7caf 9bbd 9def 89bd 811d e9be
00000080: 1fc9 01bf 1698 1ebe 85b0 cfbe 058d 613e
00000090: 0a8a 98be 7242 4ebe 6d86 5bbd 0524 853a
000000a0: adf2 2a3d 5df0 46be 2090 54bd 4344 853e
000000b0: c378 92be a955 33be d485 09bd d135 033e
000000c0: 4d4f cdbd 3abe fabe 687a 5fbd 2cf3 a3be
000000d0: b977 a2bd 97a9 2f3b b62b 06be cfaf 0a3d
000000e0: b8d7 ba3d 012e 50bf 7863 cbbd 0690 433f
000000f0: 98ac 3ebe 151e 2d3e 184b 103f b725 18be
00000100: a9b2 903d d72d 223e 4e47 6b3e b7c5 e53e
00000110: a393 e5bc 0a5a 7dbe 0d8d f1be 635c 2cbe
00000120: fada ec3e e673 793d f177 d1bd b2c9 153d
00000130: af48 89bc 681a 80bd a34a 173d bea5 48be
00000140: a6cd 84be 2e0e 73bd 0db6 8fbd c748 05bc
00000150: 9b3a 8cbd 0279 423f 9cd0 11be 4aef f2be
00000160: 4c54 b1be cad7 a73d 0cd2 2f3e c0af e23e
00000170: c53e d5bd 5b84 e63e 39ba ed3c ce05 babd
00000180: 659d 663e 7822 173c b7ce 0ebd eb6e efbd
00000190: 8eeb b33a f9f6 c7be 0ef3 353e d7c5 433e
000001a0: 5b7b 18be 8e15 4abd 7417 1ebe 52fe 4cbe
000001b0: 6d08 27bc 54de 49bd 95af febc aecc ff3b
000001c0: 98c3 433f 89e2 173e 367d 98be c24a 25bf
000001d0: baeb d6be 4708 5a3e 42b5 11be 8f70 abbc
000001e0: 3f57 04be 22e8 b13c 5d08 d3be 1c2d a6be
000001f0: 9f88 1b3e 39c8 613e 05c0 093f e941 cbbe
00000200: 4b07 b0be 6481 dc3c e193 4d3e 6d7a 6abe
00000210: 575e 75be c852 c7bd 52ce 9fbd f08f 7b3e
00000220: d288 06be fd3f d7be e2ac 22be 6054 e5bd
00000230: 6218 e23d bfc5 0cbf 3caf acbb 56d0 d73e
00000240: 823a 413d 3167 9e3f 0c52 5b3e aea2 88bf
00000250: e7d9 fd3d 40b2 2b3f b710 2c3e c48d 553e
00000260: 8f3c dabd 318f e4bd b389 ac39 ae17 8a3e
00000270: 73bc 193e 40a1 de3c ad54 f5bd 98f9 293e
00000280: 4904 853d 5133 6ebd 341f f1bd 8f00 04bf
00000290: 1356 00bd 90f6 7abd 6ffc 3dbd 7742 ecbc
000002a0: 3119 eb3d 3f33 503e 13b1 3dbe b5d7 1fbf
000002b0: 3ba3 d23f 9ae0 01bf a796 1440 68ec 82bf
000002c0: 7925 47bf e216 9b3d 10a2 98be 1698 553f
000002d0: 305c 20be 4412 6bbe c8cd 8f3e a23d 96bd
000002e0: 271f 20be e25d e63d 9966 3d3e 87e8 a8be
000002f0: 224c 80be d1e9 14bf ebcb 153e c8c0 733e
00000300: 86b8 10be 0f41 8fbd 1649 693e f7c0 ba3c
00000310: 6213 a3bc 2b2f a33d a0be 8ebd e1ce 3a3f
00000320: 878a 473d 3b79 dabe 5868 97be 6a99 023f
00000330: b5ad bf3e 5749 79be dcf1 833e 0e79 8ebd
00000340: 41a4 4f3e 64c0 dbbc 6e33 8cbe c640 46be
00000350: ef16 c13d 7486 913e 3537 24bf cb3a 26be
00000360: 9002 3ebe 29b7 de3c 1c61 52bd c8d8 573d
00000370: fe20 783d cf39 adbc 013d 0fbe 3dce 4abc
00000380: 6a65 3fbe abd3 3abf d3ca f0bd cc3f 613f
00000390: a12b 373d 7e26 8abc 44bf 3bbe ea64 473e
000003a0: f783 edbd e272 76be ebf3 b03d 127b 33be
000003b0: 8a4d f6be e91d a7bd d5cf 7d3e 7328 223e
000003c0: 41a1 5ebe 09ef d2bd 33da d8bc 7701 913d
000003d0: bd0f bdbc 2f2f 8b3e ceb1 2c3e 0035 5abd
000003e0: 9cda b3bd 7e75 1a3c da7a fc3d ce80 07be
000003f0: cada f63e 42a6 913f 5cb8 0b3f 2749 1abf

net.0.0.bias f4 [64]
0.18048766 -0.06846819 0.0071815336 -0.07819258 -0.07796472 0.04250027 0.28995788 0.08860297
-0.058911566 0.32923314 0.10977699 0.36890078 0.03542991 0.00014765217 -0.19314766 0.06138567
0.23620673 -0.3615494 -0.19063206 -0.025637714 -0.31360567 -0.0734317 -0.11160828 0.025528321
-0.17190018 -0.06545643 -0.12919386 0.03226503 0.029814323 -0.33164814 0.033565693 -0.07238612
-0.012485059 -0.2187646 0.23688512 -0.40623713 -0.042792477 0.048314173 -0.04772891 -0.07410273
-0.096622325 -0.44638422 -0.123706125 -0.077696174 0.06556209 -0.11179286 0.45557317 -0.20912625
-0.047882825 -0.20261425 -0.2953862 -0.11244208 0.07004185 -0.102695666 -0.046260387 0.238647
-0.12148123 -0.07174545 -0.018107293 0.096282765 -0.08651946 -0.05039571 -0.097932704 -0.014989319
00000000: c2d1 383e 0d39 8cbd 1253 eb3b 6e23 a0bd
00000010: f8ab 9fbd c314 2e3d 5c75 943e 7975 b53d
00000020: 414d 71bd 3f91 a83e c2d2 e03d 90e0 bc3e
00000030: f41e 113d 14d3 1a39 80c8 45be 8a6f 7b3d
00000040: 2de0 713e 011d b9be 0d35 43be 2f06 d2bc
00000050: ec90 a0be 5c63 96bd e292 e4bd c520 d13c
00000060: 9a06 30be 050e 86bd 654b 04be 5628 043d
00000070: 2b3d f43c c9cd a9be 2e7c 093d 2d3f 94bd
00000080: 228e 4cbc d403 60be 0392 723e 50fe cfbe
00000090: 2a47 2fbd 15e5 453d 647f 43bd 2cc3 97bd
000000a0: ede1 c5bd 798c e4be a359 fdbd 2c1f 9fbd
000000b0: 6b45 863d a8f3 e4bd e340 e93e 3125 56be
000000c0: c820 44bd 1c7a 4fbe dc3c 97be 0948 e6bd
000000d0: 1a72 8f3d 1b52 d2bd 887b 3dbd e15f 743e
000000e0: 27cb f8bd 47ef 92bd bf55 94bc e62f c53d
000000f0: 1d31 b1bd bb6b 4ebd f190 c8bd c395 75bc

net.1.0.weight f4 [64, 64]
-0.94226325 -0.025087297 -0.015556008 0.27902642 0.10166821 -0.018377287 -0.003123561 -0.13724092
0.079164326 0.30073923 -0.22432044 0.008073675 9.29186e-05 0.011685024 -0.6083058 0.03977416
0.12819856 -0.21838757 -0.040267203 -0.0068226857 -0.8571127 -0.084151395 -0.29626068 0.007315521
0.15569915 0.16043283 0.10464542 -0.015983379 -0.09004353 -1.0205084 0.33791587 0.043241553
-0.006360596 -0.56999934 0.06632071 -0.22368424 -0.043839063 -0.034889728 -0.24570619 0.051617093
-0.010466945 -0.22636041 0.019263841 -0.41706076 0.029566923 0.014695318 0.3251234 0.2616835
-0.69007564 0.3811928 -0.030321566 0.03037202 -0.028325489 0.08926139 0.028773066 -0.32876614
0.022819221 0.038206223 0.04022648 -0.04999818 0.025762644 -0.15040283 0.000583006 -0.1889885
0.07598449 -0.02046494 -0.017556576 0.019539248 -0.14650096 0.63114244 0.06099451 0.06938468
-0.051081903 0.28655922 -0.007920463 -0.017959952 0.15983051 0.16998778 0.1829249 0.17477484
-2.5030687 0.03556129 0.1365538 -0.021736776 -0.020353133 -0.09068741 -0.18890753 0.102934405
0.05688302 0.14396594 -0.13897844 0.007338265 -0.21375142 -0.10278331 -0.020390354 -0.00417574
-0.13239671 0.10068425 -0.055850644 -0.028418208 -0.3159802 -0.16438988 -0.024449727 0.31846341
0.061399706 -0.23983909 0.11586555 -0.104908675 0.24142805 0.022152917 0.06928202 -0.09856069
0.06734997 0.15175733 -0.08085842 0.011847055 0.06463086 -0.13819455 0.13060984 0.111169875
-0.05689519 -0.11567567 0.46187335 -0.06918582 0.0807871 -0.12355126 -0.0018980085 0.26375306
-0.0933587 0.026821738 -0.053436376 -0.22986938 0.37843296 0.06710721 0.32520247 -0.29172263
0.041509863 0.07066173 0.06852062 -0.48540896 0.22938989 -0.24990569 -0.056366194 -0.06992656
0.030120736 0.006901809 0.050903212 0.12906171 0.09776153 -0.31510487 -0.08556896 -0.07455385
-0.097543195 -0.18052556 0.012767174 -0.03995004 0.023275735 -0.52640224 -0.17720404 0.10644684
0.05828466 0.30060297 -0.1349419 -0.014077585 0.22005051 -0.053830355 -0.23036455 0.01599235
-0.07351827 0.17567146 -0.038902186 0.14327005 -0.047886163 -0.22470276 0.14084004 -0.2593167
-0.023032587 -0.12008422 -0.39467913 0.12354999 -0.030515064 -0.0047275163 0.13333738 0.20607764
0.2612273 0.07150501 -0.16577621 0.47604457 -0.17229167 0.08818256 0.03878176 0.0065876623
-0.119455956 0.025428982 -0.17240787 -0.0052660424 -0.14432888 -0.03172712 -0.055133455 -0.10523436
0.112725474 0.11670161 -0.3882842 0.015436621 0.06355657 -0.037903618 -0.47259432 0.12241681
-0.035235524 0.05212267 0.045815174 0.019606654 -0.6007214 -0.107612416 -0.15130703 0.02223077
0.040989365 0.07961858 0.037642322 -0.025108173 0.026239183 -0.24651958 -0.27193332 -0.071372494
0.009511136 -0.10456802 -0.09598637 -0.28969252 -0.13472632 -0.07631598 0.45803577 0.011279363
-0.0090411045 -0.18156856 -0.0016117962 -0.09752611 -0.02491728 -0.13861232 0.0013270227 0.0087623615
-0.067154765 0.042856757 0.10677006 0.033864684 -0.019558268 0.1137487 -0.07195086 -0.5998641
-0.03331455 -0.06196879 0.15745176 -0.19186312 -0.0563297 -0.2165169 0.47267097 0.09693402
00000000: 2a38 71bf e083 cdbc a0de 7ebc 8ddc 8e3e
00000010: 6c37 d03d f78b 96bc a8b4 4cbb e288 0cbe
00000020: e820 a23d 7efa 993e 42b4 65be 7347 043c
00000030: 4bdd c238 8b72 3f3c eeb9 1bbf 3bea 223d
00000040: 7c46 033e fea0 5fbe 39ef 24bd d690 dfbb
00000050: bd6b 5bbf 9157 acbd 7baf 97be 0ab7 ef3b
00000060: 996f 1f3e 8148 243e 5750 d63d 93ef 82bc
00000070: be68 b8bd 05a0 82bf 4f03 ad3e 0e1e 313d
00000080: 8c6c d0bb 7aeb 11bf 27d3 873d 7b0d 65be
00000090: 9790 33bd 88e8 0ebd 679a 7bbe 726c 533d
000000a0: 8d7d 2bbc 06cb 67be 34cf 9d3c fd88 d5be
000000b0: 5536 f23c a2c4 703c 9376 a63e 61fb 853e
000000c0: cca8 30bf b42b c33e ef64 f8bc bece f83c
000000d0: db0a e8bc adce b63d 7eb5 eb3c 0954 a8be
000000e0: 60ef ba3c 217e 1c3d 86c4 243d e4ca 4cbd
000000f0: 2e0c d33c 3303 1abe dfd4 183a 3486 41be
00000100: c29d 9b3d 17a6 a7bc cfd2 8fbc c610 a03c
00000110: 5904 16be 8d92 213f 61d5 793d 8e19 8e3d
00000120: 423b 51bd e4b7 923e d4c4 01bc c020 93bc
00000130: 9caa 233e 4711 2e3e aa50 3b3e 2df8 323e
00000140: 4732 20c0 b7a8 113d c2d4 0b3e 5311 b2bc
00000150: 9dbb a6bc 52ba b9bd fa70 41be 46cf d23d
00000160: 2bfe 683d cf6b 133e 5d50 0ebe d475 f03b
00000170: a7e1 5abe 0e80 d2bd ac09 a7bc a5d4 88bb
00000180: 0193 07be 8b33 ce3d a5c3 64bd 4dcd e8bc
00000190: 28c8 a1be d255 28be cb4a c8bc a30d a33e
000001a0: 427e 7b3d 6198 75be eb4a ed3d 5cda d6bd
000001b0: ea38 773e 097a b53c bbe3 8d3d 30da c9bd
000001c0: c8ee 893d 4666 1b3e 1999 a5bd 261a 423c
000001d0: 2f5d 843d df82 0dbe 96be 053e 08ad e33d
000001e0: ee0a 69bd 5ee7 ecbd aa7a ec3e 4cb1 8dbd
000001f0: b573 a53d 7108 fdbd 99c6 f8ba a40a 873e
00000200: d932 bfbd 43b9 db3c 1ae0 5abd e162 6bbe
00000210: f7c1 c13e 816f 893d f080 a63e ab5c 95be
00000220: 3f06 2a3d 19b7 903d 8a54 8c3d 8687 f8be
00000230: 2fe5 6a3e 47e7 7fbe 3de0 66bd a835 8fbd
00000240: c3bf f63c 9228 e23b e37f 503d c128 043e
00000250: 3237 c83d 6d55 a1be c73e afbd b0af 98bd
00000260: bac4 c7bd b1db 38be 692d 513c a7a2 23bd
00000270: c1ac be3c 4cc2 06bf fa74 35be cd00 da3d
00000280: e5bb 6e3d a2e8 993e 362e 0abe aca5 66bc
00000290: ec54 613e 387d 5cbd afe4 6bbe 6402 833c
000002a0: bf90 96bd 38e3 333e e657 1fbd 62b5 123e
000002b0: 4824 44bd 7b18 66be 5f38 103e 29c5 84be
000002c0: d6ae bcbc b7ee f5bd 6213 cabe c707 fd3d
000002d0: bafa f9bc 48e9 9abb 9889 083e 0406 533e
000002e0: 96bf 853e 3871 923d 3dc1 29be 1dbc f33e
000002f0: 3a6d 30be 0f99 b43d 9fd9 1e3d 51dd d73b
00000300: 53a5 f4bd 7150 d03c b08b 30be c48e acbb
00000310: f3ca 13be 4cf4 01bd 9ed3 61bd 1d85 d7bd
00000320: 9ddc e63d 4101 ef3d 30cd c6be e2e9 7c3c
00000330: f229 823d d340 1bbd e2f7 f1be aab5 fa3d
00000340: 2053 10bd 957e 553d b1a8 3b3d 229e a03c
00000350: e1c8 19bf e663 dcbd 3bf0 1abe 4e1d b63c
00000360: 77e4 273d 110f a33d d62e 1a3d a8af cdbc
00000370: 8ef3 d63c a16f 7cbe d83a 8bbe be2b 92bd
00000380: 99d4 1b3c c227 d6bd 8194 c4bd 9452 94be
00000390: b2f5 09be 8d4b 9cbd aa83 ea3e 14cd 383c
000003a0: 2421 14bc 1ced 39be e842 d3ba c5bb c7bd
000003b0: 531f ccbc 63f0 0dbe 7eef ad3a 0290 0f3c
000003c0: 7088 89bd 918a 2f3d 43aa da3d b2b5 0a3d
000003d0: a938 a0bc 14f5 e83d f95a 93bd b290 19bf
000003e0: d674 08bd fcd2 7dbd 093b 213e c477 44be
000003f0: f9b9 66bd 9bb6 5dbe ee01 f23e 5885 c63d

net.1.0.bias f4 [64]
0.064309046 0.34741586 -0.110880286 0.12591478 0.028519122 0.00469907 -0.004252857 0.064428516
0.07063142 -0.103698134 -0.4272477 0.12304515 0.19668984 -0.14685436 0.44692793 -0.21131366
-0.25885835 0.17325608 0.14225861 -0.294186 -0.07924714 0.12353575 0.08440028 0.012781673
-0.08313006 0.037881937 -0.11904465 0.2200992 0.17377736 -0.024576416 0.25686625 0.2538135
-0.00027338634 0.15547757 -0.042550713 0.39265406 -0.03754045 0.16894907 0.012438349 0.051457856
0.15360843 0.07194646 0.10672773 0.07706497 0.07613301 0.23469436 0.09728976 -0.0231688
0.05535254 -0.00622595 0.03831841 -0.034018815 0.06132794 0.21045104 0.062137578 0.059051897
-0.29854435 0.12504365 0.0046588806 -0.12593149 0.03582668 0.049619988 0.32960004 0.023140516
00000000: 76b4 833d 7ee0 b13e 3415 e3bd ceef 003e
00000010: efa0 e93c a8fa 993b 8d5b 8bbb 19f3 833d
00000020: 35a7 903d b05f d4bd 36c0 dabe 18ff fb3d
00000030: 1069 493e fd60 16be bdd3 e43e 9c62 58be
00000040: 1589 84be 0b6a 313e 3eac 113e 8c9f 96be
00000050: 534c a2bd 5000 fd3d 0eda ac3d 396a 513c
00000060: 1840 aabd 172a 1b3d aecd f3bd af61 613e
00000070: b1f2 313e 7b54 c9bc f983 833e d8f3 813e
00000080: 4b55 8fb9 8335 1f3e a849 2ebd f409 c93e
00000090: 04c4 19bd fc00 2d3e 38ca 4b3c 79c5 523d
000000a0: 874b 1d3e aa58 933d 1194 da3d 3dd4 9d3d
000000b0: a0eb 9b3d b853 703e db3f c73d 7fcc bdbc
000000c0: 58b9 623d 0e03 ccbb c4f3 1c3d 5057 0bbd
000000d0: 0233 7b3d 7a80 573e f983 7e3d 67e0 713d
000000e0: ceda 98be 710b 003e 86a9 983b 2ff4 00be
000000f0: ffbe 123d 543e 4b3d 56c1 a83e 2e91 bd3c

net.2.0.weight f4 [16, 64]
0.09733453 -0.6853287 -0.2478757 0.56479764 0.78282934 -0.046498723 0.10319084 0.035545893
-0.28978363 0.49431038 -0.5689468 -0.007540848 0.20958436 0.28905383 -0.29829222 -0.31371722
0.072200194 0.5253394 -0.060915515 -0.09578816 0.2827509 0.13093159 -0.16941029 0.094696485
0.28115645 -0.002551171 -0.22493804 0.49433947 0.390652 -0.07425392 -0.8635244 -0.112297185
-0.23119986 0.3833452 -0.29728547 0.90240777 -0.1882608 0.037572656 0.22368073 0.44880196
0.20361169 0.4504624 -0.08057169 0.42594802 0.043645658 0.31367034 -0.92790735 0.15493838
0.059976626 -0.5283925 -0.08872522 0.08685901 0.5351856 0.07142531 0.9287405 0.112160094
-0.70128006 -0.030492675 0.2088688 0.0918476 0.2388222 -0.5588742 0.5086942 0.01795918
0.5988643 -0.26123065 0.43555245 0.48909265 0.43568787 0.440526 -0.13716415 0.005922324
1.4318897 0.82259667 0.045726053 0.018227758 0.3492758 -0.0583698 0.12257854 -0.1169173
0.7425946 -0.041877236 0.79153866 -0.85014296 0.096816756 -0.11702851 -0.050616104 1.1259074
-0.9436841 0.08012952 -0.02016893 -0.32364693 0.3257518 -0.3412297 0.015826266 -0.5768348
0.4491232 0.23677371 -0.18511616 -0.16433723 0.17510849 0.37962317 -0.18866439 0.31786752
-0.5642447 0.18935427 -0.493381 0.3691601 0.4731412 0.9018466 -1.2438648 -0.31061307
0.9063443 0.72850275 0.5222445 0.15806474 -0.17366336 0.0047566085 -0.22848883 -0.08156491
-0.26436922 0.08314859 0.30309156 0.9951814 -0.43970543 -0.12052374 0.1902523 -0.40777823
-0.86025923 -0.64882374 -0.25597492 -0.56709427 -1.0633732 0.10845933 -0.052013334 -0.07501568
0.061325178 -0.008255295 -0.37694287 -0.08718463 -0.08154615 0.050705895 -0.73918754 0.17153831
-0.94163156 0.14966312 -0.23921749 0.029988931 0.78460765 0.2647845 0.31064457 -0.23255779
0.22646543 0.03990355 0.09778429 -0.22753349 0.47833014 0.6391296 -0.20252587 0.48430103
0.42423284 0.010859522 0.17882434 0.5713057 -0.8552032 -0.05749639 0.0059781983 0.18687056
0.03460147 -0.28634498 0.2045571 -0.52617943 -0.23322213 -0.9568633 0.35035154 -0.5137754
0.24481183 0.17933634 0.21633351 0.2415269 0.12583414 0.091911785 0.25467265 -1.1086907
0.52004915 0.74434155 -0.6403723 0.08478688 -0.16463062 0.7342903 -0.8269736 0.18307151
-0.40484062 -0.9731029 0.26115167 -0.091899864 -0.038038623 0.072948165 -0.1842722 -0.100912854
-0.31991407 0.3749123 -0.32408956 0.08711791 0.6396653 -0.3447434 -0.20228213 -0.40815246
0.37689328 -0.7621981 0.20140553 -0.5678302 -0.25340924 -0.027537538 -0.6885477 -0.0263042
0.105959356 -0.044457395 0.8993288 0.11034857 -0.024508752 -0.6384409 0.08144839 -1.0185248
0.5281239 0.020213535 -0.6893348 0.11681056 -0.21372922 -0.25050625 0.052041255 0.19049653
-0.20966695 0.5939532 -0.6564596 0.5407338 0.25808483 0.36405343 0.57534105 -0.46418127
0.04372617 -0.2656662 -0.2564145 -0.03306119 0.732657 -0.006684957 -0.2040667 -0.031943608
0.093939 0.14557332 -0.21398841 -0.31290308 -0.1437992 -0.2682869 0.29830694 -0.12357109
00000000: 5357 c73d b471 2fbf 21d3 7dbe 9496 103f
00000010: 8167 483f 7275 3ebd b855 d33d 9298 113d
00000020: 855e 94be 4016 fd3e 7fa6 11bf 3819 f7bb
00000030: 489d 563e ddfe 933e c2b9 98be 8b9f a0be
00000040: b2dd 933d a57c 063f 8c82 79bd 952c c4bd
00000050: bac4 903e ee12 063e e479 2dbe 3bf0 c13d
00000060: bdf3 8f3e 8c31 27bb 2856 66be 101a fd3e
00000070: 8a03 c83e 7012 98bd ef0f 5dbf 11fc e5bd
00000080: a8bf 6cbe d245 c43e cd35 98be 3204 673f
00000090: 70c7 40be c9e5 193d 900c 653e 5fc9 e53e
000000a0: 957f 503e 02a3 e63e c502 a5bd dc15 da3e
000000b0: cac5 323d 6699 a03e 568b 6dbf 2ba8 1e3e
000000c0: 0daa 753d bb44 07bf 91b5 b5bd 23e3 b13d
000000d0: ec01 093f 6f47 923d f0c1 6d3f 31b4 e53d
000000e0: 1787 33bf c6cb f9bc b4e1 553e 981a bc3d
000000f0: cf8d 743e 6112 0fbf c839 023f 211f 933c
00000100: 2c4f 193f 06c0 85be bb00 df3e 5a6a fa3e
00000110: 7b12 df3e a08c e13e c274 0cbe 0e10 c23b
00000120: 2948 b73f b295 523f 3e4b 3b3d 6152 953c
00000130: 47d4 b23e 2c15 6fbd 750a fb3d 5672 efbd
00000140: ae1a 3e3f 7787 2bbd 47a2 4a3f f8a2 59bf
00000150: dd47 c63d a5ac efbd d552 4fbd bc1d 903f
00000160: 4895 71bf f21a a43d 5039 a5bc 0db5 a5be
00000170: f1c8 a63e a9b5 aebe 16a6 813c 72ab 13bf
00000180: 7af3 e53e cf74 723e 178f 3dbe 0548 28be
00000190: a44f 333e f85d c23e 3d31 41be 88bf a23e
000001a0: 5772 10bf 16e6 413e 6f9c fcbe 8d02 bd3e
000001b0: 903f f23e 6bdf 663f f636 9fbf ad08 9fbe
000001c0: 2e06 683f 287f 3a3f d1b1 053f b9db 213e
000001d0: cfd4 31be 53dd 9b3b faf8 69be 810b a7bd
000001e0: 675b 87be cf49 aa3d d12e 9b3e 35c4 7e3f
000001f0: 1221 e1be 27d5 f6bd 80d1 423e 4fc8 d0be
00000200: f339 5cbf 5019 26bf 250f 83be 172d 11bf
00000210: 9d1c 88bf ed1f de3d ef0b 55bd d2a1 99bd
00000220: 1c30 7b3d 3841 07bc a8fe c0be db8d b2bd
00000230: ab01 a7bd fcb0 4f3d 653b 3dbf bda7 2f3e
00000240: c40e 71bf 4a41 193e 6ef5 74be 59ab f53c
00000250: 0cdc 483f d591 873e ce0c 9f3e a123 6ebe
00000260: 8ee6 673e e871 233d 2143 c83d 8afe 68be
00000270: b0e7 f43e ff9d 233f f162 4fbe 4ef6 f73e
00000280: 0c35 d93e 23ec 313c ba1d 373e 1741 123f
00000290: 99ee 5abf 5681 6bbd c3e4 c33b ff5a 3f3e
000002a0: 45ba 0d3d cf9b 92be 6b77 513e b2b3 06bf
000002b0: c8d1 6ebe fef4 74bf 4761 b33e c986 03bf
000002c0: f4af 7a3e f2a3 373e 8886 5d3e d452 773e
000002d0: aada 003e 3f3c bc3d 7464 823e 94e9 8dbf
000002e0: f121 053f 2b8d 3e3f 70ef 23bf bea4 ad3d
000002f0: ee94 28be 73fa 3b3f 8bb4 53bf 1977 3b3e
00000300: 4547 cfbe 461d 79bf acb5 853e ff35 bcbd
00000310: 63ce 1bbd d965 953d dab1 3cbe 66ab cebd
00000320: c7cb a3be 81f4 bf3e 11ef a5be e06a b23d
00000330: 1bc1 233f 3582 b0be 0c23 4fbe 5cf9 d0be
00000340: 28f8 c03e 6a1f 43bf 403d 4e3e 525d 11bf
00000350: dbbe 81be 6796 e1bc a944 30bf e87b d7bc
00000360: 3801 d93d f518 36bd 6a3a 663f 6efe e13d
00000370: 94c6 c8bc dd70 23bf 6ace a63d 055f 82bf
00000380: 2133 073f db96 a53c 3f78 30bf 603a ef3d
00000390: d5db 5abe 5b42 80be 3629 553d 8611 433e
000003a0: efb2 56be 510d 183f bd0d 28bf 886d 0a3f
000003b0: b223 843e 3665 ba3e 8d49 133f 2ba9 edbe
000003c0: 361a 333d 6605 88be c348 83be 2c6b 07bd
000003d0: 698f 3b3f 7c0d dbbb dcf6 50be 4dd7 02bd
000003e0: 1763 c03d 2c11 153e c71f 5bbe d534 a0be
000003f0: 1940 13be e75c 89be b0bb 983e d712 fdbd

net.2.0.bias f4 [16]
0.12425651 0.13296822 0.03405871 0.012422231 0.046750534 0.025453344 -0.09842134 0.08305943
-0.12229834 -0.08079043 -0.08787466 -0.08336862 -0.08390062 -0.112031884 -0.1226074 -0.08191046
00000000: 327a fe3d d228 083e 2581 0b3d 9d86 4b3c
00000010: 7d7d 3f3d 8883 d03c 2191 c9bd 101b aa3d
00000020: 8d77 fabd 7475 a5bd a1f7 b3bd 2bbd aabd
00000030: 17d4 abbd f970 e5bd 9719 fbbd acc0 a7bd
