suboptimal_policies/AntPyBulletEnv-v0_smol.pth (torch, 60631 bytes, 6 tensors)

net.0.0.weight f4 [100, 28]
-0.064520255 0.02555208 0.22437795 0.40825275 1.1346556 -0.2897713 -0.09783382 -0.4520385
0.15010408 -0.031131564 -0.08843874 -0.17855687 0.5126815 0.03940049 -0.29611376 0.16064864
0.7950042 -0.09515166 -0.090204045 0.3446285 0.34520587 0.043693725 -0.11228951 -0.6972402
-0.21197024 0.121716015 -0.07698013 0.012239478 0.2663972 -0.73861516 -0.034282334 0.29260784
-1.456152 -0.8064992 -0.50740695 -0.27047876 0.2659985 0.32978502 0.028320648 0.1403269
0.27867523 -0.100124255 -0.050638676 -0.7212806 -0.12049104 -0.6806417 0.06476843 -0.74109226
0.56234896 0.26621267 0.25588048 -0.083365776 0.06846681 0.052398898 -0.3538303 -0.7245023
0.16479596 -0.8829542 -0.12891401 -0.826693 -0.81621355 0.43157786 -0.3918492 -0.21166304
-0.15310791 0.07902004 -0.21251373 -0.093286335 -0.33564335 -0.15889129 0.2939067 0.01275913
-0.08311908 -0.12596817 -0.13614923 -0.3063412 -0.049251143 0.16718328 0.06725856 -0.1428668
0.23113967 -0.104368135 0.002004628 0.06764954 0.21494457 0.012062178 -0.10782424 -1.6655129
-0.50878024 -0.33667922 0.030931307 0.11012321 0.21481562 0.025168147 0.21642485 0.31680158
-0.013038272 -0.067525305 -0.22155035 0.5741887 -0.6975086 -0.007975872 -0.049118724 -0.5470693
-0.4494064 -0.03154907 0.30447817 -0.29157752 0.12108783 -0.21545948 -0.26288286 -0.14400929
0.08858477 -1.2344332 -0.5966011 -0.84046793 -0.0065226266 0.3504748 0.4071411 -0.03878592
0.25328657 -0.018946448 -0.018155167 -0.3965363 -0.6627471 0.010407962 -0.2540448 0.07277858
0.3644298 -0.3296954 -0.283716 0.227094 0.5137637 0.2363852 -0.19185086 -0.3540919
-0.13275221 0.13507937 0.20925741 -0.14777339 0.09088424 -0.73056585 -0.07099508 0.3068101
0.06994167 -0.15775597 -0.048575614 0.21836135 0.4526696 0.1730985 0.27935278 0.0017813391
-0.09754994 -0.22062097 -0.25795412 0.1417578 0.34005135 0.14905624 -0.4963045 -0.32412982
-0.65121555 -0.108062044 0.43031225 0.14800064 -0.21535608 0.084529795 -0.20350602 0.103153914
0.11217615 -0.5248579 0.30906433 0.5862701 0.038335916 0.5075812 0.9081378 -1.0317408
0.09746205 0.8806578 0.12654258 0.22440375 0.009647507 0.045596074 -0.41648272 -1.0735568
0.29862717 -0.2270636 0.18381293 0.3472386 0.08042602 -0.030568907 0.2134971 -0.082154505
0.012938265 0.111567706 0.06672061 0.111539274 -0.10532428 0.5742366 0.09897497 -0.5384909
-0.5526571 -0.091570355 -0.73225564 -0.28252786 0.026372472 0.34234917 0.1857856 -0.16099757
0.36180973 0.15542398 0.13283025 -0.21266706 -0.3682854 -0.31771287 0.2128692 -0.06810779
0.08281782 -0.14478551 -0.048743453 0.16110045 -0.14367904 0.12288476 -0.4350044 -0.08406755
0.030700821 -0.02785608 0.016991794 -0.6028089 -0.11097579 0.32126555 -0.6154234 0.2560839
0.003053452 -0.20335552 -0.105546325 -0.25423402 -0.4493294 0.15602621 -0.50779754 -0.052068383
0.6208647 0.3361526 0.48482257 -0.23901677 0.2719977 -0.3020247 0.19387193 -0.056183852
0.3171473 0.27086204 -0.44855753 0.17162316 -0.22593328 -0.36894602 -0.27868345 -0.19904424
00000000: 3223 84bd 9852 d13c 55c3 653e 8106 d13e
00000010: 653c 913f e75c 94be 195d c8bd 9771 e7be
00000020: e2b4 193e 9f07 ffbc 5f1f b5bd 9dd7 36be
00000030: 183f 033f 6862 213d 399c 97be 1481 243e
00000040: 6585 4b3f e0de c2bd e6bc b8bd 2673 b03e
00000050: d3be b03e 31f8 323d 0bf8 e5bd 557e 32bf
00000060: ba0e 59be 3f46 f93d c2a7 9dbd 1788 483c
00000070: 3765 883e e215 3dbf a26b 0cbd b2d0 953e
00000080: 3063 babf bb76 4ebf 6ce5 01bf 317c 8abe
00000090: f530 883e 95d9 a83e b400 e83c dbb1 0f3e
000000a0: 85ae 8e3e f20d cdbd 806a 4fbd d8a5 38bf
000000b0: 02c4 f6bd 893e 2ebf 50a5 843d 39b8 3dbf
000000c0: 1af6 0f3f 074d 883e c402 833e adbb aabd
000000d0: 5438 8c3d 3aa0 563d 3f29 b5be fc78 39bf
000000e0: 46c0 283e 4909 62bf 0902 04be 27a2 53bf
000000f0: 5ff3 50bf c6f7 dc3e 75a0 c8be 32be 58be
00000100: 52c8 1cbe 42d5 a13d 339d 59be e80c bfbd
00000110: 72d9 abbe 66b4 22be f07a 963e ac0b 513c
00000120: 563a aabd cdfd 00be b46a 0bbe c1d8 9cbe
00000130: 91bb 49bd 1832 2b3e dbbe 893d ad4b 12be
00000140: e1af 6c3e f6be d5bd 1460 033b d88b 8a3d
00000150: 6e1a 5c3e 71a0 453c f5d2 dcbd 872f d5bf
00000160: 6c3f 02bf 3861 acbe a763 fd3c 4788 e13d
00000170: a0f8 5b3e 6e2d ce3c 7a9e 5d3e d133 a23e
00000180: 7a9e 55bc b54a 8abd 18de 62be 08fe 123f
00000190: ec8f 32bf 3bad 02bc b730 49bd bc0c 0cbf
000001a0: 9818 e6be 9939 01bd 90e4 9b3e a649 95be
000001b0: e5fc f73d 69a1 5cbe 9598 86be 2c77 13be
000001c0: ef6b b53d e801 9ebf daba 18bf e828 57bf
000001d0: c2bb d5bb 6f71 b33e cc74 d03e fcdd 1ebd
000001e0: c7ae 813e 9535 9bbc 25ba 94bc ce06 cbbe
000001f0: cba9 29bf 2886 2a3c 2912 82be f00c 953d
00000200: 8b96 ba3e d6cd a8be 3943 91be 548b 683e
00000210: 0586 033f f60e 723e 8d74 44be 894b b5be
00000220: 32f0 07be 3f52 0a3e 9347 563e e851 17be
00000230: 8421 ba3d 5d06 3bbf de65 91bd 3716 9d3e
00000240: 943d 8f3d c88a 21be 39f7 46bd 1e9a 5f3e
00000250: 4fc4 e73e bc40 313e 5407 8f3e d27b e93a
00000260: 43c8 c7bd 77ea 61be 9012 84be f528 113e
00000270: 361b ae3e 33a2 183e a01b febe 58f4 a5be
00000280: 10b6 26bf a24f ddbd e351 dc3e 7b8d 173e
00000290: 4e86 5cbe f51d ad3d e263 50be 5c42 d33d
000002a0: 9cbc e53d 165d 06bf ae3d 9e3e cc15 163f
000002b0: 1f06 1d3d d7f0 013f b87b 683f 1510 84bf
000002c0: 2f9a c73d ca72 613f 6194 013e 19ca 653e
000002d0: 9410 1e3c f3c2 3a3d 393d d5be 4f6a 89bf
000002e0: a9e5 983e 5c83 68be 7539 3c3e 42c9 b13e
000002f0: 66b6 a43d a56b fabc fc9e 5a3e 9f40 a8bd
00000300: 04fb 533c 9c7d e43d d1a4 883d b46e e43d
00000310: 42b4 d7bd 2b01 133f 64b3 ca3d 8ada 09bf
00000320: f07a 0dbf 3d89 bbbd 1b75 3bbf 7ea7 90be
00000330: 150b d83c 6448 af3e 953e 3e3e 8cdc 24be
00000340: 203f b93e 7727 1f3e a704 083e 65c5 59be
00000350: e78f bcbe 43ab a2be 62fa 593e 197c 8bbd
00000360: 649c a93d a742 14be 37a7 47bd 84f7 243e
00000370: 9920 13be 01ab fb3d e6b8 debe 9c2b acbd
00000380: 4a80 fb3c 6f32 e4bc 6032 8b3c af51 1abf
00000390: 4647 e3bd eb7c a43e 638c 1dbf 6e1d 833e
000003a0: 6c1c 483b 6e3c 50be ac28 d8bd f62a 82be
000003b0: 810e e6be 56c5 1f3e 05ff 01bf a845 55bd
000003c0: fdf0 1e3f 321c ac3e aa3a f83e d0c0 74be
000003d0: 4843 8b3e fba2 9abe 5d86 463e 0a21 66bd
000003e0: 2261 a23e 6eae 8a3e 55a9 e5be fbbd 2f3e
000003f0: 0e5b 67be 7ee6 bcbe 99af 8ebe 41d2 4bbe

net.0.0.bias f4 [100]
0.082845144 0.3585611 -0.06240135 -0.20901938 -0.07535394 0.059360936 0.14479826 -0.18870115
-0.18553571 -0.40361768 -0.21297908 0.049032196 0.018577099 0.23608716 -0.14275448 -0.40491986
0.08835151 0.042559605 -0.30526882 -0.10529477 -0.17177807 0.21731618 -0.12053339 -0.12357483
-0.06964606 -0.36518478 -0.04055385 -0.10293682 -0.20152812 -0.15961069 -0.105109565 0.094520904
0.12317112 0.03148587 -0.057427112 0.024280122 -0.0012871778 -0.30166224 -0.28453222 -0.1743964
0.108459055 0.016145384 0.39372885 -0.30602983 0.047972545 0.06720744 -0.14124373 0.12177893
0.26002723 -0.17080435 0.16087216 -0.19075803 -0.18886569 -0.1161306 0.0630525 0.10933
-0.43186924 0.00063287024 -0.101001106 -0.30486465 0.0983224 -0.091615796 -0.055419218 -0.112625904
0.1313375 0.09188235 -0.2062603 -0.06187884 -0.13239138 -0.23729591 -0.20428874 -0.19003843
-0.3029677 -0.040104784 0.12156123 -0.25324318 0.08867981 -0.04228644 0.1491809 -0.12395408
-0.36638403 0.23392144 0.068153374 -0.068183586 -0.13271432 0.03441124 -0.06912175 -0.19901066
0.18446587 -0.23377271 -0.048204977 -0.13687305 -0.19682826 0.08846993 0.070678696 -0.23145178
0.06885453 -0.1545662 0.01846564 -0.058703847
00000000: b7aa a93d 5295 b73e 8f98 7fbd 2d09 56be
00000010: 2b53 9abd 7424 733d ff45 143e e03a 41be
00000020: 13fd 3dbe faa6 cebe 3017 5abe fcd5 483d
00000030: 002f 983c d5c0 713e 3b2e 12be a851 cfbe
00000040: a3f1 b43d fb52 2e3d 324c 9cbe c9a4 d7bd
00000050: 97e6 2fbe 2288 5e3e 36da f6bd cd14 fdbd
00000060: 98a2 8ebd 80f9 babe cb1b 26bd 8ad0 d2bd
00000070: 635d 4ebe fc70 23be af43 d7bd 2d94 c13d
00000080: 2441 fc3d 54f7 003d b138 6bbd 1be7 c63c
00000090: 85b6 a8ba 7973 9abe 35ae 91be f894 32be
000000a0: c81f de3d 5343 843c d496 c93e f1af 9cbe
000000b0: dc7e 443d 0ea4 893d 32a2 10be 3b67 f93d
000000c0: 4a22 853e 56e7 2ebe acbb 243e 1356 43be
000000d0: 0266 41be e1d5 edbd ab21 813d 68e8 df3d
000000e0: f71d ddbe 34e7 253a abd9 cebd 3817 9cbe
000000f0: 415d c93d 10a1 bbbd 43ff 62bd 69a8 e6bd
00000100: 567d 063e d02c bc3d e635 53be ab74 7dbd
00000110: 9b91 07be b3fd 72be 1131 51be 6f99 42be
00000120: 951e 9bbe ea44 24bd 18f5 f83d 17a9 81be
00000130: c39d b53d 8c34 2dbd e1c2 183e a3db fdbd
00000140: b096 bbbe 1a89 6f3e ff93 8b3d d6a3 8bbd
00000150: 43e6 07be cdf2 0c3d b48f 8dbd 73c9 4bbe
00000160: 9fe4 3c3e 1d62 6fbe 9572 45bd 7328 0cbe
00000170: 598d 49be b92f b53d febf 903d b201 6dbe
00000180: 9b03 8d3d 9a46 1ebe 4145 973c 7273 70bd

net.1.0.weight f4 [100, 100]
-0.18215857 -0.2326537 -0.05953853 0.22677208 0.12134166 -0.23471317 -0.058053724 -0.1149132
0.045970682 0.012224438 -0.11349124 -0.07913293 0.3009255 -0.014503373 0.31831563 0.18587092
-0.5718344 0.14752688 0.06381382 -0.59735316 0.06192795 0.009332381 0.3512816 -0.06410719
-0.20061164 -0.46488327 -0.3110607 -0.45044115 -0.021359744 0.28501058 0.06257155 -0.21449946
-0.17830023 -0.114325345 0.041135456 0.16723809 0.08443257 -0.064837225 -0.27458525 0.18031935
0.019358462 0.5126292 -0.26234955 0.17715509 -0.019529944 -0.16189107 0.25136116 0.0042733517
-0.25237703 0.20186616 0.3734182 -0.12516426 0.01711875 0.10867299 -0.22306779 0.4876417
0.38856217 -0.118780926 -0.291025 0.0226274 0.1720854 -0.013499795 -0.40958136 -0.28866607
-0.16235222 0.17930879 -0.042103425 0.17871657 0.19712715 0.15476088 -0.038773324 -0.023383277
0.15406272 0.08528402 -0.054588806 -0.1666969 -0.081341416 -0.13627443 0.13690919 -0.06788101
0.119762726 -0.2765514 -0.37739238 -0.011245729 -0.13780768 -0.015470791 0.06652713 0.1596972
-0.16340616 -0.102214694 0.058052532 0.030430602 0.09707414 -0.5490962 0.09911788 0.23576291
-0.12797844 -0.19100496 -0.42891246 0.14416122 0.3341231 -0.20907925 0.17592415 -0.05596916
0.15440516 0.05455021 -0.04312384 0.033601098 -0.14112261 0.21904297 -0.058260087 -0.044324975
-0.23828797 0.055914838 -0.48762095 -0.61134106 -0.25633955 -0.08483773 0.108126044 0.09171412
0.03948162 -0.02606041 0.1692953 -0.25481287 -0.446334 -0.14040475 0.12810683 0.21834588
-0.1308486 0.32820347 -0.13730933 -0.056123525 -0.04854363 -0.38934693 0.075035885 0.075077266
0.29207414 -0.01893391 -0.07760448 -0.12189686 -0.0942635 0.12737277 0.44066703 -0.185877
0.03399897 0.0020176852 0.14638132 0.08631075 0.3092715 -0.21051061 -0.046287518 0.13704708
0.014810973 -0.010283748 -0.13369605 0.06692028 -0.019419037 0.035393443 -0.09890962 -0.15131874
-0.46055788 0.03713562 0.16339387 0.34420863 -0.09929676 0.18915652 -0.31691498 0.021045025
0.1442343 0.2371127 0.09882165 -0.25432155 -0.32505676 0.029311514 0.2576385 0.002578791
-0.30089206 -0.40806597 0.17757212 0.13162701 0.18251196 -0.037720144 -0.43062598 -0.03830528
-0.047212195 0.30650023 -0.6695522 0.11537633 -0.19220178 0.1787362 0.102635935 -0.31692857
0.0019277781 -0.07309696 -0.1387227 -0.13587546 0.23690736 -0.24829328 -0.3755828 0.002695576
0.20572127 -0.19624758 -0.21807325 0.18755978 0.06944479 0.20118818 -0.32291538 0.18904829
-0.12528458 0.17787695 -0.11184413 -0.43640047 0.6871938 -0.17721571 -0.18790534 0.042433828
-0.14025909 -0.46763855 0.06612735 -0.11196472 0.023251971 0.23782875 0.30862966 -0.23326984
0.0324186 -0.5214222 0.12058443 0.10547394 -0.108754106 0.39670935 0.020122288 0.2387207
-0.47524378 0.10805401 0.25936764 -0.29592055 0.3716614 -0.24925075 -0.2754347 -0.65383637
-0.12099999 -0.41668722 0.971025 -0.1440443 -0.7063377 0.037129246 0.10539592 0.052666396
-0.101909585 0.028718608 0.21886446 0.11484352 -0.28092653 -0.39017767 0.17413601 0.32724944
00000000: c787 3abe c63c 6ebe acde 73bd f136 683e
00000010: fa81 f83d a658 70be bec9 6dbd 9d57 ebbd
00000020: c14b 3c3d 0249 483c 186e e8bd 7210 a2bd
00000030: e812 9a3e 8e9f 6dbc 44fa a23e f254 3e3e
00000040: bd63 12bf 4911 173e d2b0 823d 23ec 18bf
00000050: 29a8 7d3d d8e6 183c 2fdb b33e a14a 83bd
00000060: 236d 4dbe 2e05 eebe 5943 9fbe 39a0 e6be
00000070: a1fa aebc e8ec 913e 8325 803d bfa5 5bbe
00000080: 5694 36be 6823 eabd a77d 283d 7640 2b3e
00000090: fcea ac3d 61c9 84bd 7096 8cbe a3a5 383e
000000a0: a395 9e3c ab3b 033f ae52 86be 2568 353e
000000b0: 43fd 9fbc c6c6 25be 69b2 803e 7907 8c3b
000000c0: 9037 81be 01b6 4e3e ac30 bf3e 0f2b 00be
000000d0: 9f3c 8c3c f28f de3d e26b 64be 2cac f93e
000000e0: 9ff1 c63e 6a43 f3bd 3b01 95be 195d b93c
000000f0: 2837 303e 3f2e 5dbc a6b4 d1be 0acc 93be
00000100: a93f 26be b99c 373e a474 2cbd 7a01 373e
00000110: b3db 493e a379 1e3e c7d0 1ebd 498e bfbc
00000120: 9ec2 1d3e 63a9 ae3d 8398 5fbd 98b2 2abe
00000130: 5496 a6bd 868b 0bbe ec31 0c3e 3305 8bbd
00000140: 2946 f53d 2598 8dbe 9339 c1be 0240 38bc
00000150: 751d 0dbe 3379 7dbc 603f 883d aa87 233e
00000160: f253 27be f055 d1bd 7ec8 6d3d 9949 f93c
00000170: cfce c63d 9291 0cbf 51fe ca3d d56b 713e
00000180: c80c 03be ce96 43be 6a9a dbbe 009f 133e
00000190: 2f12 ab3e df18 56be 7625 343e eb3f 65bd
000001a0: 631c 1e3e 0a70 5f3d a0a2 30bd 4ea1 093d
000001b0: 7282 10be cd4c 603e 21a2 6ebd 1b8e 35bd
000001c0: c301 74be f506 653d 74a9 f9be d980 1cbf
000001d0: f03e 83be 67bf adbd 3071 dd3d 9dd4 bb3d
000001e0: 7bb7 213d a47c d5bc bf5b 2d3e d576 82be
000001f0: e485 e4be 43c6 0fbe 702e 033e 1096 5f3e
00000200: 2dfd 05be 490a a83e d19a 0cbe c8e1 65bd
00000210: afd5 46bd 7b58 c7be 6aac 993d 1cc2 993d
00000220: be8a 953e 4a1b 9bbc 19ef 9ebd 10a5 f9bd
00000230: 390d c1bd 026e 023e 1c9f e13e 8a56 3ebe
00000240: 8142 0b3d 243b 043b fce4 153e b1c3 b03d
00000250: d658 9e3e 1890 57be fb97 3dbd 1256 0c3e
00000260: b9a9 723c 2a7d 28bc 9ee7 08be 800d 893d
00000270: ac14 9fbc b7f8 103d 2091 cabd 4df3 1abe
00000280: 3ece ebbe 851b 183d b950 273e 1d3c b03e
00000290: 1a5c cbbd 3fb2 413e ae42 a2be 9e66 ac3c
000002a0: 28b2 133e accd 723e 0163 ca3d 6f36 82be
000002b0: d76d a6be b31e f03c 32e9 833e ef00 293b
000002c0: 860e 9abe 06ee d0be 77d5 353e 3bc9 063e
000002d0: 6ae4 3a3e 7080 1abd 027b dcbe ffe5 1cbd
000002e0: 9361 41bd 99ed 9c3e c667 2bbf 6d4a ec3d
000002f0: 8bd0 44be 9f06 373e ca32 d23d 7644 a2be
00000300: 80ad fc3a dcb3 95bd 530d 0ebe f022 0bbe
00000310: d897 723e 9840 7ebe 644c c0be 43a8 303b
00000320: 99a8 523e 20f5 48be 984e 5fbe ac0f 403e
00000330: 1239 8e3d 4604 4e3e 2a55 a5be e095 413e
00000340: 9a4a 00be 6025 363e 890e e5bd e26f dfbe
00000350: efeb 2f3f 0978 35be 426a 40be 18cf 2d3d
00000360: 14a0 0fbe 526e efbe c76d 873d c24d e5bd
00000370: eb7a be3c 6189 733e b504 9e3e 4ade 6ebe
00000380: 5ec9 043d ed7b 05bf f8f4 f63d b902 d83d
00000390: 79ba debd 7d1d cb3e 7fd7 a43c 3373 743e
000003a0: 2753 f3be 6c4b dd3d d6cb 843e e682 97be
000003b0: 674a be3e 973b 7fbe c705 8dbe d261 27bf
000003c0: d8ce f7bd 0758 d5be 1895 783f 5980 13be
000003d0: 8cd2 34bf d614 183d d1d9 d73d b8b8 573d
000003e0: f9b5 d0bd 4943 eb3c 011e 603e 1433 eb3d
000003f0: 9ad5 8fbe 5ec5 c7be b650 323e 3d8d a73e

net.1.0.bias f4 [100]
-0.074481435 0.027204413 0.23873204 0.17443363 0.04259982 0.20352231 0.111415446 0.19853222
0.07397857 0.16446213 0.172443 -0.33372405 0.063047975 0.22074293 0.2502344 0.011364943
-0.027308477 0.26187518 0.01259744 0.04790871 0.1785732 -0.18919434 0.095311776 -0.12299098
0.22460094 0.12831715 0.22450842 -0.18746635 0.23086205 -0.17520809 0.12860633 0.1580768
0.15839987 -0.057827998 0.4349302 -0.07338451 0.08063481 0.15270017 0.08784612 0.21756978
0.02013567 0.14125018 0.10710458 0.031207932 -0.08154666 -0.031851787 -0.28581524 0.020811332
0.32189047 0.0680863 0.17395993 -0.089481466 -0.029179232 0.15044852 0.06996223 0.10185417
-0.011627764 0.22914971 0.19327466 -0.073570624 -0.08817422 0.1482834 0.84358746 -0.019220205
0.09317222 0.095725045 -0.15388839 0.1884658 -0.04796573 0.20214984 0.03933917 0.05775738
0.1404121 0.06553728 -0.01402849 0.16180307 0.40717414 0.055361494 0.105450146 0.14370076
0.018530615 0.01761557 -0.078639075 -0.06355033 -0.023474175 -0.053053297 -0.20172551 0.027246991
0.022535143 -0.23140933 0.21426386 -0.09344906 0.102558084 0.35247684 0.13947062 0.015592429
0.078981146 0.253918 -0.03449237 -0.156337
00000000: b989 98bd cadb de3c 2c76 743e bb9e 323e
00000010: 267d 2e3d 2768 503e c82d e43d 084c 4b3e
00000020: 1482 973d c368 283e e694 303e e1dd aabe
00000030: 4c1f 813d 6f0a 623e b91e 803e 0734 3a3c
00000040: 07b6 dfbc 8114 863e 7e65 4e3c ec3b 443d
00000050: e5db 363e 29bc 41be d232 c33d b2e2 fbbd
00000060: cafd 653e 9265 033e 89e5 653e 2ef7 3fbe
00000070: 1a67 6c3e c069 33be 61b1 033e e2de 213e
00000080: 9333 223e 0ddd 6cbd 2caf de3e 9e4a 96bd
00000090: dd23 a53d 6f5d 1c3e abe8 b33d 9dca 5e3e
000000a0: 90f3 a43c e3a3 103e a559 db3d c7a7 ff3c
000000b0: ef01 a7bd 0577 02bd 6056 92be 877c aa3c
000000c0: d4ce a43e d470 8b3d 8d22 323e 0f42 b7bd
000000d0: 4909 efbc 2d0f 1a3e 5c48 8f3d eb98 d03d
000000e0: 6182 3ebc 39a6 6a3e cbe9 453e 32ac 96bd
000000f0: af94 b4bd 9bd7 173e 59f5 573f b173 9dbc
00000100: 14d1 be3d 7e0b c43d eb94 1dbe 2efd 403e
00000110: b777 44bd 5e00 4f3e 1c22 213d 0193 6c3d
00000120: 31c8 0f3e 6938 863d c0d7 65bc b4af 253e
00000130: 2179 d03e bcc2 623d 3ff6 d73d 4b26 133e
00000140: 84cd 973c 874e 903c 860d a1bd ad26 82bd
00000150: ea4c c0bc 6a4e 59bd 2291 4ebe 1535 df3c
00000160: 9f9b b83c 91f6 6cbe fc67 5b3e 3962 bfbd
00000170: f909 d23d d877 b43e 63d1 0e3e 6377 7f3c
00000180: dec0 a13d 8a01 823e df47 0dbd ce16 20be

net.2.0.weight f4 [16, 100]
-0.026994808 0.16834801 0.03620897 0.022491638 0.21330169 0.32519916 0.32464644 0.14113358
-0.9899041 0.060548995 0.18945879 -0.9288366 0.09148983 0.20894197 -0.9957308 0.13928472
-0.04166397 -0.21516737 0.39950535 0.25358686 -0.1616101 -1.1648923 0.17114858 -0.5635934
0.15414084 -0.66767925 0.15619116 -0.035010308 0.10431193 0.17123109 -0.07214304 0.17238948
0.17412928 -0.124569565 0.12610124 0.21747395 0.17576289 0.1841356 -0.2128477 0.5445199
-0.8057587 0.21839428 -0.037886757 -0.017658139 -0.26982683 0.17076652 -0.50762194 -0.06206242
0.19776921 -0.23973858 0.028298898 -0.6767576 0.13732855 -0.15039864 0.30318713 -0.060063228
-0.04968605 -0.036666527 0.3374438 0.074784614 -1.0140079 -0.025613902 0.2744789 -0.30860344
-0.03402113 0.09529875 -0.06965666 -0.4275319 -0.12390675 0.3970048 0.20476663 0.15136716
-0.06409421 -0.058345135 0.33251393 -0.065102875 0.36623603 -0.2716121 0.091320775 0.08813151
0.059634913 -0.025234995 0.031392716 0.51808137 0.21227667 0.13120252 -0.70779294 0.25985038
-0.2587823 -0.34733632 0.2600007 -0.23917587 0.07678656 0.5399953 0.031141961 -0.57519364
-0.21985333 0.20756374 -0.29677072 0.082365036 0.2750069 0.49074382 0.067840256 0.4166984
0.30388758 0.35981277 -0.013197728 0.15992573 -0.14625384 0.0466456 0.32174164 -0.073101774
0.19752821 0.03515273 -0.4991006 -0.9477315 -0.13784294 -0.4299777 -0.27282104 -0.30747908
0.20309559 0.42911574 0.06626441 -0.10718701 0.17849171 -0.42091694 -0.87414384 0.2210294
-0.032317623 0.2468783 0.27184892 0.21488596 0.42725143 -0.27044657 0.29265305 -0.5588234
-0.16654834 -0.21035917 0.30945334 0.18285888 0.26940468 0.1322161 -0.41810048 0.2523051
-0.38453344 -0.17575231 -0.0038062928 -0.040244672 0.22615191 0.42228064 0.17407702 -0.2984709
0.2659699 -0.54612535 0.11603785 0.29240212 0.15429668 0.10769976 0.09585895 0.25333196
-0.13126335 0.32351053 0.12368203 -0.18175037 -0.51446176 0.3440714 0.18288153 -0.09000581
0.27706453 0.091486394 0.2851125 0.009142686 -0.24524434 0.25570533 -0.24970198 -0.21178237
-0.14560942 -0.0075178044 0.10268174 -0.063050725 0.22353661 0.2914486 0.053356398 -0.26671928
-0.14250733 0.28563485 -0.010420089 -0.03142737 0.2785991 -0.8106609 0.09648952 -0.15326893
-0.98346496 0.23645918 0.071467414 -0.18577573 0.22678214 0.336656 -0.3345105 0.06315989
-0.2654322 0.16512035 0.23921134 0.13446574 -0.1415418 0.02229451 0.19273174 0.2855743
0.069229566 0.11890878 0.16604698 0.37065282 -0.3497788 0.16553813 0.8380573 0.052642055
-0.44871423 0.41032082 -0.27481142 -0.37733424 -0.043132775 -0.4096013 -0.6536167 -0.83161616
0.11374539 0.13765414 0.36837304 0.06507565 0.19857298 0.019709105 0.011006949 0.020867025
-0.15701948 -0.46132642 0.04818317 0.2386355 -0.21019867 0.21493393 0.33531582 -0.5008424
0.36504337 -0.013134137 0.030414488 0.3977655 -0.05654267 0.08601841 -0.1751466 -0.02580924
-0.15542093 -0.12687309 0.29370013 0.29929376 -0.29690006 -0.54129577 0.3136977 0.17341523
00000000: 3724 ddbc 6c63 2c3e db4f 143d 6240 b83c
00000010: c26b 5a3e 8180 a63e 0f38 a63e 5285 103e
00000020: 5b6a 7dbf 3902 783d 7c01 423e 3cc8 6dbf
00000030: 055f bb3d e2f4 553e 37e8 7ebf a7a0 0e3e
00000040: d7a7 2abd d654 5cbe f78b cc3e 23d6 813e
00000050: 1e7d 25be 311b 95bf 9341 2f3e a847 10bf
00000060: 19d7 1d3e 07ed 2abf 93f0 1f3e f866 0fbd
00000070: 7ea1 d53d 3457 2f3e bbbf 93bd de86 303e
00000080: f24e 323e 541e ffbd af20 013e 7eb1 5e3e
00000090: 30fb 333e 0b8e 3c3e bff4 59be a865 0b3f
000000a0: 3446 4ebf c0a2 5f3e 252f 1bbd cda7 90bc
000000b0: be26 8abe 6bdd 2e3e 83f3 01bf 2a35 7ebd
000000c0: 0384 4a3e 087e 75be 17d3 e73c fc3f 2dbf
000000d0: db9f 0c3e 1a02 1abe 583b 9b3e dc04 76bd
000000e0: 9983 4bbd a42f 16bd 6fc5 ac3e ad28 993d
000000f0: 03cb 81bf 3fd4 d1bc 8088 8c3e 4501 9ebe
00000100: be59 0bbd fe2b c33d 27a8 8ebd 76e5 dabe
00000110: d2c2 fdbd 3744 cb3e 58ae 513e feff 1a3e
00000120: d343 83bd 4ffb 6ebd 443f aa3e a854 85bd
00000130: 4a83 bb3e be10 8bbe 6306 bb3d 4b7e b43d
00000140: bd43 743d 9fb9 cebc a695 003d fba0 043f
00000150: 0e5f 593e f459 063e eb31 35bf 1c0b 853e
00000160: 1d7f 84be 11d6 b1be d01e 853e 85ea 74be
00000170: 4642 9d3d 223d 0a3f 6d1d ff3c e43f 13bf
00000180: 3b21 61be 978b 543e 55f2 97be 00af a83d
00000190: b4cd 8c3e c642 fb3e d5ef 8a3d 7e59 d53e
000001a0: 2797 9b3e 6139 b83e 493b 58bc 92c3 233e
000001b0: 91c3 15be 750f 3f3d 52bb a43e 62b6 95bd
000001c0: d644 4a3e 4ffc 0f3d 1d8a ffbe 889e 72bf
000001d0: b326 0dbe 0926 dcbe 33af 8bbe e66d 9dbe
000001e0: 4af8 4f3e 0fb5 db3e a3b5 873d dd84 dbbd
000001f0: 88c6 363e 6d82 d7be e4c7 5fbf 8855 623e
00000200: 7c5f 04bd aacd 7c3e c82f 8b3e 110b 5c3e
00000210: b3c0 da3e f977 8abe 9fd6 953e 0d0f 0fbf
00000220: a68b 2abe 6568 57be ab70 9e3e 5c3f 3b3e
00000230: 69ef 893e a863 073e 4411 d6be 222e 813e
00000240: 91e1 c4be 6af8 33be ff72 79bb 99d7 24bd
00000250: 5e94 673e 2b35 d83e 3f41 323e 2ed1 98be
00000260: 352d 883e dfce 0bbf 41a5 ed3d bbb5 953e
00000270: f3ff 1d3e b191 dc3d b251 c43d bab4 813e
00000280: e669 06be 2ca3 a53e 014d fd3d c51c 3abe
00000290: c4b3 03bf 202a b03e 4c45 3b3e f754 b8bd
000002a0: 67db 8d3e 385d bb3d 44fa 913e 34cb 153c
000002b0: 5521 7bbe cfeb 823e e0b1 7fbe 7add 58be
000002c0: a31a 15be ea57 f6bb ce4a d23d bd20 81bd
000002d0: c8e6 643e c038 953e 3d8c 5a3d 6e8f 88be
000002e0: 71ed 11be bb3e 923e 05b9 2abc fcb9 00bd
000002f0: 8ba4 8e3e 7987 4fbf 4c9c c53d 88f2 1cbe
00000300: 5cc4 7bbf 5b22 723e 825d 923d fe3b 3ebe
00000310: 9439 683e 2d5e ac3e f644 abbe f959 813d
00000320: bbe6 87be 4f15 293e d1f3 743e 63b1 093e
00000330: 55f0 10be faa2 b63c 785b 453e cb36 923e
00000340: 3bc8 8d3d 7286 f33d 3808 2a3e 35c6 bd3e
00000350: 3516 b3be d482 293e ec8a 563f 329f 573d
00000360: dfbd e5be 9215 d23e 15b4 8cbe f431 c1be
00000370: feab 30bd 43b7 d1be 6d53 27bf cce4 54bf
00000380: 58f3 e83d 35f5 0c3e 649b bc3e 6246 853d
00000390: b756 4b3e fd74 a13c 7d56 343c 53f1 aa3c
000003a0: b7c9 20be fa32 ecbe b75b 453d dd5c 743e
000003b0: 523e 57be a417 5c3e 84ae ab3e 3537 00bf
000003c0: f7e6 ba3e 9030 57bc ce27 f93c eba7 cb3e
000003d0: 4999 67bd 6c2a b03d a159 33be e66d d3bc
000003e0: aa26 1fbe 05eb 01be dd5f 963e 083d 993e
000003f0: 4903 98be 5c92 0abf fc9c a03e c393 313e

net.2.0.bias f4 [16]
0.1497581 0.065329105 0.07876265 -0.002439936 -0.014591994 0.028994925 -0.09038905 0.122280784
-0.08973168 0.011073026 -0.086439 0.0050267954 -0.054370314 -0.053457223 -0.08459739 -0.121654056
00000000: 305a 193e 44cb 853d 504e a13d 55e7 1fbb
00000010: 4213 6fbc c486 ed3c e51d b9bd 596e fa3d
00000020: 3ec5 b7bd a36b 353c ee06 b1bd d1b7 a43b
00000030: 68b3 5ebd f6f5 5abd 6541 adbd c325 f9bd
