suboptimal_policies/AntPyBulletEnv-v0.pth (torch, 60631 bytes, 6 tensors)

net.0.0.weight f4 [100, 28]
-0.08853008 -0.28393322 -0.55309826 -0.17788883 -0.12002918 -0.20878842 0.1181617 0.45365992
0.2475933 0.056387197 -0.42754662 -0.23803173 -0.1976731 0.19468309 0.33142802 0.057658277
-0.03370941 -0.14322172 0.49171436 -0.12278021 0.44262135 -0.10856725 -0.37078363 -0.5734739
-0.26878163 -0.00080522953 0.0045469715 -0.07967239 0.0037026752 0.36771023 0.18533626 -0.39997974
0.35076323 0.801921 0.19815323 0.5773765 0.17018692 -0.23861745 -0.01978564 0.22256577
-0.25968525 0.32105213 -0.44481736 -0.2609692 -0.4617882 0.24187127 -0.22718991 0.06948984
0.31961164 -0.28779125 0.32411578 0.42728922 0.0031373263 0.08187632 0.22956084 0.16318817
-0.02089293 -0.63290197 -0.380958 -0.54170465 1.0801318 -0.005499494 0.11350702 0.19949916
0.34320688 -0.046943415 0.31309026 0.41856274 -0.31037092 -0.27943993 -0.29756144 0.009525164
-0.30520374 0.02506879 0.25765166 0.0010031231 0.21086165 -0.09991831 -0.105540864 0.325098
0.14370073 0.03930888 -0.022107009 0.122849025 0.035699785 -0.21901661 0.21496145 0.17324689
0.08742194 -0.73415476 0.38013747 -1.6711844 0.11408528 0.28352726 -0.56636995 -0.69747967
-0.32525888 -0.7734705 -0.2413192 0.03259672 -0.019377677 -0.19035287 0.26376018 0.3557992
0.67705184 1.0492191 0.2799554 0.05177226 -0.20592746 0.03804714 -0.039960608 -0.037833236
0.11461585 0.6710164 0.17806078 -1.6596605 -0.95554155 -1.4445835 -0.04443667 -0.04409596
0.046783637 0.37736154 -0.2364292 0.3204356 0.46773756 -0.15365562 0.10227819 -0.1796048
0.039604332 -0.0395627 0.13831127 -0.2929652 0.68250114 -0.10742456 -0.055086855 -0.44812447
0.121151134 -0.023113137 -0.35584077 0.11668791 0.15987144 -0.5093013 -0.27470043 0.12083018
0.92898554 0.05048436 -1.0600893 -0.44542396 0.07359318 0.4035213 0.24439573 0.37548992
0.5915137 -0.30972233 0.055975974 0.12475354 1.2247242 -0.88219863 -0.15155356 -0.18513988
-0.12002813 0.8249573 0.15703605 -0.151886 0.038816273 0.01624641 0.061703667 -0.035456024
-0.09982135 -0.42213476 0.06076589 0.18902685 0.7458591 -0.48643133 -0.90005076 -0.21398048
-0.2728944 -0.38579598 -0.3012697 -0.05913204 0.3713965 0.055367295 0.5605141 0.17209202
-0.2187053 -1.0569122 0.03552983 0.4027555 0.2752339 0.42571846 0.152575 0.4222276
0.009722491 0.08015468 -0.004232355 0.10196277 -0.20875873 0.78817105 -0.29417858 -0.091443546
-0.24837649 -0.030921444 -0.44890004 -1.6169596 -0.64260364 -0.055272408 -0.15638094 -0.350686
0.053139266 0.27019694 0.5959736 0.59529036 -0.32685867 -0.1827156 0.23906244 0.24998897
-0.21197541 -0.0902882 -0.22830895 -0.4283428 0.098513015 -0.07645885 -0.012354854 -0.005674285
-0.0338421 -0.6601275 -0.16575795 -1.5830976 0.30020785 0.22493985 0.16080044 0.3848124
0.013662309 -0.049136516 -0.26818755 0.13101453 -0.21698794 -0.04553692 -0.28900087 -0.17584369
-0.5009664 -0.3668523 -0.25811008 -0.22114086 0.43572348 0.30975547 0.037258822 0.02825557
0.08506039 0.07707394 -0.045551695 0.12613744 -0.110710606 -0.12963617 0.28141806 -2.2521362
00000000: 424f b5bd b25f 91be d997 0dbf 7d28 36be
00000010: dcd1 f5bd a2cc 55be c3fe f13d 1d46 e83e
00000020: 1989 7d3e 43f6 663d 64e7 dabe 97be 73be
00000030: d16a 4abe 015b 473e efb0 a93e 162b 6c3d
00000040: e112 0abd b7a8 12be fcc1 fb3e 3174 fbbd
00000050: 449f e23e 8258 debd 5ad7 bdbe 2fcf 12bf
00000060: bf9d 89be 0a16 53ba c3fe 943b 472b a3bd
00000070: 95a8 723b 8444 bc3e cac8 3d3e 25ca ccbe
00000080: 3d97 b33e b24a 4d3f aee8 4a3e f2ce 133f
00000090: 7b45 2e3e 2258 74be 7f15 a2bc 48e8 633e
000000a0: 77f5 84be f260 a43e 1abf e3be c19d 85be
000000b0: 816f ecbe 1aad 773e 79a4 68be b050 8e3d
000000c0: 23a4 a33e 6059 93be 81f2 a53e a7c5 da3e
000000d0: 9a9b 4d3b c6ae a73d ff11 6b3e cd1a 273e
000000e0: a627 abbc dd05 22bf ed0c c3be 28ad 0abf
000000f0: c241 8a3f 1935 b4bb 5e76 e83d 8249 4c3e
00000100: d0b8 af3e bd47 40bd 5e4d a03e db4d d63e
00000110: f0e8 9ebe c012 8fbe f959 98be 6f0f 1c3c
00000120: aa43 9cbe 105d cd3c ebea 833e 3a7b 833a
00000130: 1eec 573e f9a1 ccbd cf25 d8bd 3f73 a63e
00000140: 4926 133e 5902 213d c219 b5bc 4598 fb3d
00000150: f039 123d e445 60be db1e 5c3e a267 313e
00000160: 460a b33d 91f1 3bbf 61a1 c23e 5fe9 d5bf
00000170: 8ba5 e93d 7c2a 913e 9ffd 10bf 078e 32bf
00000180: 5588 a6be 2a02 46bf 611c 77be 2384 053d
00000190: efbd 9ebc ddeb 42be 930b 873e 502b b63e
000001a0: 4553 2d3f d04c 863f 5056 8f3e 260f 543d
000001b0: a6de 52be 51d7 1b3d bcad 23bd 06f7 1abd
000001c0: b7bb ea3d bbc7 2b3f 9155 363e c16f d4bf
000001d0: 5f9e 74bf 1de8 b8bf 3a03 36bd f79d 34bd
000001e0: 33a0 3f3d 8835 c13e 7f1a 72be 2310 a43e
000001f0: 4c7b ef3e e657 1dbe 3a77 d13d 52ea 37be
00000200: 2738 223d 7f0c 22bd 78a1 0d3e 89ff 95be
00000210: 65b8 2e3f 6801 dcbd c1a2 61bd 9270 e5be
00000220: 161e f83d c357 bdbc c330 b6be 12fa ee3d
00000230: 57b5 233e 9261 02bf 89a5 8cbe d075 f73d
00000240: ffd1 6d3f b0c8 4e3d 02b1 87bf 9c0e e4be
00000250: 05b8 963d 589a ce3e e042 7a3e 3740 c03e
00000260: 716d 173f ed93 9ebe 1047 653d c97e ff3d
00000270: c3c3 9c3f c5d7 61bf db30 1bbe 4f95 3dbe
00000280: 4fd1 f5bd 6730 533f 0fce 203e 0188 1bbe
00000290: d0fd 1e3d 3117 853c fcbc 7c3d 563a 11bd
000002a0: 236f ccbd 0c22 d8be a7e5 783d 4190 413e
000002b0: 9ff0 3e3f 870d f9be ba69 66bf b31d 5bbe
000002c0: d1b8 8bbe 0d87 c5be 0640 9abe 7034 72bd
000002d0: af27 be3e d1c8 623d da7d 0f3f e438 303e
000002e0: 48f4 5fbe e648 87bf ba87 113d f835 ce3e
000002f0: 75eb 8c3e c5f7 d93e 9f3c 1c3e 372e d83e
00000300: 154b 1f3c 2328 a43d 91af 8abb dbd1 d03d
00000310: d9c4 55be 94c5 493f 939e 96be c146 bbbd
00000320: 6856 7ebe f84e fdbc 3ad6 e5be 88f8 cebf
00000330: ac81 24bf 5265 62bd 5322 20be 1e8d b3be
00000340: 8fa8 593d 4157 8a3e ba91 183f f364 183f
00000350: 055a a7be cc19 3bbe c9cc 743e 1cfd 7f3e
00000360: 1510 59be 05e9 b8bd d2c9 69be bf4f dbbe
00000370: 31c1 c93d 7596 9cbd 036c 4abc 5aef b9bb
00000380: 049e 0abd 1efe 28bf 74bc 29be f1a2 cabf
00000390: d8b4 993e a256 663e dfa8 243e 2206 c53e
000003a0: e1d7 5f3c 5f43 49bd e14f 89be ac28 063e
000003b0: 1632 5ebe ec84 3abd ecf7 93be 5e10 34be
000003c0: 563f 00bf 11d4 bbbe 0127 84be c072 62be
000003d0: 2617 df3e 4598 9e3e b59c 183d 3a78 e73c
000003e0: 2434 ae3d f1d8 9d3d 6a94 3abd 2c2a 013e
000003f0: 3ebc e2bd 58bf 04be 0716 903e 0023 10c0

net.0.0.bias f4 [100]
-0.40156284 0.16328736 -0.068237245 0.02886856 0.13153644 -0.109998986 -0.10573002 -0.10153201
0.097281046 0.20081562 0.15456453 -0.13719088 -0.036497805 0.057903763 0.18017662 0.0059193866
-0.15194353 0.05639724 0.092641786 0.025647443 0.17906131 0.10207652 0.37268797 -0.43003434
-0.19453125 0.25656673 0.028579451 -0.031749662 -0.14320618 -0.0065561268 -0.1310279 0.23744905
0.35067675 0.054489072 0.041301783 -0.092571706 0.21722215 0.32574165 -0.2692914 0.27805868
-0.17216985 -0.054787952 0.035136644 0.023907049 -0.14747031 -0.36788642 -0.21723494 0.030021671
0.15818575 -0.027290398 0.09498593 0.10902242 0.13903847 -0.07593767 -0.21045418 0.13682854
-0.09661828 0.15531568 -0.08380111 0.095482245 0.11930178 -0.05315405 0.1877084 -0.103869185
-0.07117563 -0.14298531 -0.023638532 -0.05368828 -0.08414885 -0.104257725 0.054627623 0.12798588
-0.07886257 -0.027008208 -0.058331102 -0.14079492 0.09782587 0.062863335 -0.017636612 -0.01141079
0.017464066 0.024238976 -0.20561382 -0.21361317 0.061142698 0.046656653 -0.015532073 0.22417343
-0.036118437 0.061287895 0.07832408 -0.17712209 0.122331224 0.034928516 -0.35612184 0.11371807
0.17185445 0.041926064 -0.15680608 -0.12700976
00000000: a599 cdbe cd34 273e f8bf 8bbd c27d ec3c
00000010: 7db1 063e 2647 e1bd fb88 d8bd 04f0 cfbd
00000020: 493b c73d 9ca2 4d3e 2a46 1e3e c47b 0cbe
00000030: b97e 15bd 7f2c 6d3d 3880 383e 6af7 c13b
00000040: 1697 1bbe cb00 673d faba bd3d 961a d23c
00000050: d95b 373e 7f0d d13d f5d0 be3e 762d dcbe
00000060: 3333 47be b75c 833e 741f ea3c ef0b 02bd
00000070: a4a4 12be c7d4 d6bb 2e2c 06be d825 733e
00000080: e78b b33e ef2f 5f3d 0f2c 293d 3c96 bdbd
00000090: 7c6f 5e3e 9cc7 a63e 90e0 89be b55d 8e3e
000000a0: 4b4d 30be 5569 60bd 71eb 0f3d b7d8 c33c
000000b0: 7502 17be 9c5b bcbe d672 5ebe 02f0 f53c
000000c0: 72fb 213e 1d90 dfbc fc87 c23d 2647 df3d
000000d0: 1a60 0e3e 3685 9bbd 4d81 57be c81c 0c3e
000000e0: cedf c5bd 130b 1f3e eb9f abbd 328c c33d
000000f0: 7e54 f43d 10b8 59bd a136 403e 5eb9 d4bd
00000100: 87c4 91bd be6a 12be 98a5 c1bc 3ee8 5bbd
00000110: 3b56 acbd 1385 d5bd 37c1 5f3d bb0e 033e
00000120: b382 a1bd 5140 ddbc 98ec 6ebd 8b2c 10be
00000130: ee58 c83d 7ebe 803d a87a 90bc 52f4 3abc
00000140: cd10 8f3c d190 c63c 6e8c 52be 69bd 5abe
00000150: c470 7a3d 0c1b 3f3d 3c7a 7ebc b88d 653e
00000160: edf0 13bd 0409 7b3d 6068 a03d 7e5f 35be
00000170: cb88 fa3d 3411 0f3d 9a55 b6be 05e5 e83d
00000180: 9dfa 2f3e aaba 2b3d c691 20be d90e 02be

net.1.0.weight f4 [100, 100]
-0.3609408 0.085713394 0.01227329 0.076684445 -0.3668504 -0.031656004 -0.32283103 0.5229165
0.011749697 -0.00394562 0.09769913 -0.30883887 0.15390198 -0.022530423 -0.25638995 0.22729738
-0.095010936 -0.13992548 -0.15055484 0.07933576 -0.11789997 0.075369164 0.1608906 -0.062404953
0.11099065 -0.18015625 -0.117666654 -0.15199615 -0.06659864 -0.033829655 -0.020267136 0.0017948381
-0.11320726 -0.29638582 -0.22424053 0.091127634 -0.12192307 -0.41199633 0.11803476 0.3052754
-0.2584823 -0.3704228 -0.08435697 -0.211201 -0.16615057 0.22093782 -0.27606472 0.61663795
0.09600959 -0.48603082 0.34159073 0.12153713 -0.030689616 -0.26237077 0.33557332 -0.026366781
0.35948968 0.05882796 -0.35827166 0.20642696 -0.8719681 -0.201273 -0.10991466 0.40665346
-0.085056245 0.2445597 0.03212723 -0.19744003 0.65312713 -0.040734347 -0.33336344 -0.28400102
-0.4296608 -0.06855495 0.38994455 0.15559238 -0.03183434 -0.46941376 0.038553823 0.10466856
-0.048110966 -0.19353199 -0.2100466 0.10318985 0.17701323 -0.0722621 -0.3958629 -0.13228014
0.26885012 -0.3967841 0.539237 -0.42199984 0.28190485 0.018326022 0.14410634 -0.017554183
-0.36119115 -0.027182225 -0.32692638 0.061934132 0.41773623 0.04888456 0.17480506 0.13296354
-0.23506403 -0.24489427 -0.09666989 0.31349802 -0.29867187 -0.16757648 0.15152279 -0.20762922
0.033010427 0.43329898 -0.0233742 0.58534217 -0.268587 -0.04136061 0.07914248 -0.00750374
-0.066237964 0.16841254 -0.07775843 0.05448874 -0.11373836 -0.025277741 -0.051991895 -0.37756976
-0.11060021 0.7427124 -0.19698323 0.000537051 -1.1214298 0.06912766 -0.110109136 -0.13960561
0.06996626 -0.3758057 -0.23697083 0.31047976 0.5093293 0.10105935 -0.2584499 -0.00230549
0.13973594 -0.015385171 0.019898279 0.11819798 0.30800053 -0.06657851 -0.07167656 0.167402
-0.09131334 0.07587027 -0.069247946 -0.15730882 -0.095694266 -0.3415751 -0.15619065 0.21481068
-0.09391784 -0.33339667 -0.14143436 -0.11370852 -0.05973895 -0.16533351 0.34358856 0.22023647
-0.04463801 0.3709013 -0.07107736 -0.053704675 0.07930139 0.033266746 1.2186437 0.2378433
-0.024035737 0.031088343 0.0121231945 0.03937256 0.08584058 -0.037493933 0.24178237 -0.38657615
-0.08720492 -0.017785775 -0.18714736 -0.35338086 0.29085433 -0.026030915 0.02561335 0.23268019
0.2718391 -0.08833401 0.22683178 -0.08732322 0.012904744 -0.044879735 -0.09975719 0.28938454
-0.35298058 0.018283568 0.09087672 -0.1723345 -0.26324952 -0.3207102 -0.026693031 0.25494823
0.26167384 -0.07252585 -0.2899859 0.033959027 0.12125451 -0.25998643 -0.2523664 0.25761542
-0.16401029 -0.03802371 -0.062477563 0.025339058 0.20514962 -0.37510774 -0.021917794 0.10917519
-0.5127199 0.008414477 0.16045986 0.046459712 0.36831918 0.044887405 -0.07719253 -0.07912513
-0.41642526 0.31237516 0.08334384 -0.1173799 0.07167559 -0.10587235 0.050994582 0.0069014914
-0.103945024 0.1661205 -0.038281508 -0.13256425 -0.04436451 -0.12267982 0.0967763 -0.016688423
0.05080845 -0.10448119 -0.008995976 0.04338642 -0.023626685 -0.04690348 -0.10541575 0.23250367
00000000: 3ccd b8be 818a af3d e915 493c bc0c 9d3d
00000010: d1d3 bbbe baa9 01bd 1c4a a5be dbdd 053f
00000020: cd81 403c 424a 81bb 7b16 c83d 2120 9ebe
00000030: 7b98 1d3e b991 b8bc 8b45 83be a5c0 683e
00000040: 1895 c2bd a048 0fbe 0c2b 1abe c97a a23d
00000050: 8a75 f1bd 265b 9a3d 81c0 243e 569c 7fbd
00000060: 114f e33d e17a 38be 37fb f0bd e1a4 1bbe
00000070: de64 88bd f790 0abd 4407 a6bc c640 eb3a
00000080: 35d9 e7bd e2bf 97be 4f9f 65be 20a1 ba3d
00000090: cdb2 f9bd 2ff1 d2be 35bc f13d 0f4d 9c3e
000000a0: cb57 84be 0fa8 bdbe 59c3 acbd 1345 58be
000000b0: 6023 2abe 863d 623e 5b58 8dbe fcdb 1d3f
000000c0: ada0 c43d 08d9 f8be fbe4 ae3e 75e8 f83d
000000d0: ca68 fbbc 7655 86be 44d0 ab3e 26ff d7bc
000000e0: 080f b83e 96f5 703d 626f b7be 9761 533e
000000f0: 4d39 5fbf 821a 4ebe f01a e1bd e234 d03e
00000100: f831 aebd dc6d 7a3e d897 033d b82d 4abe
00000110: 5733 273f 0fd9 26bd 9dae aabe 9568 91be
00000120: 80fc dbbe 8a66 8cbd d0a6 c73e 9c53 1f3e
00000130: ba64 02bd 0057 f0be 9dea 1d3d 785c d63d
00000140: 0110 45bd 402d 46be 7516 57be 3355 d33d
00000150: f542 353e 27fe 93bd 8bae cabe 7274 07be
00000160: b9a6 893e 4927 cbbe 700b 0a3f 5d10 d8be
00000170: d555 903e 7420 963c 9d90 133e cacd 8fbc
00000180: 0cee b8be 42ad debc e562 a7be a5ae 7d3d
00000190: 86e1 d53e 2d3b 483d 1900 333e 9827 083e
000001a0: a0b4 70be 90c5 7abe ddfa c5bd d082 a03e
000001b0: 85eb 98be 2b99 2bbe ca28 1b3e c19c 54be
000001c0: f135 073d 5dd9 dd3e 407b bfbc fcd8 153f
000001d0: 3c84 89be be69 29bd 7415 a23d efe1 f5bb
000001e0: c5a7 87bd 5674 2c3e d03f 9fbd 962f 5f3d
000001f0: a8ef e8bd 4413 cfbc 74f5 54bd d350 c1be
00000200: 5d82 e2bd 6622 3e3f f9b5 49be e2c8 0c3a
00000210: 038b 8fbf cd92 8d3d e680 e1bd c6f4 0ebe
00000220: 784a 8f3d 9b69 c0be 7ba8 72be 34f7 9e3e
00000230: 6863 023f 34f8 ce3d 8c53 84be b417 17bb
00000240: f016 0f3e 1612 7cbc b701 a33c c811 f23d
00000250: 3fb2 9d3e 505a 88bd 29cb 92bd 6e6b 2b3e
00000260: 7d02 bbbd df61 9b3d ded1 8dbd 9015 21be
00000270: 5bfb c3bd eee2 aebe 71f0 1fbe 55f7 5b3e
00000280: ff57 c0bd f8b2 aabe 2bd4 10be 03e0 e8bd
00000290: d4b0 74bd 304d 29be d7ea af3e ab85 613e
000002a0: 59d6 36bd c6e6 bd3e 0291 91bd 6ff9 5bbd
000002b0: c468 a23d b642 083d 84fc 9b3f 328d 733e
000002c0: 98e6 c4bc fbac fe3c 5da0 463c 1f45 213d
000002d0: 30cd af3d 3d93 19bd cc95 773e 4fed c5be
000002e0: 7e98 b2bd 79b3 91bc 8fa3 3fbe 56ee b4be
000002f0: dcea 943e c93e d5bc 17d3 d13c b743 6e3e
00000300: 7f2e 8b3e 76e8 b4bd 9746 683e 84d6 b2bd
00000310: 6b6e 533c d0d3 37bd 7f4d ccbd 362a 943e
00000320: dfb9 b4be 6cc7 953c 931d ba3d 7578 30be
00000330: a4c8 86be 2134 a4be 58ab dabc 9388 823e
00000340: 1dfa 853e 6f88 94bd 0879 94be 9f18 0b3d
00000350: 4954 f83d f11c 85be 2b36 81be 2be6 833e
00000360: 50f2 27be c0be 1bbd 79e8 7fbd db93 cf3c
00000370: be12 523e 1f0e c0be f28c b3bc 3e97 df3d
00000380: 9d41 03bf e0dc 093c 974f 243e 8a4c 3e3d
00000390: 5594 bc3e dbdb 373d 1e17 9ebd 5b0c a2bd
000003a0: b135 d5be a3ef 9f3e 2db0 aa3d df64 f0bd
000003b0: a7ca 923d 9ad3 d8bd b2df 503d e825 e23b
000003c0: 21e1 d4bd 7e1b 2a3e 12cd 1cbd ecbe 07be
000003d0: 8fb7 35bd 8f3f fbbd a732 c63d 29b6 88bc
000003e0: 851c 503d 3cfa d5bd dc63 13bc f5b5 313d
000003f0: c08c c1bc dd1d 40bd 36e4 d7bd 7115 6e3e

net.1.0.bias f4 [100]
-0.21177968 -0.028622571 0.0017404514 0.34255907 -0.18100144 0.14665234 -0.38357756 0.36992422
0.10509492 0.016814183 0.1353228 -0.0015028137 0.27010822 0.23937039 0.24307545 0.12028826
0.32584196 0.0875428 0.49861073 0.2917299 0.44182196 0.050915923 0.2618483 0.014724389
-0.044297 0.3764656 0.1947154 -0.11771168 0.41173372 -0.011211763 0.21197557 0.015291036
0.09822664 -0.21158044 0.19110385 0.037210308 0.19780336 0.062291067 -0.02062281 -0.09932776
0.021029806 -0.23316751 -0.11892112 0.23736446 0.18969606 0.07364844 0.053612005 0.14091969
0.07931262 0.2792114 -0.00041483765 0.3914478 0.31331545 0.060504906 0.086232424 0.05410696
0.38385504 -0.41891068 -0.010811504 0.3651118 0.17076822 -0.23494811 0.57856613 -0.09110137
0.4866361 0.2931926 0.074323185 0.5204489 0.13439938 0.12677346 0.42552024 -0.08171303
-0.10868034 -0.03906778 0.45199984 -0.14587927 0.01710516 0.45741317 0.12855777 0.21819562
-0.086654045 0.33915725 0.0965704 0.3295352 0.00053260446 -0.12581812 -0.19559337 -0.0074737575
0.12751779 -0.065931 1.2217295 -0.1500214 0.09180296 0.02038565 -0.3715723 0.35724893
0.2974901 0.29504344 0.18387964 0.07256635
00000000: c6dc 58be e279 eabc dc1f e43a e763 af3e
00000010: 7158 39be 082c 163e 4764 c4be b566 bd3e
00000020: 013c d73d e6bd 893c 0f92 0a3e 0ffa c4ba
00000030: a04b 8a3e 831d 753e c5e8 783e b159 f63d
00000040: c2d4 a63e a449 b33d e849 ff3e 9f5d 953e
00000050: 7d36 e23e 378d 503d fb10 863e 903e 713c
00000060: c570 35bd 19c0 c03e 7963 473e d212 f1bd
00000070: c3ce d23e 8bb1 37bc 2010 593e 4187 7a3c
00000080: 0c2b c93d 8ba8 58be bab0 433e d669 183d
00000090: f78c 4a3e eb24 7f3d 2bf1 a8bc 5a6c cbbd
000000a0: b346 ac3c 77c3 6ebe eb8c f3bd ab0f 733e
000000b0: af3f 423e fed4 963d 4398 5b3d 404d 103e
000000c0: a86e a23d ccf4 8e3e 917e d9b9 d96b c83e
000000d0: e26a a03e fed3 773d a09a b03d 429f 5d3d
000000e0: a688 c43e 767b d6be bc22 31bc efef ba3e
000000f0: dddd 2e3e 3d96 70be e91c 143f 5b93 babd
00000100: 5e28 f93e 571d 963e c136 983d 243c 053f
00000110: fe9f 093e e7d0 013e cadd d93e 2959 a7bd
00000120: cc93 debd 8905 20bd 866c e73e 6061 15be
00000130: 1f20 8c3c 0f32 ea3e a6a4 033e ac6e 5f3e
00000140: ad77 b1bd 05a6 ad3e b4c6 c53d d6b8 a83e
00000150: 7b9e 0b3a 77d6 00be a149 48be 6ce6 f4bb
00000160: 0694 023e d506 87bd a261 9c3f 369f 19be
00000170: 3103 bc3d cfff a63c b93e bebe 55e9 b63e
00000180: 9f50 983e ef0f 973e f24a 3c3e ab9d 943d

net.2.0.weight f4 [16, 100]
-1.2606906 -0.138853 0.2441991 0.18995945 -0.27931687 0.010214865 -0.022699485 -0.08247815
-0.08043476 0.1586827 -0.016694104 -0.38638905 -0.065986045 0.20367466 0.10558435 0.10044029
0.013973117 0.29094303 0.3609859 0.2113587 -0.28082433 -0.010724479 0.043317456 -0.03895084
-0.26290086 -0.024128739 -0.11055542 -0.110147 0.025312794 0.15518123 -0.22813036 -0.07597211
0.12222195 0.0270514 -0.04476449 0.07457146 -1.3841344 -0.046490233 -0.26487774 0.022088408
0.04868011 0.01095958 -0.29277557 0.3392876 -0.008060796 -0.06189286 0.26732054 -0.062301863
-0.010202726 0.032076135 0.08865249 -1.2586122 0.04168855 0.24967001 0.05206016 0.07946087
0.030095981 -0.23603944 0.11846791 0.11850217 -0.33322233 -0.07977572 0.2039852 -0.09067337
-0.51981664 0.00964067 -0.61235744 0.2042261 -0.08464567 -0.026743865 0.15664642 0.14249167
0.0421313 -0.6870617 0.034385137 0.0129263885 0.11654694 -0.84030104 0.015585348 0.24107382
0.060214505 -1.2112395 0.088823624 -0.090122424 0.07960785 -0.37263575 0.3597881 0.17597352
-0.043819875 0.3541918 0.35288265 0.01843438 0.112179756 0.27113962 0.1434486 0.084627695
0.017614037 0.2501301 -0.6448747 0.17736848 -0.18187754 0.1164839 0.10229186 0.055472266
0.14620426 0.32942685 0.18984488 -0.25906602 0.23978257 -0.3905924 0.050359696 -0.09606664
0.01921464 0.19462417 -0.29497954 0.0031991994 0.46156383 -0.09767363 0.45811602 0.29229727
-0.1755063 -0.56839865 -0.15111281 -0.024785575 -0.104633175 -0.23202224 0.3118836 0.22355372
-0.5755104 -0.16185325 0.52731586 -0.019050198 -0.10158124 -0.36185497 0.08432579 0.33615968
-0.021547044 0.24888851 0.369355 -0.1350296 0.0057088328 -0.2542124 0.09867018 0.054956485
0.062483385 0.037354294 -0.066646084 -0.39486244 0.028607469 0.15846518 0.07191753 0.052153777
0.07448903 0.28141928 0.24433808 0.030059937 -0.4631929 -0.09086408 0.030693136 -0.34500143
0.14359988 -0.3645308 0.278511 0.07765303 -1.133312 0.07537064 0.0052424907 -1.1968472
0.08427789 0.7256548 0.013138846 -0.7552695 0.13570197 -0.18151972 -1.2113166 0.10146733
-0.021549784 -0.095220104 0.04842328 0.16473006 -0.040189523 0.18722549 -0.48390538 0.58014727
-0.061530765 -0.7301085 0.018958993 0.240506 0.22481066 -0.0044921017 0.073904574 0.25847054
0.21220002 -0.06120649 0.09034206 0.3208384 -0.4150274 -0.45933613 0.24762397 0.23148938
0.0099705 -0.08615486 0.009769038 0.43923646 0.12807684 -0.4739881 -0.6296586 0.42185706
0.089871086 0.0752398 -0.09116854 -0.050326638 -0.24584949 -0.07794163 -0.008928375 0.0017484062
-0.3820841 0.12424982 -0.13585523 0.14032711 0.7566426 0.15138386 0.054378614 -0.3611628
-0.32523024 0.024803542 -0.044682685 1.3047057 0.4632357 0.14483936 -0.45609936 0.2200989
-0.005256141 0.28641894 -0.05059944 0.010272384 0.24431014 -0.84552175 -0.020518856 0.25279337
-0.10457216 0.2904323 -0.14915091 0.24438107 -0.048583187 -0.80915797 -0.5508813 -0.36225837
-0.019388964 -0.010848784 0.025133418 -0.23235561 0.10512052 0.0840109 -0.08553763 -0.27722022
00000000: 4f5e a1bf 7b2f 0ebe 540f 7a3e bb84 423e
00000010: 9f02 8fbe 405c 273c 45f4 b9bc 4eea a8bd
00000020: fbba a4bd b87d 223e 13c2 88bc c9d4 c5be
00000030: b123 87bd 1790 503e 9c3c d83d a4b3 cd3d
00000040: 80ef 643c 7cf6 943e 25d3 b83e 6a6e 583e
00000050: 35c8 8fbe bab5 2fbc a56d 313d ea8a 1fbd
00000060: f19a 86be a2a9 c5bc e16a e2bd c094 e1bd
00000070: c75c cf3c d4e7 1e3e 019b 69be 4497 9bbd
00000080: 804f fa3d e69a dd3c f85a 37bd ecb8 983d
00000090: 512b b1bf 8b6c 3ebd 0e9e 87be c0f2 b43c
000000a0: cc64 473d cf8f 333c aee6 95be 1bb7 ad3e
000000b0: 6e11 04bc 5e83 7dbd 3dde 883e 3d30 7fbd
000000c0: 5629 27bc 4462 033d 708f b53d 341a a1bf
000000d0: 9dc1 2a3d 7fa9 7f3e 093d 553d 61bc a23d
000000e0: d98b f63c 53b4 71be 4e9f f23d 44b1 f23d
000000f0: 1e9c aabe 7461 a3bd 7fe1 503e f6b2 b9bd
00000100: b412 05bf e7f3 1d3c 75c3 1cbf a620 513e
00000110: b65a adbd f315 dbbc eb67 203e 56e9 113e
00000120: df91 2c3d 47e3 2fbf 6ed7 0c3d 34c9 533c
00000130: 29b0 ee3d f81d 57bf b059 7f3c 0edc 763e
00000140: 7ca3 763d e509 9bbf 29e9 b53d 1b92 b8bd
00000150: 7109 a33d 1dca bebe 2536 b83e 6732 343e
00000160: 787c 33bd a158 b53e 09ad b43e b203 973c
00000170: 80be e53d d0d2 8a3e 31e4 123e 4951 ad3d
00000180: 504b 903c 0d11 803e 8216 25bf 15a0 353e
00000190: 1b3e 3abe 1c8f ee3d 657e d13d e336 633d
000001a0: 92b6 153e a3aa a83e b266 423e 4da4 84be
000001b0: 9089 753e bafb c7be f845 4e3d 96be c4bd
000001c0: 0568 9d3c 8f4b 473e 8f07 97be a9a9 513b
000001d0: 1852 ec3e 1d09 c8bd 2f8e ea3e fda7 953e
000001e0: ecb7 33be 9382 11bf 51bd 1abe 1e0b cbbc
000001f0: eb49 d6bd 3d97 6dbe 35af 9f3e 44eb 643e
00000200: a654 13bf dcbc 25be 2cfe 063f 290f 9cbc
00000210: d309 d0bd 0e45 b9be 00b3 ac3d 1f1d ac3e
00000220: 6d83 b0bc a1dc 7e3e 191c bd3e 3345 0abe
00000230: 2911 bb3b 2128 82be 9713 ca3d 0d1a 613d
00000240: 94ee 7f3d d100 193d be7d 88bd 692b cabe
00000250: 365a ea3c b244 223e 7f49 933d 339f 553d
00000260: b48d 983d 3016 903e c333 7a3e 4240 f63c
00000270: 9f27 edbe f216 babd 2c70 fb3c 07a4 b0be
00000280: d90b 133e c8a3 babe fe98 8e3e 8d08 9f3d
00000290: 5e10 91bf ec5b 9a3d 33c9 ab3b 4a32 99bf
000002a0: e399 ac3d 83c4 393f 5044 573c 5859 41bf
000002b0: 75f5 0a3e 4ee0 39be 6c0c 9bbf 1ace cf3d
000002c0: 2c89 b0bc c202 c3bd 7d57 463d ffae 283e
000002d0: c59d 24bd 0ab8 3f3e 72c2 f7be 8884 143f
000002e0: af07 7cbd 64e8 3abf e44f 9b3c 3447 763e
000002f0: c434 663e 7b32 93bb 485b 973d 4056 843e
00000300: f64a 593e a8b3 7abd 4205 b93d ee44 a43e
00000310: 797e d4be 1b2e ebbe 2391 7d3e 8d0b 6d3e
00000320: 4f5b 233c f671 b0bd 510e 203c 9ae3 e03e
00000330: 9326 033e 91ae f2be 4e31 21bf a6fd d73e
00000340: 550e b83d 5317 9a3d 92b6 babd 4e23 4ebd
00000350: f8bf 7bbe dc9f 9fbd 5248 12bc c72a e53a
00000360: 87a0 c3be b176 fe3d a21d 0bbe e9b1 0f3e
00000370: 54b3 413f 5f04 1b3e 1cbc 5e3d 55ea b8be
00000380: 9484 a6be cc30 cb3c 3105 37bd 9900 a73f
00000390: 3b2d ed3e c550 143e db85 e9be 9b61 613e
000003a0: b53b acbb 81a5 923e 5c41 4fbd 804d 283c
000003b0: 702c 7a3e 1d74 58bf 2917 a8bc 226e 813e
000003c0: ee29 d6bd 8bb3 943e 04bb 18be 083f 7a3e
000003d0: 2aff 46bd fa24 4fbf 8f06 0dbf ee79 b9be
000003e0: 9bd5 9ebc 19bf 31bc 99e4 cd3c a1ee 6dbe
000003f0: 6d49 d73d e80d ac3d 5a2e afbd cfef 8dbe

net.2.0.bias f4 [16]
0.43193904 0.1304664 -0.30731535 -0.14135516 -0.13052297 -0.18605714 -0.22870347 0.06027402
-0.16575825 -0.06744974 -0.10732418 -0.091249645 -0.15710104 -0.075190976 -0.10854577 -0.1289921
00000000: 1d27 dd3e fc98 053e 7058 9dbe 68bf 10be
00000010: d0a7 05be c385 3ebe 3e31 6abe e4e1 763d
00000020: 88bc 29be 1723 8abd c8cc dbbd 18e1 babd
00000030: 18df 20be bafd 99bd 3f4d debd 8116 04be
