suboptimal_policies/HalfCheetah-v4_5400.pth (torch, 186967 bytes, 6 tensors)

net.0.0.weight f4 [200, 17]
0	0x40430e50	3.0477486
1	0xbed30110	-0.41211748
2	0x3ea7a7ca	0.327452
3	0xbeb157b9	-0.3463724
4	0x3d2958a9	0.04134432
5	0xbf424ada	-0.75895464
6	0xbf8d051a	-1.1017182
7	0xbe3b2e3f	-0.1827936
8	0xbc3fd35e	-0.011708109
9	0x3f303b4a	0.6884047
10	0xbe101be7	-0.14073144
11	0x3d4686f9	0.048468564
12	0x3ba7b718	0.005118262
13	0xbc2418a6	-0.010015642
14	0x3c9e3fef	0.019317595
15	0x3c6dcb60	0.01451382
16	0x3c279924	0.010229383
17	0x3f9856d1	1.1901494
18	0x3eb0cf0f	0.34532973
19	0x3eca7fb2	0.3955055
20	0xbf520a3d	-0.8204687
21	0x3ea63932	0.32465512
22	0xbeeca3f3	-0.46218833
23	0xbf1caa8a	-0.6119772
24	0xbe717500	-0.23579788
25	0x3d2b56aa	0.041830696
26	0x3ebda1c6	0.37037486
27	0xbe2b9e52	-0.16759613
28	0xbd68a4b7	-0.05679771
29	0x3b54f2ee	0.003249343
30	0xba56abbb	-0.0008189042
31	0xbd3c45c1	-0.04596496
32	0xbca5f8a9	-0.020260172
33	0xbac50893	-0.0015032463
34	0x3fc19186	1.5122535
35	0xbf73327c	-0.9499891
36	0x3d677256	0.056505524
37	0x3da51d25	0.080621995
38	0x3e47758e	0.19478437
39	0xbe03c856	-0.12869391
40	0xbf4c317d	-0.79763013
41	0xbca97c77	-0.020689232
42	0xbd6d2172	-0.057893224
43	0x3de6b265	0.11264495
44	0x3cf05981	0.029339554
45	0x3cd5d03d	0.026100272
46	0x3d41333f	0.047168013
47	0xbc497ad0	-0.012297347
48	0xbd004ab0	-0.031321228
49	0xbcee89cd	-0.029118443
50	0x3c629fae	0.013832016
51	0x3f9851de	1.1899984
52	0x3edd6aaf	0.43245456
53	0xbf897ce4	-1.0741239
54	0x3ee0308e	0.43787044
55	0xbe0cbc7a	-0.13743773
56	0xbe77e912	-0.24210003
57	0xbe550d9b	-0.20805971
58	0x3eaa7f79	0.3330038
59	0xbdfc0699	-0.12305946
60	0x3f32ef30	0.6989622
61	0xbce6167f	-0.028086899
62	0x3be56f57	0.007001798
63	0x3ce1da23	0.027569836
64	0xbb0a6499	-0.002111709
65	0x3d614570	0.05499786
66	0x3c8c2340	0.017106652
67	0x3b54541a	0.0032398761
68	0xbe9e4c2a	-0.30917484
69	0xbe91af29	-0.2845395
70	0xbf8c9576	-1.0983112
71	0xbec8891b	-0.39167103
72	0xbe1b49f2	-0.15164927
73	0xbf82a3e7	-1.0206269
74	0x3ef0937b	0.4698752
75	0xbe775c58	-0.2415632
76	0xbba6c4b5	-0.0050893673
77	0x3f3a7f79	0.7285076
78	0x3e218747	0.1577426
79	0x3c164008	0.00917054
80	0x3d6d89b3	0.05799265
81	0x3c7728cd	0.015085411
82	0xbcfbda83	-0.030743843
83	0x3b6e8730	0.0036396496
84	0x3c49958b	0.01230372
85	0x3e8eed49	0.2791541
86	0xbeb8eba5	-0.36117283
87	0xbf78ffa6	-0.9726509
88	0x3f7ec66a	0.99521506
89	0xbea27078	-0.31726432
90	0xbf33c3c2	-0.7022058
91	0xbf5de037	-0.8667025
92	0xbdd3b7d4	-0.10337797
93	0xbe9a290b	-0.30109438
94	0x3e3da919	0.18521537
95	0x3d39ea3c	0.0453894
96	0xbd80c30b	-0.062872015
97	0xbd09c7c2	-0.03363777
98	0xbc327454	-0.010891993
99	0xb92fc7e4	-0.00016763766
100	0x3b6bb397	0.0035965198
101	0xbc876828	-0.016529158
102	0x400d2cc8	2.2058582
103	0xbebbaf96	-0.366574
104	0xbe90fc7b	-0.28317627
105	0xbef6efff	-0.48229977
106	0x3e927446	0.28604335
107	0x3ea0affb	0.31384262
108	0xbd604f78	-0.054763287
109	0x3e2038b7	0.15646635
110	0xbd9ec868	-0.07753068
111	0x3d992e1f	0.074795
112	0xbe1e11d6	-0.15436491
113	0x3d6f298d	0.058389235
114	0x3a8b12fd	0.0010610517
115	0x3c7c89bf	0.015413701
116	0x3d21a23b	0.039461356
117	0x3cc8763a	0.024470437
118	0x3c86e70e	0.016467597
119	0xbe551775	-0.2080973
120	0xbe55ecfb	-0.20891182
121	0xbf05a0ef	-0.5219869
122	0xbf64dd8a	-0.8940054
123	0xbc11eec1	-0.008907021
124	0x3f8f0740	1.1174088
125	0x3f25909a	0.6467377
126	0x3dd038a1	0.10167051
127	0xbf06226b	-0.5239627
128	0xbde11a34	-0.10991326
129	0x3d4c35a0	0.04985583
130	0xbdd63490	-0.10459244
131	0xbd1e1847	-0.03859737
132	0xbcae2d80	-0.02126193
133	0xbc891965	-0.016735742
134	0xbc7768ff	-0.015100717
135	0xbb83c455	-0.0040212073
136	0x3f0ac5a5	0.5420783
137	0xbcb0b9b0	-0.021572918
138	0x3e6ba8cd	0.23013611
139	0x3dcf0d70	0.10109985
140	0x3e1fb6ed	0.15597124
141	0x3fb203c3	1.3907398
142	0x3f5f6018	0.87256
143	0x3d9146dd	0.07093594
144	0xbf0efba0	-0.558527
145	0xbe33bb1a	-0.17551842
146	0x3d96857e	0.0734968
147	0x3df3df27	0.11907797
148	0x3d4e0782	0.05030013
149	0xbbf37bd0	-0.007430531
150	0xbd3cb61b	-0.046072107
151	0xbcef6ca0	-0.029226601
152	0xbb15b362	-0.0022842516
153	0x3f73fbf2	0.95306313
154	0x3e997f85	0.29980102
155	0xbcfcec10	-0.030874282
156	0xbe289eb5	-0.16466792
157	0xbe42f7be	-0.19039819
158	0xbf33c702	-0.70225537
159	0xbdd311ee	-0.10306154
160	0xbe845dca	-0.25852805
161	0xbe666610	-0.22499871
162	0xbeaee245	-0.34157005
163	0xbe266f1d	-0.16253324
164	0x3d9ae2a6	0.07562761
165	0x3c933e2f	0.017973987
166	0x3d480c6a	0.048839964
167	0xbd95bb1d	-0.0731108
168	0xbc9a88e9	-0.018864112
169	0x3cb80560	0.0224635
170	0x3f2fc9af	0.6866712
171	0x3e06bbcd	0.13157578
172	0xb961cd44	-0.0002153414
173	0x3f8bad6d	1.09123
174	0xbed29434	-0.41128695
175	0xbfb8aa87	-1.4427041
176	0xbe834974	-0.25641978
177	0xbd2c8843	-0.042122137
178	0xbe63112c	-0.2217452
179	0x3ecf467a	0.40483457
180	0x3e17770c	0.14791507
181	0x3d8e0f66	0.06936531
182	0x3c33c72f	0.010972782
183	0x3cd9fac7	0.026608838
184	0xbcb897fb	-0.022533407
185	0xbbaf8800	-0.0053567886
186	0xbb9b184d	-0.0047331215
187	0x3e97480a	0.2954715
188	0xbed9e7b8	-0.425596
189	0xbb9195bc	-0.0044428986
190	0xbec63233	-0.38710174
191	0x3d449c13	0.048000406
192	0xbd8fc1fc	-0.070194215
193	0xbf557605	-0.8338321
194	0xbf70b586	-0.9402698
195	0xbd29c5d4	-0.04144843
196	0xbf1c1c54	-0.60980725
197	0x3df4e5ca	0.11957891
198	0x3cd2defc	0.025741093
199	0x3d3fc40a	0.046817817
200	0xbb832c5f	-0.004003092
201	0xbced5ba9	-0.028974371
202	0xbca3d1d7	-0.01999752
203	0xbc4c7135	-0.012478163
204	0x3f3ccc42	0.7374917
205	0x3dce91f3	0.10086431
206	0xbd2d9e70	-0.042387426
207	0xbe9cdd6d	-0.30637684
208	0x3e16af27	0.14715253
209	0x3e62315a	0.22089139
210	0x3df4bed1	0.11950458
211	0x3dc4abe5	0.09603099
212	0xbd6e95cf	-0.058248337
213	0xbd2e1ec4	-0.04250981
214	0x3e82e76a	0.2556718
215	0x3dd58965	0.104265966
216	0x3db8a83e	0.09016465
217	0x3d7859bc	0.060632452
218	0x3d125d6c	0.035733625
219	0xbbd3c0d6	-0.006462197
220	0x3d8f994e	0.070116624
221	0x40136bcd	2.3034546
222	0xbec483f4	-0.38381922
223	0xbef81daa	-0.48460132
224	0xbd1f54af	-0.03889912
225	0xbefc22c9	-0.4924529
226	0xbe9f2d53	-0.31089267
227	0x3f947c2e	1.1600397
228	0x3daf0a27	0.08546858
229	0xbd9a8471	-0.075447924
230	0x3ea1acd3	0.31577167
231	0xbd39ccf3	-0.04536147
232	0x3cce369d	0.025172526
233	0xbccf6752	-0.025317822
234	0x3c7772d5	0.015103062
235	0x3dfc66fd	0.12324331
236	0x3d92ad44	0.07161954
237	0x3b0164f9	0.0019744022
238	0x3f1630f5	0.5866845
239	0x3dc10fe7	0.09426861
240	0xbefa65e3	-0.48905858
241	0xbe92a81f	-0.2864389
242	0x3e9151a4	0.283826
243	0x3e83ea6b	0.25764784
244	0x3f35fcde	0.7108897
245	0x3dcf2c84	0.101159126
246	0xbe9c56ef	-0.30535075
247	0xbe1d8acc	-0.15384978
248	0x3e92ce3d	0.28672972
249	0x3d67377a	0.05644939
250	0x3da433b9	0.08017678
251	0x3cf85ff2	0.030319188
252	0x3d7842e3	0.060610663
253	0xbc241fd6	-0.010017356
254	0xbda4d690	-0.08048737
255	0x3fcf30c0	1.6186752

net.0.0.bias f4 [200]
0	0x3e92a014	0.28637755
1	0xbec56a6b	-0.38557753
2	0x3f3313a7	0.6995186
3	0xbed19053	-0.40930423
4	0xbc3d3e47	-0.011550493
5	0x3e6749cc	0.22586745
6	0x3ef280a1	0.4736376
7	0x3d8d54e4	0.06900957
8	0xbd091c4f	-0.033474263
9	0xbd0f2953	-0.03495152
10	0xbe29ef5c	-0.16595215
11	0x3f077f40	0.52928543
12	0xbe9c606d	-0.30542317
13	0x3ed7b911	0.42133382
14	0xbdcfc4cc	-0.10144958
15	0x3ebf8bae	0.37411255
16	0x3dbffacf	0.0937401
17	0xbe043c83	-0.12913708
18	0x3e51499c	0.20438236
19	0x3e08bf6f	0.13354276
20	0x3f1c03a7	0.60943073
21	0x3f46c265	0.7764037
22	0xbf0e2c2b	-0.55536145
23	0x3ddfb013	0.10922255
24	0xbdeb7605	-0.1149712
25	0xbe890cd2	-0.26767594
26	0xbcf172b9	-0.02947365
27	0xbe8abf1c	-0.2709893
28	0xbeb5fd49	-0.35544804
29	0xbed672d2	-0.41884476
30	0x3dd41d99	0.10357208
31	0x3e3c6f29	0.18401779
32	0xbea2faaa	-0.31831867
33	0x3d3f8c47	0.04676464
34	0xbe6131d1	-0.2199166
35	0xbee263fd	-0.4421691
36	0xbd90b0a6	-0.07064943
37	0x3e7e0cbb	0.24809544
38	0x3f21b23d	0.63162595
39	0x3da46130	0.080263495
40	0xbf0b30d0	-0.54371357
41	0xbef63a61	-0.48091415
42	0x3e9c0f85	0.3048059
43	0x3e12f326	0.14350566
44	0x3e13642d	0.14393683
45	0x3e9800eb	0.296882
46	0xbeb85270	-0.36000395
47	0x3f4e2e57	0.8053946
48	0x3f1027ba	0.5631062
49	0xbf136a70	-0.57584286
50	0x3f1c056f	0.6094579
51	0xbd99fa30	-0.075184226
52	0x3ebb42d4	0.36574423
53	0xbecf59bb	-0.40498146
54	0xbec8b2bd	-0.39198866
55	0xbf6cf4d9	-0.9256111
56	0xbe674e0e	-0.22588369
57	0xbde40a04	-0.11134723
58	0x3d53eee5	0.0517415
59	0xbea49043	-0.32141313
60	0xbf193373	-0.5984413
61	0xbec6a6f7	-0.3879926
62	0xbec22f36	-0.37926644
63	0xbdd52c9c	-0.10408899
64	0xbecacd43	-0.39609727
65	0xbd14352f	-0.036183532
66	0xbef2ab03	-0.47396097
67	0xbed559c7	-0.41670057
68	0xbf0acf4b	-0.54222554
69	0xbf242386	-0.64116704
70	0xbea3f8b1	-0.32025674
71	0xbed9d1b6	-0.4254281
72	0x3e9ef185	0.3104364
73	0x3e2b38f3	0.16720943
74	0x3de896f6	0.113569185
75	0xbeb5b0fa	-0.35486585
76	0xbe6f48f1	-0.23367669
77	0xbcdb193e	-0.026745435
78	0x3d00e2f8	0.031466454
79	0xbd675f30	-0.056487262
80	0xbea9ebed	-0.3318781
81	0x3f1aaf9b	0.604242
82	0xbd83eaa3	-0.06441238
83	0x3e3a1559	0.18172206
84	0xbdf1b2c0	-0.11801672
85	0xbef12f34	-0.47106326
86	0x3f52df89	0.8237234
87	0xbf3ad8a0	-0.72986794
88	0xbd1385e7	-0.03601637
89	0x3e14b96f	0.14523862
90	0xbd693780	-0.056937695
91	0xbe08ca49	-0.13358416
92	0xbf1e9a2e	-0.6195401
93	0xbf0fff63	-0.56249064
94	0xbddff278	-0.10934919
95	0xbf0b32eb	-0.5437457
96	0xbe33f081	-0.17572214
97	0xbe597c87	-0.2123891
98	0x3e90b5a9	0.28263596
99	0xbea48b5d	-0.32137576
100	0xbe945b08	-0.289757
101	0xbf67386b	-0.9032046
102	0xbed70e00	-0.4200287
103	0xbe2bfee9	-0.1679646
104	0x3f1f318a	0.62184966
105	0x3f81b33b	1.0132822
106	0x3eefab8b	0.46810564
107	0xbe30c093	-0.17260961
108	0xbdd57ac7	-0.104238085
109	0xbed8ce02	-0.4234467
110	0xbee16377	-0.44021198
111	0xbeb3f8e2	-0.3515082
112	0x3d096597	0.03354415
113	0xbd402e36	-0.04691907
114	0xbed5caec	-0.4175638
115	0xbca117de	-0.019664701
116	0xbeb28ec2	-0.3487454
117	0xbf183e00	-0.59469604
118	0xbed48417	-0.41507027
119	0xbe81fcea	-0.2538827
120	0x3f9fd4d6	1.2486827
121	0xbf1a8a53	-0.60367316
122	0xbea4ef58	-0.32213855
123	0x3e88e6ec	0.2673868
124	0xbe16df95	-0.14733727
125	0xbedc1423	-0.42984113
126	0x3e910428	0.28323483
127	0xbf41280f	-0.7545175
128	0xbdcc9a55	-0.09990374
129	0x3ef91e13	0.48655757
130	0x3e37b76a	0.1794106
131	0xbefbc9f0	-0.49177504
132	0xbeeb6a47	-0.4597952
133	0xbd0d7f44	-0.034545198
134	0xbecd61d0	-0.40113688
135	0x3f132683	0.5748064
136	0x3c8179dd	0.01580518
137	0xbe8d85c6	-0.27641124
138	0xbed21050	-0.4102807
139	0x3d6f1332	0.058367915
140	0x3cf81eaa	0.03028806
141	0xbf38b2c2	-0.7214776
142	0xbea4ae89	-0.3216441
143	0xbd8d3c0e	-0.0689622
144	0x3d0ebc35	0.034847457
145	0x3d881df7	0.0664634
146	0xbf0f85d0	-0.56063557
147	0x3f1bfba0	0.60930824
148	0x3f77ca40	0.96792984
149	0xbe17226f	-0.14759229
150	0xbeabdb17	-0.3356559
151	0x3f0ae14c	0.54250026
152	0xbe98212e	-0.29712814
153	0x3e32ff98	0.17480314
154	0x3dbd0abf	0.09230565
155	0x3952d4f4	0.00020106492
156	0xbf06c5ca	-0.5264555
157	0x3ec49613	0.38395748
158	0x3dad1a66	0.08452301
159	0x3e241d37	0.1602677
160	0xbe004df7	-0.12529741
161	0x3ece14d8	0.40250278
162	0xbf256f4a	-0.6462294
163	0xbecc3b58	-0.39889026
164	0xbe81762e	-0.25285476
165	0xbea3b9ab	-0.3197759
166	0x3d2a540c	0.04158406
167	0x3f06b710	0.5262308
168	0xbea73444	-0.32657063
169	0x3e5502ba	0.20801821
170	0xbe8ccba8	-0.27499127
171	0x3e44c472	0.19215563
172	0xbe9eeb5a	-0.31038934
173	0x3e135a82	0.14389995
174	0xbaf7d270	-0.001890732
175	0xbf1aba8b	-0.6044089
176	0xbefcb42c	-0.4935621
177	0xbecce355	-0.4001719
178	0x3d85afa4	0.065276414
179	0xbf68743c	-0.9080236
180	0x3f657055	0.8962453
181	0xbea65823	-0.32489118
182	0x3cfb741c	0.030695014
183	0xbdd73afc	-0.10509297
184	0xbdcb3821	-0.09922815
185	0x3ead14f3	0.33805045
186	0xbebf23c4	-0.37331975
187	0x3ed7e4ad	0.42166653
188	0x3db8b6b0	0.0901922
189	0xbf0f4302	-0.5596162
190	0xbcbd9938	-0.02314435
191	0xbf0c3178	-0.54762983
192	0xbec1ce83	-0.37852868
193	0xbe9e2729	-0.30889252
194	0xbe7c2c00	-0.2462616
195	0xbec22249	-0.37916782
196	0xbe70aa73	-0.23502521
197	0xbf2e5818	-0.6810317
198	0xbd98a46d	-0.07453237
199	0xbe40f6d8	-0.18844163

net.1.0.weight f4 [200, 200]
0	0x3edc2857	0.42999527
1	0x3dfd691e	0.12373565
2	0xbc3ec3bc	-0.011643346
3	0xbca4d971	-0.020123215
4	0xbd9c3fd5	-0.076293625
5	0x3d00666e	0.031347685
6	0xbe1be15e	-0.1522269
7	0x3c8f87aa	0.017520744
8	0x3da74859	0.08168096
9	0xbd52c04e	-0.051452927
10	0xbddd7123	-0.10812595
11	0xbd922655	-0.071362175
12	0xbd5aeb8e	-0.0534473
13	0x3b7758e7	0.00377422
14	0x3dc389eb	0.0954779
15	0xbe4d213b	-0.20032208
16	0xbd8f1032	-0.06985511
17	0xbe212be3	-0.15739398
18	0x3db7c7ce	0.089736566
19	0x3b53eec6	0.0032338365
20	0x3ce7caed	0.028295005
21	0xbebac6cd	-0.36479798
22	0x3c83da5e	0.016095337
23	0x3dc542f3	0.0963191
24	0xbe5ba92d	-0.21451254
25	0xbca44a4e	-0.020054962
26	0x3cd65283	0.026162392
27	0xbdac263c	-0.0840573
28	0x3d0744b2	0.033024497
29	0xbd4d049f	-0.050053235
30	0xbd3d9b16	-0.04629048
31	0xbc5c755c	-0.013455715
32	0xbd288a85	-0.041147728
33	0x3e0a1289	0.13483633
34	0xbdbb5893	-0.091477536
35	0x3e133c1a	0.14378396
36	0x3d94a2e4	0.072576314
37	0x3d6dd7bb	0.058067065
38	0x3d6d2dea	0.057905115
39	0xbe1930ba	-0.14959994
40	0xbe631cd3	-0.22178964
41	0x3d35f9e8	0.044427782
42	0x3c07865b	0.008271779
43	0xbb40b509	-0.002940478
44	0xbc295adb	-0.010336603
45	0xbcac1fad	-0.021011198
46	0x3e4765be	0.19472405
47	0xbc2825bd	-0.010262904
48	0x3de38fd5	0.11111418
49	0xbc9081d9	-0.017640041
50	0xbe82f53d	-0.25577727
51	0x3c87dbd6	0.016584318
52	0xbeb6c6e0	-0.35698605
53	0x3cb4209b	0.021988204
54	0x3dd1e461	0.10248638
55	0x3b018b68	0.001976693
56	0xbe40fc7d	-0.18846317
57	0x3d5c0c15	0.05372246
58	0xbe0f612d	-0.14001913
59	0xbcfe018e	-0.0310066
60	0xbc702bd0	-0.014658883
61	0x3d13290a	0.03592781
62	0x3de09a99	0.10966987
63	0x3e04b2a7	0.12958775
64	0x3d46d1b7	0.048539843
65	0xbc57efad	-0.013179702
66	0x3def7ac6	0.11693339
67	0x3dd7da3b	0.10539671
68	0x3e025dfe	0.12731168
69	0x3e014404	0.12623602
70	0x3d9cc2ec	0.07654366
71	0xbd6757fb	-0.05648039
72	0xbd253c39	-0.040340636
73	0xbe5ca28d	-0.21546383
74	0x3d9b48bb	0.075822316
75	0x3e063953	0.13107805
76	0x3d5c41b2	0.05377359
77	0x3d25c302	0.040469177
78	0x3e6b3a1d	0.22971387
79	0xbd3fb242	-0.04680086
80	0xbe05463b	-0.13015072
81	0x3d8ddfc7	0.06927448
82	0xbc246a00	-0.010035038
83	0x3d64c9fa	0.055856682
84	0xbc5601f3	-0.013061988
85	0xbe3b04df	-0.18263577
86	0xbe7c1839	-0.24618615
87	0x3e1c3d7e	0.15257832
88	0xbd729f60	-0.059234023
89	0xbe13756a	-0.14400259
90	0x3d3ff43a	0.046863772
91	0xbda911dd	-0.0825536
92	0xbd05572e	-0.032553844
93	0x3d900ffc	0.07034299
94	0xbe5a9c61	-0.21348716
95	0xbd426a6b	-0.04746477
96	0xbd542412	-0.05179221
97	0x3df255e5	0.11832789
98	0xbd481076	-0.048843823
99	0xbe2e35e1	-0.1701274
100	0x3bddaa46	0.006764683
101	0xbe0ab816	-0.13546786
102	0xbbbc4f0b	-0.0057467273
103	0x3d2838cf	0.041069802
104	0x3df5f841	0.12010241
105	0xbd6fb152	-0.058518715
106	0xbdeb3646	-0.11484961
107	0xbcaf93bb	-0.021432748
108	0x3e95e51d	0.29276362
109	0xbe18b94d	-0.14914437
110	0xbe2b2cad	-0.16716261
111	0x3e73a157	0.23792015
112	0x3e00d420	0.1258092
113	0x3b0672b7	0.0020515153
114	0x3c8c31bf	0.017113565
115	0xbe43cebb	-0.1912183
116	0xbcd074c8	-0.02544631
117	0xbd0bae90	-0.034102023
118	0x3ba8d5a9	0.0051524234
119	0x3dd35a8a	0.10320003
120	0xbd9a7089	-0.07540996
121	0x3d9ec5b2	0.07752551
122	0xbde54f10	-0.111967206
123	0x3d93c0f9	0.07214541
124	0x3acba378	0.0015536388
125	0x3cc08c8a	0.023504514
126	0x3a2f4bfe	0.0006687044
127	0x3e996562	0.2996016
128	0xbe8adb02	-0.27120215
129	0xbe5dca2b	-0.21659152
130	0xbce59341	-0.028024318
131	0x3d3a724a	0.04551915
132	0x3dfc0950	0.12306464
133	0xbc83a3ee	-0.016069379
134	0x3d7cdd5d	0.061734546
135	0xbe9444dd	-0.2895879
136	0x3c0938fa	0.008375401
137	0x3e027568	0.127401
138	0x3e3a5664	0.18197018
139	0xbd67050c	-0.056401297
140	0xbd05bd5e	-0.032651298
141	0xbe834427	-0.25637934
142	0x3d19573c	0.03743671
143	0xbdf6f741	-0.12058879
144	0x3d2c28f4	0.042031243
145	0xbe6e5e62	-0.23278192
146	0xbb636859	-0.0034699647
147	0xbc83c7a3	-0.016086405
148	0xbd19e60b	-0.0375729
149	0xbe491311	-0.1963618
150	0x3d448f73	0.047988366
151	0xbe469492	-0.19392613
152	0xb99531fa	-0.0002845673
153	0xbe4ab407	-0.19795237
154	0xbd4e9da2	-0.0504433
155	0x3e073b76	0.13206276
156	0xbde2b915	-0.11070458
157	0xbd84e725	-0.064894
158	0x3cfb5bc6	0.03068341
159	0x3d2d34b1	0.04228658
160	0x3d4416dd	0.047873367
161	0x3d0f11f5	0.034929235
162	0x3ddad7e3	0.106857084
163	0xbd76e668	-0.060278326
164	0x3cb88973	0.022526478
165	0x3d1ef602	0.03880883
166	0xbd64f928	-0.055901676
167	0xbcc11e54	-0.023574032
168	0xbe0c7733	-0.13717346
169	0xbd00bdea	-0.031431116
170	0x3d114821	0.035469178
171	0xbdc1113e	-0.09427117
172	0x3e1ad559	0.15120448
173	0xbe2ceabf	-0.16886424
174	0xbd494ca1	-0.049145345
175	0xbd0cadb9	-0.034345362
176	0xbcf98129	-0.030457096
177	0x3e02987a	0.12753478
178	0xbcca4b6c	-0.024694167
179	0xbda7570f	-0.08170902
180	0xbde1ff14	-0.110349804
181	0x3e311aab	0.1729533
182	0xbe10af08	-0.14129269
183	0xbd046d7c	-0.032330975
184	0x3c7fd1de	0.015614001
185	0xbd478abc	-0.04871629
186	0x3be2b02b	0.0069179735
187	0x3c8f5d32	0.017500494
188	0x3e2d907e	0.1694965
189	0x3d8d4b76	0.06899159
190	0xbdb0ef54	-0.08639398
191	0x3e46165d	0.19344468
192	0xbb84786d	-0.004042676
193	0xbe8c464d	-0.27397385
194	0xbd5b9377	-0.05360743
195	0xbd5fec52	-0.054668732
196	0x3d9fc295	0.078007855
197	0xbd852865	-0.06501845
198	0xbdc5918a	-0.096469
199	0xbd43d44d	-0.047809888
200	0x3c8d7cb7	0.017271383
201	0xbda2126d	-0.07913671
202	0xbd021c94	-0.031765535
203	0xbd671f65	-0.056426425
204	0x3d40ca57	0.047067966
205	0x3d407ca5	0.04699387
206	0x3d6a5767	0.05721226
207	0x3d2e3fef	0.04254144
208	0xbe6bdcd4	-0.23033458
209	0x3dc5f984	0.09666732
210	0x3e181065	0.14850004
211	0x3dfd0a8f	0.123555295
212	0xbd20d0b9	-0.039261553
213	0xbe81b46d	-0.25332966
214	0xbce124ec	-0.027483426
215	0xbe2f067f	-0.17092322
216	0xbdfdd4af	-0.12394082
217	0x3a00a5a3	0.00049074943
218	0xbe254338	-0.16138923
219	0xbe5ba778	-0.21450603
220	0x3db2de71	0.087338336
221	0xbe9830a3	-0.29724607
222	0xbb84348b	-0.004034584
223	0x3ce473f8	0.02788733
224	0x3d6ae34f	0.057345685
225	0xbd2f8428	-0.042850643
226	0xbd18e528	-0.037327915
227	0xbe0ae29d	-0.13563009
228	0xbe026cf0	-0.12736869
229	0xbb6834b2	-0.00354318
230	0xbd0bfdc2	-0.03417755
231	0x3e5808bd	0.21097083
232	0x3c80a275	0.015702466
233	0x3d00fa10	0.03148848
234	0xbe5708f4	-0.20999509
235	0x3d164b2d	0.036692787
236	0x3debf9aa	0.11522229
237	0xbdc73055	-0.097260155
238	0x3e3f02a4	0.18653351
239	0xbd5b832f	-0.053591903
240	0xbd90b16a	-0.07065089
241	0xbd059b05	-0.03261854
242	0xbe82bdda	-0.2553547
243	0xbdf41fd0	-0.1192013
244	0x3dbfbd8e	0.093623266
245	0x3d094171	0.033509675
246	0x3d4a958d	0.04945903
247	0x3d8dfb10	0.06932652
248	0x3cd68701	0.026187422
249	0xbd676436	-0.056492053
250	0xbeb217e3	-0.3478385
251	0xbdc64271	-0.096806414
252	0xbebe14f3	-0.37125358
253	0x3d9138c4	0.07090905
254	0x3e04069c	0.12893146
255	0x3c2fb676	0.010724654

net.1.0.bias f4 [200]
0	0xbe027309	-0.12739195
1	0x3d76b3f0	0.060230196
2	0x3cb869a1	0.022511305
3	0x3b8ee221	0.0043604528
4	0xbde8f1be	-0.11374234
5	0xbdd1b7b4	-0.10240117
6	0xbdd89631	-0.10575522
7	0x3e8bc640	0.2729969
8	0x3ed06c3a	0.4070757
9	0x3e568fc8	0.20953286
10	0x3de065da	0.10956927
11	0x3e2d7576	0.16939339
12	0x3c06cbea	0.008227328
13	0x3dd24695	0.10267369
14	0xbe52a4e6	-0.20570716
15	0x3e236a8f	0.15958618
16	0xbea9442b	-0.3305982
17	0xbd955511	-0.07291616
18	0x3eb70e67	0.35753176
19	0x3e3c7f8a	0.18408027
20	0x3dcda559	0.10041303
21	0xbde0bf3d	-0.10973976
22	0x3e1601ea	0.14649168
23	0xbd5ef2fd	-0.05443095
24	0xbe1f1f5e	-0.1553931
25	0x3ea64064	0.32471
26	0xbd943972	-0.07237519
27	0xbd88f446	-0.066872165
28	0x3e1345c6	0.14382085
29	0x3dcf90f1	0.10135067
30	0xbd4d5826	-0.050132893
31	0x3ddd57c9	0.10807759
32	0x3e9110d8	0.28333163
33	0x3cec5f31	0.028853985
34	0x3ce78037	0.02825938
35	0x3d8fd9bb	0.07023951
36	0xbcd50bb7	-0.026006563
37	0x3dd91a9a	0.10600777
38	0x3c9534e3	0.018213695
39	0x3dd81cfa	0.10552402
40	0x3c340724	0.010988031
41	0x3ceec07d	0.02914452
42	0xbc1c3a13	-0.00953533
43	0xbbb0b393	-0.0053925007
44	0x3d0c7e97	0.034300413
45	0xbd8bfbdd	-0.068351485
46	0x3c43360f	0.011914744
47	0x3e3da079	0.18518247
48	0x3e147f5a	0.14501706
49	0xbd35e2d9	-0.044405792
50	0xbe017394	-0.12641746
51	0x3f09eeef	0.5388021
52	0x3c4ec0a6	0.012619173
53	0xbdbd9007	-0.09255987
54	0xbd3aac2c	-0.045574352
55	0xbd8deca5	-0.06929902
56	0x3e2b1254	0.1670621
57	0x3e9e648f	0.30936095
58	0x3b15033c	0.0022737524
59	0x3e024e83	0.12725262
60	0xbdeb6ad2	-0.11494984
61	0xbe40aea6	-0.18816623
62	0xbd8b2e26	-0.067959115
63	0x3d2d75fd	0.04234885
64	0xbe554efd	-0.20830913
65	0x3d6133a8	0.054980904
66	0x3d44922b	0.04799096
67	0xbe0e0c80	-0.13871956
68	0x3ca87d17	0.02056746
69	0x3ca7ac85	0.020468006
70	0x3eb5fb41	0.35543254
71	0x3e617195	0.22015984
72	0xbd24bc5d	-0.0402187
73	0x3ea61230	0.3243575
74	0x3df622a8	0.12018329
75	0x3d002227	0.03128257
76	0xbe0d9142	-0.13824943
77	0x3e942713	0.2893606
78	0x3db4dbe8	0.08831006
79	0x3e4f1cf5	0.2022589
80	0x3da39c87	0.079888396
81	0x3d03cad9	0.032175872
82	0xbd813272	-0.0630845
83	0xbe37ca1f	-0.17948197
84	0xbea30cec	-0.31845796
85	0x3cb7b4c8	0.02242507
86	0x3e40481d	0.18777509
87	0xbe11600d	-0.14196797
88	0x3e609ca4	0.21934754
89	0x3e095987	0.13413058
90	0x3e96ae95	0.2943007
91	0x3e70f215	0.23529847
92	0xbd071521	-0.032979134
93	0x3d0b5e5b	0.03402553
94	0xbe08cbd8	-0.1335901
95	0x3d526308	0.051363975
96	0x3ecf5852	0.4049707
97	0xbde6322f	-0.112400405
98	0x3dca27ea	0.09870894
99	0x3e2b191a	0.16708794
100	0xbe28cd84	-0.16484648
101	0x3e52fb2c	0.20603627
102	0xbdc6b4b1	-0.09702433
103	0x3e2ed418	0.17073095
104	0x3d71bc77	0.059017625
105	0xbe2e0f32	-0.16997984
106	0xbcd01821	-0.02540213
107	0x3d3a2aa7	0.045450833
108	0x3fa21fe7	1.2665986
109	0x3e44bd73	0.19212894
110	0x3e286203	0.16443639
111	0xbd63570c	-0.055502936
112	0xbdfd0824	-0.12355068
113	0xbd10d53b	-0.035359602
114	0x3d86297e	0.06550883
115	0xbd93374e	-0.07188283
116	0x3dab301c	0.083587855
117	0xbdb94d9d	-0.09048007
118	0x3c042739	0.008065992
119	0x3e2b3645	0.16719921
120	0xbdaaf0e5	-0.08346728
121	0x3e8a6c44	0.27035725
122	0xbb159b6b	-0.0022828232
123	0x3d5d3ee2	0.054015048
124	0x3bc90638	0.0061347745
125	0x3e3a07e8	0.18167078
126	0xbdbabef1	-0.091184504
127	0xbd9c45d3	-0.076305054
128	0xbc8d2052	-0.017227326
129	0x3dba79c1	0.09105254
130	0x3daca5a0	0.08430028
131	0xbdb63315	-0.08896462
132	0x3e7df4a7	0.24800359
133	0x3d03fca5	0.032223362
134	0x3e4e777a	0.20162764
135	0x3e6e7c82	0.23289683
136	0xbd0b2898	-0.03397426
137	0xbe2c4c86	-0.16826066
138	0x3d3475ce	0.04405766
139	0xbe3c1bd7	-0.18369995
140	0x3e869097	0.26282188
141	0xbd5b0b02	-0.053477295
142	0x3d8e7ffd	0.069580056
143	0xbd9ef921	-0.07762361
144	0x3ec117e4	0.3771354
145	0x3d2876c3	0.041128885
146	0xbe0affa9	-0.13574089
147	0x3d827297	0.063695125
148	0x3e92e180	0.28687668
149	0x3cfcbaa6	0.03085072
150	0x3e62e9fc	0.2215957
151	0x3db50b01	0.088399895
152	0x3e23f1d2	0.16010216
153	0x3cba1d57	0.022719068
154	0x3dcbe9bf	0.09956693
155	0x3b3566b0	0.0027679615
156	0xbe0d4af0	-0.13798118
157	0x3d8a4eab	0.06753286
158	0x3e301456	0.17195258
159	0x3e987471	0.29776338
160	0x3ea6b72e	0.3256163
161	0xbdf5e7cb	-0.120071016
162	0xbe215ab2	-0.15757254
163	0x3d90ceee	0.07070719
164	0x3df386a3	0.11890914
165	0x3e2ceeec	0.16888016
166	0x3db923dd	0.090400435
167	0x3cb25b67	0.0217721
168	0x3b67e891	0.0035386423
169	0x3ce17b4d	0.027524615
170	0x3e5e80d0	0.21728826
171	0xbdd522a6	-0.10406999
172	0xbdd51cc5	-0.10405878
173	0x3ed42230	0.41432333
174	0x3e861b02	0.2619248
175	0xbe0a4080	-0.13501167
176	0x3cf82657	0.03029172
177	0x3f3127a2	0.692011
178	0x3d7d22ac	0.061800644
179	0xbcace025	-0.021102974
180	0x3bf840b4	0.0075760726
181	0x3e6ba693	0.23012762
182	0x3efad5a8	0.48991132
183	0xbda48701	-0.080335625
184	0x3e1e9aad	0.15488692
185	0x3d9b7c57	0.07592075
186	0xbbab4b20	-0.0052274615
187	0x3d99eee7	0.0751627
188	0xbe4d5580	-0.20052147
189	0xbcb1a399	-0.021684455
190	0x3d9f4482	0.07776739
191	0x3e875dde	0.26438802
192	0x3deab46a	0.114601925
193	0x3d591f4e	0.05300837
194	0x3e4732ec	0.19453019
195	0x3de402b9	0.11133332
196	0x3ca0bc6e	0.0196211
197	0xbd8bf449	-0.06833703
198	0x3dfef8d8	0.12449807
199	0xbe160fa7	-0.14654408

net.2.0.weight f4 [12, 200]
0	0x3e45f443	0.1933146
1	0x3daedc9c	0.08538172
2	0xbe72f893	-0.23727636
3	0x3d9dcbfa	0.07704921
4	0x3e32641b	0.17421
5	0x3e190375	0.14942725
6	0xbe65ba05	-0.22434242
7	0x3df39a05	0.11894611
8	0xbd1f9d6f	-0.0389685
9	0xbecdbbfe	-0.4018249
10	0x3d024f42	0.031813867
11	0xbd1a5873	-0.037682008
12	0x3e80020f	0.2500157
13	0xbe7accdb	-0.24492209
14	0x3ec171ff	0.37782285
15	0xbd15139e	-0.03639566
16	0x3e0c300e	0.13690206
17	0x3d9ece4b	0.07754191
18	0x3e103f8f	0.14086746
19	0xbe9d2f6f	-0.3070025
20	0xbe218c6f	-0.15776227
21	0x3ec6c887	0.38824865
22	0x3d4b80b4	0.049683288
23	0xbe8b75f5	-0.27238432
24	0x3e70bdf0	0.23509955
25	0x3e009eb7	0.12560545
26	0xbc85643e	-0.01628315
27	0xbdf52b0b	-0.119711004
28	0xbe610aeb	-0.21976821
29	0x3cf05e55	0.029341856
30	0xbe0405d7	-0.12892853
31	0xbd4be1b2	-0.049775787
32	0x3dcabd22	0.098993555
33	0xbecbd472	-0.3981052
34	0x3e05b49e	0.13057181
35	0x3e186e44	0.14885813
36	0x3dc21b76	0.09477894
37	0x3d9cb328	0.07651359
38	0xbbea3aee	-0.0071481382
39	0xbf1dda3f	-0.6166114
40	0x3ea29eb1	0.31761697
41	0xbd7839bc	-0.060601935
42	0x3b85cfc4	0.0040836055
43	0xbdd20a2b	-0.10255846
44	0xbd28630c	-0.041110083
45	0xbdb65cfc	-0.08904454
46	0xbd682179	-0.056672547
47	0x3e61d9ea	0.22055784
48	0x3da6f39d	0.08151934
49	0xbd64b8fa	-0.05584047
50	0x3e317c53	0.17332582
51	0x3d814777	0.06312459
52	0x3daef772	0.0854329
53	0xbe5d1be9	-0.21592678
54	0xbd887731	-0.06663359
55	0xbe988502	-0.29788977
56	0xbdcff4af	-0.101540916
57	0x3e365cd0	0.17808843
58	0xbd356ef9	-0.044295285
59	0xbda70ec1	-0.08157111
60	0x3d89daf9	0.06731219
61	0x3e934a55	0.28767648
62	0xbecfe11a	-0.40601426
63	0xbdccb83b	-0.09996077
64	0x3e17adea	0.14812437
65	0x3e9b0b4c	0.30282056
66	0x3d171ed6	0.03689464
67	0x3d9693bb	0.07352396
68	0x3ec346c1	0.38139918
69	0xbdf7e5a1	-0.12104345
70	0x3e3908b1	0.18069722
71	0x3cf93eea	0.030425508
72	0x3d19141d	0.037372697
73	0x3e85b8d1	0.26117566
74	0xbd1c7971	-0.038201753
75	0x3e5738b5	0.21017726
76	0xbd8a677c	-0.06758019
77	0xbe1e1c5c	-0.15440506
78	0xbe2ae2be	-0.16688058
79	0x3e23c349	0.15992464
80	0xbe01b5f3	-0.12667064
81	0xbeb7b123	-0.35877332
82	0x3d2017b0	0.03908509
83	0xbdc34b91	-0.095358975
84	0x3e0766f9	0.13222875
85	0xbc5124c9	-0.012765118
86	0x3d9b3acc	0.07579574
87	0x3e08b89f	0.13351677
88	0xbe607bf1	-0.2192228
89	0x3e6e822c	0.23291844
90	0x3cd32a66	0.025777053
91	0xbd625d20	-0.055264592
92	0xbbccbb48	-0.0062479116
93	0xbe810df3	-0.25205955
94	0xbe36c7cc	-0.17849654
95	0x3d2ea778	0.04264018
96	0x3e05d647	0.13070022
97	0x3eaef86e	0.34173912
98	0x3d13b994	0.036065653
99	0x3c796934	0.015222836
100	0xbdebcc6d	-0.115136005
101	0x3dacf31a	0.084448054
102	0xbea4f1a5	-0.3221561
103	0x3eea24c6	0.4573118
104	0x3e4d60c9	0.20056452
105	0xbd619fe8	-0.05508414
106	0x3c67a3db	0.014138187
107	0xbe339f79	-0.17541303
108	0x3c00591a	0.0078337435
109	0xbeb077f4	-0.34466517
110	0x3e5b55b9	0.2141942
111	0x3d7510ea	0.059830584
112	0xbbffcb1f	-0.0078061963
113	0xbd5a24b9	-0.053257678
114	0xbcda5401	-0.026651384
115	0xbd35bc5d	-0.04436909
116	0xbe988dd1	-0.29795697
117	0xbd8d40e5	-0.06897143
118	0x3c8fdab5	0.017560342
119	0xbe2e9f83	-0.17053036
120	0x3e0489e1	0.12943222
121	0x3c350291	0.011047975
122	0xbefb59a0	-0.49091816
123	0xbd10ea37	-0.035379615
124	0x3e7ad9aa	0.24497095
125	0x3db9acf0	0.09066188
126	0xbd89ad30	-0.06722486
127	0x3ec0a932	0.37629086
128	0x3b660f86	0.0035104468
129	0x3d8413fb	0.064491235
130	0xbdf8f598	-0.12156218
131	0x3e3e46c3	0.18581681
132	0xbe570c43	-0.21000771
133	0x3e5cd2d2	0.21564797
134	0x3e0dee02	0.13860324
135	0x3d9b3f47	0.075804286
136	0xbcb5ab4b	-0.022176405
137	0x3e406664	0.18789059
138	0xbdd65771	-0.10465897
139	0x3ec35ddf	0.38157555
140	0xbea0f105	-0.31433883
141	0xbb336fd6	-0.0027379892
142	0xbddbfb66	-0.1074131
143	0x3e690221	0.22754718
144	0x3dbf3190	0.09335625
145	0x3e044f40	0.12920856
146	0x3e2769f5	0.16349013
147	0xbe32113d	-0.17389388
148	0x3e99b043	0.3001729
149	0xbe7f8432	-0.24952772
150	0xbf33b1be	-0.7019309
151	0x3ea82682	0.3284188
152	0xbd803565	-0.06260184
153	0xbe5408cd	-0.20706482
154	0xbcbecf0f	-0.023292093
155	0x3d396162	0.045258887
156	0xbe5867b3	-0.21133308
157	0xbddd1cfa	-0.107965425
158	0xbdcc196b	-0.099657856
159	0x3c8c0624	0.017092772
160	0x3daa46ba	0.08314271
161	0xbd0384db	-0.032109123
162	0xbe3d9586	-0.1851407
163	0xbcdd086c	-0.026981555
164	0xbd5c395c	-0.05376564
165	0x3dea4dc6	0.11440615
166	0xbd6380af	-0.055542644
167	0x3eb0c202	0.34523016
168	0x3c854103	0.016266352
169	0xbe4f0b6c	-0.20219201
170	0x3e4073c5	0.18794163
171	0xbe68d797	-0.22738491
172	0x3e72d019	0.23712195
173	0xbd23ccca	-0.039990224
174	0xbf5514a8	-0.83234644
175	0xbe68af3f	-0.22723101
176	0xbddb2d10	-0.10701954
177	0x3d51a108	0.051178962
178	0x3d11770f	0.035513934
179	0xbf0df64c	-0.55453944
180	0x3d6b15e9	0.057393942
181	0xbcdff4da	-0.027338434
182	0xbdc5c7fe	-0.09657286
183	0x3d15dc1d	0.03658687
184	0xbdc09fd9	-0.094054885
185	0x3e1020e0	0.14075041
186	0xbe0fcf05	-0.14043815
187	0x3d5b37f4	0.053520158
188	0xbdaf9c87	-0.08574777
189	0x3d104280	0.03521967
190	0xbcbce4e8	-0.02305837
191	0x3d8967fb	0.06709286
192	0x3d1a9020	0.037735105
193	0x3decdbdf	0.115653746
194	0xbd2ce0f7	-0.04220673
195	0xbe9ca119	-0.30591658
196	0x3eb669ac	0.35627496
197	0x3d554d80	0.052075863
198	0xbddbc972	-0.10731782
199	0xbdf19b47	-0.11797195
200	0xbd1e4854	-0.038643196
201	0x3c39839c	0.011322882
202	0x3d80c228	0.06287032
203	0x3e0383a4	0.12843186
204	0xbe06f675	-0.13179953
205	0x3e0ce101	0.13757707
206	0x3e00cdfe	0.1257858
207	0xbead3fc6	-0.33837718
208	0x3e8faaa8	0.28059888
209	0x3e877ede	0.2646398
210	0xbdb3724d	-0.087620355
211	0xbd79ead3	-0.06101496
212	0x3e5d965a	0.21639386
213	0x3f0dfa20	0.55459785
214	0xbe11fe71	-0.14257218
215	0xbd011193	-0.0315109
216	0x3ea3994f	0.31952903
217	0xbe91cc61	-0.2847624
218	0xbd93d3b3	-0.07218113
219	0x3d57ae79	0.052656624
220	0x3dcd1bec	0.10015091
221	0xbee14e1a	-0.440049
222	0xbcd9e188	-0.0265968
223	0x3e202c1c	0.15641826
224	0xbe9ba59b	-0.30399784
225	0xbe4e1980	-0.20126915
226	0xbde1bbbc	-0.110221356
227	0x3e220b1b	0.15824549
228	0x3f006d2b	0.5016658
229	0xbe9b6a53	-0.30354556
230	0xbba5f1b7	-0.005064215
231	0x3e253e62	0.16137078
232	0x3d87b86d	0.06626973
233	0x3ea6f4d3	0.3260866
234	0x3d06315e	0.032761924
235	0x3df42043	0.11920216
236	0x3d19141f	0.037372705
237	0x3e8ac205	0.2710115
238	0x3e12906d	0.14312907
239	0x3f27f07d	0.6560133
240	0xbca109a0	-0.01965791
241	0x3d8a7e20	0.06762338
242	0xbf3cbfb8	-0.7373004
243	0x3db40ce1	0.08791519
244	0x3dd07bae	0.1017984
245	0xbc2f0fcc	-0.010684919
246	0xbd5a0314	-0.05322559
247	0x3ce53720	0.027980387
248	0x3e27f02c	0.16400212
249	0x3c4fd9cd	0.012686205
250	0xbe2b0dd5	-0.16704495
251	0x3df7bc4b	0.12096461
252	0xbdd26e3d	-0.102749325
253	0x3dfe5ba3	0.12419822
254	0xbe17fa1c	-0.14841503
255	0xbe82e293	-0.25563487

net.2.0.bias f4 [12]
0	0x3dcd3385	0.10019592
1	0x3dc92352	0.0982119
2	0xbd068cad	-0.032849003
3	0x3dd38dc4	0.10329774
4	0x3dd86621	0.105663545
5	0x3dd77c41	0.105217464
6	0xbebfaa30	-0.3743453
7	0xbe9cbe9e	-0.3061418
8	0xbea961e6	-0.33082503
9	0xbeee3a22	-0.46528727
10	0xbe5e1844	-0.21688944
11	0xbe2339e9	-0.1594006
