suboptimal_policies/HalfCheetah-v4_100.pth (torch, 54615 bytes, 6 tensors)

net.0.0.weight f4 [100, 17]
00000000: f80d 373f f47e cbbd 714e cbbe f7c9 c4be
00000010: e9aa 8dbd 0931 fbbe ead7 69be 5c53 063e
00000020: 8851 483f af72 a93e 5323 49bd 8da0 8fbd
00000030: 6ba2 f03c 407c 30bc dd81 91be 7225 5cbb
00000040: cf44 41bd 7a58 fa3d dbd3 af3d ff19 29bd
00000050: edf5 43bf a4b9 e93d 49cf f53e 4021 503e
00000060: b6c1 2c3c 6611 703e dfb6 913e 1dc7 853e
00000070: 985d 573e 4661 7b3d 6e7d 05bd 7cbf 34bd
00000080: db46 143d 5680 bf3c 4819 823e 40fd 03be
00000090: 3937 193f a462 b6bf 4911 93be e01f 01bf
000000a0: 8c5a b2be 4758 e73d f2af 21bd 52e3 713f
000000b0: a048 a63e 12e2 093e a60f d23c 92ca d3bc
000000c0: 6a5e d8bc 93ba e9bc 6ca3 303d fa1a 1abf
000000d0: 093a 0b3f 948a 973f 9440 cd3e 94f3 2b38
000000e0: 2058 fe3e fbde b8bd 1473 47be 18ab 293e
000000f0: 0983 dabe f587 2d3e 0993 843d 0be2 f93b
00000100: 6cce a5bc 00f5 b5bd b80a bcbd 2184 bc3d
00000110: 192a 0bbf 463d 273f 3639 803d 2638 163e
00000120: c8e7 423e 09eb 20be 3132 5bbe a058 8ebe
00000130: 9319 84bc 05d4 3dbe 3f9e 663a b32d 19bc
00000140: 42f7 363c 2211 4c3d efe2 c0bc 2997 ebbd
00000150: a3c5 eebd ea4e 803e 84d7 8f3d bcc8 26bf
00000160: 3969 03bf 4c08 d93e 324c e0bd 42dd 5d3f
00000170: 565f e43d 9295 73bf 4243 5d3f 35da 60be
00000180: 7e2f 4fbd f3ad 283d f389 aa3d 1d4a 07be
00000190: f4bd b23d 544a febc 680c 793e 783b d93d
000001a0: ba9e f23f 0071 cfbf 80f0 9fbe b193 dbbd
000001b0: 0909 0b3e 164b 1b3f f72e a83f 47e1 703f
000001c0: 613e de3e cb72 003e bfc3 2b3d 169e 31bd
000001d0: be27 313d e3de 2dbd b917 8b3c 6a4d 873e
000001e0: c42b dd3d 8f73 dbbe c5c4 68be fc6a dabd
000001f0: 75bb 1a3f f06e 0d3e 64ba c7bd 22cf 3cbe
00000200: 759c c9be 8194 8b3d 2d45 fa3d 8017 2f3e
00000210: f47b 1dbe 6646 f03d 01e5 1a3d 188b c93d
00000220: 558a ed3e 27ee a63e 7078 803f 0615 d8bd
00000230: 2b58 a63e 7c88 a93e 0c6b 23bd 4c9a 983d
00000240: 3f02 b93d 0b6b 563e aef1 1dbe 1bea f4bd
00000250: 6ff3 51bd 754a 31be bb56 a63c 17d9 1f3d
00000260: 4863 c7bd f3bd 5fbe eda7 51bf ba78 f0be
00000270: 9217 d1be ae31 dd3e 876a 1e3f 3783 da3e
00000280: 42bd 943e a990 95be b618 12be 27a9 1abe
00000290: a85b cbb9 d1f5 323d 6582 adbd 2664 0dbe
000002a0: a2dc c83d 5089 4a3d 0ff1 76bc 2256 12be
000002b0: 368a d5bd b8fc de3e b417 64be 8825 b5be
000002c0: 941e 33bf a939 77be cf46 5dbe 759f 74bf
000002d0: 4035 223e 567e 05be 8f2d c93d 00b9 e3bc
000002e0: e0ea a13d 5130 feba 2912 483d 426a eb3d
000002f0: 78c4 3bbe be05 75bf b4f1 9c3b 5389 9f3d
00000300: 0e88 443f d2d2 aa3e ec59 6c3e 6190 673e
00000310: d8ff d7be 1799 cf3d 7d6e 153e 2108 4b3d
00000320: 08d0 303d 8b1d efbd 2ae2 8d3d 368c 45bd
00000330: e959 04be acbd 3c3e 353a bebe 0ebe 9c3d
00000340: 51de e33d 7c26 3f3e fe00 e7bc 2729 31be
00000350: e21f 45bf 0f3d 5cbe f40b 9cbe d700 1bbd
00000360: 0a9c 53be 2216 ce3d f151 413e dfe7 e9bb
00000370: 8f13 023e 417f 123e 9977 f93d d63b 52be
00000380: 248c 39be 16f9 41be 6542 983e b201 0dbe
00000390: 8cd3 3d3e 0cd3 0e3e 7b1e 0fbd 321f f33c
000003a0: 3239 36be 47cc a2bb 5afa 8b3d 5b82 7fbb
000003b0: eafb 9dbc 5324 303c d439 1fbf 84bd 443f
000003c0: fc69 92be 75e9 233e 6872 ee3d ca91 683e
000003d0: cce9 5d3d 9dab 26be 26db abbe 3453 0dbf
000003e0: af7b e2bd bb29 6dbd 6586 12bb 7575 4abd
000003f0: 9d67 943b 211c c13d d2fe 873d 4e10 da3e
0.7150569 -0.09936324 -0.39708284 -0.38435337 -0.06917364 -0.49060848 -0.22836271 0.13117737
0.78249407 0.3309531 -0.049105953 -0.070130445 0.029374322 -0.010771811 -0.2841939 -0.0033591655
-0.04718476 0.12223907 0.0858533 -0.041284557 -0.7654713 0.11412361 0.4800971 0.20325184
0.010544231 0.23444137 0.28459832 0.26128474 0.21031797 0.061372064 -0.032590322 -0.044127926
0.036200386 0.023376625 0.25409913 -0.12889576 0.5984989 -1.4248853 -0.28724125 -0.5043926
-0.34834707 0.112961344 -0.039474435 0.9448749 0.32477283 0.13465145 0.025642227 -0.025853429
-0.026412208 -0.028531348 0.0431246 -0.6019741 0.5438543 1.1839166 0.40088332 4.0996427e-05
0.4967661 -0.09026905 -0.19477493 0.16569173 -0.42678097 0.16946395 0.06473357 0.0076258234
-0.020240031 -0.08884621 -0.09181732 0.09204889 -0.5436111 0.6532787 0.06260912 0.14669856
0.1903373 -0.15714659 -0.21405865 -0.2780199 -0.016125476 -0.1853791 0.0008797384 -0.009349274
0.011167349 0.049821027 -0.02354571 -0.11503441 -0.1165879 0.25060207 0.07023528 -0.65150046
-0.5133243 0.42389143 -0.10952033 0.8666574 0.111509964 -0.951501 0.8643075 -0.2195824
-0.0505824 0.041181516 0.08327093 -0.13211866 0.08727637 -0.031041302 0.24321139 0.10607046
1.895469 -1.620636 -0.31238174 -0.10721529 0.13577665 0.6066145 1.3139333 0.94093746
0.43406966 0.1254379 0.041934725 -0.043363653 0.04325079 -0.04244889 0.016979085 0.2642625
0.10799363 -0.42861602 -0.22731312 -0.10664937 0.60442287 0.1381185 -0.09752348 -0.1843839
-0.3937718 0.06815434 0.122202255 0.17098808 -0.15379316 0.117321774 0.03781605 0.09840983
0.463946 0.3260357 1.0036755 -0.10550885 0.32489142 0.33111942 -0.03989701 0.07451305
0.090336315 0.20939271 -0.15424225 -0.119587146 -0.051257547 -0.1731356 0.020305028 0.039025392
-0.09735733 -0.21849804 -0.8189686 -0.46967107 -0.40838295 0.43201965 0.618813 0.42678234
0.29050642 -0.2921193 -0.14267239 -0.15103589 -0.00038787466 0.04369146 -0.084721364 -0.13807735
0.09807707 0.049447358 -0.015072121 -0.1429067 -0.10426752 0.43552184 -0.22274667 -0.35380197
-0.69968534 -0.2414309 -0.21609043 -0.9555581 0.15840626 -0.13036475 0.09823143 -0.027798176
0.07906127 -0.0019393062 0.048845444 0.114948764 -0.18336666 -0.95711887 0.0047895554 0.077898644
0.767701 0.33363968 0.23081177 0.2261367 -0.4218738 0.101366214 0.14592929 0.0495683
0.043167144 -0.11675557 0.06927903 -0.04822942 -0.12924923 0.18431729 -0.37153783 0.076534376
0.11126388 0.18667024 -0.028198715 -0.17300855 -0.77001774 -0.21507667 -0.3047787 -0.037842598
-0.20664993 0.10062815 0.18878914 -0.007138237 0.12702774 0.14306356 0.121810146 -0.20530638
-0.18119866 -0.18942675 0.29738155 -0.13770178 0.1853773 0.13947695 -0.034941178 0.029677961
-0.17795256 -0.0049681994 0.0683486 -0.003898761 -0.019285161 0.010750848 -0.62197614 0.7685168
-0.28596485 0.16007026 0.11642915 0.22711864 0.054178044 -0.16276403 -0.33565634 -0.5520508
-0.11058747 -0.057901125 -0.0022357937 -0.049428422 0.004528953 0.09429193 0.066404 0.42590564

net.0.0.bias f4 [100]
00000000: 7db2 c5bb 2c0f febd 4765 043e 7c80 c7be
00000010: eb16 35be 1303 913c 4758 1c3e 7fab f83e
00000020: d5d4 bc3e 09a1 473c dfee da3e ceac f6bc
00000030: 8f4f d3bd 6325 103f 753b f6be d975 9ebe
00000040: 29a7 c63e 1424 bf3d 85b2 253f bb0f aabd
00000050: 739d 553f a11b 52be f23c f13e bbd2 a9be
00000060: ed1c f1be bd7c 203e c1b5 a6be af7b ee3e
00000070: c187 bf3e 547f 91bd dd02 fa3e efa8 403f
00000080: 4a6b 8cbd 065d 4a3f 66e7 dbbc 9a41 5c3e
00000090: 196b 103e 3f23 453e f2f1 353e 1576 ac3e
000000a0: 1c7f 803e 58e7 123f 12bc 283f ee4a db3c
000000b0: 3c01 f8bd 7f6f bd3e 2df3 85be 4354 793f
000000c0: a539 fbbd 40ee 743f aa84 e8be 22fe 423e
000000d0: 5665 143e 723d 0b3e d9f6 8fbe a2c1 8a3e
000000e0: 4503 563f 97ac e83e 9ae8 3c3f c19d a83c
000000f0: 623e 913e d896 bfbd af8f f33e dd85 95be
00000100: f69a 3e3f 414e 3f3f b2f3 e53e d772 b2bd
00000110: a46c d2bd 8e3f 563f 6df5 cb3e 2442 edbe
00000120: 14f4 d1bd aaf4 42be 1cf3 96be 28c3 93be
00000130: f576 073f cdb3 b23e 3afb 6b3e 39a8 da3e
00000140: 4ef7 29be 0a3c d83c fed4 193f ddfa 8a3e
00000150: de16 fa3e 0a44 d6bd bb67 823e c6cf 19bf
00000160: 398e eb3e dea3 343f 48a2 453e ad4c e63d
00000170: d8d8 a63f b0f4 a6be f2af 6f3e fee4 3c3f
00000180: 5728 883f d75b 843d ea1a 973e 476b 003e
-0.0060332404 -0.124052376 0.12929259 -0.38965213 -0.17684524 0.017701661 0.1526805 0.4856834
0.36881128 0.01218439 0.4276037 -0.030111697 -0.10317909 0.5630705 -0.48092237 -0.30949286
0.38799408 0.09333053 0.64725524 -0.083037816 0.83443373 -0.20518352 0.4711681 -0.33168587
-0.4709238 0.15672584 -0.32560542 0.46578738 0.3740826 -0.07104364 0.4883031 0.7525777
-0.06856401 0.7904819 -0.026843738 0.215094 0.14103355 0.19251727 0.17768076 0.3368384
0.25096977 0.5738425 0.6591197 0.026769128 -0.121096104 0.36999127 -0.2616209 0.973942
-0.12266854 0.9567604 -0.45413715 0.19042256 0.14491782 0.13597658 -0.28118017 0.27100855
0.8359874 0.45444176 0.7379242 0.020583035 0.28367907 -0.09354943 0.4757056 -0.29203692
0.744552 0.7472878 0.44912487 -0.0871331 -0.10274628 0.83690727 0.39835683 -0.46339524
-0.10251632 -0.19038644 -0.29482353 -0.2885983 0.5291589 0.34902802 0.23045054 0.4270647
-0.16598246 0.026395816 0.60090625 0.27144518 0.4884557 -0.10462196 0.25469765 -0.6008266
0.46006945 0.7056254 0.19300187 0.112450935 1.3034925 -0.32608557 0.23406962 0.73786914
1.0637311 0.064628296 0.2951272 0.12540923

net.1.0.weight f4 [100, 100]
00000000: 4d8d 00bd b3ec c93c bbda 9a3b c3bf bcbd
00000010: 3975 89bd df68 f23b 87da 1fbd fe89 4d3a
00000020: 1a39 e53a 10fd 283d b90b 97bc b4cd 97bd
00000030: 27c2 81bd 0dae d6bb fe93 b8bd 98b7 08be
00000040: 4137 96bd 008a ecbc 548a 063d 3dae 5a3c
00000050: 814d 0bbd fed8 943d d18c 26bd f622 02bd
00000060: dc62 61bd 2736 cfbd c1d4 443e 30db afbd
00000070: ed75 8bbd 454a 033e 4ffd 363d bbbd 3f3d
00000080: 6e09 9d3c 7d9d fdbb 73ac 323c 3c64 753c
00000090: 55d5 b6bd 5f5a 253d 8f31 0c3d fad8 cf3d
000000a0: 9b04 0bbd 6c82 84bd afd6 363d 087c 2cbd
000000b0: 7d1d a93d 13c9 6cbd f545 30bd 5314 58bd
000000c0: 1acb d13c 6d4a d73c a7a3 abbd 85cc 3f3c
000000d0: f8be dd3b 7cbb 8e3b 0202 5a3d 0bc3 01bd
000000e0: 17f7 493d efe2 003b 3d1e a6bb bf02 d7bc
000000f0: 708d 123d eadb 783d d23e 5f3d 44ca 9fbc
00000100: 35ae fcbd b029 60bd fca1 a73d d7f7 6d3d
00000110: 7b8d 533d fe32 ebbd 00a8 97bc 9c2a 203d
00000120: 7848 0e3d e978 103d 6a41 08bc 25b9 e2b7
00000130: 3c8d 803d bebb 053e 5cb2 953c 3dbd d6bd
00000140: d884 713d a36e 4e3d 7fac b7bd fd2c 363d
00000150: e59e 913d a7f9 303d aa29 713c bf87 cdbd
00000160: ff9c ebbd 1400 4c3d cdff 25bd 24d3 7b3d
00000170: 3f5d 3dbd 49f1 c33c c30b 7bbd 414c 74bd
00000180: e20b 96bd 5d71 25bd 86fc 93bd 4379 c23c
00000190: de11 95b9 3032 94bd 11f5 0dbd 9135 21bd
000001a0: 03b8 c23d 4a9a 62bd 037d 883c 5f0a a8bd
000001b0: 4558 d93d c328 883d b764 2bbc 0c15 ecbc
000001c0: e4a3 b5bd 1ea0 d63d 7a36 a1bd a151 c7bc
000001d0: bff2 a73d 7797 64bd 26e5 013d 3ac1 25bd
000001e0: d4d9 b7bc a44d bb3c dfc6 f6bc f40d c5bd
000001f0: a8d8 28bd 917d 323c 010f 37bd cc9a afbc
00000200: 57c8 cc3d d0bb 6f3d a665 563c e9cd 0d3e
00000210: f02a 7c3c 50a9 0ebc 12b5 62bd 1e08 5c3d
00000220: 01fd 873c 46dc 4f3d 8732 f0bd a2e0 983d
00000230: 2c70 02be c02e c33d 2136 c43d 4018 aabd
00000240: 8064 ebbc 5704 0b3e b384 00be 0364 aa3d
00000250: 7242 10bd a257 203d 1ed8 c7bc 037e 28bd
00000260: be6d 823d e778 7d3d 8d2e 373d 5d4f c0bd
00000270: 1767 303d 633b 17bd 66ee e53c 1b69 803d
00000280: 051e da3d f33f 263d fc19 083d 682a 8bbd
00000290: f217 67bd ae4d ae3d dc83 e93d 7cfe 90bd
000002a0: 5b45 8dbd b885 3abd 8f0a 523d f472 c2bd
000002b0: fda2 74bc c785 8dbd 6c16 c7bd e3f8 7f3a
000002c0: 92ee 88ba 6555 a7bc 48f4 a83c 0fef 563d
000002d0: 53ed 813d 8d01 33bc 87e8 d33c 6ba2 db3c
000002e0: 299c 29bd d1c5 863d 7b5f 80bd cf81 22bd
000002f0: 0027 6e3d 4357 4f3d 0b55 473d 5e49 72bb
00000300: 5ab3 1f3d b54d 89bb 31d3 7bbd e217 bbbd
00000310: d610 5d3c d279 d53d 70fc 063c d728 dc3d
00000320: 63e7 993d a482 5b3c c0c6 19bd 6c3b f4ba
00000330: 59fe f6bc 4b23 db3d a2d4 953d 9f64 8cbd
00000340: c1db d6bc 5042 9e3d 9383 163e 4f4c 113d
00000350: 635b ea3d c35a b23b ffcf 4cbe 616d 9abe
00000360: 1ba6 f53c 216e cc3c b34e 193d 9971 09be
00000370: e95e 203e d9a7 0bbd 96a4 d6bb 9f43 133d
00000380: 93bc d4bd df81 6e3b 883e 42be 64de f43d
00000390: e8f5 453d 529c 91bc 4938 2b3d fb3f 75bd
000003a0: 3e73 3fbd 8ee0 843d a6f2 00be 7539 223e
000003b0: 408a 1bbe 52f0 1fbd 3a21 16be b0e0 3dbe
000003c0: 12b0 4d3e 4b85 81bd c8d5 8dbd 4027 713d
000003d0: e21d ecbd de9d dcbc 18f1 30be 8b8c dc3d
000003e0: bbf3 86bc b695 0a3e ae82 8ebd 104c adbc
000003f0: 0155 d13c e658 a1bd 2a57 08bc 165f f7bd
-0.031384755 0.024649 0.0047257817 -0.09216263 -0.067118116 0.0073977555 -0.039026763 0.0007840692
0.0017488331 0.041256964 -0.018438207 -0.07412282 -0.0633586 -0.00655151 -0.09012602 -0.13351285
-0.073347576 -0.028874397 0.032846764 0.013347206 -0.03400946 0.072679505 -0.040661637 -0.031771623
-0.05502592 -0.101177506 0.19221784 -0.085867286 -0.06809602 0.128213 0.044675168 0.0468118
0.019169535 -0.0077397213 0.010905373 0.014977511 -0.089274086 0.040369388 0.03422695 0.10148807
-0.03393994 -0.064701885 0.044638332 -0.042110473 0.082575776 -0.057808947 -0.043035466 -0.052753758
0.025609542 0.026280606 -0.083808236 0.011706476 0.00676715 0.004355846 0.05322457 -0.031680148
0.04930791 0.0019666513 -0.0050695227 -0.026246427 0.035779417 0.0607566 0.05450327 -0.019505627
-0.12337915 -0.054727256 0.08185193 0.058097687 0.0516486 -0.11484335 -0.018512726 0.039103135
0.03473708 0.03527156 -0.008316377 -2.7027514e-05 0.06276938 0.13059899 0.018273525 -0.10485313
0.05896458 0.05039848 -0.08968448 0.044476498 0.07110385 0.043206837 0.014719406 -0.10035657
-0.11504554 0.049804762 -0.040527154 0.061480656 -0.046231505 0.023918765 -0.061290514 -0.059643034
-0.07326485 -0.040391315 -0.072258994 0.023739463 -0.00028432807 -0.07236135 -0.03465754 -0.039357726
0.09507754 -0.055322923 0.016661173 -0.08205103 0.10612539 0.066484 -0.010461024 -0.02881863
-0.0886915 0.10479759 -0.07871719 -0.024330916 0.08200597 -0.05580851 0.031712674 -0.04046748
-0.022442736 0.02286417 -0.030124126 -0.09621802 -0.041222245 0.010894195 -0.044692043 -0.021436118
0.09999149 0.05852872 0.013085758 0.1384808 0.0153910965 -0.008707359 -0.055348463 0.05371868
0.016600134 0.05074718 -0.11728387 0.0746472 -0.12738103 0.09530401 0.09580637 -0.083054066
-0.028734446 0.13575874 -0.1255062 0.08319857 -0.035219617 0.039146073 -0.024395045 -0.0411358
0.06368588 0.06188288 0.04472213 -0.09390137 0.043067064 -0.03692187 0.028067779 0.06270047
0.10650257 0.04058833 0.033227906 -0.06795198 -0.05641932 0.0851091 0.11402103 -0.07079789
-0.06897994 -0.04553768 0.0512796 -0.09494582 -0.014931438 -0.06910282 -0.097210735 0.0009764565
-0.0010447076 -0.020426461 0.020624295 0.052474078 0.06344094 -0.010925663 0.025867714 0.026810845
-0.04140869 0.06580699 -0.062682115 -0.039674576 0.058142662 0.05062033 0.048665088 -0.003697
0.038989402 -0.0041901716 -0.061480705 -0.09135415 0.0134927835 0.10423626 0.008238897 0.10749977
0.07514837 0.013397846 -0.03754306 -0.0018633432 -0.03015058 0.10700091 0.07315947 -0.068551295
-0.026227834 0.07727492 0.14698629 0.035473164 0.11443212 0.0054429485 -0.20001219 -0.30161574
0.029986432 0.024954857 0.03742857 -0.1342224 0.15661205 -0.03409562 -0.006550382 0.03595316
-0.1038753 0.0036393327 -0.18969166 0.1195648 0.048330218 -0.017774735 0.041801725 -0.05987547
-0.046740763 0.06488143 -0.12592563 0.1584223 -0.15189457 -0.039047547 -0.14661112 -0.18542743
0.20086697 -0.06324252 -0.06925541 0.058875322 -0.11529137 -0.026930746 -0.1727947 0.10768994
-0.016473642 0.13533673 -0.06958519 -0.021154433 0.025553228 -0.07878284 -0.008321563 -0.12078683

net.1.0.bias f4 [100]
00000000: 8b8d 973d 383b 8f3e 5a15 923e 258c 0d3f
00000010: 5340 88bc 98d0 2cbe 3847 dfbd c6a2 373d
00000020: 8587 71bd bf34 313e 3d2a 81bd 6cd7 0cbb
00000030: fd37 96bd f134 12bc b7fa 703e 35b2 9cbb
00000040: 3f98 023c d7c0 2e3e 575a 01bd 8e07 a3bd
00000050: 05fc 173e 8cdc e13c a3b6 b13e a1b4 3f3d
00000060: 22fa 1c3e 0173 183f be20 393e 84f4 e6ba
00000070: 0f37 0b3e 41c4 a73c 8070 b93e c811 093d
00000080: f135 e9bd 28a6 c23e 3c10 223b 4801 493e
00000090: feb6 c33d ad16 423e 1e8c 283d 14c8 283e
000000a0: ee00 1f3c e04b 433e 85f2 05bd 333c 613d
000000b0: b285 ae3d eed8 8fbb e7c4 c23d 91f2 f23c
000000c0: f82e cd3d a5f9 1f3d 03c8 fc3e 2225 56bd
000000d0: ab64 683c 6cdd 6b3e f106 303e d788 4b3c
000000e0: dfeb 74bc 3919 b0bd df57 8c3e e9a3 083f
000000f0: b2b8 153d 895c 213e 32a8 073d 9004 3e3e
00000100: 198a 2b3e 65be 473d 9b53 8a3d 6fdb 75bd
00000110: 95bd 993d 6bfe f23d 0cbc ca3d 82a0 593e
00000120: 87bf fd3d 088a 6e3d 08eb 10bd bda0 243e
00000130: 0c71 c73e ee2b 263e 7dcd 2f3e f78a 463e
00000140: 0ad6 993c 8661 3a3e 55bf 1bbe 123f db3d
00000150: d21c f23d d4c8 9a3c c139 1e3f 19ea 773e
00000160: 746d 963c e92b 5e3d 1583 be3c 7021 8a3e
00000170: 34dc d2bc 364a 583e 7a41 8a3e ca3d e33d
00000180: cf96 163e 1fbc 56be 2325 423e 102c c43e
0.07400044 0.27974868 0.28531915 0.5529197 -0.016632235 -0.16876447 -0.10902256 0.044832967
-0.058967132 0.17305277 -0.063068844 -0.0021490706 -0.07334898 -0.008923755 0.2353314 -0.004781986
0.007970869 0.1706575 -0.031580295 -0.07960425 0.14842232 0.027570985 0.34709653 0.04680312
0.15329793 0.5955048 0.18078896 -0.0017620479 0.13595222 0.020479323 0.36218643 0.033464223
-0.11387242 0.38017392 0.0024728915 0.19629395 0.09556387 0.18953963 0.04114925 0.16482574
0.0097048115 0.19071913 -0.032701988 0.05498905 0.08521594 -0.0043898737 0.095102124 0.02965668
0.10018724 0.03905644 0.49371347 -0.052281506 0.014184157 0.23033684 0.17190148 0.012422762
-0.014948814 -0.08598561 0.2741079 0.5337511 0.036553092 0.15757956 0.033119388 0.18556428
0.16751899 0.04876556 0.06754228 -0.06002372 0.07506863 0.118649326 0.09899148 0.21252635
0.123900466 0.058237106 -0.035380393 0.16076942 0.38953435 0.16227695 0.17168231 0.19388948
0.01877882 0.18201265 -0.15209706 0.10705389 0.11821903 0.01889459 0.61806875 0.24210395
0.018362738 0.054241095 0.023255864 0.26978636 -0.025739767 0.21122059 0.2700308 0.1109577
0.14705966 -0.209702 0.18959479 0.38314867

net.2.0.weight f4 [12, 100]
00000000: ccb3 dfbd be39 953c 0f48 553e 67e8 a23e
00000010: c19b ce3d 4e61 31bd b8c4 343e 67f9 06be
00000020: 64ac c33c c591 b8bd 0ff6 0ebe 6ef2 223e
00000030: 820e 5bbc 9791 7abe 8e20 0fbd 8b3f 8abd
00000040: f6ea 8e3f 10fc 653e 1ac4 56bd afb6 e5bc
00000050: 7324 0d3d 2131 68bc 5189 cfbd 9257 ea3b
00000060: d420 85be fe1d 1fbe 801e b0bd a698 c33d
00000070: c29d 26be c374 a2be b1c2 523d 15da 5abd
00000080: 71cf 803d 5550 24be 67c4 163d db00 4cbb
00000090: 28d7 33be e6e7 9d3d a293 f2bd c77c e93c
000000a0: 8ae4 a1bd 160f f8bc 3bf7 50be c997 b4bd
000000b0: 924d 893e 48d5 933e ff15 87bd e28b e3bd
000000c0: 9aca de3d fb46 a2be 2ae6 143e 4bc5 cdbe
000000d0: 8f39 7abd 30b2 9d3d be53 e3bc 9905 a13d
000000e0: 2ca6 e8bd 66e7 753d 7f9b eb3d 2014 15bd
000000f0: 5b7e a9bd 6ccd 0c3e 5e00 c7bc b4ef 8ebe
00000100: 48d8 913d 7386 38be d4cd 6abe 0b99 7cbd
00000110: 7c9b 43bd 8d89 8e3d fa0e d53d 35df 00be
00000120: eedf 09be 1b01 fa3d ed7f a8be 1215 d73d
00000130: 754b 51be 18c5 2abc c128 c1bc b902 db3d
00000140: 6403 ec3d 0f65 c63d 0b56 b0bd 77a1 c63c
00000150: 5875 6c3d 8502 10be 9465 bfbe fdcd 333d
00000160: d77e 24bd d474 303e 5252 94bd 5d7c b53d
00000170: 5a3d ff3d 08eb 59bd 28c1 ad3e d3dc 9ebd
00000180: 307c c139 f188 7d3d 7e36 eb3d d732 ef3d
00000190: bab2 1bbe 9d45 1b3d d47c 8e3d 8916 343d
000001a0: 8659 e8bd 4a1e c03e 6434 de3d 50b2 803e
000001b0: 61a0 acbd b4a7 12be 770e 0b3e 27c0 55be
000001c0: 40bd 8d3b 9ce9 413e 9bc3 43bd 20b4 08bc
000001d0: 27e2 8abf ad5e 1d3e 3b13 a43d 6da3 f8bd
000001e0: 2e2c 00be f666 d33d 06d5 a63d d888 0dbe
000001f0: 221d f3bb 4750 763e 3ca6 42bb 00b0 743e
00000200: a63c 9bbe 6cf1 853e fe29 13be 6c39 823e
00000210: e539 13be d66b 153e 0627 dc3e f768 67bd
00000220: 9923 9c3d 4f35 773d a519 3a3e b233 933d
00000230: 34d3 653d 9f55 89bc 33f0 26be f038 0abd
00000240: 124a 78be 05f5 18be 2890 1ebd a191 75be
00000250: be40 e1bd e8d5 c03e 0c89 4c3b 2723 c03e
00000260: e52a 52bd d99d aebd 4623 0dbd 5aca b43e
00000270: 89cd 2fbe 5a68 7d3d f216 dbbd 751d c1bd
00000280: a7bf 2d3d ec36 74bd b91e 193d 3ad3 c53e
00000290: d3a8 97bd 19a1 413e 0052 afbe 9538 4fbd
000002a0: b2e0 a7bc f4bb 76ba e45c 15be b143 423e
000002b0: ed15 a5bc 6d4a 7fbd 1ba4 08be 1fd6 97be
000002c0: 0006 123e 844c bfbd a703 6b3d 099d dbbc
000002d0: 2af0 eb3c 6ad2 d4bd 55db 0c3e ec84 473e
000002e0: f230 4fbe 2f6e 12bd 197e 4abe a26f 88be
000002f0: 89dd 50bd 4fb1 b0bc c333 36be 3144 32be
00000300: adf8 1d3c 0973 e73c c213 c83c 2fcf ebbc
00000310: 7e2b 20be 9da0 a4ba fd0e 9b3c 9f29 99be
00000320: 62e7 a53d 0986 163d 12d3 683e 04e4 053e
00000330: 3849 acbd ae5b f83d ffe3 03be b4bb 9abd
00000340: 80d5 efbd b399 2bbd a780 f13c 1d7b ffbc
00000350: 0aff aa3d fcde 723d 43f9 e03d fd31 c2bd
00000360: a118 063e e518 b83d d6f9 583d 2e4f 8c3d
00000370: 8b27 073d 8ff0 05be a78d 1f3e b72a 5c3d
00000380: 66d2 51be 3294 7e3d c2a4 fc3d 5e04 81bc
00000390: 1367 813d 1208 ac3a d084 37bd cf6d c2ba
000003a0: 2997 9cbd 29bd 1b3a a260 9ebe 23a5 70be
000003b0: eb59 1b3e f69a 89bc a3da a63c 6d19 cc3c
000003c0: 066a 10bd 6cb5 a5bd 4681 f83c fc64 90bd
000003d0: 7897 143d 466c eb3e 6a15 6ebd de67 f83d
000003e0: c5c3 e4bc 6b96 c53d f730 c83e 8409 c23d
000003f0: 099a 8e3d c612 6abe 00b8 1dbe db2e 0e3e
-0.109229654 0.01821601 0.2082827 0.31817934 0.100883015 -0.043305688 0.17653167 -0.13181077
0.023885913 -0.09012178 -0.13961051 0.15912792 -0.013370158 -0.244696 -0.034943156 -0.06750401
1.1165454 0.22459435 -0.05243311 -0.028041212 0.03445859 -0.0141718695 -0.10133613 0.0071515525
-0.26001608 -0.15538785 -0.085995674 0.095506 -0.16271117 -0.31729707 0.051455203 -0.053430635
0.06289566 -0.16046269 0.036808398 -0.003112844 -0.17562544 0.07710247 -0.11844565 0.028501881
-0.079049185 -0.030280631 -0.20406811 -0.08818013 0.26816994 0.28873658 -0.06595992 -0.11110665
0.10878487 -0.3169478 0.14540926 -0.40189585 -0.06109005 0.07700002 -0.027749892 0.07862396
-0.1135982 0.060035132 0.11504268 -0.036396146 -0.082760535 0.13750237 -0.024292167 -0.27917254
0.071213305 -0.18020038 -0.2293008 -0.06166939 -0.047755703 0.069598295 0.10403247 -0.12585147
-0.13464329 0.12207242 -0.329101 0.10502066 -0.20438941 -0.010422967 -0.023579003 0.10693879
0.11524084 0.09687244 -0.086101614 0.024246914 0.057729095 -0.14063461 -0.37382185 0.043897618
-0.040160026 0.17232066 -0.07242264 0.08861611 0.12462874 -0.05320266 0.3393643 -0.077569626
0.00036904356 0.061898176 0.11485003 0.11679619 -0.15204898 0.037908185 0.06957403 0.043966804
-0.113452 0.3752311 0.108498365 0.25136042 -0.08429027 -0.14321786 0.13579737 -0.20874082
0.004325539 0.18936771 -0.047793966 -0.008343726 -1.0850266 0.15368147 0.080114804 -0.12140546
-0.12516853 0.103223726 0.081461 -0.13821733 -0.0074192444 0.24054061 -0.0029701134 0.23895264
-0.3031971 0.26160753 -0.14371487 0.25434434 -0.14377554 0.14591917 0.42998523 -0.056496587
0.07623977 0.060353573 0.18173845 0.071875945 0.056109622 -0.01676446 -0.16302566 -0.033745706
-0.24247006 -0.14937218 -0.038711697 -0.23981334 -0.10998677 0.37663198 0.0031209616 0.3752682
-0.05131044 -0.08526201 -0.034457467 0.35310632 -0.17168249 0.061867096 -0.10697736 -0.094294466
0.042419102 -0.05962269 0.037382815 0.38637716 -0.074052475 0.1890911 -0.3424225 -0.05059107
-0.020492885 -0.00094121625 -0.14586216 0.18971135 -0.020152057 -0.062326837 -0.13343851 -0.2965555
0.14260101 -0.09340766 0.05737653 -0.026808279 0.028801043 -0.10391696 0.13755544 0.194843
-0.20233515 -0.03574961 -0.19774665 -0.2664767 -0.050992522 -0.021568922 -0.17793183 -0.17408825
0.009641808 0.028253095 0.024423484 -0.028785316 -0.15641591 -0.0012560074 0.018928045 -0.29914567
0.081007734 0.03674892 0.22736767 0.13075262 -0.08412403 0.121268615 -0.12879942 -0.07555333
-0.11710644 -0.041894626 0.029480292 -0.031186635 0.08349426 0.059294686 0.10985043 -0.09482191
0.13095333 0.08989123 0.052972637 0.0685104 0.032996695 -0.13080047 0.1558138 0.053751674
-0.20490417 0.06215305 0.123361126 -0.015749153 0.06318488 0.0013124964 -0.044804394 -0.0014833751
-0.07646019 0.0005940968 -0.309331 -0.23500495 0.1517102 -0.016797524 0.020367926 0.024914468
-0.03525736 -0.08091244 0.03033508 -0.07050511 0.036277264 0.45981044 -0.05812589 0.12129186
-0.027925381 0.096478306 0.39099857 0.09474471 0.069629736 -0.22858724 -0.15402222 0.13885061

net.2.0.bias f4 [12]
00000000: fd95 063e c460 80bd 410a a13d b26d d33c
00000010: 374a 48bc 37ec dd3a db93 45be 75ea 2ebe
00000020: 538c bb3b 7fc9 12be 4651 4ebe bda3 18be
0.13143153 -0.062684566 0.07863284 0.025809143 -0.012224725 0.001693136 -0.19294684 -0.17081626
0.005723515 -0.14334677 -0.20148191 -0.14906211
