suboptimal_policies/HalfCheetah-v4_6000.pth (torch, 295959 bytes, 6 tensors)

net.0.0.weight f4 [256, 17]
0	0x3f0a2188	0.53957415
1	0x3e153183	0.14569668
2	0xbe84f324	-0.25966752
3	0x3dbc8aa3	0.0920613
4	0x3cc4ba08	0.024014488
5	0xbe70893b	-0.2348985
6	0x3ea9d31c	0.33168876
7	0xbdcff6f4	-0.101545244
8	0xbd82ea8c	-0.063923925
9	0x3e02ce96	0.12774119
10	0x3e340208	0.175789
11	0xbc637de7	-0.013884998
12	0xbc92eb9f	-0.017934619
13	0xbbeb1d2d	-0.007175109
14	0x3d8230dd	0.06356976
15	0xbc001ea1	-0.0078198025
16	0xbd7fbfc6	-0.06243875
17	0x3ebb3769	0.36565712
18	0x3ed0c4b5	0.40775076
19	0xbf167237	-0.5876803
20	0x3ed592fd	0.41713706
21	0xbea4fcbe	-0.32224077
22	0x3db97fa0	0.09057546
23	0x3ec4d6c4	0.38445103
24	0x3ece3604	0.40275586
25	0x3c43ff9b	0.011962797
26	0xbda131f7	-0.07870858
27	0x3d7b3976	0.061334096
28	0x3d03b505	0.032155056
29	0xbc5e8ed5	-0.0135838585
30	0x3c4cf1b3	0.012508797
31	0x3d0a68d7	0.03379139
32	0xbc21de66	-0.009879684
33	0xbc501bc8	-0.012701936
34	0x3f1cb05f	0.6120662
35	0x3f1c6690	0.61094
36	0xbe75eff5	-0.24017318
37	0xbe2ebeff	-0.17065047
38	0xbd7f1e4d	-0.062284756
39	0xbe8e148c	-0.2775005
40	0x3f159d26	0.58442914
41	0x3ee9147d	0.45523444
42	0x3cb70a30	0.022343725
43	0x3ccb46de	0.024814066
44	0x3da4e640	0.08051729
45	0x3d4179f4	0.047235444
46	0x3d0f19ec	0.03493683
47	0xbbe51e70	-0.006992154
48	0x3d09225f	0.033480044
49	0x3c3a4bbc	0.011370596
50	0x3c188003	0.009307864
51	0xbe8d24c0	-0.275671
52	0x3f2c19eb	0.6722705
53	0xbf32ed1c	-0.6989305
54	0xbe435b74	-0.19077855
55	0xbe107b75	-0.14109595
56	0xbed30f28	-0.412225
57	0x3cb0e552	0.021593723
58	0xbf081956	-0.5316366
59	0x3d3fe467	0.04684868
60	0xbee014e6	-0.43765944
61	0x3dcdf5ae	0.10056625
62	0xbdb4f09d	-0.08834956
63	0xbd9864ae	-0.07441078
64	0xbc44f9bc	-0.012022432
65	0x3d3308b7	0.043709483
66	0x3d8e2fad	0.06942687
67	0xbc6b3a42	-0.014357151
68	0x3fcf1893	1.6179374
69	0xbd9337e1	-0.071883924
70	0xbef6c6dd	-0.48198596
71	0xbd534d6f	-0.05158752
72	0xbe1ade1b	-0.15123789
73	0xbdce10f1	-0.10061825
74	0x3f238746	0.63878286
75	0x3ee51b32	0.4474731
76	0x3becccbb	0.007226554
77	0x3e9a4677	0.30131885
78	0xbdc5e567	-0.09662896
79	0x3bab180c	0.0052213725
80	0xbc272cfc	-0.010203596
81	0x3c112709	0.008859404
82	0x3d56aa69	0.05240861
83	0x3c2f16f9	0.010686629
84	0xbb8ab357	-0.0042328048
85	0xbe00e949	-0.12588991
86	0x3e9cac5c	0.3060025
87	0xbe8efeb3	-0.27928695
88	0x3dcf2175	0.10113803
89	0xbe12b01a	-0.1432499
90	0xbedadd52	-0.4274698
91	0x3e2d2c3e	0.16911408
92	0xbdc641ea	-0.09680541
93	0xbe4c2e75	-0.19939597
94	0x3db66f48	0.08907944
95	0x3e5d4cdf	0.21611355
96	0x3da9566f	0.08268439
97	0x3d70539d	0.05867349
98	0x3c9f4796	0.019443315
99	0xbaa49111	-0.001255544
100	0x3d07f056	0.033188187
101	0xbca3c415	-0.01999096
102	0x3df1d76e	0.11808668
103	0xbe59418e	-0.21216413
104	0xbe4b09f3	-0.19828014
105	0xbdf3c1d5	-0.11902205
106	0xbe7de2cf	-0.24793552
107	0x3c65deb2	0.0140301455
108	0x3f6d7464	0.92755723
109	0x3ee00f7a	0.43761808
110	0xbcc73a80	-0.024319887
111	0x3eac477c	0.33648288
112	0x3d95a52a	0.07306893
113	0x3d51c851	0.051216427
114	0x3c4b3e52	0.012404995
115	0xbb76275c	-0.003756008
116	0x3badebf7	0.00530767
117	0xbc067379	-0.008206242
118	0xbc84e708	-0.016223446
119	0x3e86bfb8	0.26318145
120	0xbed6b8ef	-0.41937968
121	0x3ea7fa91	0.32808354
122	0xbdafd469	-0.08585436
123	0x3d25739e	0.040393464
124	0xbe17934d	-0.14802285
125	0x3e298bc7	0.16557227
126	0x3dccb4e3	0.09995439
127	0xbe9be3e2	-0.30447298
128	0x3f410f7f	0.7541427
129	0xbe9a1b5d	-0.30099002
130	0x3cbf3e23	0.023345059
131	0xbb837fca	-0.0040130364
132	0x3b543dd5	0.0032385488
133	0x3d245fcc	0.04013042
134	0xbce8d765	-0.02842302
135	0xbcd8ef29	-0.026481228
136	0x3f59c731	0.85069567
137	0xbf0eb562	-0.5574552
138	0xbf07f529	-0.5310846
139	0xbe8d043a	-0.27542287
140	0x3d425e6c	0.04745333
141	0xbf6d5043	-0.92700595
142	0xbdbbd230	-0.091709495
143	0x3e50f15d	0.20404573
144	0xbdfa8141	-0.122316845
145	0x3e9ffa7e	0.31245798
146	0x3e38914a	0.18024173
147	0x3d33731b	0.043810945
148	0x3ba2427d	0.0049517737
149	0xbc1333b9	-0.0089845
150	0xbcf09f4c	-0.029372834
151	0x3d7021a5	0.058625836
152	0x3d7ef5ba	0.06224606
153	0xbef058ce	-0.46942753
154	0xbd1bc7f1	-0.038032476
155	0x3d813239	0.06308407
156	0xbe9c2a65	-0.30501094
157	0x3b55ad9d	0.0032604702
158	0x3ef7d174	0.48401988
159	0x3ea7cfa8	0.32775617
160	0x3e31df15	0.17370255
161	0xbe55d4e3	-0.20881991
162	0x3d450b77	0.048106637
163	0x3db4ce2f	0.08828389
164	0xbd93ae71	-0.072110064
165	0xbdb8c2b4	-0.09021512
166	0x3c9d03db	0.019166877
167	0xbcb428cd	-0.021992112
168	0x3d018183	0.031617653
169	0x3ccac5a2	0.024752442
170	0xbf2b42ad	-0.66898614
171	0x3e8d940c	0.27652013
172	0x3e183c10	0.14866662
173	0x3e72ec59	0.23722972
174	0x3c5258b2	0.012838529
175	0x3f2628c8	0.6490598
176	0x3e743e69	0.23851933
177	0x3e5fafb8	0.21844375
178	0x3d601b58	0.054713577
179	0xbe1fafda	-0.15594426
180	0x3c5d42a7	0.013504661
181	0x3c49f311	0.012326018
182	0x3cfe987d	0.031078571
183	0xbbd33b5b	-0.0064462847
184	0xbd2cce6f	-0.042189058
185	0xbcbb1a27	-0.022839619
186	0x3c27be27	0.010238207
187	0x3f667fc1	0.90038687
188	0x3e571312	0.21003368
189	0x3efaf14a	0.49012214
190	0xbddc65b2	-0.10761584
191	0x3dbaa368	0.091131985
192	0xbe9e1857	-0.30877945
193	0xbe9f7ed9	-0.31151465
194	0x3e29c3b4	0.16578561
195	0xbe5f04c2	-0.21779159
196	0xbe2f50eb	-0.17120712
197	0x3e5f0265	0.21778257
198	0x3dcab671	0.09898079
199	0x3c9bb53d	0.01900732
200	0xbc3426a2	-0.010995539
201	0x3d1bd9e6	0.0380496
202	0xbd59810d	-0.053101588
203	0x3ca6618d	0.020310188
204	0xbf684b31	-0.90739733
205	0x3f107e71	0.56442934
206	0xbd9cba6d	-0.076527454
207	0xbee90b69	-0.45516518
208	0x3d92b185	0.071627654
209	0xbd950cf3	-0.072778605
210	0xbdcf7b92	-0.10130991
211	0xbbafb3fd	-0.0053620324
212	0x3d5526dd	0.052039016
213	0x3f2b170c	0.6683204
214	0x3eb4c8b7	0.35309383
215	0x3dbd38f6	0.0923938
216	0x3d9bd693	0.07609286
217	0x3aa7d42d	0.0012804322
218	0x3cc1a26c	0.02363702
219	0x3d127b41	0.035762075
220	0x3cb874e9	0.022516685
221	0xbdb789aa	-0.08961804
222	0x3e9d3fb6	0.3071267
223	0xbeccfa2d	-0.4003462
224	0xbde43562	-0.111429945
225	0xbe296959	-0.16544093
226	0xbe860e1d	-0.26182643
227	0xbd98feb5	-0.074704565
228	0x3e239eca	0.15978542
229	0xbe531454	-0.20613223
230	0x3d5122ee	0.051058702
231	0x3d139260	0.036028266
232	0x3d1dc93d	0.038521994
233	0xbd5ab750	-0.053397477
234	0xbc2b9e08	-0.010474689
235	0xbe03036d	-0.12794276
236	0xbd2cb3db	-0.04216371
237	0x3cfc83b8	0.030824527
238	0x3e96ee52	0.294787
239	0xbf3a51c6	-0.72781026
240	0x3f55299a	0.83266604
241	0xbf1ad3db	-0.60479516
242	0xbca4c4f9	-0.020113455
243	0xbddad1d4	-0.10684553
244	0xbf0fc266	-0.56156003
245	0xbf64e631	-0.89413744
246	0x38275594	3.9895604e-05
247	0x3ca1d176	0.0197532
248	0xbd945fef	-0.072448604
249	0xbd19e6fc	-0.0375738
250	0x3c08efc1	0.008357943
251	0xbc26667d	-0.010156271
252	0xbbd50744	-0.0065011103
253	0x3c538178	0.012909286
254	0x3b5aeb1b	0.0033404294
255	0xbf0c2991	-0.54750925

net.0.0.bias f4 [256]
0	0xbeca6a59	-0.39534262
1	0x3e8c7a16	0.27436894
2	0xbea306f2	-0.31841236
3	0xbeee1673	-0.46501502
4	0x3ed2d7da	0.41180307
5	0xbe143f5c	-0.14477295
6	0xbe775a6a	-0.24155584
7	0x3ee9f795	0.45696703
8	0xbe8770b1	-0.26453164
9	0x3bd1c454	0.006401578
10	0xbec84bab	-0.3912023
11	0xbe935bdc	-0.2878102
12	0xbe6d139e	-0.23152015
13	0xbe44e1f6	-0.19226822
14	0xbe00930e	-0.12556097
15	0x3d8a3c70	0.06749809
16	0xbe785382	-0.24250606
17	0xbe0a51ce	-0.13507769
18	0xbe1e5675	-0.15462668
19	0xbdb1aadf	-0.08675169
20	0xbe1a27f0	-0.15054297
21	0x3ead8f2b	0.3389829
22	0xba5fc174	-0.00085356017
23	0x3e3fa5d0	0.18715596
24	0x3ea3af51	0.31969693
25	0x3db0a701	0.086256035
26	0x3cba7464	0.022760577
27	0xbe448e39	-0.19194879
28	0x3ebee9df	0.37287804
29	0xbeaafd95	-0.33396593
30	0xbf0f5383	-0.55986804
31	0xbe835b61	-0.25655654
32	0x3dd558f3	0.10417356
33	0x3b41a437	0.0029547343
34	0xbdcf5204	-0.10123065
35	0x3eb05386	0.34438723
36	0xbe36347b	-0.17793457
37	0xbcb5ceed	-0.022193396
38	0x3f24cee2	0.6437818
39	0xbefaf49e	-0.49014753
40	0xbe4d1a12	-0.20029476
41	0x3f0396f6	0.51402223
42	0xbeca10aa	-0.3946584
43	0xbe871c4b	-0.26388773
44	0xbc316db6	-0.01082938
45	0xbdeab798	-0.11460799
46	0xbe960367	-0.2929947
47	0xbea4bafa	-0.32173902
48	0xbe2461eb	-0.16052978
49	0xbd60c00c	-0.05487065
50	0xbde96617	-0.11396425
51	0xbe27ebf5	-0.16398604
52	0x3d9808aa	0.074235275
53	0xbecd26c2	-0.40068632
54	0x3dba0b6b	0.09084209
55	0x3e850a98	0.25984645
56	0xbeddf25a	-0.43348962
57	0xbe0c9b2c	-0.13731068
58	0x3e9ba282	0.3039742
59	0xbe4994d6	-0.19685683
60	0x3dc43f2f	0.09582364
61	0x3dea8762	0.114516035
62	0xbf202971	-0.62563235
63	0x3ea345e7	0.3188927
64	0xbebf305e	-0.3734159
65	0xbedbe0b4	-0.42944872
66	0xbf1cc5f1	-0.61239535
67	0xbf064c6b	-0.52460355
68	0xbf3bf887	-0.734261
69	0x3e16a02d	0.1470954
70	0xbea8436c	-0.3286394
71	0x3dc89f36	0.09795992
72	0xbe33cbba	-0.17558184
73	0xbe982f77	-0.29723713
74	0x3f28c5d7	0.6592688
75	0x3f19062b	0.59775037
76	0x3e39da92	0.18149784
77	0xbdac3f2f	-0.08410489
78	0x3ef547dd	0.4790639
79	0x3e59bb3e	0.21262833
80	0xbef7556e	-0.48307365
81	0xbe92ffb7	-0.2871072
82	0x3f159266	0.5842651
83	0xbf051658	-0.5198722
84	0x3ef5771a	0.4794243
85	0xbf42c2f2	-0.7607871
86	0x3e44b590	0.19209886
87	0xbeb3f6ff	-0.3514938
88	0x3ea8db34	0.3297974
89	0xbf04c160	-0.51857567
90	0xbe944e53	-0.28966007
91	0x3e3a4491	0.18190219
92	0x3e8fac5e	0.28061193
93	0xbe970e1e	-0.29502958
94	0xbef16c1b	-0.4715279
95	0xbe1d1acf	-0.15342258
96	0x3b2c404f	0.0026283448
97	0xbdca150d	-0.09867296
98	0x3ec231e4	0.3792869
99	0xbe54e992	-0.20792225
100	0x3f62ba5c	0.8856561
101	0xbd5135e3	-0.05107678
102	0x3eb26cb1	0.3484855
103	0x3e8d1ac1	0.27559474
104	0x3dcee01c	0.10101339
105	0xbef6b0e2	-0.48181826
106	0xbe74f3cb	-0.23921125
107	0x3cd8e34b	0.02647557
108	0x3e640b29	0.22269882
109	0x3f0475c6	0.5174221
110	0x3eeadf95	0.45873705
111	0xbf045446	-0.5169109
112	0x3ec3662e	0.38163894
113	0x3e9533e4	0.29141152
114	0xbf18d933	-0.5970642
115	0xbcd86c32	-0.026418779
116	0x3ec965c7	0.39335462
117	0xbe62bfbb	-0.22143452
118	0xbbca84ae	-0.0061803674
119	0xbe94dcac	-0.2907461
120	0xbf05b03d	-0.52222043
121	0xbe49341c	-0.19648784
122	0xbe893eed	-0.2680582
123	0xbe8854ff	-0.26627347
124	0xbdbba756	-0.09162776
125	0x3da884b6	0.082284376
126	0x3dc4814a	0.095949724
127	0x3dda54f5	0.106607355
128	0xbf01690f	-0.5055093
129	0xbe699ec3	-0.22814469
130	0x3e6f6e84	0.23382002
131	0xbee10a3f	-0.4395313
132	0xbdf7c650	-0.12098372
133	0xbebfc80d	-0.37457314
134	0xbdee7dca	-0.11645086
135	0x3dcb50f5	0.09927551
136	0xbe861e70	-0.26195097
137	0xbe8013f0	-0.2501521
138	0x3c30ac38	0.010783248
139	0x3e318370	0.17335296
140	0xbe920ba5	-0.2852451
141	0xbe56c76b	-0.2097451
142	0x3e1a3440	0.15058994
143	0x3e9f9a41	0.31172374
144	0x3f341d13	0.70356864
145	0x3ecbbf2d	0.39794293
146	0x3cff21f5	0.031144122
147	0xbe476f04	-0.19475943
148	0xbeb21ce5	-0.3478767
149	0xbe13e1d6	-0.14441618
150	0x3ecf4682	0.4048348
151	0x3e98edd2	0.29868942
152	0xbe4e51ff	-0.20148467
153	0x3dc1eb98	0.09468764
154	0xbda13726	-0.07871847
155	0xbd18ab24	-0.037272587
156	0xbd3fadcb	-0.0467966
157	0x3eaad6ce	0.33367008
158	0xbeca0b86	-0.39461917
159	0x3e8bdc34	0.2731644
160	0x3de81f30	0.113340735
161	0xbec5e2eb	-0.38649687
162	0xbf15a2d1	-0.58451563
163	0xbec86660	-0.39140606
164	0xbeca0d62	-0.39463335
165	0xbf29098b	-0.66030186
166	0x3df7d00e	0.1210023
167	0xbeeceeb1	-0.46275857
168	0xbe3b053e	-0.18263718
169	0x3c58ee6b	0.013240437
170	0xbf02b97b	-0.5106427
171	0xbf058e84	-0.52170587
172	0x3f292c16	0.66082895
173	0xbec35273	-0.3814884
174	0xbe507de2	-0.2036052
175	0xbe281d7a	-0.16417494
176	0x3e82f4e3	0.2557746
177	0xbdbaa642	-0.091137424
178	0x3d2e074e	0.042487435
179	0xbd0d9301	-0.034564022
180	0xbe204533	-0.15651397
181	0x3ddfa97d	0.10920999
182	0xbe9a9a92	-0.30196053
183	0xbc28b46b	-0.010296921
184	0xbd21c50a	-0.03949455
185	0x3ead65a7	0.33866617
186	0x3b6bb21e	0.003596432
187	0xba360e62	-0.0006944892
188	0x3e439f75	0.19103797
189	0x3e5db210	0.21649957
190	0xbd6e2c56	-0.05814775
191	0x3ee61fe2	0.449462
192	0x3f2b0bef	0.66815084
193	0xbdc63527	-0.09678107
194	0x3ec4c0b1	0.38428262
195	0x3f2bbb81	0.67082983
196	0x3e4e7fe5	0.20165975
197	0xbeaaef40	-0.33385658
198	0x3eac4e6d	0.33653584
199	0x3f2d0497	0.6758513
200	0xbf198d0f	-0.59980863
201	0xbd9d5743	-0.076826595
202	0x3c3e4a2a	0.011614362
203	0xbe9c0d2a	-0.30478793
204	0xbda08068	-0.078369915
205	0xbd134190	-0.035951197
206	0x3e5f3042	0.21795753
207	0xbe80e066	-0.25171202
208	0xbe178d1f	-0.14799927
209	0x3e4cf1e2	0.20014146
210	0xbe5381b6	-0.2065495
211	0x3ea7a95c	0.32746398
212	0xbec43294	-0.38319838
213	0xbe83cc7e	-0.25741953
214	0xbecceff9	-0.40026835
215	0x3e72647b	0.23671143
216	0xbed327cd	-0.41241303
217	0xbe89cb54	-0.2691294
218	0xbbb0f328	-0.0054000802
219	0xbe5eca8a	-0.2175695
220	0x3d6ccc49	0.05781201
221	0x3ed99df4	0.4250332
222	0x3a568d62	0.000818452
223	0xbf172879	-0.5904613
224	0xbefaddab	-0.48997244
225	0xbdfbdab5	-0.122975744
226	0xbe5d58da	-0.21615925
227	0xbd744eed	-0.059645582
228	0xbd5db51a	-0.05412779
229	0xbde40e4e	-0.11135541
230	0x3e4d8a2d	0.20072241
231	0x3d8e8064	0.06958082
232	0xbecb4ca9	-0.39706925
233	0xbecde204	-0.402115
234	0x3f510cf2	0.8166038
235	0xbe4feaa3	-0.2030435
236	0xbde802b5	-0.11328641
237	0xbe0da02b	-0.1383063
238	0xbe8085a6	-0.25101966
239	0x3f583356	0.8445333
240	0x3ec78289	0.38966778
241	0xbe76890f	-0.24075721
242	0xbec3b9cd	-0.38227692
243	0xbe67f1ad	-0.22650786
244	0x3dae3986	0.085070655
245	0xbe7bcc04	-0.24589545
246	0xbf2ff524	-0.6873343
247	0xbe838e51	-0.25694516
248	0xbebef3f2	-0.3729549
249	0xbb25e4cc	-0.0025313376
250	0x3ee576dd	0.44817248
251	0x3e46e41c	0.19422954
252	0xbe8790d8	-0.26477695
253	0xbdabe66c	-0.08393559
254	0x3deb9524	0.11503056
255	0xbf1d5bdc	-0.6146829

net.1.0.weight f4 [256, 256]
0	0xbdacb9cf	-0.08433878
1	0xbcb1996a	-0.021679599
2	0xbcf771d2	-0.030205641
3	0xbd90c3f9	-0.07068629
4	0xbe28fe10	-0.16503167
5	0x3d06954b	0.03285722
6	0xbc703b74	-0.014662612
7	0x3d9a04e0	0.07520461
8	0x3d15d553	0.036580395
9	0x3d0747a5	0.03302731
10	0x3dcc68bf	0.09980916
11	0xbc1bcb4d	-0.00950892
12	0xbce540f1	-0.027985068
13	0xbc1a30c7	-0.0094110435
14	0xbb621b5e	-0.0034501175
15	0x3b969202	0.004595042
16	0x3b704ac8	0.0036665667
17	0xbcc15ca5	-0.023603747
18	0x3d46e51d	0.048558343
19	0xbc057d8f	-0.008147611
20	0x3d3e1588	0.046407253
21	0xbd799e53	-0.060942005
22	0xbce5f927	-0.028072907
23	0xbd9d095e	-0.07667802
24	0xbd626bae	-0.055278473
25	0xbc539f8c	-0.012916457
26	0x3dc25455	0.09488741
27	0xbc688ba5	-0.01419345
28	0xbdf3d84d	-0.119064905
29	0xbd8fb91d	-0.070177294
30	0xbcfe4b99	-0.031041907
31	0x3c059880	0.008154035
32	0x3d82e772	0.06391801
33	0xbbe7a33c	-0.0070690196
34	0x3c9d8049	0.01922621
35	0x3da8467a	0.08216567
36	0x3d3717f2	0.04470057
37	0xbd0d642b	-0.034519356
38	0xbe32d5d5	-0.17464383
39	0xbd34817d	-0.044068802
40	0xbdb0e7d4	-0.08637968
41	0x3c31f346	0.010861224
42	0x3d21e204	0.039522186
43	0xbd78dfa2	-0.060760148
44	0x3cceb5fc	0.025233261
45	0xbdb57ee8	-0.08862096
46	0xbd1bf785	-0.03807785
47	0x3d06736a	0.03282491
48	0xbcbe663a	-0.023242105
49	0xbcb6d230	-0.022317022
50	0xbcb04990	-0.021519452
51	0xbdc0d197	-0.09414976
52	0x3d95efbd	0.07321117
53	0xbdb459e8	-0.08806211
54	0xbd6cbbbe	-0.057796232
55	0xbdece652	-0.115673676
56	0x3defcda3	0.11709144
57	0xbcd0be1d	-0.025481278
58	0xbe9bec0f	-0.30453536
59	0x3cb0259f	0.021502314
60	0xbbf9889d	-0.0076151625
61	0xbd255964	-0.040368453
62	0x3d3f45d3	0.04669745
63	0xbdb7eb31	-0.08980406
64	0x3cc00abe	0.023442622
65	0x3dc5bb31	0.096548446
66	0x3e291ab7	0.16514097
67	0x3dede454	0.11615816
68	0xbd64fce6	-0.055905245
69	0xbd1e355a	-0.0386251
70	0x3c87f7e7	0.016597701
71	0xbcc610fe	-0.024178024
72	0xbe1594ec	-0.1460759
73	0x3b9c3215	0.0047667124
74	0xbe470b4f	-0.19437908
75	0x3d11aef8	0.035567254
76	0xbd796796	-0.060889803
77	0xbdeb2c8c	-0.11483106
78	0x3ddbc7f9	0.10731501
79	0x3da57ef6	0.080808565
80	0xbce36fb0	-0.027763218
81	0xbd0b87c7	-0.034065034
82	0xbe0d5e26	-0.13805446
83	0xbc85cd99	-0.016333388
84	0xbdaa27ee	-0.08308397
85	0xbdcc5827	-0.09977751
86	0xbe1964d2	-0.14979866
87	0xbc78b3a5	-0.015179549
88	0xbe216b30	-0.15763545
89	0xbcbe951c	-0.02326446
90	0xbb316e79	-0.0027073903
91	0xbdb4cafe	-0.0882778
92	0xbe059036	-0.13043293
93	0xbd993cbc	-0.07482287
94	0x3d42d0e5	0.0475625
95	0x3d7823a6	0.060580872
96	0xbbace2a3	-0.0052760406
97	0xbd987dbd	-0.07445858
98	0xbe3a3633	-0.18184738
99	0xbe00c769	-0.12576069
100	0x3d603148	0.0547345
101	0x3cc8c0f4	0.02450607
102	0xbdfa9aff	-0.122365944
103	0xbd11b69d	-0.035574544
104	0x3b45edb8	0.0030201506
105	0x3cec42c0	0.028840423
106	0xbc2ddfc0	-0.010612428
107	0x3d39695d	0.045266498
108	0xbe06d617	-0.13167606
109	0xbe95b490	-0.2923932
110	0x3d30345c	0.043018684
111	0x3c1ef388	0.009701617
112	0xbe3f230e	-0.18665716
113	0xbd1131ef	-0.03544801
114	0xbb5d9c33	-0.0033815026
115	0x3cd9a88a	0.026569624
116	0xbd944e12	-0.07241453
117	0xbe2c0ba5	-0.16801317
118	0xbde6cac6	-0.11269145
119	0x3d40ab02	0.047038086
120	0x3e132e18	0.14373052
121	0x3e2df60d	0.16988392
122	0xbd38e5fe	-0.045141213
123	0xbd22260c	-0.039587066
124	0xbe389e25	-0.18029077
125	0x3c90f213	0.017693555
126	0xbc94bbdd	-0.018155986
127	0xbba28816	-0.0049600704
128	0xbe44ad03	-0.19206624
129	0x3dfbe03c	0.12298629
130	0xbe067cd4	-0.13133556
131	0x3dabd443	0.08390095
132	0xbdc4fe4a	-0.09618814
133	0x3d98b6fc	0.074567765
134	0xbcd234b6	-0.0256599
135	0xbe7cc471	-0.24684311
136	0xbcc54013	-0.024078405
137	0x3da2d23a	0.07950254
138	0x3c103310	0.008801237
139	0x3de117c1	0.10990859
140	0x3dcbfc2d	0.09960208
141	0xbe5786f2	-0.21047571
142	0xbd5dbbb9	-0.054134104
143	0xbd671759	-0.05641875
144	0x3d415e30	0.047208965
145	0xbe2186f3	-0.15774135
146	0xbac5968f	-0.0015074777
147	0xbe422533	-0.18959503
148	0xbbf0bc3b	-0.0073466576
149	0xbb088430	-0.0020830743
150	0xbd415afa	-0.047205903
151	0xbe8d2679	-0.27568415
152	0x3c8987e5	0.016788432
153	0xbcc7b0f6	-0.024376374
154	0x3d5f2120	0.05447495
155	0xbb84cccc	-0.004052734
156	0xbe3f9d58	-0.18712366
157	0xbe3dc154	-0.1853078
158	0xbeac21c4	-0.3361951
159	0x3d341ddb	0.043973785
160	0xbd7134a6	-0.0588881
161	0xbc751eab	-0.014960925
162	0xbdfeed66	-0.12447624
163	0xbdec7de9	-0.11547453
164	0xbcf499eb	-0.02985855
165	0x3dc7de80	0.097592354
166	0x3e47a789	0.19497503
167	0x3da466c4	0.080274135
168	0x3b7e1de0	0.003877513
169	0x3d93f69e	0.07224773
170	0x3c41ec75	0.011836161
171	0x3da7c069	0.08190996
172	0xbe1e109d	-0.15436025
173	0x3e66d40d	0.22541828
174	0xbd907c2d	-0.07054935
175	0xbe176ff7	-0.14788805
176	0x3d13c162	0.036073096
177	0xbcc9db9c	-0.02464085
178	0x3be12693	0.0068710535
179	0xbd62a868	-0.055336386
180	0x3d0c79d3	0.034295868
181	0xbd71b419	-0.059009645
182	0x3c2c682a	0.0105228815
183	0xbe5dcefd	-0.21660991
184	0xbe2caf5a	-0.16863766
185	0x3c80545c	0.015665226
186	0x3d576ae9	0.05259219
187	0x3d264703	0.040595066
188	0xb9c22471	-0.00037029714
189	0xbcbb8780	-0.02289176
190	0xbd3a2055	-0.04544099
191	0xbb984f80	-0.004648149
192	0x3d690fa8	0.056899697
193	0x3cb20a6b	0.021733483
194	0x3cc3d6c0	0.023906112
195	0xbea2d64a	-0.31804115
196	0xbe28c5af	-0.1648166
197	0xbd01fd54	-0.031735733
198	0x3a3c1c2b	0.0007175828
199	0xbe4ec265	-0.20191343
200	0x3ddbfd01	0.10741616
201	0x3d43679f	0.047706243
202	0x3d8554a2	0.06510283
203	0xbd54b308	-0.05192855
204	0x3d2fc39a	0.04291115
205	0xbd05b028	-0.0326387
206	0xbdc25b6d	-0.09490094
207	0xbe0c686f	-0.13711713
208	0x3d4d5655	0.05013116
209	0xbe35e280	-0.17762184
210	0xbdaef4a7	-0.085427575
211	0xbc96042e	-0.01831254
212	0xbc854b11	-0.016271146
213	0xbd149872	-0.036278196
214	0x3ba3f011	0.0050029834
215	0xbba4a6d6	-0.005024771
216	0x3c18b70d	0.009320986
217	0x3d2bf21a	0.041978933
218	0xbcf87c40	-0.030332685
219	0xbc895e4d	-0.016768599
220	0xbde294b6	-0.110635206
221	0x3d518fb0	0.05116242
222	0x3b35201c	0.0027637547
223	0xbcd1d102	-0.025612358
224	0x3c8f8384	0.017518766
225	0xbe313156	-0.17303976
226	0xbd96590f	-0.07341205
227	0xbc456045	-0.012046878
228	0xbe14ac8e	-0.1451895
229	0x3d8463b2	0.06464328
230	0xbdf8456a	-0.12122615
231	0xbe7cb9ca	-0.24680248
232	0xbc97a64e	-0.018511917
233	0x3e1c4ce9	0.15263714
234	0xbec489a0	-0.3838625
235	0xbd571e5b	-0.052519184
236	0x3e021eb9	0.12707032
237	0x3dc600a2	0.096680894
238	0xbc033016	-0.00800707
239	0x3bd2b2e2	0.006430016
240	0xbe8af74c	-0.27141798
241	0xbc5928f5	-0.013254394
242	0xba81495b	-0.000986378
243	0xbe4bd94e	-0.19907114
244	0x3e02e295	0.12781747
245	0xbbf76f9f	-0.007551148
246	0x3e410677	0.18850122
247	0xbd00b108	-0.03141883
248	0xbe1a0004	-0.15039068
249	0xbd71bc65	-0.059017558
250	0x3c8562b3	0.016282415
251	0xbd942ba8	-0.07234889
252	0x3b77e2db	0.0037824425
253	0x3d2265bd	0.039647806
254	0xbd4cce2a	-0.0500013
255	0x3dabc3cb	0.08386954

net.1.0.bias f4 [256]
0	0x3d669d8d	0.056302596
1	0x3e3a2249	0.18177141
2	0xbc5d7b6d	-0.0135181965
3	0x3e93689b	0.28790745
4	0x3dac6612	0.08417906
5	0x3e50411b	0.20337336
6	0xbe06f2ca	-0.13178554
7	0x3d0338f1	0.032036725
8	0x3cac6c9e	0.021047886
9	0x3d2bacd3	0.041912865
10	0x3f677d10	0.90425205
11	0x3ea4d3fe	0.32192987
12	0x3e0b8dca	0.13628307
13	0xbe3cfb49	-0.18455233
14	0x3ea1cd2e	0.31601852
15	0x3df42f38	0.11923069
16	0x3d58c43f	0.05292153
17	0x3de39a47	0.111134104
18	0xbdfa1a82	-0.12212087
19	0x3da54839	0.08070416
20	0x3de94303	0.113897346
21	0x3eaa6358	0.33278918
22	0xbd06ee9b	-0.032942396
23	0x3d6028bc	0.054726347
24	0x3dc6a9ec	0.09700379
25	0xbe62e950	-0.22159314
26	0xbe216b63	-0.15763621
27	0x3e9f0703	0.31060037
28	0x3d244078	0.040100545
29	0xbdb45e29	-0.08807022
30	0xbd21897d	-0.03943776
31	0xbeb4cefe	-0.35314173
32	0xbd8136ba	-0.063092664
33	0x3da1b2d4	0.07895437
34	0x3e63c5dd	0.22243448
35	0xbe147b79	-0.14500226
36	0x3ef4415b	0.47706112
37	0xbe24eb45	-0.16105373
38	0x3c63682f	0.01387982
39	0x3c7f71d7	0.015591106
40	0x3a72ad02	0.00092573476
41	0x3db5a73d	0.08869789
42	0xbdaf12d2	-0.085485116
43	0x3ea42187	0.3205683
44	0x3e600d93	0.21880178
45	0xbe3e2f2a	-0.18572679
46	0x3e2ad1ce	0.16681597
47	0xb9f705ea	-0.00047115918
48	0x3c42ec1b	0.011897112
49	0x3c98f82b	0.018673023
50	0x3e346e3b	0.17620175
51	0x3e5b46d5	0.21413739
52	0x3d33d093	0.043900084
53	0x3e898ccd	0.26865235
54	0x3e3d5cc9	0.18492426
55	0x3e0137a8	0.12618887
56	0x3e833eed	0.25633946
57	0x3e096f08	0.13421261
58	0xbd437b60	-0.04772508
59	0xbde339cf	-0.110950105
60	0xbebc8c7c	-0.3682593
61	0xbc2b126a	-0.010441402
62	0x3e182659	0.14858378
63	0x3c7c965b	0.015416707
64	0xbddae8e3	-0.10688951
65	0x3e03aa9f	0.12858056
66	0x3de729fa	0.11287303
67	0x3c19f435	0.009396602
68	0x3e739943	0.23788933
69	0x3e3460d5	0.17615063
70	0xbe10992e	-0.14120933
71	0x3d76d9ec	0.06026642
72	0xbd53347e	-0.051563732
73	0x3e191412	0.14949062
74	0xbd281551	-0.041035954
75	0x3dbe9bff	0.09307098
76	0x3d2494e5	0.04018106
77	0xbc07305f	-0.008251279
78	0xba8d9518	-0.001080188
79	0x3d39670c	0.04526429
80	0x3e248666	0.16066894
81	0x3e22cf42	0.15899375
82	0xbe913ab6	-0.28365105
83	0x3e33cd7e	0.17558858
84	0x3e0b3029	0.1359259
85	0xbdce199d	-0.10063479
86	0xbe1ecebb	-0.15508549
87	0xbe4d28ca	-0.20035091
88	0x3d2fe856	0.042946182
89	0xbe3341be	-0.17505547
90	0xbd8abddd	-0.06774495
91	0xbda4e963	-0.080523275
92	0x3e25e6b5	0.16201289
93	0x3dbfd585	0.093668975
94	0xbc643c06	-0.013930326
95	0xbeef9de2	-0.46800143
96	0xbd4f5874	-0.050621465
97	0x3d9fa5b8	0.0779528
98	0x3e5f5280	0.21808815
99	0xbe226a4c	-0.15860862
100	0x3d5b7710	0.053580344
101	0x3efe3d6a	0.4965623
102	0xbdb69ed5	-0.089170136
103	0x3dc64775	0.09681598
104	0x3eac493a	0.33649617
105	0xbc018537	-0.007905296
106	0xbe8d27c8	-0.27569413
107	0x3e9b360b	0.3031467
108	0x3e08563e	0.13314149
109	0x3e456b9f	0.19279335
110	0x3de77f02	0.11303522
111	0xbdf17557	-0.11789959
112	0xbe96ec0f	-0.29476973
113	0x3e293d26	0.16527233
114	0x3dfe75e1	0.12424827
115	0xbc87bbd6	-0.01656906
116	0x3daee5f4	0.08539954
117	0x3cbb69f2	0.022877667
118	0x3e6a3b73	0.2287424
119	0xbcf7f589	-0.030268447
120	0x39a3935c	0.00031199574
121	0xbcdc0fbd	-0.026862973
122	0xbcf608f1	-0.03003356
123	0xbc4b9eec	-0.012428027
124	0xbe023bdc	-0.12718147
125	0x3d4234fd	0.047413815
126	0x3dfef0c5	0.12448267
127	0x3da260ff	0.07928657
128	0x3dfaa404	0.12238315
129	0x3d64731c	0.05577384
130	0xbd36322b	-0.044481438
131	0x3c03ce3a	0.008044774
132	0x3d93c49f	0.07215237
133	0xbe0761fc	-0.13220972
134	0xbc1341e2	-0.008987876
135	0xbe77b0fe	-0.24188611
136	0xbdd6b3b5	-0.10483495
137	0xbd763410	-0.060108244
138	0x3ddafdcc	0.10692939
139	0x3c806a65	0.015675733
140	0x3e50eece	0.20403597
141	0x3dd6232a	0.10455926
142	0xbe14bb78	-0.14524639
143	0x3ed356ea	0.41277248
144	0x3de7c5a0	0.11316991
145	0x3e87b57f	0.26505658
146	0x3e1be691	0.15224673
147	0x3e6e89a8	0.23294699
148	0x3e6e2711	0.2325709
149	0x3e8bcf06	0.27306384
150	0xbc2ddcf2	-0.0106117595
151	0x3d8cb927	0.068712525
152	0x3ebcba98	0.3686111
153	0xbe563e27	-0.20922147
154	0x3de90bef	0.11379229
155	0x3e4b2786	0.19839296
156	0x3e67bb8b	0.22630136
157	0xbd423dd9	-0.047422264
158	0xbe63c84a	-0.22244373
159	0x3f28ac09	0.65887505
160	0x3ed7555a	0.42057306
161	0x3e2e6151	0.17029311
162	0x3d92348f	0.07138931
163	0x3e4a5f83	0.19762997
164	0x3e3dfd29	0.18553604
165	0x3d65326d	0.055956293
166	0x3d2dfaa8	0.042475373
167	0xbdd5e9aa	-0.104449585
168	0x3e32a2e2	0.17444947
169	0x3cc9a4b5	0.024614671
170	0xbdebdc77	-0.1151666
171	0x3e00251b	0.12514155
172	0xbd849ed9	-0.0647561
173	0x3e34d7e2	0.17660478
174	0x3eea9c13	0.458222
175	0xbccd6c52	-0.025076065
176	0x3b127035	0.0022344713
177	0xbddb4ba2	-0.10707785
178	0x3ef56e55	0.4793574
179	0xbd006c32	-0.031353183
180	0x3ef73c7c	0.48288333
181	0x3ddc569c	0.10758707
182	0x3e88da0d	0.2672886
183	0x3e508788	0.20364201
184	0x3e203179	0.15643872
185	0xbdd4d61a	-0.10392399
186	0x3d0c7987	0.034295585
187	0x3e266e05	0.16252907
188	0xbd8bb4c4	-0.06821588
189	0xbd3bfb3b	-0.04589389
190	0x3c3832fe	0.011242626
191	0x3d3055ab	0.04305045
192	0x3d696be3	0.056987654
193	0x3e447b0a	0.1918756
194	0x3e6e7178	0.23285472
195	0x3e07bbba	0.13255206
196	0x3e801e43	0.25023088
197	0x3e0c8065	0.13720854
198	0x3e0ba0c0	0.1363554
199	0xbe4fe22c	-0.20301121
200	0x3db8816b	0.090090595
201	0xbe461283	-0.19342999
202	0xbd7976fc	-0.060904488
203	0x3d3bfcb2	0.045895286
204	0x3d46ee3e	0.04856705
205	0x3c9c2699	0.019061374
206	0xbd49e35d	-0.049289096
207	0x3e2484ac	0.16066235
208	0xbe1382e0	-0.14405394
209	0x3e16fd22	0.14745
210	0xbeaea0b8	-0.34106994
211	0x3c89ec06	0.016836178
212	0xbdc0a803	-0.09407046
213	0xbe18e69d	-0.14931722
214	0xbe2a4729	-0.16628708
215	0x3e259c9c	0.16173023
216	0x3e514c3a	0.20439234
217	0x3e74ef96	0.2391952
218	0x3dd72784	0.10505584
219	0xbdd4ad45	-0.10384611
220	0x3e2b9dcb	0.16759412
221	0x3e90381e	0.28167814
222	0x3d92f21c	0.07175085
223	0x3e7164f8	0.23573673
224	0x3e166241	0.14685918
225	0xbd73fe2e	-0.059568577
226	0xbe09e2df	-0.1346545
227	0x3e0bb3c8	0.136428
228	0x3e641c53	0.2227643
229	0x3d772e71	0.060347024
230	0x3dc40f3f	0.095732205
231	0x3e7b1270	0.24518752
232	0xbd9c24e1	-0.076242216
233	0xbe223aa4	-0.15842682
234	0xbdde3a9f	-0.10851025
235	0xbe3b4fa4	-0.18292099
236	0xbdfebda7	-0.12438517
237	0xbea7d476	-0.32779282
238	0xbe64ac80	-0.22331429
239	0x3e2a1067	0.1660782
240	0xbea663ab	-0.32497916
241	0xbba4006b	-0.0050049326
242	0x3df152da	0.11783381
243	0x3d4dbcf7	0.05022904
244	0x3e9230ff	0.28553006
245	0x3ee2f0a2	0.44324213
246	0xbd082c24	-0.03324522
247	0x3db48f1b	0.08816358
248	0x3def7c9e	0.11693691
249	0xbd3fbbd8	-0.04681
250	0x3e0256c1	0.12728406
251	0x3e1175f5	0.14205153
252	0xbc98fcc5	-0.018675217
253	0xbe7a117d	-0.24420734
254	0x3e2e34e5	0.17012365
255	0x3c1ab9d4	0.009443719

net.2.0.weight f4 [12, 256]
0	0xbc8bcd7b	-0.017065754
1	0x3c39e943	0.011347118
2	0x3d101fbf	0.035186525
3	0xbcfb8618	-0.03070359
4	0xbc76d422	-0.015065225
5	0xbccb4dbe	-0.024817344
6	0x3defbef9	0.11706347
7	0x3db96045	0.09051565
8	0xbe14e8ba	-0.14541903
9	0xbe83d4ee	-0.2574839
10	0x3d28d8c5	0.041222353
11	0x3e5dd52e	0.21663353
12	0x3e15c9e7	0.14627801
13	0x3c8f5d63	0.017500585
14	0xbe26331b	-0.16230433
15	0xbe0a0ed1	-0.13482215
16	0xbd9ddb31	-0.07707823
17	0x3db381ef	0.08765017
18	0x3f2b67bd	0.6695517
19	0x3e81d13a	0.2535494
20	0xbea23715	-0.3168265
21	0xbf1672e2	-0.5876905
22	0x3edfb8d4	0.436957
23	0x3df74124	0.120729715
24	0xbcb03185	-0.021507988
25	0x3c485d12	0.012229221
26	0xbefd923a	-0.49525625
27	0x3c51e88c	0.012811791
28	0xbf1052df	-0.5637645
29	0xbe0a4975	-0.13504584
30	0x3ec9c453	0.39407596
31	0x3e4c273c	0.19936842
32	0xbdbcaea8	-0.092130005
33	0xbda4bc45	-0.08043722
34	0x3cd4ed0f	0.025991945
35	0x3e7fc7d8	0.24978578
36	0x3e614504	0.21998984
37	0x3e3e0710	0.18557382
38	0xbd020b9b	-0.03174935
39	0xbd0ef562	-0.034901984
40	0x3b74d7de	0.0037360112
41	0x3e08156b	0.1328942
42	0x3e763652	0.24044159
43	0x3d0645d0	0.032781422
44	0xbe8da4f4	-0.27664912
45	0x3b14b170	0.0022688769
46	0xbe519973	-0.20468692
47	0x3e0100f6	0.12598023
48	0xbe2b87da	-0.16751042
49	0xbcd09d05	-0.025465498
50	0xbd98dd2c	-0.0746406
51	0xbe1b2108	-0.15149319
52	0x3c8cc120	0.017181933
53	0x3eabbd01	0.33542636
54	0xbce0e1a3	-0.027451342
55	0x3d4a00d3	0.049317192
56	0xbd80219f	-0.06256413
57	0xbcc07e04	-0.023497589
58	0x3f1fb56c	0.623862
59	0x3e322e2d	0.17400427
60	0xbaebcb20	-0.0017989613
61	0x3e23cd50	0.15996289
62	0xbee38f63	-0.44445333
63	0xbdb2d799	-0.08732528
64	0xbe0ececf	-0.13946079
65	0xbd6960e2	-0.05697716
66	0xbdc65e37	-0.09685939
67	0xbe08d76b	-0.13363425
68	0xbe8e468a	-0.27788192
69	0xbc0ab66f	-0.008466347
70	0xbe8d1a60	-0.27559185
71	0xbe306688	-0.17226613
72	0xbd85ea31	-0.06538809
73	0x3c3993e8	0.0113267675
74	0xbe563ab8	-0.20920837
75	0x3f884c06	1.06482
76	0xbe37d8a8	-0.17953742
77	0xbf18ee0b	-0.59738225
78	0xbdfc1732	-0.12309112
79	0x3d524ab9	0.051340792
80	0x3e3629de	0.17789409
81	0xbefd7424	-0.4950267
82	0xbe9f545d	-0.31119052
83	0xbd9259c8	-0.07146031
84	0xbed49c1d	-0.41525355
85	0x3e37e248	0.17957413
86	0xbd2714b8	-0.040791243
87	0xbe3e8b70	-0.18607879
88	0xbe451d1d	-0.19249387
89	0x3ed79c4b	0.4211143
90	0xbe05f196	-0.13080439
91	0x3e467b59	0.19382991
92	0xbe5c9cdf	-0.21544217
93	0xbe251599	-0.1612152
94	0xbbff0b07	-0.007783297
95	0xbee97760	-0.45598888
96	0x3da04d48	0.0782724
97	0xbd9c2c93	-0.07625689
98	0x3e504e5f	0.20342396
99	0xbe703ec6	-0.23461446
100	0x3e0df540	0.13863087
101	0x3d4adb34	0.049525455
102	0xbdea9c6d	-0.11455617
103	0xbef30005	-0.47460952
104	0x3b889a9b	0.004168821
105	0x3d20ef35	0.039290626
106	0xbe592fa0	-0.21209574
107	0x3daa2d8f	0.08309471
108	0xbe1c89e6	-0.15286979
109	0xbece9622	-0.40348917
110	0x3e8c2ca1	0.273778
111	0x3d892de8	0.06698209
112	0x3f262bd2	0.64910614
113	0xbddb0047	-0.10693412
114	0x3dfe7087	0.12423807
115	0x3bfe79fc	0.0077660065
116	0xbd8a8881	-0.06764317
117	0x3e094730	0.13406062
118	0xbf1b059c	-0.60555434
119	0xbdfff020	-0.12496972
120	0xbe075f58	-0.13219965
121	0x3c3db419	0.011578583
122	0x3dfccbf3	0.12343588
123	0xbbc421fa	-0.0059854956
124	0xbd43983d	-0.047752608
125	0xbd06e38e	-0.032931857
126	0x3de1bf6a	0.110228375
127	0xbdc27f8e	-0.094969854
128	0x3e25570f	0.16146491
129	0xbde6f85a	-0.11277838
130	0x3e31cb87	0.17362796
131	0x3d2388b1	0.03992528
132	0x3de77bea	0.113029316
133	0x3eee4c52	0.46542603
134	0xbd903e1c	-0.070430964
135	0xbd90b347	-0.070654444
136	0x3e591792	0.21200398
137	0x3dcfb4e0	0.10141921
138	0x3ca740c0	0.020416617
139	0x3e2e6426	0.17030391
140	0xbce23041	-0.0276109
141	0x3c91a1e3	0.017777389
142	0xbcb54143	-0.022125846
143	0x3d935881	0.07194615
144	0x3db705a3	0.08936622
145	0xbef6e5e3	-0.48222265
146	0x3ddfeeb6	0.109342024
147	0x3e3be5c8	0.18349373
148	0xbd5f4da6	-0.05451741
149	0x3e9471a8	0.28992963
150	0xbe0b4492	-0.13600376
151	0x3e62d670	0.22152114
152	0xbd551713	-0.05202396
153	0x3ead5531	0.33854058
154	0xbd929494	-0.07157245
155	0x3dc0db6b	0.09416851
156	0x3d942dd3	0.07235303
157	0x3e24830b	0.16065614
158	0x3eae4ee3	0.3404456
159	0x3c019049	0.007907935
160	0x3d63334e	0.05546885
161	0xbe523588	-0.20528233
162	0x3e472214	0.19446594
163	0x3c90f9e5	0.017697284
164	0xbe7c19ce	-0.24619219
165	0xbc5fa9d6	-0.013651332
166	0xbd1f7642	-0.03893114
167	0xbd97a89f	-0.07405209
168	0x3b9e73f2	0.004835599
169	0x3d0d459b	0.03449021
170	0xbde7ab21	-0.11311937
171	0x3d87cc4d	0.06630764
172	0x3cdef491	0.027216228
173	0x3d88ccf7	0.06679719
174	0x3c4e128e	0.012577666
175	0xbe8d0981	-0.27546313
176	0x3dc45e5b	0.095883094
177	0x3e374ddb	0.17900793
178	0xbd3a3f4b	-0.045470517
179	0x3a8016d0	0.0009772424
180	0xbccc1bd2	-0.02491561
181	0x3ca9dcd4	0.020735182
182	0xbdd65dc9	-0.10467107
183	0xbd0b6d28	-0.034039646
184	0xbd77fd73	-0.060544442
185	0xbde2c420	-0.11072564
186	0xbdab5c97	-0.083672695
187	0x3cf57f63	0.02996797
188	0x3eca5a54	0.3952204
189	0xbc8f488f	-0.017490653
190	0x3e31f289	0.17377676
191	0xbd086453	-0.0332988
192	0xbefc0053	-0.49218997
193	0xbe8cbbe4	-0.274871
194	0x3db0803a	0.08618207
195	0x3da4dfbf	0.08050489
196	0xbe523830	-0.20529246
197	0xbef1f448	-0.47256684
198	0x3dc3d51c	0.09562132
199	0x3dc3d66c	0.09562382
200	0xbe16e277	-0.14734827
201	0xbcd84056	-0.026397865
202	0x3e119c7c	0.1421985
203	0xbc5d1dfc	-0.013495918
204	0xbdad2f6b	-0.0845631
205	0xbdd77fb8	-0.10522407
206	0x3c7b98ef	0.015356286
207	0xbe959317	-0.29213783
208	0xbd9d3586	-0.076762244
209	0x3da78046	0.08178763
210	0xbcba6b58	-0.022756264
211	0x3e8913e3	0.26772985
212	0x3e58012a	0.21094194
213	0x3d1fde34	0.03903027
214	0xbd0be957	-0.034158077
215	0xbdc10842	-0.09425403
216	0xbe867756	-0.2626292
217	0xbe09d15b	-0.13458769
218	0xbbcd56ce	-0.0062664514
219	0x3d529e03	0.051420223
220	0xbea53a99	-0.3227127
221	0xbdb1a639	-0.086742826
222	0x3eadb1fd	0.33924857
223	0x3dff5cf0	0.12468898
224	0x3e7260c2	0.23669723
225	0x3d9876f3	0.07444563
226	0xbea5fa8e	-0.3241772
227	0xbdb5b93e	-0.08873223
228	0x3ecd69d4	0.40119803
229	0xbef58193	-0.4795042
230	0x3e0331c2	0.1281195
231	0x3e23f136	0.16009983
232	0x3ef7e835	0.48419347
233	0x3b948e44	0.004533561
234	0xbe7cefd7	-0.24700867
235	0x3e8bb06c	0.27283037
236	0x3dc873b5	0.09787694
237	0xbf109b29	-0.56486756
238	0xbd98c404	-0.07459262
239	0xbdc1c12a	-0.09460671
240	0x3ea9478e	0.33062404
241	0xbd25c290	-0.040468752
242	0xbc6945dd	-0.014237848
243	0x3e264ac1	0.16239454
244	0x3e2a5afe	0.16636273
245	0xbd367050	-0.044540703
246	0xbe02149f	-0.12703179
247	0x3db0b62b	0.08628496
248	0x3da25e25	0.07928113
249	0xbe19ee2c	-0.15032262
250	0x3e1607a5	0.14651354
251	0xbeb0a577	-0.3450124
252	0x3c32d96c	0.010916095
253	0x3e34ac09	0.17643751
254	0xbf085b94	-0.5326474
255	0xbd28cce5	-0.041211028

net.2.0.bias f4 [12]
0	0x3e2e2997	0.17008053
1	0xbddd1d92	-0.10796656
2	0xbdcda790	-0.10041726
3	0x3e7ef3e9	0.24897732
4	0x3e08da73	0.13364582
5	0xbdfe4abd	-0.12416599
6	0xbed1abc2	-0.40951353
7	0xbefe53d0	-0.4967332
8	0xbecb2b8d	-0.39681664
9	0xbf289ef2	-0.6586753
10	0xbf0ef8fd	-0.55848676
11	0xbeafb9f1	-0.3432155
