suboptimal_policies/HalfCheetahPyBulletEnv-v0_smol.pth (torch, 58199 bytes, 6 tensors)

net.0.0.weight f4 [100, 26]
0	0xbe581d8d	-0.21105023
1	0xbc05f994	-0.00817718
2	0x3dc6da05	0.09709553
3	0xbf40ad51	-0.7526446
4	0xbdd37f8b	-0.10327061
5	0xbc93517e	-0.017983194
6	0xbd5864ac	-0.052830383
7	0xbe701d00	-0.23448563
8	0x3e3f6a0a	0.18692794
9	0x3e352875	0.17691214
10	0x3c7635d3	0.015027481
11	0x3d1fddf8	0.039030045
12	0xbd61ecb1	-0.055157367
13	0xbd7ee35f	-0.062228557
14	0xbdd6c58c	-0.10486898
15	0xbd177463	-0.03697623
16	0xbf187090	-0.59546757
17	0xbe83550b	-0.2565082
18	0x3d617df8	0.055051774
19	0x3df8f981	0.12156964
20	0xbeac6243	-0.33668718
21	0x3d20e39d	0.03927957
22	0xbcb9812a	-0.022644598
23	0xbcd2ac59	-0.025716947
24	0x3ddebae9	0.10875494
25	0x3d87e9ff	0.06636428
26	0xbe6982a1	-0.22803737
27	0xbd291312	-0.041277952
28	0xbe49b743	-0.19698815
29	0x3e2ff6c6	0.1718398
30	0x3de4ed48	0.1117807
31	0x3e9021f1	0.28150895
32	0x3cf36310	0.029710323
33	0x3e10d5ab	0.14144008
34	0x3e9151de	0.28382772
35	0xbd8851f6	-0.06656258
36	0xbef52410	-0.47879076
37	0xbea1be4f	-0.31590506
38	0x3e78b4b6	0.24287686
39	0x3d379c37	0.044826712
40	0xbd5a776e	-0.053336553
41	0xbe512571	-0.20424439
42	0x3f3123e5	0.69195396
43	0x3e4f60a3	0.20251708
44	0x3ea241a3	0.31690702
45	0x3d865cd7	0.065606765
46	0xbd014fae	-0.03157013
47	0xbc20f8cf	-0.009824946
48	0x3d3600ca	0.044434346
49	0xbdeff56d	-0.11716733
50	0xbdcd827f	-0.10034656
51	0xbde2d34d	-0.11075459
52	0xbf171aea	-0.5902544
53	0xbdd97e49	-0.1061979
54	0xbc0b50b2	-0.008503126
55	0xbae47c01	-0.0017431976
56	0xbd953785	-0.0728598
57	0xbda6aeaf	-0.08138787
58	0xbdcff0c9	-0.10153348
59	0x3f0db2be	0.55350864
60	0xbf1e265e	-0.61777294
61	0x3e21ae25	0.15789087
62	0x3f202f21	0.62571913
63	0xbe30153d	-0.17195602
64	0x3e4595d8	0.19295442
65	0xbd8aa7db	-0.06770297
66	0x3d390387	0.04516938
67	0x3dd64bee	0.10463701
68	0xbf8eba05	-1.1150519
69	0x3d66e25f	0.056368228
70	0x3dd9162b	0.10599931
71	0xbe2cc0ff	-0.16870497
72	0x3d6f5a33	0.05843563
73	0x3da98023	0.08276393
74	0xbd19302c	-0.037399456
75	0xba328d5a	-0.0006811224
76	0x3da69c5e	0.081352934
77	0x3bedbfa6	0.0072555123
78	0xbeb5b252	-0.3548761
79	0xbdd714b6	-0.10501997
80	0xbd8c7fd5	-0.068603195
81	0xbf3000e5	-0.68751365
82	0x3d0844d0	0.03326875
83	0xbe8dde08	-0.2770846
84	0x3bca0a81	0.006165803
85	0x3d7e61fc	0.062105164
86	0x3e40e475	0.1883715
87	0x3e3d873a	0.18508616
88	0x3dd5298b	0.10408314
89	0xbdbe51aa	-0.0929292
90	0x3e7ea8c5	0.24869068
91	0x3e8f341d	0.27969447
92	0x3e3d1ed1	0.18468787
93	0xbdf37452	-0.11887421
94	0x3ea68da0	0.32529926
95	0xbdbc850b	-0.092050634
96	0xbc88ab3b	-0.016683212
97	0x3e8ea509	0.27860287
98	0x3dd25a11	0.10271085
99	0xbd0db2dc	-0.0345944
100	0x3dc705ae	0.0971788
101	0xbac621ac	-0.0015116236
102	0xbdba2aef	-0.0909022
103	0xbd4471c4	-0.047960058
104	0xbc82fbf9	-0.01598929
105	0x3cb91f3a	0.022597898
106	0xbd78158d	-0.060567427
107	0x3e5cfa45	0.21579845
108	0x3dccdb51	0.10002769
109	0xbdb8cd48	-0.09023529
110	0x3cc3aa92	0.023885045
111	0xbea5b72f	-0.3236632
112	0x3e4fa57a	0.20277968
113	0xbedc67f6	-0.43048066
114	0x3eaf42df	0.34230706
115	0x3e0bd445	0.13655193
116	0x3b3c589a	0.0028739334
117	0x3cc49869	0.023998456
118	0x3e1c1960	0.15244055
119	0x3deec30e	0.116582975
120	0x3e38afb2	0.18035772
121	0xbd58aa35	-0.052896697
122	0x3d2c52dd	0.042071212
123	0x3dfc8e29	0.123318024
124	0x3d0f789a	0.035027124
125	0xbdafbb99	-0.08580703
126	0x3dc9d844	0.098557025
127	0x3d3df94b	0.046380322
128	0x3d719c02	0.05898667
129	0x3d56bbc8	0.052425176
130	0x3e86107d	0.26184455
131	0xbd179e26	-0.037016056
132	0xbdb0e877	-0.08638089
133	0xbf48ee99	-0.7848907
134	0xbdbacdf7	-0.09121316
135	0x3e5b9213	0.21442442
136	0x3d33e4c6	0.043919347
137	0xbf1c9d3b	-0.61177415
138	0xbd05ada9	-0.03263632
139	0x3e2f1432	0.17097548
140	0xbea9a7d3	-0.33135852
141	0x3d618dac	0.05506675
142	0xbef3a70e	-0.4758839
143	0xbe373db3	-0.1789463
144	0xbe805731	-0.25066522
145	0x3e85c4fb	0.26126847
146	0xbdbe3405	-0.09287266
147	0xbe8bc73d	-0.27300444
148	0x3e2af817	0.16696201
149	0x3c851a8d	0.016248012
150	0xbddbba29	-0.107288666
151	0xbdd6ef04	-0.10494807
152	0xbd7d18d0	-0.06179124
153	0xbda7e998	-0.08198851
154	0xbd93a355	-0.072088875
155	0xbdb2c1bb	-0.087283574
156	0xbe201baa	-0.15635553
157	0xbde39221	-0.11111856
158	0x3c9913ba	0.018686164
159	0x3ee4800c	0.44628942
160	0x3c5ee314	0.013603944
161	0xbebf2cec	-0.3733896
162	0x3cf1e02e	0.029525843
163	0x3dbad300	0.09122276
164	0x3dde91eb	0.108676754
165	0x3e8232c7	0.25429365
166	0xbe44483e	-0.19168183
167	0x3dc0b57f	0.09409618
168	0xbd9a69de	-0.07539724
169	0xbe6bddf3	-0.23033886
170	0xbda0df7a	-0.07855125
171	0xbd001b88	-0.031276256
172	0x3f07be8c	0.53025126
173	0xbe120c85	-0.14262588
174	0xbe2c78a2	-0.16842893
175	0x3dedf1c0	0.11618376
176	0xbc6cb072	-0.014446365
177	0xbc857f99	-0.016296195
178	0x3d4fceb1	0.050734226
179	0xbd1b67b4	-0.037940696
180	0x3d01b7e1	0.0316695
181	0x3ded0cb9	0.11574692
182	0x3e3d24ba	0.18471041
183	0xbdf33b12	-0.11876501
184	0x3c95b7cb	0.018276116
185	0x3e81be87	0.25340673
186	0xbd5f350e	-0.054493956
187	0xbd91bff8	-0.07116693
188	0xbbeff77b	-0.007323203
189	0x3d196745	0.037452
190	0x3bd2f929	0.0064383936
191	0xbc259609	-0.010106572
192	0xbd087670	-0.033316076
193	0xbcc672c3	-0.024224645
194	0x3e0ca018	0.13732946
195	0xbe654776	-0.22390541
196	0x3dcfc23d	0.1014447
197	0x3ded784c	0.115952104
198	0xbc2dd146	-0.010608977
199	0x3e16a2a7	0.14710484
200	0xbd49d9e8	-0.049280077
201	0x3ed7b54f	0.42130515
202	0xbd111f79	-0.035430405
203	0x3dce3dfd	0.10070417
204	0x3d9fcb28	0.07802421
205	0x3dfc460b	0.12318047
206	0x3d285c23	0.041103493
207	0x3d155e27	0.036466744
208	0x3e4a1fc9	0.19738688
209	0xbb5280fc	-0.0032120338
210	0x3dde5c91	0.108574994
211	0xbbfa6bf0	-0.0076422617
212	0xbd978e16	-0.074001476
213	0x3dc51329	0.09622795
214	0xbd4f9e55	-0.050688107
215	0xbdbce1a1	-0.09222723
216	0xbe4f7a44	-0.20261484
217	0xbe2e97e2	-0.17050126
218	0xbe0c4909	-0.13699736
219	0x3c00cf55	0.007861932
220	0xbea79636	-0.3273179
221	0xbca9abcf	-0.020711808
222	0x3df8e981	0.12153912
223	0x3e2076c0	0.156703
224	0x3e485c71	0.19566514
225	0x3e91a7a5	0.28448215
226	0xbe34ef3d	-0.17669387
227	0xbea83210	-0.32850695
228	0xbd0ee84f	-0.034889515
229	0x3bd1bb9d	0.006400539
230	0x3d0a6047	0.033783223
231	0xbd2cf09d	-0.042221654
232	0xbda7a928	-0.08186561
233	0xbde6c900	-0.112688065
234	0xbe3ac0aa	-0.18237558
235	0xbd4302c3	-0.047610056
236	0xbdae1032	-0.08499183
237	0x3eca8990	0.39558077
238	0xbd8776d1	-0.06614459
239	0xbeb3f4d2	-0.3514772
240	0xbdaa812c	-0.08325419
241	0xbe086135	-0.13318332
242	0x3e726280	0.23670387
243	0xbe90726f	-0.28212306
244	0x3d2a090d	0.041512538
245	0x3e181fd0	0.14855886
246	0x3d4da53e	0.050206415
247	0x3d895511	0.06705678
248	0xbd44f4ce	-0.048085026
249	0x3e7f1534	0.24910432
250	0x3e0edd48	0.139516
251	0x3e7ef1db	0.24896948
252	0x3da8dbed	0.082450725
253	0xbdf9c3d8	-0.12195557
254	0x3dbffc58	0.093743026
255	0x3ca62ebf	0.020285962

net.0.0.bias f4 [100]
0	0x3e29c87b	0.16580383
1	0xbe9eea46	-0.3103811
2	0xbc784608	-0.0151534155
3	0xbdbd50e0	-0.09243941
4	0x3d94e2ed	0.07269845
5	0xbe9a4d5c	-0.30137146
6	0x3dffa87e	0.12483309
7	0x3e0e8e43	0.13921456
8	0xbda6dc8a	-0.08147533
9	0x3d5a8bed	0.0533561
10	0xbb9a8658	-0.004715722
11	0xbcba9415	-0.02277569
12	0x3d6c50fe	0.057694428
13	0x3e1a14b7	0.15046965
14	0xbd86755e	-0.06565355
15	0x3dbdfb0f	0.09276401
16	0xbe1baa6f	-0.15201734
17	0x3d2e8409	0.042606387
18	0x3e896326	0.26833457
19	0x3e2435e8	0.16036189
20	0x3e816d51	0.25278714
21	0x3d1e3780	0.038627148
22	0x3ce9ffc4	0.028564341
23	0xbcd3cfc3	-0.025855904
24	0x3cc88fe4	0.024482675
25	0xbd87c324	-0.06629017
26	0xbe07058f	-0.13185714
27	0xbd5f7a4d	-0.054559994
28	0xbcbbc9ea	-0.022923429
29	0x3e0e6c4b	0.13908498
30	0x3da33d20	0.07970643
31	0x3c6ebb0e	0.0145709645
32	0xbd3ad535	-0.045613486
33	0xbd4c4946	-0.049874566
34	0x3e5fa3d7	0.21839844
35	0xbe0b631f	-0.1361203
36	0x3e060c3f	0.13090609
37	0x3d1b4256	0.03790506
38	0xbdac91c2	-0.084262386
39	0x3de7e76a	0.113234356
40	0xbe30fe54	-0.17284518
41	0x3e2f29f5	0.17105849
42	0x3b941dce	0.0045201546
43	0xbe61acca	-0.2203857
44	0xbdafcd32	-0.0858406
45	0x3d2f31c6	0.042772077
46	0x3c9842aa	0.018586475
47	0x3e6f0aa5	0.23343904
48	0x3e026fcb	0.12737958
49	0x3d454d7c	0.048169598
50	0xbdbcab06	-0.09212308
51	0x3dddc09c	0.10827753
52	0x3d515e21	0.05111516
53	0x3d9d19fd	0.076709725
54	0x3db94bbf	0.090476505
55	0x3d3ef7a9	0.046622906
56	0xbce4ac55	-0.027914206
57	0x3d36a8d7	0.044594612
58	0xbcd71f0b	-0.02625992
59	0x3dc616c0	0.09672308
60	0xbe363376	-0.17793068
61	0x3d958fd0	0.07302821
62	0xbd990ca0	-0.07473111
63	0x3d9d8035	0.07690469
64	0x3e473ca4	0.19456726
65	0x3c5d5514	0.013509054
66	0x3e3a8d21	0.18217899
67	0x3deb153f	0.11478662
68	0xbca18d9a	-0.019720841
69	0x3e35c9b1	0.1775272
70	0x3cf0cff3	0.029396033
71	0x3df72c30	0.12068975
72	0xbd55c392	-0.052188464
73	0x3cf492d4	0.02985517
74	0xbe313edb	-0.17309134
75	0xbda2a42d	-0.0794147
76	0x3d9963bd	0.07489727
77	0x3db0b867	0.08628922
78	0x3e8495e6	0.25895613
79	0xbdfd2a6d	-0.12361608
80	0x3e845ab8	0.25850463
81	0x3ddca294	0.10773197
82	0xbe05a5d0	-0.13051534
83	0x3dbf308c	0.093354315
84	0x3d90c6b9	0.07069153
85	0xbdfb7d50	-0.12279761
86	0x3d2bcb5f	0.041941997
87	0xbcdf398d	-0.027249122
88	0x3ddabaa4	0.1068013
89	0xbd911528	-0.07084113
90	0xbd141019	-0.036148164
91	0x3e1fc485	0.1560231
92	0x3e8b789a	0.2724045
93	0x3da9b52e	0.082865104
94	0xbdc24a59	-0.09486837
95	0xbb479bd4	-0.003045787
96	0x3da34bf6	0.07973473
97	0x3e1d9cf6	0.15391907
98	0x3e4244e0	0.18971586
99	0x3d071823	0.032982003

net.1.0.weight f4 [100, 100]
0	0x3da306e4	0.07960299
1	0x3c42d921	0.011892588
2	0xbdb694ab	-0.08915075
3	0x3e056322	0.13026097
4	0x3db71325	0.089391984
5	0xbdb6a9c4	-0.08919099
6	0xbc356189	-0.0110706175
7	0x3d61abc1	0.055095438
8	0xbe40cb19	-0.18827476
9	0xbd3082fe	-0.043093674
10	0x3ca6db14	0.020368136
11	0x3d1da1ee	0.038484506
12	0x3d5af295	0.053454
13	0xb9000645	-0.00012209367
14	0xbc4ec9b0	-0.012621328
15	0x3e55c34b	0.2087528
16	0xbe1f83ef	-0.15577672
17	0x3d64c723	0.055853974
18	0x3a1c5cff	0.0005964785
19	0xbb8b7e3f	-0.004256993
20	0xbd65cbb1	-0.05610246
21	0xbbdc197c	-0.006716905
22	0x3d35bf44	0.04437186
23	0x3da8f67a	0.08250137
24	0x3dbba1f5	0.0916175
25	0x3d14d2f5	0.036333997
26	0xbb220689	-0.0024723134
27	0xbc4f6f9e	-0.012660889
28	0xbccf958b	-0.025339862
29	0x3c4b47cc	0.012407254
30	0x3d801c04	0.062553436
31	0x3c6b1ae1	0.01434967
32	0xbd424a9d	-0.047434438
33	0x3dd95a1e	0.106128916
34	0x3c93f809	0.018062608
35	0x3e368400	0.17823792
36	0x3cea905e	0.028633293
37	0x3dbe498a	0.0929137
38	0x3bb66d0e	0.0055671996
39	0x3e0a64b3	0.13514976
40	0xbd3adf9f	-0.045623418
41	0x3e0e4717	0.13894306
42	0x3d9dff13	0.07714667
43	0x3e25d868	0.16195834
44	0x3e081f9d	0.1329331
45	0xbdbc0b1d	-0.09181807
46	0x3b9a078d	0.004700607
47	0xbe93b995	-0.28852525
48	0x3d89274c	0.066969484
49	0xbdfdc0b9	-0.123902746
50	0x3dbb9570	0.09159362
51	0xbcc9e4e8	-0.024645284
52	0xbdec227b	-0.11530014
53	0xbd90665c	-0.070507735
54	0x3d980552	0.0742289
55	0xbe01fb82	-0.12693599
56	0x3d8e64d3	0.069528244
57	0x3d90a4b5	0.070626654
58	0xbd98211b	-0.07428189
59	0xbdc3020d	-0.095218755
60	0x3e31434e	0.17310831
61	0x3d28338a	0.041064776
62	0x3e0f8fd6	0.14019713
63	0x3bf71057	0.0075397897
64	0xbb23a7a1	-0.002497174
65	0x3d1c5264	0.03816451
66	0xbcadccfc	-0.021215908
67	0x3d3f555e	0.046712272
68	0x3ce8d87c	0.02842354
69	0xbdc8cf88	-0.098052084
70	0xbc008b3d	-0.007845697
71	0x3bd6b8c4	0.0065527875
72	0xb9440973	-0.00018695537
73	0x3d27c320	0.04095757
74	0x3cd54b8c	0.026037
75	0xbe870343	-0.26369676
76	0x3e18f757	0.14938103
77	0xbdde7721	-0.10862566
78	0xbbd5d0e0	-0.006525144
79	0xbe27261f	-0.16323136
80	0x3d237794	0.03990896
81	0x3cbc8fe3	0.02301783
82	0x3d971d69	0.073786564
83	0xbe0a547e	-0.13508794
84	0xbd0f3099	-0.034958456
85	0x3c4499ea	0.011999587
86	0xbee44f13	-0.4459158
87	0xbdd99f4f	-0.10626089
88	0x3c85f4fa	0.016352165
89	0xbc252122	-0.0100787
90	0xbda897d7	-0.08232086
91	0x3d519d1c	0.05117522
92	0xbcc245f2	-0.023714993
93	0x3cf53526	0.02993257
94	0xbdc5d5d4	-0.09659925
95	0x3c5230b2	0.012828993
96	0x3bfda0b4	0.0077401046
97	0xbd807fa0	-0.062743425
98	0x3d506690	0.05087906
99	0xbeb16887	-0.3465006
100	0x3e60abf7	0.219406
101	0xbe146071	-0.14489914
102	0x3e9bacbb	0.3040522
103	0xbd49659c	-0.049169168
104	0xbdef865b	-0.11695548
105	0x3e280a9e	0.164103
106	0x3e5b1d26	0.21397838
107	0x3d404a7e	0.04694604
108	0x3e022802	0.12710574
109	0xbe6df5fc	-0.23238367
110	0xbdd5351d	-0.10410521
111	0x3d933fa7	0.07189875
112	0xbe178b76	-0.14799294
113	0xbd353f8a	-0.04425005
114	0x3d374b7a	0.044749714
115	0x3cb52c0a	0.022115726
116	0xbe386006	-0.1800538
117	0x3d035492	0.032063074
118	0xba76c53c	-0.00094135455
119	0x3d1092c2	0.03529621
120	0xbdebaa7f	-0.11507129
121	0xbe7f3da1	-0.24925853
122	0x3e01bc95	0.12669595
123	0x3d21c9b5	0.039499003
124	0x3e3128e0	0.17300749
125	0xbe0430a3	-0.12909178
126	0x3e95b7b9	0.29241732
127	0x3df8b314	0.121435314
128	0x3d768fd2	0.06019575
129	0x3d4ca9d5	0.049966652
130	0xbe48d6a3	-0.19613127
131	0xbe3a7c69	-0.18211521
132	0x3ce9b946	0.028530728
133	0xbd787969	-0.06066266
134	0xbe23ef7f	-0.1600933
135	0x3ea488b0	0.32135534
136	0xbd861479	-0.065468736
137	0x3d9d4ec2	0.076810375
138	0x3dc9c05e	0.09851144
139	0xbe13f5d3	-0.14449243
140	0x3e9035a8	0.28165936
141	0x3e6caa0e	0.23111746
142	0x3dcec584	0.10096267
143	0x3d555006	0.05207827
144	0x3da86744	0.08222821
145	0x3e2ffebe	0.1718702
146	0x3dacd499	0.08438987
147	0xbe15e303	-0.1463738
148	0xbd3359cf	-0.04378682
149	0xbc413c5e	-0.011794178
150	0xbe0e1d5a	-0.13878384
151	0x3e215240	0.15754032
152	0x3d8ccaf5	0.068746485
153	0xbd0bad9f	-0.034101125
154	0xbbbe1f49	-0.0058020693
155	0xbecba088	-0.39770913
156	0xbdefff4f	-0.11718618
157	0xbdb6062b	-0.08887895
158	0xbd757e5f	-0.05993497
159	0x3db0dee2	0.086362615
160	0xbe54db12	-0.20786694
161	0x3dfff002	0.1249695
162	0xbd16af14	-0.03678806
163	0xbdd53f1b	-0.10412427
164	0x3cc040c6	0.023468386
165	0x3e1c8c11	0.15287806
166	0x3cd60207	0.026124014
167	0xbd156959	-0.03647742
168	0x3ddec010	0.10876477
169	0x3e0e4e31	0.13897015
170	0x3d974916	0.07386987
171	0x3d3fc32b	0.046816986
172	0xbdbe2fa0	-0.092864275
173	0xbd2be835	-0.041969497
174	0xbdbb3ac5	-0.09142069
175	0x3e0f1a85	0.1397496
176	0x3d700f5a	0.05860839
177	0xbf1c44e0	-0.61042595
178	0x3e59a924	0.21255928
179	0xbe8ee3e5	-0.27908245
180	0x3cace99d	0.02110749
181	0xbddc10ed	-0.10745416
182	0x3e1fd4a1	0.15608455
183	0x3cedbc4a	0.029020447
184	0x3e730916	0.23733935
185	0x3e1c3751	0.15255477
186	0xbe46ed5a	-0.1942648
187	0x3dc3326c	0.095311016
188	0x3d88c27b	0.06677719
189	0xbaa38dc7	-0.0012478166
190	0x3d86a54d	0.06574497
191	0xbe1aca44	-0.1511622
192	0x3e1389bc	0.1440801
193	0x3e7aa60e	0.24477407
194	0xbd16a8ca	-0.036782064
195	0x3e29ecfc	0.16594309
196	0xbd86de79	-0.06585402
197	0x3dd55372	0.104163066
198	0x3dca6974	0.09883395
199	0x3e59cacf	0.21268772
200	0x3dbf56ae	0.09342705
201	0xbe94d5c4	-0.2906934
202	0xbe370eda	-0.17876759
203	0x3d175014	0.036941603
204	0x3d743b22	0.059626706
205	0x3e9c13a5	0.30483738
206	0xbd64220f	-0.055696543
207	0x3c01c07d	0.007919428
208	0xbd82d79b	-0.0638878
209	0x3ba3a809	0.0049943966
210	0xbb279a7e	-0.0025574262
211	0x3d83de39	0.0643887
212	0xbc42689b	-0.01186576
213	0xbc679ae7	-0.014136053
214	0xbe396613	-0.18105344
215	0x3d6c66b5	0.057715137
216	0xbe90938a	-0.28237563
217	0x3deb4872	0.11488427
218	0x3debc90c	0.11512956
219	0x3d8946d0	0.067029595
220	0x3c42c47d	0.011887667
221	0xbe37aa15	-0.17935975
222	0xbdede8a7	-0.116166405
223	0x3dc6cd3a	0.097071126
224	0xbe7652e3	-0.24055056
225	0xbbde2a90	-0.006779976
226	0xbc9fa0db	-0.019485882
227	0xbdb1361e	-0.086529
228	0xbf0c37db	-0.5477273
229	0xbe9a4875	-0.30133405
230	0x3ddbbe67	0.10729676
231	0x3d2eee7a	0.042707898
232	0x3de3ec8c	0.11129102
233	0x3c0f9425	0.008763348
234	0xbe6edb5d	-0.23325868
235	0x3e71a693	0.235987
236	0x3dd75cda	0.10515757
237	0xbd9f4f5a	-0.07778807
238	0xbcee9934	-0.029125787
239	0xbd3f94fe	-0.04677295
240	0xbe02fcc8	-0.12791741
241	0xbca28214	-0.019837417
242	0x3e2bdeb0	0.16784167
243	0xbe4a6420	-0.19764757
244	0x3e0fb946	0.1403552
245	0xbe030ff4	-0.12799054
246	0xbe73fffd	-0.2382812
247	0xbe1632b5	-0.1466778
248	0x3cf153a4	0.029458828
249	0xbdd25dbf	-0.10271787
250	0x3e25edfd	0.16204067
251	0xbdea4c0e	-0.114402875
252	0x3d46009e	0.048340432
253	0x3d2b569d	0.041830648
254	0x3c05a969	0.008158066
255	0x3de8ec00	0.113731384

net.1.0.bias f4 [100]
0	0x3da2d60a	0.07950981
1	0x3d8b170c	0.06791505
2	0x3ddb48a0	0.107072115
3	0x3d3fe68b	0.046850722
4	0x3de5e8dc	0.11226055
5	0x3db3063b	0.08741423
6	0x3dc06b03	0.09395411
7	0xbca21b32	-0.019788358
8	0x3d4c7f9b	0.04992638
9	0x3cdfc169	0.027313905
10	0xbcb7d062	-0.022438232
11	0x3ddfc844	0.109268695
12	0xbd25e90a	-0.040505446
13	0x3d6879d4	0.05675681
14	0x3e033262	0.12812188
15	0xbb5d2266	-0.0033742427
16	0x3de548cf	0.11195528
17	0xbd597845	-0.053093214
18	0x3db6729a	0.08908577
19	0x3e17e544	0.14833552
20	0x3e40f03e	0.18841645
21	0xbe730316	-0.23731646
22	0x3e20d3d6	0.15705809
23	0x3c1915fb	0.009343619
24	0x3da84b07	0.08217435
25	0x3d2b5876	0.04183241
26	0x3b00ca38	0.0019651782
27	0xbe068233	-0.13135605
28	0x3df95f14	0.12176338
29	0xbd668de4	-0.05628766
30	0x3c3f6cf9	0.011683696
31	0x3dcfdc6c	0.10149464
32	0x3e046cb9	0.129321
33	0xbc42fb3e	-0.011900721
34	0x3df48095	0.119385876
35	0x3d18d4db	0.03731237
36	0x3db6e43a	0.089302495
37	0xbd1656f0	-0.036704004
38	0x3e20ae74	0.15691549
39	0x3d84c6f2	0.06483258
40	0x3ccc0694	0.02490548
41	0x3da8c730	0.08241117
42	0x3df7e44f	0.12104093
43	0x3e0b8924	0.13626534
44	0x3c4773bf	0.012173592
45	0x3c2d793a	0.010587985
46	0x3c75ba02	0.014997961
47	0x3d4a1dcf	0.049344834
48	0x3dd3c9b7	0.103412084
49	0xbdbe93d4	-0.0930554
50	0x3ddc6bcf	0.1076275
51	0x3c18e77d	0.009332535
52	0xbddc68e9	-0.107621975
53	0xbe3c87ae	-0.18411133
54	0xbd07e81d	-0.033180345
55	0x3d8edfcb	0.06976279
56	0x3db04f51	0.086088784
57	0x3d28a229	0.041170273
58	0x3dbcbae9	0.09215338
59	0xbe1dfa27	-0.15427457
60	0x3ddc50d9	0.10757608
61	0x3c4137f4	0.011793125
62	0x3dfa229c	0.122136325
63	0xbd71b049	-0.05900601
64	0x3e051dc5	0.12999637
65	0x3d9ce8bf	0.0766158
66	0x3dfb2b34	0.122641
67	0xbd2b6918	-0.041848272
68	0x3e142134	0.14465791
69	0x3e175540	0.14778614
70	0xbbada266	-0.0052989004
71	0x3d74eaeb	0.059794348
72	0xbbbe5317	-0.005808245
73	0xbd17c8a2	-0.037056573
74	0xbd96395c	-0.07335159
75	0x3d94c2e4	0.07263735
76	0x3e1cf070	0.15326095
77	0xbd26655c	-0.040624008
78	0xbd6f649c	-0.058445558
79	0xbc87a7ee	-0.016559567
80	0x3d001038	0.031265467
81	0x3d483b60	0.04888475
82	0xbcf696c7	-0.030101193
83	0xbe300247	-0.17188369
84	0xbe82dbca	-0.2555831
85	0x3df30de1	0.118678816
86	0xbdc4aeac	-0.096036285
87	0xbc14ddf8	-0.009086125
88	0x3ce4467c	0.02786564
89	0x3ddc29c9	0.107501574
90	0xbeb7abad	-0.35873166
91	0x3d7ae98b	0.06125788
92	0x3dc5865d	0.096447684
93	0x3e177047	0.14788924
94	0xbd27d0b6	-0.040970527
95	0x3b5765c8	0.0032867063
96	0x3dfd1705	0.12357906
97	0xbd1a104f	-0.03761321
98	0xbcacba10	-0.021084815
99	0xbc38b682	-0.011273982

net.2.0.weight f4 [12, 100]
0	0x3d119617	0.035543527
1	0x3e4c4ae0	0.19950438
2	0x3e8a1dfc	0.26976
3	0x3e6b5c47	0.2298442
4	0xbcf5f2ed	-0.030023063
5	0x3df8612f	0.12127911
6	0xbd18e36c	-0.03732626
7	0x3eb8476a	0.35991985
8	0x3dc79bfd	0.09746549
9	0xbee796fd	-0.45232382
10	0xbf26024a	-0.6484724
11	0x3d624bd9	0.055248115
12	0xbee8ea5a	-0.45491296
13	0xbe90aae7	-0.28255388
14	0xbdb6e786	-0.08930878
15	0x3eca01d4	0.3945452
16	0x3d2bce35	0.0419447
17	0x3f4cde74	0.80026937
18	0x3d968e7d	0.07351396
19	0x3d6128d2	0.05497057
20	0x3ddfcd52	0.109278336
21	0x3d8a9a93	0.06767764
22	0xbd3a5831	-0.045494262
23	0xbd6c1814	-0.05764015
24	0x3e238c31	0.15971448
25	0xbe36d927	-0.17856275
26	0x3d5daf65	0.054122347
27	0x3ed71c3b	0.42013726
28	0x3d5829f4	0.052774385
29	0x3e81163c	0.25212276
30	0xbe1955fd	-0.14974208
31	0xbc4b46ed	-0.012407047
32	0xbc130671	-0.008973704
33	0x3da40c03	0.080101036
34	0x3e806435	0.25076452
35	0xbeb3b2b8	-0.3509729
36	0x3d4fafdb	0.05070482
37	0xbe0b154d	-0.13582344
38	0xbd3f4d90	-0.04670483
39	0x3e0a42e5	0.1350208
40	0x3ec3ee55	0.3826777
41	0xbc499eed	-0.012305957
42	0xbd9fdba7	-0.07805567
43	0x3e0781c7	0.132331
44	0x3b9f27b1	0.0048570265
45	0xbd9d449a	-0.076791
46	0xbd8e0c96	-0.06935994
47	0x3d856a84	0.06514457
48	0x3eae4fbd	0.3404521
49	0x3e9eeaf2	0.31038624
50	0xbd81101b	-0.063019
51	0xbb48cf6e	-0.0030641216
52	0xbca07083	-0.0195849
53	0x3ee343f5	0.44387785
54	0x3e2fa4e8	0.1715275
55	0x3e33439f	0.17506264
56	0x3dad4f4b	0.084623896
57	0xbc348733	-0.011018562
58	0x3d2da698	0.042395204
59	0x3f134098	0.5752044
60	0x3d23d255	0.03999551
61	0xbf01b5d7	-0.5066809
62	0xbd0e9a12	-0.0348149
63	0x3e7082dd	0.2348742
64	0x3c8a2fcb	0.016868493
65	0xbdc8b35d	-0.09799836
66	0x3cd55743	0.026042586
67	0x3f587f75	0.84569484
68	0x3d4fe6d9	0.050757263
69	0x3e4a7004	0.19769293
70	0x3c02b1eb	0.007976989
71	0xbe15c826	-0.14627132
72	0xbdc2f93a	-0.095201924
73	0xbdff27d8	-0.124587715
74	0xbeba8967	-0.36432955
75	0xbe2ce9a7	-0.16886006
76	0x3e710907	0.235386
77	0xbe927c63	-0.28610525
78	0x3f3a63fb	0.7280881
79	0x3e3f7f52	0.18700913
80	0xbdbcd1fb	-0.09219738
81	0xbdf1d877	-0.118088655
82	0xbeabc36f	-0.33547541
83	0xbcf9e998	-0.030506894
84	0xbe881147	-0.26575682
85	0xbeee14a8	-0.46500134
86	0xbf0213a4	-0.5081122
87	0x3ea0bc5f	0.31393716
88	0x3f8d4845	1.103768
89	0x3da46b48	0.08028275
90	0xbf247b6c	-0.64250827
91	0xbe1b8c9e	-0.1519036
92	0xbc004d1d	-0.007830885
93	0x3d36b98f	0.044610556
94	0xbef7a526	-0.48368186
95	0x3d8d5d77	0.06902593
96	0xbc733168	-0.014843322
97	0xbeee8c7d	-0.4659156
98	0xbec3d8e8	-0.38251424
99	0x3e177b1b	0.14793055
100	0x3dc3f859	0.09568853
101	0x3e42dfc4	0.19030672
102	0xbc53f231	-0.012936161
103	0x3ea8a688	0.32939553
104	0xbd5809f1	-0.052743856
105	0x3cc12ef6	0.023581963
106	0xbc10ba58	-0.00883349
107	0xbdc67a81	-0.096913345
108	0x3ddeb561	0.10874439
109	0x3cc9239d	0.024553115
110	0xbdbb6061	-0.09149242
111	0x3da6aaa4	0.08138016
112	0x3e8c74c3	0.27432832
113	0x3d7f6325	0.06235041
114	0xbe5d71d7	-0.21625458
115	0x3e912b85	0.28353515
116	0x3d133cdd	0.035946716
117	0x3f827229	1.0191089
118	0xbce40700	-0.02783537
119	0xbd6280e0	-0.055298686
120	0x3d661deb	0.056180876
121	0x3e17b859	0.14816417
122	0x3e01d541	0.12679006
123	0xbd59256c	-0.053014204
124	0x3f2b99e1	0.67031676
125	0xbee287f0	-0.44244337
126	0x3ddcc421	0.10779596
127	0xbefd3f6a	-0.49462444
128	0xbed5f3d1	-0.4178758
129	0x3d709dae	0.058744125
130	0xbdb8a3a7	-0.09015589
131	0xbeb409ae	-0.35163635
132	0x3e023896	0.12716898
133	0x3dc10948	0.094255984
134	0x3de8b4da	0.1136262
135	0xbf25df84	-0.6479418
136	0xbd06ccf2	-0.032910295
137	0xbeb40cbc	-0.35165966
138	0xbd8b901d	-0.06814597
139	0x3e969886	0.2941324
140	0x3e725b8d	0.23667736
141	0x3d6eefe8	0.05833426
142	0x3e361cd1	0.1778443
143	0xbad122a9	-0.0015955764
144	0xbdeda004	-0.11602786
145	0xbd6aad96	-0.05729445
146	0xbd69bc3d	-0.057064284
147	0x3db04fef	0.08608996
148	0xbd0733c2	-0.033008344
149	0xbe5d4ec4	-0.21612078
150	0xbf293629	-0.66098267
151	0x3d584b30	0.05280608
152	0xbd9fe212	-0.07806791
153	0x3f276e8b	0.6540305
154	0xbd90a214	-0.07062164
155	0xbd7f6bae	-0.06235855
156	0xbe863112	-0.26209313
157	0xbe1e55d7	-0.15462433
158	0x3e05b032	0.13055494
159	0xbdf9a48f	-0.1218959
160	0xbe274445	-0.16334637
161	0xbde6c1f7	-0.112674646
162	0xbe718417	-0.23585545
163	0x3f22a58d	0.6353386
164	0xbe2936ca	-0.16524807
165	0xbd93216c	-0.07184109
166	0x3d737bde	0.0594443
167	0x3d43a5c3	0.047765505
168	0x3d299d39	0.041409705
169	0xbe49186a	-0.1963822
170	0x3e2dfbf6	0.16990647
171	0xbdc48233	-0.09595146
172	0x3ed2862a	0.41117984
173	0x3dfa73d6	0.12229125
174	0x3eea8a2c	0.45808542
175	0xbe110c7f	-0.14164923
176	0x3dd2ed7e	0.10299204
177	0x3e87846a	0.2646821
178	0x3f1e9141	0.6194039
179	0xbd6de8f2	-0.058083482
180	0x3e33ea33	0.17569809
181	0x3d09ad0a	0.03361229
182	0x3efbc938	0.49176955
183	0x3e1beb21	0.15226413
184	0x3de2dd8e	0.110774145
185	0xbe6faa65	-0.23404844
186	0xbef62f6c	-0.48083055
187	0x3f1b7f3b	0.60741013
188	0x3fa76e92	1.3080618
189	0xbd99a6aa	-0.07502492
190	0x3dd946bc	0.10609195
191	0x3f061868	0.5238099
192	0xbe14ad45	-0.14519222
193	0x3da643c9	0.08118398
194	0x3d09d7d8	0.03365311
195	0xbe47345d	-0.19453569
196	0xbdfde92f	-0.12397992
197	0x3d0d1d6a	0.03445188
198	0x3ef159dc	0.4713887
199	0xbf3f0611	-0.7461863
200	0xbe0e3611	-0.13887812
201	0xbe8e9cd8	-0.27854037
202	0x3bd4a1bf	0.006489008
203	0x3e821548	0.2540686
204	0xbce1ce61	-0.02756423
205	0xbded9a96	-0.116017506
206	0xbd624acb	-0.05524711
207	0xbe1147d8	-0.14187562
208	0x3ddb875f	0.10719179
209	0xbe499124	-0.19684273
210	0xbdad6561	-0.08466602
211	0xbd5eb9e7	-0.05437651
212	0x3e991213	0.29896602
213	0xbe9b3681	-0.3031502
214	0x3de3a81b	0.11116048
215	0x3d5c9839	0.05385611
216	0xbd504fe5	-0.050857443
217	0xbf17b570	-0.59261227
218	0xbd8ff53b	-0.07029196
219	0x3cf7ad0c	0.030233882
220	0xbca9e756	-0.020740192
221	0x3f0ca005	0.5493167
222	0xbe04701e	-0.12933394
223	0xbd656b88	-0.056010753
224	0xbf443744	-0.7664683
225	0x3e739ecc	0.23791045
226	0xbef5f9a1	-0.48042014
227	0xbefde729	-0.49590424
228	0x3d97310b	0.07382401
229	0xbf7143ec	-0.94244266
230	0x3e98666d	0.29765645
231	0x3dc02621	0.093822725
232	0x3e0c88c9	0.13724054
233	0xbb08bcd6	-0.0020864508
234	0xbda0539b	-0.078284465
235	0x3e9dcc32	0.3081985
236	0xbda10f71	-0.07864273
237	0xbddbbb59	-0.10729093
238	0xbd9cd1f4	-0.07657233
239	0xbe6ffaa6	-0.23435459
240	0xbead915e	-0.3389997
241	0xbd9a9c2e	-0.0754932
242	0x3bea4eac	0.0071504917
243	0x3caefa68	0.021359637
244	0x3d2cf9f2	0.042230554
245	0x3e4924c4	0.19642931
246	0x3e9402d9	0.28908423
247	0xbd83e876	-0.06440823
248	0x3e8dbaa3	0.27681455
249	0x3e6388fa	0.22220221
250	0x3e8ac10b	0.27100405
251	0xbd9ac7e5	-0.07557658
252	0x3d27b866	0.04094734
253	0xbf53c573	-0.8272316
254	0x3d3011ba	0.042985655
255	0xbf106d87	-0.56417125

net.2.0.bias f4 [12]
0	0xbc66ea3f	-0.014093935
1	0xbdb8b4a7	-0.09018832
2	0xbc62aa56	-0.013834557
3	0x3c364227	0.01112417
4	0x3d31c553	0.043401074
5	0x3d4c4b5d	0.04987656
6	0xbce7aab2	-0.028279636
7	0xbd747608	-0.059682876
8	0xbdbd10d7	-0.092317276
9	0xbcd3d33c	-0.02585756
10	0xbdbf940d	-0.0935441
11	0xbd7f22c7	-0.062289026
