suboptimal_policies/HalfCheetahPyBulletEnv-v0.pth (torch, 28695 bytes, 6 tensors)

net.0.0.weight f4 [64, 26]
0.28505525 -0.0039498587 0.13362034 0.54106104 -0.0015308574 0.0063101207 -0.0033718986 -0.82505345
-0.1934305 -0.032767653 0.15446635 -0.20615566 0.5557382 0.049386427 -0.43706408 0.15004167
0.19780505 -0.24021487 0.11388992 -0.1916783 0.20632517 -0.0021597783 0.0064328513 0.13714024
-0.0064636506 -0.0036452792 0.11967303 -0.005999696 -0.037947506 0.30017376 0.0014340316 -0.1854658
-0.006472098 -0.07937345 -0.03830787 -0.1385123 -0.022830285 0.052321877 -0.08392328 -0.17368548
0.22703215 0.22242592 -0.25120598 -0.015434334 0.026173545 0.03267553 -0.06617753 -0.002167495
-0.0066404818 0.012920235 -0.0027860308 0.0039199027 -0.09188123 -0.0066437735 0.009364805 -0.32859594
0.0012289708 0.048048135 -0.003871434 0.08077835 0.016498158 0.0813391 0.0072125536 -0.052585766
0.5464266 0.029924769 0.022543613 0.020711126 0.393463 -0.12525539 -0.033501245 0.08498614
0.09049886 0.0014805616 0.0049907425 0.040244 0.0063980035 -0.0066439086 -0.75988245 0.0018471179
0.475705 -0.16017346 0.0038628848 -0.5346004 0.00052833685 -0.0067910138 0.26988485 -0.17241967
0.14020908 -0.17868759 0.28039566 0.053597968 -0.6499673 -0.27559143 -0.42297044 -0.24105643
-0.629793 -0.15204646 0.1340179 0.0017525819 -0.0028923892 -0.053684242 0.0052618897 0.0027450721
0.24527444 0.003357784 0.061196126 0.08930393 -0.0023997854 -0.17759351 0.0046258117 0.5353664
-0.42449245 -0.32193792 -0.06426 0.06996843 0.17694145 -0.06331073 -0.16477287 -0.07294206
0.5571876 0.16952899 -0.070625804 -0.11580152 0.027607566 0.002921025 -0.0020584348 0.06464688
0.004826607 0.0021523365 0.36452955 -0.0064143003 0.04915717 -1.0350202 0.0065202364 0.15926363
0.0028906313 -0.6712994 -0.24696082 -0.43828598 -0.039517757 -0.34185314 -0.124701604 -0.12191869
-0.090048246 -0.00910795 -0.048156034 -0.40852982 0.063116245 -0.07713166 0.12440782 -0.0062755514
-0.0030783974 0.08507517 0.0030028569 -0.006274098 -0.80827475 0.00606308 0.20258048 -0.0015335953
0.0065142894 -0.5227408 -0.002430373 -0.13110618 0.26382312 0.27144966 0.5150075 0.16594233
0.2475441 0.06247987 -0.23712452 -0.0962798 -0.19035597 -0.12631032 -0.23856777 -0.25852424
0.06459849 0.002063247 0.0013594176 0.037383378 -0.0010446914 -0.005808732 0.5258021 -0.0036924086
0.13012023 0.13026628 0.0055180145 0.012435185 -0.0059331255 -0.68506485 0.08334357 0.031197278
-0.32180268 0.019119319 0.16681932 -0.094568655 -0.27574664 0.07649174 -0.09099666 0.19877118
-0.29562643 0.055849884 0.3384723 0.0032181672 0.0024899459 0.08132146 0.0059483764 -0.004071088
0.30168006 0.00028590456 -0.19579297 -0.74841833 -0.0009561814 0.02605607 0.005915673 0.6414654
-0.09921396 -0.34089535 -0.3103896 -0.5161835 -0.23686208 -0.32853588 0.018277537 0.2731725
-0.08014617 0.22308046 0.2699003 0.022042556 -0.07718416 0.0055969455 0.00026968046 0.015925385
-0.00096532295 0.0057921116 -0.7734048 -0.0024219917 -0.08107027 0.23590787 0.003403117 -0.007393565
0.0062623047 0.9554205 0.23217636 0.112762846 0.10359095 -0.008211439 0.022122914 0.05746703
0.081786886 -0.15762974 0.4742182 -0.15049922 0.4437655 0.09203058 -0.9486547 -0.0065307682
00000000: c3f2 913e d16d 81bb c5d3 083e fa82 0a3f
00000010: 0da7 c8ba 21c5 ce3b 12fb 5cbb b436 53bf
00000020: a512 46be 6037 06bd 6d2c 1e3e 781a 53be
00000030: dc44 0e3f 6c49 4a3d ddc6 dfbe 86a4 193e
00000040: 688d 4a3e e3fa 75be 1e3f e93d 5147 44be
00000050: e846 533e 118b 0dbb abca d23b 7e6e 0c3e
00000060: 08cd d3bb a3e5 6ebb 2217 f53d 1999 c4bb
00000070: d86e 1bbd 60b0 993e 1ef6 bb3a bfea 3dbe
00000080: e513 d4bb 8c8e a2bd b7e8 1cbd 2bd6 0dbe
00000090: 9406 bbbc 774f 563d f8df abbd 9bda 31be
000000a0: 1e7b 683e 9fc3 633e 129e 80be 4ae0 7cbc
000000b0: e769 d63c c7d6 053d 1688 87bd 880c 0ebb
000000c0: 6698 d9bb 65af 533c d795 36bb 8772 803b
000000d0: 3a2c bcbd 03b4 d9bb d76e 193c ba3d a8be
000000e0: 6b15 a13a 1fce 443d e2b7 7dbb 1f6f a53d
000000f0: 2527 873c 1d95 a63d 4957 ec3b 2c64 57bd
00000100: 9de2 0b3f ca24 f53c 62ad b83c 61aa a93c
00000110: fb73 c93e f342 00be 9a38 09bd 370d ae3d
00000120: 7757 b93d 670f c23a 6289 a33b e4d6 243d
00000130: 58a6 d13b 25b5 d9bb a887 42bf fe1a f23a
00000140: 9b8f f33e 8304 24be 7428 7d3b 92db 08bf
00000150: 1680 0a3a 2787 debb 592e 8a3e c88e 30be
00000160: f892 0f3e e1f9 36be 0590 8f3e 8b89 5b3d
00000170: 4264 26bf 521a 8dbe 958f d8be 7fd7 76be
00000180: 1d3a 21bf 11b2 1bbe fd3b 093e e4b6 e53a
00000190: 3d8e 3dbb 02e4 5bbd ee6b ac3b abe6 333b
000001a0: 3929 7b3e 440e 5c3b caa8 7a3d fbe4 b63d
000001b0: b845 1dbb 13db 35be 1f94 973b c60d 093f
000001c0: 1357 d9be 0cd5 a4be bf9a 83bd 9c4b 8f3d
000001d0: 2430 353e 0ea9 81bd 38ba 28be a662 95bd
000001e0: d9a3 0e3f 0299 2d3e 43a4 90bd 5929 edbd
000001f0: 4329 e23c ab6e 3f3b cee6 06bb 9565 843d
00000200: 8428 9e3b 370e 0d3b 9ea3 ba3e 0d2f d2bb
00000210: 0759 493d 8b7b 84bf b5a7 d53b 0116 233e
00000220: bf70 3d3b 47da 2bbf 4ce3 7cbe 0567 e0be
00000230: 5fdd 21bd 6007 afbe 8e63 ffbd 82b0 f9bd
00000240: 376b b8bd 8339 15bc 433f 45bd d22a d1be
00000250: 1743 813d 34f7 9dbd 87c9 fe3d 24a3 cdbb
00000260: f0be 49bb e43b ae3d 94cb 443b f396 cdbb
00000270: 18eb 4ebf cdac c63b 4271 4f3e eb02 c9ba
00000280: d275 d53b 57d2 05bf e546 1fbb b340 06be
00000290: d313 873e 73fb 8a3e 88d7 033f c9ec 293e
000002a0: 337c 7d3e e4ea 7f3d c5d0 72be 582e c5bd
000002b0: adec 42be 7e57 01be 1c4b 74be 4a5d 84be
000002c0: 374c 843d 8a37 073b 7c2e b23a 501f 193d
000002d0: 07ee 88ba 2d57 bebb f79a 063f 56fc 71bb
000002e0: 3d3e 053e 8664 053e 76d0 b43b f2bc 4b3c
000002f0: aa6a c2bb 6960 2fbf 09b0 aa3d 6f91 ff3c
00000300: 52c3 a4be 1ea0 9c3c afd2 2a3e 36ad c1bd
00000310: aa2e 8dbe b4a7 9c3d 755c babd ac8a 4b3e
00000320: 595c 97be d9c2 643d 3e4c ad3e e3e7 523b
00000330: 5c2e 233b de8b a63d 99ea c23b c366 85bb
00000340: cf75 9a3e 76e5 9539 f47d 48be 5898 3fbf
00000350: 3fa8 7aba 8a73 d53c 43d8 c13b 1437 243f
00000360: b030 cbbd d689 aebe 63eb 9ebe 9a24 04bf
00000370: f98b 72be db35 a8be c6ba 953c 44dd 8b3e
00000380: ad23 a4bd 346f 643e 5f30 8a3e 9792 b43c
00000390: bb12 9ebd 9566 b73b e663 8d39 f475 823c
000003a0: ba0d 7dba c1cb bd3b dbfd 45bf 47ba 1ebb
000003b0: 2b08 a6bd d591 713e d406 5f3b b845 f2bb
000003c0: 0534 cd3b 7096 743f a4bf 6d3e 35f0 e63d
000003d0: 7e27 d43d 4589 06bc 1d3b b53c 8c62 6b3d
000003e0: e27f a73d b169 21be bacc f23e 781c 1abe
000003f0: 3b35 e33e 877a bc3d 09db 72bf 0e00 d6bb

net.0.0.bias f4 [64]
0.12586889 -0.037987635 0.0073777093 0.4772024 0.057587832 0.058958504 0.19562678 0.12976614
-0.19332741 -0.0884836 0.052613188 -0.13082896 0.23982367 -0.13980858 0.12706517 -0.3346605
-0.047151145 -0.25041765 -0.040177684 -0.040856034 0.047920078 0.07665981 0.14230826 0.07936378
-0.0689421 -0.041997816 0.015352255 -0.10054557 0.18729089 0.02117478 0.17475213 -0.063823916
0.004077474 0.03293773 0.01849189 -0.06261377 0.120732084 -0.03812008 -0.26996493 0.20268029
0.27924576 0.07316773 0.11520027 0.13837457 -0.3181522 0.15322495 0.14530721 0.021384874
-0.011177444 0.026190931 0.031060288 0.25839332 -0.07137013 -0.035636816 0.13749593 0.021588631
-0.047892727 -0.19278523 -0.007505593 0.042022597 0.04870696 0.14708512 -0.14092156 -0.18510585
00000000: c6e3 003e ec98 1bbd b6c0 f13b df53 f43e
00000010: 38e1 6b3d 797e 713d 6352 483e 6ae1 043e
00000020: 9ff7 45be e436 b5bd ed80 573d 07f8 05be
00000030: 5694 753e fb29 0fbe 5f1d 023e 9f58 abbe
00000040: 8f21 41bd be36 80be 5b91 24bd a858 27bd
00000050: d847 443d d2ff 9c3d 42b9 113e 7a89 a23d
00000060: 8431 8dbd e705 2cbd 0688 7b3c d6ea cdbd
00000070: 2fc9 3f3e bb76 ad3c 39f2 323e 1db6 82bd
00000080: 559c 853b b7e9 063d 4e7c 973c a63b 80bd
00000090: 6242 f73d cd23 1cbd d838 8abe 6c8b 4f3e
000000a0: 4df9 8e3e f6d8 953d 1fee eb3d 10b2 0d3e
000000b0: d8e4 a2be 00e7 1c3e 6acb 143e 552f af3c
000000c0: 9921 37bc 5d8e d63c 2572 fe3c 214c 843e
000000d0: 812a 92bd e9f7 11bd bccb 0c3e a4da b03c
000000e0: 2a2b 44bd 7e69 45be 7af1 f5bb e31f 2c3d
000000f0: f380 473d 7b9d 163e be4d 10be 638c 3dbe

net.1.0.weight f4 [64, 64]
0.078064926 -0.101869226 -0.05995456 0.10527273 -0.06968382 -0.021413732 -0.19750457 0.079248786
0.068366386 0.16630344 0.044106413 -0.009024538 0.2261292 -0.021327488 -0.2421932 0.059510317
0.12339452 0.5732232 0.047105245 0.24265969 0.08040895 -0.41237915 0.0901038 0.028509658
-0.08713818 -0.028324068 -0.26856127 -0.13859758 0.48779115 -0.058992643 -0.051005367 -0.10744342
0.035647746 -0.0082339635 0.028758252 0.03141735 -0.009293308 -0.06091194 -0.08594178 0.015668582
-0.07363441 0.07894175 0.18629645 0.2506661 0.001898033 0.22807015 -0.20006879 0.052004192
0.020741189 0.07037166 -0.06900995 0.1081195 0.30202425 0.30179402 0.069522195 0.10790582
0.25735322 0.017119758 -0.08092363 -0.26477978 -0.002527946 0.20881008 0.07503702 0.34004593
0.13037811 -0.036051754 0.009095381 0.47412765 -0.0030749016 -0.06590981 0.41433066 -0.04076135
-0.3080556 0.23112789 0.21014991 -0.0504846 -0.0030700404 0.031345554 0.22342148 -0.23104884
-0.004807824 -0.22092453 -0.03190079 0.050786514 0.06834123 0.16637412 0.1971822 0.33406374
0.08492371 0.03409676 -0.15670457 -0.23562948 -0.14334041 -0.06654677 -0.02283733 0.07439541
0.044395775 -0.30191976 0.05857305 -0.0305373 0.2660684 -0.028888991 -0.22424217 0.28773406
0.21464871 0.18970524 -0.10375405 0.42596266 -0.050616037 0.2533083 0.23919694 0.23065135
-0.007768923 -0.0066040303 0.11756357 -0.11658018 -0.09983934 0.19860806 -0.12432318 0.02344335
0.22483788 -0.23467913 0.014281296 0.062452324 0.07452696 -0.008104633 -0.1975977 -0.25497943
-0.000694468 -0.1560086 -0.033907 0.36645973 0.0014863211 0.023010038 0.047868837 0.07299215
0.026836734 -0.19417705 -0.16947807 -0.06358489 -0.002985608 -0.26499563 -0.22902548 -0.077458255
0.09969991 -0.1191927 0.05019586 0.06576795 -0.20720221 0.0042364653 -0.042550515 -0.11242114
-0.15778048 0.026928699 0.020454826 -0.055429753 0.01935408 -0.20873417 -0.13341281 0.017371232
-0.06612374 -0.013277269 -0.07734639 -0.027288314 -0.052218854 -0.017868504 0.06646639 0.019468995
0.23101158 -0.17653516 -0.003553049 -0.030967476 -0.07432844 0.087523036 -0.07125326 -0.1259381
-0.13903204 0.16125266 0.0006645833 0.08499894 0.029495101 -0.15583545 -0.027965762 0.0608871
-0.043391436 -0.030286476 -0.0021290744 -0.06516601 -0.026956294 -0.007236997 0.022768319 -0.042161327
-0.20008413 -0.07626965 -0.020687617 -0.6964313 -0.052117277 -0.024972072 -0.05468842 0.05110143
-0.04617487 -0.43014643 -0.10219234 -0.015732558 -0.04878234 -0.49208364 0.34409872 -0.16502078
0.0043354332 -0.43357515 0.08135382 -0.027528198 -0.22040135 -0.05664822 0.0011025718 0.31602257
-0.16613767 0.1264003 0.007506104 0.008448971 -0.06283805 -0.22845569 -0.01990855 0.10720544
0.06593261 -0.09107949 -0.17926261 -0.022632146 -0.12193085 0.06261802 0.018592672 0.014633566
0.015974402 -0.15307024 0.07875985 -0.07710781 -0.032148924 0.0346321 0.017986573 0.07893342
-0.15593565 0.08146355 -0.016783964 0.024694476 0.06849476 -0.07241248 -0.08283935 0.07082201
-0.023949804 0.13382725 -0.035789784 -0.08103213 -0.082357414 -0.09655554 0.046197932 0.14177729
00000000: 81e0 9f3d d0a0 d0bd ea92 75bd 3b99 d73d
00000010: 64b6 8ebd da6b afbc a33e 4abe 304d a23d
00000020: ad03 8c3d 734b 2a3e eda8 343d a8db 13bc
00000030: 6a8e 673e fcb6 aebc 7f01 78be 17c1 733d
00000040: 44b6 fc3d c1be 123f 6ef1 403d c87b 783e
00000050: 73ad a43d 5c23 d3be 5788 b83d 168d e93c
00000060: 8175 b2bd e007 e8bc dd80 89be 86ec 0dbe
00000070: c3bf f93e 45a2 71bd 01eb 50bd 4c0b dcbd
00000080: 5f03 123d bfe7 06bc 6d96 eb3c 7baf 003d
00000090: f542 18bc cc7e 79bd 3e02 b0bd 665b 803c
000000a0: a3cd 96bd 36ac a13d 7fc4 3e3e 4f57 803e
000000b0: 6bc7 f83a 398b 693e d5de 4cbe 5902 553d
000000c0: 6de9 a93c 041f 903d 1755 8dbd c26d dd3d
000000d0: eca2 9a3e bf84 9a3e a761 8e3d bafd dc3d
000000e0: cdc3 833e bc3e 8c3c 4abb a5bd 3791 87be
000000f0: e5ab 25bb 4fd2 553e 02ad 993d 801a ae3e
00000100: d781 053e 01ab 13bd cb04 153c dcc0 f23e
00000110: 4a84 49bb b9fb 86bd 2623 d43e 60f5 26bd
00000120: 77b9 9dbe caac 6c3e 8a31 573e f1c8 4ebd
00000130: bb32 49bb 3264 003d 9ac8 643e 1198 6cbe
00000140: f38a 9dbb 0a3a 62be 67aa 02bd 8505 503d
00000150: 7df6 8b3d fa5d 2a3e 21ea 493e 670a ab3e
00000160: 7bec ad3d 0ba9 0b3d 2a77 20be db48 71be
00000170: d4c7 12be ac49 88bd 5a15 bbbc 9f5c 983d
00000180: 58d8 353d 3a95 9abe 4bea 6f3d 5c29 fabc
00000190: 1e3a 883e 9ba8 ecbc bd9f 65be e151 933e
000001a0: dfcc 5b3e 1742 423e 017d d4bd c717 da3e
000001b0: c352 4fbd a0b1 813e 0bf0 743e de2f 6c3e
000001c0: 7392 febb 9f66 d8bb 2bc5 f03d 97c1 eebd
000001d0: 9178 ccbd e95f 4b3e 279d febd 450c c03c
000001e0: e73b 663e ba4f 70be 19fc 693c 02ce 7f3d
000001f0: 97a1 983d 4bc9 04bc 0d57 4abe aa8c 82be
00000200: f50c 36ba b8c0 1fbe 11e2 0abd 9ca0 bb3e
00000210: a9d0 c23a 8c7f bc3c 1d12 443d e97c 953d
00000220: b6d8 db3c 59d6 46be a98b 2dbe cb38 82bd
00000230: 31aa 43bb 82ad 87be a885 6abe 6fa2 9ebd
00000240: 772f cc3d 4d1b f4bd 2d9a 4d3d 59b1 863d
00000250: d12c 54be 0cd2 8a3b 7349 2ebd 0e3d e6bd
00000260: 3591 21be 9399 dc3c e190 a73c 4f0a 63bd
00000270: 738c 9e3c 69be 55be 5e9d 08be 1d4e 8e3c
00000280: e26b 87bd e788 59bc c967 9ebd be8b dfbc
00000290: 70e3 55bd f860 92bc 881f 883d 717d 9f3c
000002a0: 4d8e 6c3e a2c5 34be 45da 68bb 81af fdbc
000002b0: 8239 98bd 473f b33d 3bed 91bd ebf5 00be
000002c0: 6a5e 0ebe 6b1f 253e 6e37 2e3a ed13 ae3d
000002d0: b69f f13c 5493 1fbe 7418 e5bc c064 793d
000002e0: 38bb 31bd 581b f8bc f187 0bbb c275 85bd
000002f0: 72d3 dcbc 5524 edbb a084 ba3c 5bb1 2cbd
00000300: dbe2 4cbe 4333 9cbd 1479 a9bc 5249 32bf
00000310: ed78 55bd 3b92 ccbc f700 60bd bc4f 513d
00000320: dc21 3dbd 273c dcbe 384a d1bd 91e1 80bc
00000330: fecf 47bd 63f2 fbbe b52d b03e 35fb 28be
00000340: 4010 8e3b 90fd ddbe d59c a63d d182 e1bc
00000350: e4b0 61be f707 68bd 2c84 903a b6cd a13e
00000360: fe1f 2abe 156f 013e c4f5 f53b 8e6d 0a3c
00000370: 3cb1 80bd 4af0 69be 4117 a3bc 878e db3d
00000380: ad07 873d e287 babd 9e90 37be 0d67 b9bc
00000390: e2b6 f9bd e03d 803d a94f 983c a0c1 6f3c
000003a0: c0dc 823c 72be 1cbe d84c a13d b3ea 9dbd
000003b0: 97ae 03bd 64da 0d3d 9458 933c d8a7 a13d
000003c0: 98ad 1fbe 5dd6 a63d 867e 89bc 124c ca3c
000003d0: fb46 8c3d ff4c 94bd ada7 a9bd 210b 913d
000003e0: 6132 c4bc 030a 093e 4f98 12bd 2cf4 a5bd
000003f0: 01ab a8bd e9be c5bd 0b3a 3d3d 112e 113e

net.1.0.bias f4 [64]
-0.14680798 -0.12800545 0.14546753 0.16645572 0.07214353 -0.091368034 -0.16256574 -0.12876484
-0.07265176 -0.14280747 -0.04569431 0.011480549 -0.13027422 -0.018555444 0.2566364 -0.016755214
0.047741912 -0.19307576 0.04460495 0.13828476 -0.03959647 0.0450175 0.065618664 0.028860543
0.116930306 0.044499084 -0.026390538 -0.021163967 -0.048357375 -0.02574092 0.010278108 0.019152142
-0.04101155 -0.016218165 -0.11658278 0.06186733 -0.008041335 0.08423233 0.1412722 0.00064350513
-0.061284695 0.0017576936 0.17730504 0.2159162 0.059415583 0.038415324 0.05819993 0.17464112
0.120080486 -0.31971925 -0.009187755 0.38122156 -0.016219672 -0.008615086 -0.090698846 0.05518809
0.110161506 0.06582995 0.06672252 -0.11156945 -0.025367165 0.08565018 0.030024575 -0.12088025
00000000: d554 16be dc13 03be 71f5 143e 5e73 2a3e
00000010: fdbf 933d 2a1f bbbd a277 26be eeda 03be
00000020: 72ca 94bd 1f3c 12be f529 3bbd ea18 3c3c
00000030: 9b66 05be 9601 98bc d965 833e 3b42 89bc
00000040: 068d 433d a7b5 45be aeb3 363d 859a 0d3e
00000050: e82f 22bd 4564 383d 1463 863d f26c ec3c
00000060: 2879 ef3d ac44 363d f830 d8bc 0e60 adbc
00000070: 6212 46bd 9fde d2bc 8265 283c f4e4 9c3c
00000080: bafb 27bd f5db 84bc f4c2 eebd 9968 7d3d
00000090: cebf 03bc 0082 ac3d a9a9 103e e6b0 283a
000000a0: a905 7bbd 6962 e63a 748f 353e 2319 5d3e
000000b0: c15d 733d 6359 1d3d 0d63 6e3d 1fd5 323e
000000c0: c2ec f53d 3eb2 a3be 3d88 16bc 792f c33e
000000d0: 1edf 84bc 4a26 0dbc 51c0 b9bd e80c 623d
000000e0: 5b9c e13d dad1 863d d1a5 883d 867e e4bd
000000f0: cdce cfbc 5d69 af3d 19f6 f53c 1190 f7bd

net.2.0.weight f4 [12, 64]
-0.83074456 0.014779296 0.35094863 0.17469785 0.10731785 0.20681757 -0.14907755 -0.34835437
0.24567017 0.3752133 -0.044520147 -0.2394593 0.34071058 -0.28320244 0.17257491 -0.005717498
-0.13363433 -0.02358101 -0.08329329 0.35320282 0.110456854 0.14560358 0.043885626 -0.10013173
-0.1726804 0.4051208 0.8884418 -0.31664228 0.67896897 -0.061984148 -0.012085503 -0.0031698933
-0.07896111 0.12995723 -0.19641832 0.027074657 0.07063976 1.0659355 0.25251323 0.059661496
-0.25806117 -0.16025269 0.19711147 -0.27983645 -0.018819949 -0.007049112 -0.29476368 -0.04267456
-0.2701938 1.0353485 -0.2288647 0.23773281 0.0733944 -0.5281231 -0.05095091 -0.033740614
0.36410806 -0.32825357 0.06666227 0.49832383 0.013212688 -0.20354435 -0.3494541 1.4615258
0.20405193 0.061851192 0.034775883 -0.4703846 0.17285402 0.76620734 -0.32652557 -0.8912021
-0.65234196 -0.28839967 -0.246347 -0.13186774 -0.59702134 0.26650906 0.32491475 0.06734047
0.09465341 -0.18044461 0.018253503 0.13553631 0.9063604 -0.074921526 0.13126601 0.21424006
-0.41171664 -0.077991106 -0.3530164 -0.16121638 -0.50951934 -0.877603 0.15317309 0.009828493
-0.44698194 0.0115660615 0.324945 0.1571091 0.2166804 0.16514042 -0.20259105 0.0030523853
0.46907538 0.258465 0.03063821 -0.15258555 0.16645174 0.13371743 -0.3892695 -0.05294434
-0.037469476 0.9003342 -0.186658 -0.12013013 -0.12433539 -1.0043802 -0.15039125 -0.10859736
0.399471 -0.20723023 -0.18576194 0.047713075 0.03186434 -0.27542436 -1.0037441 -0.20767437
0.06271809 -0.575317 0.024644332 0.10202138 0.07541298 0.4749951 0.019472623 1.0329546
-0.99751896 -0.08033127 -0.20367798 -0.088371664 0.28760242 -0.8151953 0.22618774 -0.3237044
-0.33185425 0.6762563 -0.0040887212 0.21595146 -0.50732124 0.07819944 0.13730069 0.770951
-0.12194581 -0.07333087 0.039075915 -0.020278318 0.05876082 0.06357951 0.1694964 -0.057226393
-0.23309729 0.41244113 -0.70043576 -0.020608157 -0.015545326 -0.0013215027 0.78086996 0.019585537
0.2600255 -0.6543983 0.18591164 -0.08597306 0.14341655 -0.067246474 -0.30732778 0.30042827
0.44537014 -1.1266055 -0.706506 0.07483664 0.093269356 0.1840737 0.25485155 0.2803588
-0.09347934 0.026728138 -0.01231656 0.39294904 -0.33561185 0.24901494 -0.6347127 -0.031228483
0.1763369 -0.47289103 0.1740954 0.29770073 0.026036832 -0.3467638 -0.1478799 0.13598551
0.33437505 -0.06306159 -0.10511716 0.12876995 -0.050817862 -0.53947884 0.070095636 0.08882917
-0.63257974 0.43574268 -0.44271785 1.1044146 -0.2824257 -0.25859717 0.48676294 -0.017286396
-1.4562714 0.20499502 -0.32091084 -0.3192123 -0.11052744 0.6634707 -0.20667036 0.01974385
-0.044782255 -0.22759935 0.72946596 0.22680184 0.30908942 0.086564735 0.0044335 -0.13199137
0.63971925 -0.0025096186 -0.462298 0.18602929 -0.09483725 -0.22905667 -1.6073822 0.18827629
0.19584255 0.6941247 -1.1575227 -0.112600505 0.2047471 0.05572988 0.101428114 0.094754435
0.008231147 0.037745852 0.06717331 1.1833485 0.27968132 -0.020231735 0.23756018 -0.3926966
00000000: adab 54bf dc24 723c 8aaf b33e fee3 323e
00000010: 76c9 db3d fcc7 533e c9a7 18be 815b b2be
00000020: f690 7b3e f51b c03e c25a 36bd d234 75be
00000030: 9e71 ae3e e9ff 90be 7ab7 303e d959 bbbb
00000040: 70d7 08be f62c c1bc ac95 aabd 00d7 b43e
00000050: 3437 e23d 1b19 153e 6ac1 333d dd11 cdbd
00000060: 21d3 30be fe6b cf3e ec70 633f f01e a2be
00000070: e9d0 2d3f 17e3 7dbd 4602 46bc fcbd 4fbb
00000080: 5db6 a1bd 8213 053e e221 49be accb dd3c
00000090: 94ab 903d 9370 883f 6a49 813e 9d5f 743d
000000a0: 9820 84be 4819 24be 97d7 493e b946 8fbe
000000b0: 4b2c 9abc 3dfc e6bb 44eb 96be 85cb 2ebd
000000c0: d756 8abe 4d86 843f 825b 6abe 3b70 733e
000000d0: ce4f 963d 1333 07bf e7b1 50bd 9933 0abd
000000e0: 5f6c ba3e da10 a8be 3a86 883d 4d24 ff3e
000000f0: 087a 583c ee6d 50be a6eb b2be 4713 bb3f
00000100: fdf2 503e ad57 7d3d 2871 0e3d 40d6 f0be
00000110: a500 313e 2a26 443f 5c2e a7be d225 64bf
00000120: e2ff 26bf 1fa9 93be 6342 7cbe 5608 07be
00000130: 64d6 18bf e073 883e 3a5b a63e cde9 893d
00000140: a6d9 c13d 79c6 38be 5f88 953c 08ca 0a3e
00000150: 3c07 683f 7570 99bd 996a 063e bf61 5b3e
00000160: 86cc d2be cdb9 9fbd 91be b4be e815 25be
00000170: dc6f 02bf 97aa 60bf 68d9 1c3e b007 213c
00000180: d1da e4be 947f 3d3c 315f a63e 35e1 203e
00000190: 77e1 5d3e 921a 293e 0774 4fbe 870a 483b
000001a0: a62a f03e 8655 843e fcfc fa3c 633f 1cbe
000001b0: 5372 2a3e 39ed 083e 554e c7be 2adc 58bd
000001c0: 9879 19bd 4d7c 663f 4623 3fbe c906 f6bd
000001d0: 8ea3 febd 888f 80bf 2a00 1abe 4b68 debd
000001e0: 7787 cc3e 2934 54be 6138 3ebe c96e 433d
000001f0: 2f84 023d 6c04 8dbe b07a 80bf 97a8 54be
00000200: 5872 803d fa47 13bf e9e2 c93c 96f0 d03d
00000210: 1f72 9a3d 8f32 f33e 0d85 9f3c db37 843f
00000220: 675d 7fbf b984 a4bd f690 50be 34fc b4bd
00000230: a040 933e a4b0 50bf c29d 673e 95bc a5be
00000240: cde8 a9be 221f 2d3f aefa 85bb 6122 5d3e
00000250: cedf 01bf 0727 a03d 8d98 0c3e 0b5d 453f
00000260: babe f9bd 7f2e 96bd 110e 203d b71e a6bc
00000270: 30af 703d f935 823d 7790 2d3e 3966 6abd
00000280: 0eb1 6ebe 7c2b d33e c24f 33bf 70d2 a8bc
00000290: d3b1 7ebc 4636 adba 18e7 473f d971 a03c
000002a0: 1022 853e a686 27bf 9f5f 3e3e a512 b0bd
000002b0: cadb 123e 85b8 89bd 115a 9dbe bcd1 993e
000002c0: 8e07 e43e 9c34 90bf 94dd 34bf f443 993d
000002d0: 0104 bf3d d17d 3c3e e77b 823e 308b 8f3e
000002e0: 1972 bfbd f8f4 da3c 66cb 49bc 9e30 c93e
000002f0: 51d5 abbe c6fd 7e3e 887c 22bf e0d2 ffbc
00000300: a991 343e c61e f2be 1146 323e 3b6c 983e
00000310: 324b d53c 068b b1be d46d 17be c93f 0b3e
00000320: 3533 ab3e 6f26 81bd aa47 d7bd 45dc 033e
00000330: 6426 50bd 491b 0abf 4d8e 8f3d 11ec b53d
00000340: bff0 21bf aa19 df3e eaab e2be 755d 8d3f
00000350: 1a9a 90be d966 84be fe38 f93e 339c 8dbc
00000360: 1a67 babf 37ea 513e 6d4e a4be cb6f a3be
00000370: 365c e2bd 37d9 293f 65a1 53be dbbd a13c
00000380: 996d 37bd ce0f 69be 48be 3a3f be3e 683e
00000390: f840 9e3e da48 b13d e546 913b bf28 07be
000003a0: a4c4 233f 6a78 24bb 53b2 ecbe 767e 3e3e
000003b0: 083a c2bd d58d 6abe b3be cdbf 80cb 403e
000003c0: f38a 483e 28b2 313f b429 94bf 189b e6bd
000003d0: 39a9 513e 0445 643d 8bb9 cf3d 9d0e c23d
000003e0: efdb 063c 659b 1a3d 2992 893d f777 973f
000003f0: 6432 8f3e 06bd a5bc fa42 733e 870f c9be

net.2.0.bias f4 [12]
0.05510283 0.09814448 0.12813565 0.13211669 0.16531633 0.15271726 -0.056537077 -0.043133758
-0.03584828 -0.03093579 -0.06831203 -0.10040509
00000000: 81b3 613d f9ff c83d fe35 033e 9949 073e
00000010: af48 293e ea61 1c3e 6c93 67bd 06ad 30bd
00000020: a5d5 12bd 0e6d fdbc 2de7 8bbd 2fa1 cdbd
