suboptimal_policies/HalfCheetahPyBulletEnv-v0.pth (torch, 58199 bytes, 6 tensors)

net.0.0.weight f4 [100, 26]
00000000: 4cba abbe 7702 aebc d8d2 56be 5d5a 24bf
00000010: 9f53 2e3d 4211 3a3e b1e1 853d 2732 bd3e
00000020: 9c27 a33d d7ec 303e 3b59 7d3e 8ad7 503d
00000030: 2982 dfbe e77d f7bd 4401 e9bd 3130 b63d
00000040: e2ff 103f 0649 48be 733d 113e 82dc 5dbd
00000050: aaaa 343e 6eb9 983d ad36 a1bd 9d01 abbd
00000060: a24d 48bd 5b43 803d b482 9e3d 5f90 eb3c
00000070: 71b4 3c3e bd7a 003e 29ee b33d bcfc 32bf
00000080: 6dd6 7bbd 6221 683e 0c83 a1bd f281 d13d
00000090: 16fc 14be f143 c03e 92f0 3f3e 2166 3cbe
000000a0: f4d2 d03c fe59 21be 3aeb 91be 590b f2bd
000000b0: 419f 4ebe 7838 14be babb 3c3d a573 a43d
000000c0: 8335 633d 4be2 b0bd 07ae 803d 05ec 0abd
000000d0: 8f9e 47be e3b4 51bd 30f5 f33d 573e e73d
000000e0: 2497 833d 01cc e9be 0303 653d 191a ec3c
000000f0: 3557 a4bd eb79 ff3d 1e41 833d 11c3 9bbe
00000100: e5ed d43e e930 1f3e 92d1 37bd ccad a0bc
00000110: 8ff3 32bf 2773 4cbe cc50 b53d c9bd 28be
00000120: 92e6 3bbe 6c3b a5bd 7c90 00bd 77e9 12be
00000130: c20d 263d 7c83 6dbd d4ba aebd 0a3c 72bd
00000140: c977 363e 5b42 3c3e 1777 b53d 2cc3 603e
00000150: 78dc 683d a652 32be 3915 a43e 9516 3f3e
00000160: 7aa4 863e 639a 263e c405 693e d220 043e
00000170: 5602 423e 2991 8e3d f30a f2bc 5eaf 043e
00000180: 0036 1bbe 9b4c dfbd c7f4 40bb b293 b2bd
00000190: 1151 ccbd 5a97 313e f9e7 29bd ab71 b7bd
000001a0: c79b 7bbf 9ea1 493c 7c22 d6bd f9ea 983e
000001b0: 950a 2e3d 2cea 15bf ba6c 83bd d6e5 853f
000001c0: 3e25 9bbd bad2 73be 96ce 1d3d 863e b33c
000001d0: e5c0 993d 2f0f e43d 3edc a33d df30 0dbe
000001e0: 7091 0a3f d825 bebd 46d2 ce3d 320d d3bd
000001f0: 1fd3 69bd 3b32 b2bd 8bf5 adbb ca04 aebe
00000200: b8af 68bd ea6c 1bbd 6273 7d3e 4701 313d
00000210: c990 7cbd e218 0ebf 1550 853d 9303 e6bd
00000220: 5ec7 273c 5820 99bf 8c5b 4d3e 72fd 863e
00000230: 1d02 253e 49f5 293f c338 913e ea9f 713b
00000240: f7b2 0d3e f525 8e3e 49a6 40bf fddb c0be
00000250: ada3 e53d 0f3a c3bd b13a d4bb 631c 56bd
00000260: 4dd0 353d 28c0 a63c 0c77 e63c 70df 503d
00000270: 1bba ddbd 13a8 623c d307 b33d 184e a83e
00000280: 4b72 a73d 756a 68bf fd2b d6bc 8413 bfbe
00000290: 90fe b4bd 902a ca3d 1fbd 113e 342e 7f3d
000002a0: a7f5 163e c7b7 6f3d e4a7 8a3e 20c2 303e
000002b0: eeba e1be 2432 953e a4ff ddbe 3605 e3be
000002c0: 0e1a 80be cda0 f03c 948f 843d b62d 92bd
000002d0: cc20 d1bd 1cd5 6abb 593e 4e3d 9fb2 5a3b
000002e0: e940 d93d fd1c 1e3f 328f e73c ea19 6abe
000002f0: f368 3a3d 3ccf 80bf 2d01 943d aeb7 45be
00000300: eb72 a83e 4003 163e 1a1e 13be 7f71 0fbd
00000310: fe0c d3bd 6987 543e dd94 5a3e e1fd 0c3e
00000320: 003b 6c3e e69e 24bd 63b1 f23b a312 73bd
00000330: b6cf cbbd da1c e93d 5d6c ca3d 18dc 543c
00000340: 23a4 debd 290b b33d 7d2f a73d 040d 903e
00000350: 52e1 413c dbe7 643d bee7 54bd be5c 003e
00000360: 5acb d5bc 2256 d43d 1d1d b33e 812c 8bbe
00000370: e934 ab3d 9014 1a3e 85ed ea3d 1ea4 41bd
00000380: a7fc e13e 4552 20bd d1d8 57bd 8604 e4be
00000390: e2c1 c33d fc2b abbd 489d 3c3d 44f0 23bd
000003a0: 880a 84bd 7e48 4dbc 211f 13be 1ec6 97bd
000003b0: b2c8 283e c8dd bb3d 55a0 34bd 43a7 b3be
000003c0: 3a6f 4c3d 4c15 653e a4a4 caba ad8e 023f
000003d0: fb21 e73d 3fb3 433e 12cc 33be 0719 3e3e
000003e0: 978a 6e3e 09d8 243d c2a7 143e 87ab 8e3c
000003f0: bc60 87be 5926 a7be 6cc8 dcbd 16b9 68bd
-0.3354057 -0.02124141 -0.20978868 -0.64200383 0.042560216 0.18170646 0.06537188 0.36952326
0.07966539 0.17277847 0.2474107 0.050986804 -0.43653992 -0.12084561 -0.113771945 0.088959105
0.56640446 -0.19559106 0.14183597 -0.05416537 0.17643228 0.07457243 -0.07871757 -0.08349917
-0.04890216 0.06262847 0.077397734 0.028755365 0.18428208 0.12546821 0.0878566 -0.6991689
-0.06148379 0.22668985 -0.07886323 0.10229863 -0.14549288 0.37551835 0.18744114 -0.18398334
0.025491215 -0.15756986 -0.28499776 -0.11818571 -0.20177938 -0.14474666 0.046077468 0.0802987
0.055470955 -0.08636912 0.06283193 -0.033916492 -0.19494079 -0.051197898 0.11912 0.11291187
0.06425312 -0.45663455 0.055911075 0.028821038 -0.08024446 0.12474426 0.064089045 -0.3042226
0.4158775 0.15546001 -0.044877596 -0.019614123 -0.6990289 -0.19965802 0.088533014 -0.16478647
-0.18349674 -0.080679744 -0.03138779 -0.14346872 0.040540464 -0.05798672 -0.085317284 -0.05913929
0.17819132 0.18384688 0.08860605 0.21949452 0.05685088 -0.1741434 0.32047442 0.18660958
0.2629736 0.16269831 0.22756106 0.12903145 0.18946204 0.06961281 -0.029546237 0.12957522
-0.15157318 -0.10903283 -0.0029442774 -0.08719577 -0.099764 0.17342892 -0.041480992 -0.08957227
-0.9828457 0.012306599 -0.10455796 0.2986677 0.04249056 -0.5856044 -0.06417222 1.0460765
-0.07575463 -0.23810855 0.038527094 0.0218804 0.07507495 0.111357085 0.08000992 -0.13788174
0.5412817 -0.09284562 0.100987 -0.10305251 -0.057086106 -0.08700987 -0.005308812 -0.3398803
-0.056808203 -0.037945665 0.24751046 0.04321411 -0.061661515 -0.5550672 0.06509415 -0.112311505
0.010240404 -1.1962996 0.20054454 0.26365238 0.16114087 0.663899 0.28363618 0.0036868998
0.13837801 0.27763334 -0.7525373 -0.37667838 0.11212859 -0.09532558 -0.006476723 -0.052273165
0.044388104 0.0203553 0.028132938 0.050994337 -0.108265124 0.013834017 0.08741727 0.3287208
0.081760965 -0.9078744 -0.026144022 -0.37319577 -0.088376164 0.098713994 0.142323 0.062299922
0.14742146 0.058524873 0.27081215 0.17261553 -0.4408793 0.29139817 -0.433591 -0.44339913
-0.25019878 0.02937355 0.06472698 -0.07137625 -0.10211334 -0.003583259 0.050352428 0.0033370627
0.10608084 0.6176298 0.028266523 -0.22861448 0.045510244 -1.0063243 0.07226787 -0.1930835
0.32900175 0.14649677 -0.14366952 -0.035020348 -0.103052124 0.2075478 0.2134585 0.13768722
0.23069382 -0.0401906 0.0074064 -0.059343945 -0.09951727 0.11382456 0.0988395 0.012991928
-0.1087115 0.08742363 0.081633545 0.2813493 0.011833506 0.055885177 -0.05197882 0.12535378
-0.026097942 0.10367991 0.3498315 -0.2718239 0.08359701 0.15046906 0.114710845 -0.047275655
0.4413807 -0.03914096 -0.052697007 -0.445347 0.095584646 -0.08357999 0.046048433 -0.040024057
-0.06447321 -0.0125294905 -0.14367343 -0.07410835 0.16482809 0.09173161 -0.044098217 -0.35088548
0.04991076 0.22371405 -0.0015460444 0.50998956 0.11285778 0.19111346 -0.17558315 0.18564235
0.23295055 0.04024509 0.1451712 0.017415775 -0.2644099 -0.32646444 -0.10780415 -0.056817137

net.0.0.bias f4 [100]
00000000: 284a 52be c4f0 283e a7c5 5dbd eb68 b23c
00000010: ee72 1abe 33c6 743d 2472 043e f811 4e3d
00000020: a8e0 9d3d c4c2 d53d b029 d93d c601 cdbd
00000030: 33c3 21be 99c7 003d 26c8 0d3e 9bc9 073e
00000040: 25fe 803e e329 de3d 4965 bfbd 3fe9 aa3d
00000050: 0b05 9cbd 6cf0 193e 6aad 16bd f74a 013d
00000060: b86e 95bd 1c33 c6bc 81be 0a3d f5bf 4abc
00000070: 21f9 0d3e cdb4 c9bd db6a 503c 6b6d 003d
00000080: 1154 b6bd 81ab a4bc 89c7 a63d b68b f13c
00000090: 5e89 553d f561 9f3c d87c 393e a9ad aebc
000000a0: e693 73bd 9612 1d3e 0ade 753d a0fa df3d
000000b0: e328 db3d fec0 ebbd 1aba a43d cc23 1d3e
000000c0: 1ea9 133e 5731 72bd 565c 96bd 33ed 47be
000000d0: 474d 8a3e 66b3 853d 9a39 19bd 4e36 ea3d
000000e0: ef00 0ebd f8d8 0d3d 732a b7bd 3834 533d
000000f0: 6d52 2bbe 20bc ed3d e8b5 043d eae3 0a3e
00000100: f17f 273e 681d 2c3d 6db6 823d df95 9dbd
00000110: 799b d0bc 4bab c6bd 06c7 5b3d fa84 cebd
00000120: efd8 963c bcea d9bd a839 a23d b7fc a0bd
00000130: a595 15be 1209 123d 9c28 ec3c 9687 4d3d
00000140: c5ae 17be e030 423d 4ec8 67bd 56a4 893d
00000150: d20a abbd 243c 8cbc 2ac8 473d 75c6 51bc
00000160: 40c7 30bd ede2 393e 8be9 5c3d 98f4 eabd
00000170: 62bc 1c3e 3c7a ee3b 97c3 1a3b 51a6 113e
00000180: 91a3 023d e8d0 03be 4774 88bd 2586 0bbe
-0.20536101 0.16498095 -0.054143574 0.021778544 -0.15082905 0.05975933 0.12934166 0.050310105
0.077088654 0.10437539 0.106036544 -0.10010104 -0.15797119 0.03144035 0.13845882 0.132605
0.25193897 0.10847833 -0.093454905 0.083452694 -0.07618149 0.1503312 -0.036786474 0.031565633
-0.072965086 -0.024194293 0.033873085 -0.012374868 0.13864566 -0.09848938 0.012720789 0.03135435
-0.08902753 -0.02010131 0.08143527 0.029485565 0.052132957 0.01945589 0.1811403 -0.021323042
-0.05946722 0.15339121 0.060026206 0.10936475 0.10701158 -0.1151142 0.080433086 0.15345687
0.14419982 -0.059129085 -0.073418304 -0.19524078 0.27012083 0.06528358 -0.03740845 0.11436139
-0.03466886 0.034630746 -0.089436434 0.05156347 -0.16730662 0.116081476 0.03240004 0.13563505
0.163574 0.04202023 0.06382451 -0.07694601 -0.02546476 -0.0970064 0.0536566 -0.10083957
0.018413989 -0.10640475 0.07921153 -0.078607015 -0.14607866 0.03565318 0.028827958 0.050178133
-0.14812763 0.047409892 -0.05658751 0.06720798 -0.08351673 -0.017118521 0.048774876 -0.0128036635
-0.04315877 0.18152972 0.05393366 -0.11472434 0.15306237 0.007277755 0.0023615116 0.14223601
0.03189427 -0.1287266 -0.06662803 -0.13625391

net.1.0.weight f4 [100, 100]
00000000: 147d 71be 6005 05be 195f c6bd cb04 933d
00000010: f0c5 44be 925f fcbd 2347 6ebd 2861 a7be
00000020: 6a22 863d db55 63be cfed d63d 1e88 c1bd
00000030: 06b2 26bd 646d af3d 4ddf b83d 6cb9 5cbe
00000040: 1671 873e 1db6 50bc 43a0 113c 5d98 10bf
00000050: b303 8ebe e7f9 a33c 5c88 4dbe b530 013c
00000060: df3e b23d d791 eabe 20cc f83c 3b55 03bc
00000070: 6ce2 173d d729 16be 28ac 333e d13f 88bd
00000080: f2c8 113d a602 883d 9916 a63d abf0 0a3d
00000090: f020 84be 8718 c53c 27e8 283b 7e26 c43b
000000a0: fa6d 31bf 2160 9abe 1431 8f3d 4244 b23d
000000b0: 2fa0 82bd ca49 b4be 853d 123e 40d9 723e
000000c0: a364 abbc 4681 cd3d 2060 2f3d e518 24bf
000000d0: fa08 033d 840d 4e3e 2441 333c 61ff a8bd
000000e0: 3686 a83e b9ca 3c3d 7d21 cb3c 8845 1b3e
000000f0: 9737 b7bd 9c39 493e cf5e 553c 5796 aa3e
00000100: 2d24 2b3e 4cb7 803e 86b0 f23d 73b4 80bd
00000110: f61d 80bd c34a 08bf 5dfa 1a3d 61a3 013e
00000120: 2ab9 bcbc 22a5 59be 8a12 273e dfb2 74be
00000130: 3de9 403c d09a 6fbb 239d 81bd 9e35 df3d
00000140: b598 313e 15d2 0f3e 2663 493e 7294 0dbc
00000150: 6f6a f9bd 3241 223e 22a5 e23c 7e85 b2bd
00000160: 0ea0 04bf 725f d93d 408c 10bf 4a8e 2d3e
00000170: 2755 c53c b2b8 4ebe 29ed d23d 8c22 bebb
00000180: cd19 c4bd 4e2b dcbd d141 aabd 16ad 87bc
00000190: 8915 ca3e 0e06 98bd 98e3 373e 7b5a 1bbd
000001a0: cf05 1d3f 1294 7b3e 24f0 78be eb98 3dbe
000001b0: 0698 943a 5f10 c2bd 2a0e d83d 123c b6bd
000001c0: d41e 6ebe 9733 103e 2fe2 503b 381a a4bc
000001d0: 8f80 91bd 8eb5 abba d5b8 21bc 50f3 0a3e
000001e0: c931 a3be 5990 433d 0291 dc3e 29b5 ae3d
000001f0: 7599 cbbe 9aef 0d3c e8b7 4dbd a435 56be
00000200: c043 f9bc 6744 a83d 258b 4bbe 81a2 eabe
00000210: 9362 8dbe 645c 963d 734d c23d 733a 923d
00000220: 6712 483e 8d02 923d 2714 f6bc 5eee 13bd
00000230: 5466 a43d 0f9f 9e3c 91d1 f63d 2185 d8bd
00000240: 6877 c0be 6e4b 453d 55f4 313d dedf 133d
00000250: 06b3 bb3c 279d 2ebe 82bb 593e b516 a23e
00000260: 7add e0bc 4e8d a9bd 8a93 553d d74b 073d
00000270: eaa3 d4bd b935 d43d 7b9d 783e c16c 783e
00000280: dfd7 913d 40ba c23c a9ce 563c 3760 dd3d
00000290: f732 973d 17b2 9fbd 3e40 86be 6910 87be
000002a0: 3e0a 723e 13d2 d03e 8195 4abd ca72 0c3e
000002b0: 6925 51bd 7551 493d 4c3d 81bd 8666 ecba
000002c0: 68f7 833d 1662 49be ab10 2fbc 039c 3f3c
000002d0: 08a4 72be f9db cb3e 6d11 433e 030d 443d
000002e0: 2682 4a3c cd57 793e 163e ec3d 8ff7 9abd
000002f0: e2db d33d b4d7 1f3c e5ab 34be 96db ee3d
00000300: 5f98 263e 4ed2 a6bd 163b e8bc 24b0 873d
00000310: 7182 33be 24ef 26bd dcd5 683d fc4d 6dbd
00000320: d7a0 013e 3260 ac3b 353a ef3d 473f 533d
00000330: 4c38 84be 5df0 ddbd 904f 043e 9ac6 2c3e
00000340: 22ec d73d 333b 053e 9843 273c d229 8dbe
00000350: c255 253e 316a 48bb 8092 99bd 9c58 c43d
00000360: 99ae 303d 198e 6f3d 1aad 88bd e2f1 8ebe
00000370: 815d 5c3f d13d 8d3d de76 20bf a7b9 5a3d
00000380: 7d38 3bbd 8ca3 f2bd bf9b b03d 37c4 9e3d
00000390: 335b 703c 2fc4 9fbd 3ef6 1c3e 03fd 1fbd
000003a0: 5494 8d3d 6dff 263e dcc2 ff3d b7e8 d73d
000003b0: 6069 26be 35ba 8fbd 69fe 943d 5cad 633d
000003c0: 5d47 9fbc 05c1 083e c97d 2f3d 3674 0fbd
000003d0: 2a11 d43c 7bac 6a3d 4968 e23c 7fbe ffbd
000003e0: f5ca 4abe d9f0 bf3c 1e10 813e 1a21 f93e
000003f0: 0b15 f4bc 6df7 47be c2a6 b93d b314 06be
-0.2358287 -0.12990332 -0.09686107 0.071786486 -0.19216132 -0.12322916 -0.05817331 -0.32691312
0.06549533 -0.2220072 0.10494577 -0.094497904 -0.04069712 0.085657865 0.09026966 -0.21555108
0.26453465 -0.012738732 0.008888307 -0.5648249 -0.27737197 0.020016624 -0.20071548 0.007885148
0.08703398 -0.45814392 0.030370772 -0.008015926 0.037081167 -0.14664398 0.17546141 -0.06652797
0.035592027 0.0664113 0.08109779 0.033920925 -0.2580638 0.024059547 0.002577314 0.005986034
-0.69308436 -0.30151466 0.06991783 0.087044254 -0.06378209 -0.35212547 0.1428128 0.23715687
-0.02092201 0.100344226 0.04281628 -0.64100486 0.031990983 0.20122343 0.010940824 -0.08251835
0.32914895 0.04609177 0.024796242 0.15163243 -0.0894615 0.19650882 0.013023092 0.33317825
0.16713019 0.25139844 0.118500754 -0.06284418 -0.062557146 -0.5323908 0.03783642 0.1265998
-0.023037512 -0.212544 0.16315666 -0.23896359 0.011774358 -0.0036560781 -0.063287996 0.108988985
0.1734341 0.14044984 0.19666728 -0.008641349 -0.12178504 0.15845183 0.027666632 -0.08716868
-0.51806724 0.10613908 -0.56464005 0.1694881 0.024088455 -0.20187643 0.10299141 -0.005802458
-0.095752336 -0.10750447 -0.08313335 -0.016562026 0.39469555 -0.0742303 0.17957914 -0.037928086
0.6133699 0.24568203 -0.24310356 -0.18515365 0.001133681 -0.09475779 0.105495766 -0.08898176
-0.23253947 0.1408218 0.0031873097 -0.020032033 -0.07104599 -0.0013100372 -0.009870728 0.13569379
-0.3187392 0.047745083 0.43079382 0.08530647 -0.39765516 0.0086630825 -0.050224215 -0.209189
-0.030427814 0.08216172 -0.19877298 -0.45827106 -0.2761427 0.07341841 0.094874285 0.071400546
0.1953827 0.07129393 -0.030038906 -0.036115997 0.0802733 0.019362954 0.1205169 -0.10572267
-0.375911 0.04816764 0.043445904 0.03610217 0.022912513 -0.17052136 0.21262935 0.3165795
-0.027449358 -0.08278905 0.052142657 0.03303131 -0.103828266 0.10361809 0.24278824 0.24260236
0.07121252 0.023770452 0.013110795 0.10809367 0.07382768 -0.0779764 -0.26220888 -0.26379707
0.2363672 0.40785274 -0.049458984 0.13715664 -0.051061068 0.04914995 -0.063105196 -0.0018035925
0.06443673 -0.19666323 -0.010685126 0.011694911 -0.23695385 0.39816263 0.19049616 0.04786397
0.012360131 0.243499 0.115352795 -0.07566749 0.10344674 0.0097560175 -0.17643698 0.116629764
0.16269062 -0.08145581 -0.028348487 0.06625393 -0.17530228 -0.040755406 0.056844577 -0.0579357
0.12659012 0.005260491 0.11681024 0.051574018 -0.258242 -0.10836861 0.12920976 0.16872635
0.10543086 0.13010864 0.010208987 -0.2757097 0.16145995 -0.0030580873 -0.07498646 0.095872134
0.04313526 0.058485124 -0.066736415 -0.27918917 0.86080176 0.06896556 -0.62681377 0.053399708
-0.04570817 -0.118476 0.08623456 0.07752269 0.014670181 -0.07801091 0.15328309 -0.03905965
0.06913057 0.16308375 0.12488338 0.10542434 -0.16251135 -0.07017938 0.072750874 0.05558525
-0.019443208 0.13354881 0.042844567 -0.035022937 0.02588709 0.057293396 0.027637618 -0.12487506
-0.19803984 0.023430275 0.2520761 0.48658067 -0.02979519 -0.19527979 0.0906501 -0.13093834

net.1.0.bias f4 [100]
00000000: 5906 ee3c dbce adbd 28f4 073d 4801 2a3d
00000010: 22d0 7b3d 1ad5 a43d ae70 6a3d f005 19be
00000020: 7761 923b 2002 b43d 2891 d6bd 84a8 7b3d
00000030: fb3e 2a3d 33fe 42bd 02e1 8a3e e4e4 fcbd
00000040: 4778 533c 8cdc 7e3c c400 a33e 5cbb c0bc
00000050: a6fd 59bd b05a 7f3d 282c 6f3c 445e 7ebd
00000060: b11f 88bd 6b2e b4bd 024e eebd 82f1 213e
00000070: 851b c33e c79f 7a3d 68d5 3d3d 2a9d d1bc
00000080: dfb9 c23d 2bd5 a83c 237e 83bd 54fd 263d
00000090: 6c8d 1d3d 950d 71bd 4ba9 d53d 49c3 d73c
000000a0: 9a84 5a3e 0c6c 31bd 90b0 debd 9ec2 01be
000000b0: ad06 29bc 829b f63d 0e50 8fbd 6c4b b73d
000000c0: 24a0 d03d 06ba f4bd af92 f6bc 22fb c33c
000000d0: c6ca ae3d 81f9 b43d 2340 a738 af99 3c3d
000000e0: 4fa7 8c3d 4d72 d03d 79ba ffbd c4bc a03d
000000f0: 38cc 573d 03a5 b93e d726 5f3e b9e3 8a3d
00000100: ea10 e4bd bf27 5cbd 5f61 7a3d 38f4 463c
00000110: 1013 9c3e 016a 743c 679d 753c 1a3e f0bd
00000120: 374e 2f3d 9893 6dbc 1722 123d b84e 453e
00000130: b5df 8dbd 80f6 8b3d 832f a73d a41b d43d
00000140: 6ce0 7d3e a02d 463e 7a5f 523e 5983 813e
00000150: 9ec7 963d 9711 1e3c 9ff8 9d3d 6da5 78bc
00000160: 6614 d83d 72b1 2cbc 0ff4 3b3d 1d64 a3bd
00000170: aac2 603d fa07 a63d ff64 a83d 22c4 dcbb
00000180: 6fdd 91bd 3763 b53b 2f43 0e3e fe90 9c3c
0.029055761 -0.0848672 0.03319183 0.04150513 0.061477788 0.080484584 0.057236366 -0.14943671
0.004467185 0.08789468 -0.10476905 0.061440006 0.04156397 -0.047605705 0.27124792 -0.12348345
0.012907094 0.015555512 0.31836522 -0.02352684 -0.053220414 0.062342346 0.01459793 -0.062101617
-0.0664667 -0.08797916 -0.116359726 0.15814784 0.38106933 0.06118753 0.0463461 -0.025587637
0.09508108 0.020609459 -0.06420543 0.040768936 0.03846495 -0.058850843 0.10432681 0.026338236
0.21339646 -0.043315932 -0.108735204 -0.12671897 -0.010316533 0.120413795 -0.06997691 0.089499325
0.101867944 -0.11949544 -0.030099241 0.02392346 0.0853477 0.088366516 7.975127e-05 0.046045
0.06867849 0.10178051 -0.12486739 0.07848504 0.052684993 0.36258706 0.2179216 0.06781716
-0.111360386 -0.053748842 0.061128017 0.012143187 0.30483294 0.014917851 0.014991141 -0.11730595
0.0427992 -0.014500521 0.03567704 0.1926831 -0.06927434 0.068341255 0.08163359 0.103568345
0.24792641 0.19353342 0.20544234 0.25295523 0.07362293 0.009647748 0.07713436 -0.015176159
0.10550766 -0.010540353 0.04588705 -0.079780795 0.054873146 0.0810699 0.082223885 -0.006737248
-0.07122313 0.005535509 0.13892816 0.019112106

net.2.0.weight f4 [12, 100]
00000000: 4ae6 48be 4414 933e 1b69 28be 4e98 063e
00000010: 3912 78be e13c 2e3e 4fa9 4a3e 9a63 7bbd
00000020: 2a19 29bc bbc8 c9be fd0d 15bf 451d 283b
00000030: 8624 f6bd 509e 753f d94a 283e 1a67 85be
00000040: 7c0e e0bd ba24 8b3e 10c7 2d3e 8772 743e
00000050: e5c6 97be 093a aa3e f4fe aa3d 74b5 3ebd
00000060: 43c9 5bbe 1338 d73e b00a 8abe 10b6 4d3c
00000070: a5db a63b 13d1 ff3d 7ea2 a9be 6514 b03d
00000080: a762 9cbe 9bd7 cfbd 1ff1 e03e df17 193f
00000090: 93a4 3cbe 1053 36be 07c7 3e3e d95a 5cbf
000000a0: 170c 073e caf9 1ebd 79e9 54be b702 05bf
000000b0: a4d5 cb3c dfb5 833e 806f 7dbd c1da 75bd
000000c0: c4c5 113e 1801 0a3f a7d6 ec3d 98bd 6cbe
000000d0: 34aa a8be 0288 93bd f823 c53e 991d adbe
000000e0: cad1 943e 8028 2ebe 16c8 cf3e 0938 ccbe
000000f0: 5d0d 85bd 14d5 863d 0fd4 3c3e a135 e93e
00000100: 683c 843d c35f 9a3c b06f 073c b1ce 61be
00000110: 08a5 a43d 28f0 243e 1546 31be d2a2 ccbe
00000120: 73da d33e e8c3 363e 0b8e a83c 5134 fd3d
00000130: 2f08 373e 8159 623e c6de 16be 8e42 7b3e
00000140: 6c4e 353b fc24 97be 6c8a 403d 19aa de3d
00000150: 4a25 1e3e 83b8 d0be 6508 1ebd 5a86 3fbe
00000160: 8b40 27be f8c3 533e 4c88 2f3e 5ae4 4b3f
00000170: 6bd4 d2bc 1771 1dbe 069d 62bf ae6b e1be
00000180: 843f 02be 0fc1 103e 8212 a03e c211 203e
00000190: 0d78 053f 545d d4bd 7d92 87be 57c6 1bbe
000001a0: 9490 58bd 51c1 483e 83d7 983e 1358 673e
000001b0: 1c2b 9d3d 6e10 7c3e f635 123f b14e cb3d
000001c0: 39e7 febd b2fd 333e 1dea 233d 3005 a83b
000001d0: 315b 80bd 73fe 303f cce9 2cbe f087 56bd
000001e0: f8e3 ae3e 5434 af3d 50a3 d7be 6ddf 07bf
000001f0: 6e01 7dbd 510a 12be bf9f 813e 29b1 37bd
00000200: 3eb4 173c 8bd3 fbbe ad13 3a3e 5933 67be
00000210: f974 c7bd 5f4a c6be a632 17be 7f0d 97bd
00000220: add0 d5be 61c5 e43e 6256 f5bd 03ca 7f3e
00000230: b349 01bd 32e4 803b 0c99 cabd 647a f2be
00000240: 09cc c0bd 9a15 963d bafa 173e 2d63 27be
00000250: 9e6d e33d df34 4b3e d305 1a3e ee96 9d3c
00000260: e60c c4be 48f9 99be a369 e13d db7a 37bd
00000270: 12c1 90be 2d32 a0be f573 31bf 00ce 683d
00000280: 0f56 86be e131 f1bd 0fcb a1bd fafb 853d
00000290: 0fe2 e93d cba1 6c3c 26f7 11be 2d36 04bf
000002a0: c2a2 1d3c 9e92 823c 8766 d9be 8ca8 ef3c
000002b0: 053d 4bbf aa41 50bf a6bb 163e 212a 663e
000002c0: 6b08 213f 416a a4be deb2 de3e 1363 d8bd
000002d0: 736b 893e 61ca 67bb e963 b03e f540 14ba
000002e0: 1b40 f43d 1dda 0abd 13d6 dc3c 3274 843d
000002f0: a94b cb3c 955b 0fbe 0e9f edbd 6707 f5bc
00000300: da0e ad3d c969 9f3c c54f babe e053 f1be
00000310: b6a7 05bd b43a d63e bdcc d9bd 9fd5 e6be
00000320: 247e e2bd 5a2a 5a3d edfc 5dbe b359 efbc
00000330: 99b4 bbbe 49e3 193d 02e0 debd c94c c9be
00000340: 4e6c 533d 9bc2 afbe 2289 3dbf 04cd d53d
00000350: 4ad8 0fbe 908b e63e 3ddd 17bd 9c84 833e
00000360: 0022 20bf 1ce5 78be 5606 033c 685d b43c
00000370: 7294 fc3e d20a b53e 5763 9abe b9f7 2e3f
00000380: 1b8d 33be 6564 1fbe 7788 90bd cd9b 003d
00000390: db7a 173e f8f5 3a3f a7be 9a3e 63d3 293e
000003a0: 0a18 193e 5a6d 08bf c2c6 f83c d3d3 e33e
000003b0: 318e c6bd f10f 76be 7837 703d f8f6 cd3d
000003c0: a9a6 2b3c f2c5 dc3e 72b8 01bf 6b3c 0c3d
000003d0: 0265 db3e 21bb 723d cfc4 a13e 3a93 17be
000003e0: 45b3 b7bd 1cda e53d 494e 8ebe 5f0c b5bd
000003f0: 6b5d 0a3e e8f8 0b3e ba12 033e b718 77be
-0.19619098 0.287264 -0.16446345 0.13144037 -0.24225701 0.17015411 0.19791149 -0.061374284
-0.010320941 -0.39410958 -0.5822447 0.0025652212 -0.12018685 0.9594469 0.16434802 -0.26055223
-0.10940263 0.27176458 0.16970468 0.23871814 -0.29643932 0.33247402 0.0834941 -0.046559766
-0.21463494 0.4203497 -0.2696128 0.012555614 0.0050921016 0.124910496 -0.33131784 0.0859764
-0.30544016 -0.10148545 0.4393396 0.5980205 -0.18422155 -0.17805123 0.1863061 -0.8607612
0.13188206 -0.038812436 -0.20792188 -0.5195727 0.024882145 0.25724694 -0.061873913 -0.060023073
0.14235598 0.5390792 0.11564379 -0.231192 -0.32942355 -0.07203676 0.38504004 -0.33811644
0.29066306 -0.17007637 0.4058234 -0.398865 -0.064966895 0.0658361 0.18440269 0.45548728
0.06456834 0.01884449 0.0082663745 -0.22051503 0.0803929 0.16107237 -0.1731189 -0.39967972
0.413776 0.1784817 0.020575544 0.12363494 0.17874216 0.22104456 -0.14733419 0.24537107
0.0027665151 -0.29520404 0.04700701 0.10872287 0.15443912 -0.4076577 -0.038582224 -0.18703595
-0.16333215 0.20680225 0.17141837 0.7964531 -0.025736054 -0.15375172 -0.8852085 -0.44027466
-0.12719542 0.14136146 0.3126412 0.15631774 0.5213631 -0.103693634 -0.2647895 -0.1521238
-0.052872255 0.19604994 0.29851922 0.22592191 0.07674238 0.24615642 0.5711359 0.099271186
-0.12446446 0.17577246 0.04001819 0.0051275715 -0.062673934 0.6913826 -0.16886061 -0.052375734
0.341583 0.08554903 -0.42116785 -0.53075296 -0.06176894 -0.14261748 0.2531719 -0.044846687
0.009259282 -0.49184832 0.18171568 -0.22578181 -0.09739108 -0.38728616 -0.14765415 -0.07375621
-0.4176077 0.44681838 -0.11979367 0.24979405 -0.031564426 0.003933453 -0.098924726 -0.47359002
-0.094139166 0.07328339 0.14841738 -0.16346426 0.11104892 0.19844387 0.15041284 0.019237008
-0.3829109 -0.30073 0.11006477 -0.0447949 -0.282723 -0.3128828 -0.6931756 0.056837082
-0.26237532 -0.11777092 -0.079000585 0.06542201 0.114200704 0.014442871 -0.14254436 -0.51645166
0.009621324 0.015939053 -0.42461035 0.029255174 -0.79389983 -0.81350195 0.1472002 0.22477008
0.6290347 -0.32112315 0.4349584 -0.10565772 0.2683979 -0.003536843 0.34451225 -0.00056554313
0.1192629 -0.033899415 0.026957547 0.06467475 0.024816351 -0.1399978 -0.11602603 -0.029910756
0.08450098 0.019459622 -0.36388984 -0.47134304 -0.032630645 0.41841662 -0.10634754 -0.45084855
-0.11059216 0.053263046 -0.21678515 -0.029217577 -0.36661223 0.03757027 -0.1088257 -0.39316395
0.05161696 -0.3432816 -0.74037373 0.10439494 -0.14047351 0.45028353 -0.037076224 0.2568711
-0.6255188 -0.24306148 0.007997116 0.022017196 0.49332005 0.35359818 -0.30153915 0.68346745
-0.17534296 -0.15565641 -0.070572786 0.031398583 0.1479296 0.7303157 0.3022358 0.16584544
0.14950576 -0.5329186 0.030368213 0.44497547 -0.096950896 -0.24029519 0.05864665 0.10056871
0.010476747 0.4311977 -0.50672066 0.034237307 0.428505 0.05926049 0.31595466 -0.14802256
-0.0896974 0.11223242 -0.27794102 -0.0884025 0.13512199 0.13669169 0.12800112 -0.24130522

net.2.0.bias f4 [12]
00000000: 2604 f73d 6e67 e7bc 5e3b aa3c ccee adbc
00000010: 3569 d3bb df3c 563d 1167 a2bd 7900 62bc
00000020: 477d c2bc ef6b f2bc 0436 46bd 0c8e acbd
0.12061338 -0.028247561 0.020780262 -0.021232031 -0.0064517506 0.052304145 -0.079298146 -0.013794058
-0.023741378 -0.029592482 -0.048391357 -0.08425531
