suboptimal_policies/HopperPyBulletEnv-v0.pth (torch, 24343 bytes, 6 tensors)

net.0.0.weight f4 [64, 15]
000000 f7 cb 8f be 77 2d a8 3d 71 d1 1e 3e a6 1d 20 bf
       -0.280853 0.08211797 0.15509583 -0.6254524
000010 1b fb bb 3d 9d 8e 7a 3c ad 11 02 3d 50 37 1b 3f
       0.09178754 0.015292791 0.03175514 0.60631275
000020 df c2 76 3c aa 0c 55 3a 95 af c3 3e f3 b5 74 3e
       0.015061109 0.0008127192 0.38219896 0.23897533
000030 7f c8 a2 be 67 a1 37 be 20 84 8b bc aa be 10 be
       -0.3179359 -0.17932664 -0.017030776 -0.14135233
000040 de a4 1a bb b4 cb 89 be a7 93 c2 bf 2b f8 8e 3d
       -0.0023596804 -0.26913226 -1.520131 0.06980928
000050 9f 06 95 be 9b 3b 03 bc 24 73 09 bf a9 f1 9d be
       -0.29106614 -0.0080098165 -0.53691316 -0.30848435
000060 ee 0e 84 3d c9 bc b0 3e cd b7 c5 3d 6d a2 9d 3e
       0.0644816 0.34519032 0.09654198 0.30787984
000070 b4 f2 8d 3d 8e 7e a6 bd a7 13 20 3f 16 a5 05 bd
       0.069310576 -0.08129607 0.6252999 -0.03262814
000080 7b 6e 8c bd 3d ff 4d 3e 7a 90 9c 3d 68 ca 11 3e
       -0.0685701 0.20116897 0.07644744 0.14237368
000090 a9 1f 28 3d a7 27 03 bf af 9b 61 3e 66 b6 15 3e
       0.04104582 -0.5123238 0.22032045 0.1462036
0000a0 99 f0 d5 3c 23 c3 b5 3e de 2b c6 3d 61 10 40 3e
       0.026115702 0.3550044 0.09676336 0.18756248
0000b0 29 a2 05 3d 9c 84 80 3e ae 6f 88 3d d2 fa 99 be
       0.03262535 0.25101173 0.06661926 -0.30074173
0000c0 ff db 22 bf 05 ec 2b bd 2a 97 91 3d 13 3a b2 3d
       -0.6361694 -0.041973133 0.071089104 0.08702483
0000d0 67 32 ff be c7 4d 06 3f 2d 5b e1 3c 9b 2b 89 3e
       -0.4984314 0.5246243 0.027509296 0.2679108
0000e0 21 f3 26 3e 98 01 5f 3e c0 05 99 bc 9d 77 c3 3d
       0.16303684 0.21777952 -0.0186795 0.09544299
0000f0 19 d8 95 be 77 49 90 bb a4 7c 05 3e 1a fd 22 3c
       -0.29266432 -0.004403289 0.13035828 0.009948039
000100 40 ea c8 bc ca cd 7c bd f5 a2 32 3d 30 68 9d be
       -0.024525762 -0.061719693 0.04361244 -0.3074355
000110 da bc cb be f5 9d 60 3c b1 09 d8 3e f0 e3 e6 3d
       -0.3979252 0.013709535 0.42194894 0.112739444
000120 dc 61 0d be 04 fc b2 bd 43 88 fe bc 1e 09 57 3d
       -0.13806862 -0.087394744 -0.031070834 0.05249893
000130 23 ae bf bd 30 8e 0c 3d 61 d8 af 3d 2d e0 11 3d
       -0.09359386 0.034315288 0.08586193 0.03561418
000140 88 eb 1c 3f 01 62 c1 bd fd 51 39 3e 09 76 26 bd
       0.6129689 -0.09442521 0.18097682 -0.04063991
000150 5a 91 4f 3d 0d e8 8d be 59 ef e0 bc 92 40 b0 be
       0.050675727 -0.27716103 -0.02745788 -0.34424263
000160 52 0a b6 be a2 da ee 3d 1d b8 cd 3e a8 8e 57 3d
       -0.3555475 0.11662795 0.4017953 0.052626282
000170 56 c2 08 3e db 8b bd bc 55 fe 63 3d d4 c0 b3 3e
       0.13355383 -0.023137977 0.05566247 0.35108054
000180 f0 08 54 3b 61 44 89 3d d1 de 99 3d a9 41 a0 3d
       0.003235396 0.06702495 0.07513202 0.07825024
000190 e4 66 29 bd 61 b1 93 3e 08 68 c5 3d 13 6a 3c 3e
       -0.04135789 0.28846267 0.09638983 0.18399839
0001a0 f9 d3 94 bc c0 a4 eb 3e 67 5a 8e 3d ca f2 03 be
       -0.018167483 0.46024132 0.06950837 -0.12885585
0001b0 6d a9 48 3d d4 17 c0 3b e5 23 62 3f b8 21 b8 bd
       0.048989702 0.0058622155 0.8833602 -0.08990806
0001c0 2b 80 0e 3f 13 13 b4 3e 14 d8 a7 3e cf 4b 1e 3e
       0.5566432 0.35170802 0.32782042 0.15458606
0001d0 7d 57 84 3e c6 b1 80 3e 3c fa 0c 3e c3 02 fc bd
       0.25847998 0.2513563 0.13767332 -0.12305214
0001e0 4e d3 3c 3e e7 b6 1e bd 31 77 5e be c2 c7 13 3f
       0.18439981 -0.038748648 -0.21725155 0.5772668
0001f0 56 30 ba bd 35 03 e7 bd 97 51 3c bb ac a0 e5 bc
       -0.090912506 -0.112799086 -0.0028735155 -0.028030716
000200 5c 93 b2 3d aa e8 38 be 12 00 88 3e 9c bc fc bd
       0.08719513 -0.18057504 0.26562554 -0.12340662
000210 2f 1a 25 3e 19 ac 4e bc 98 18 88 3e c7 df 0b bf
       0.1612327 -0.0126142735 0.26581264 -0.5463833
000220 5f 45 4e 3d 94 d0 4b 3e 2c 81 2c 3d 7e cb dc bb
       0.050359126 0.19903785 0.042115375 -0.0067381253
000230 3b 98 b9 3d 22 46 03 bd de e5 07 be 45 b7 05 be
       0.09062239 -0.032049306 -0.13271281 -0.13058193
000240 ed 93 96 bd c4 e8 24 be 08 a3 b4 be a0 3e ea 3d
       -0.07352433 -0.16104418 -0.35280633 0.11437726
000250 74 6e ba 3e df 2d 8c bd 38 8d 31 be 28 e1 8e bd
       0.36412394 -0.06844687 -0.17339027 -0.06976539
000260 1b 53 5c 3d 34 48 8f bd 3c a4 96 bd 9c 7c 76 3f
       0.053790193 -0.069961935 -0.07355544 0.9628389
000270 4e b8 3c 3c 7c 96 20 3d a0 64 98 be af 13 b4 bd
       0.011518551 0.039206013 -0.2976427 -0.08792817
000280 31 de 9f be b3 78 0f bf 88 a4 a2 bb 3f 53 cb be
       -0.31224206 -0.5604355 -0.0049634613 -0.3971195
000290 07 ae 3b 3e b5 28 cb bc 3a 29 a1 bc 78 0d 2b be
       0.18328105 -0.024799684 -0.019672979 -0.16704357
0002a0 8e 1e e3 bd 41 89 55 bd 20 60 f6 3d 07 6d 1a 3d
       -0.11089812 -0.05213285 0.12030053 0.037701633
0002b0 54 76 72 bf 63 c1 10 be 7c c2 9e be d9 ba 9d be
       -0.94711804 -0.14136271 -0.31007755 -0.30806616
0002c0 73 d1 d3 3d 3b 3f a2 bd 55 d8 22 bd 23 af 92 39
       0.10342684 -0.079222165 -0.03975709 0.00027977777
0002d0 b2 a2 25 bf 72 2f 63 3b 6e 71 98 3d 81 be d8 3e
       -0.6470138 0.003466573 0.0744351 0.42332843
0002e0 68 aa b9 3d 57 0e 93 3e 42 fe 7c 3d 79 b3 7a 3e
       0.090657055 0.28721878 0.061765917 0.24482526
0002f0 b0 09 b6 be 7d 5a 9b be c5 00 68 bd 14 dc da be
       -0.35554266 -0.30342475 -0.05664136 -0.4274603
000300 83 9b c6 bd 89 85 1b be f3 cc df 3d 73 9c 95 bc
       -0.0969763 -0.15187658 0.10927763 -0.018263077
000310 d4 62 45 bd 95 33 99 be d3 bc 06 bc 9b d8 32 3d
       -0.048189953 -0.29922166 -0.00822373 0.043663602
000320 93 9c c3 3d dc 9d 50 bd 07 cd c4 be 52 66 04 3f
       0.095513485 -0.050931796 -0.38437673 0.5171863
000330 59 61 4a 3e 77 60 37 3f c1 b3 22 3e 9c 68 75 3d
       0.19763698 0.7163157 0.15888883 0.059914216
000340 b1 27 41 3d ca 4d ba bd 46 47 3a be a4 c4 17 3d
       0.047156993 -0.09096868 -0.18191251 0.037052765
000350 d9 9e dd 3b f3 5a d8 3e 69 15 b4 bd 96 c7 77 be
       0.006763321 0.4225689 -0.08793146 -0.2419723
000360 ef 1e 14 3d 5b bc 3b 3f a4 5d 4c bd c8 f4 8c be
       0.036162313 0.7333428 -0.04989399 -0.27530503
000370 60 72 39 be bd 72 26 bf 2f 2d c3 3b c5 d2 aa bd
       -0.18110037 -0.65018827 0.005956314 -0.08340982
000380 98 97 c1 bc 55 24 c0 bd c4 1d 86 bd 86 8d c6 3c
       -0.023631856 -0.0938193 -0.06548646 0.024237406
000390 f5 4c 72 3e 4d c2 27 3d 5b dc 16 be 23 5d 91 3d
       0.2366217 0.040956784 -0.14732496 0.070978425
0003a0 08 25 9b be 22 28 96 3d 41 5d 53 be 3e 26 74 3d
       -0.3030169 0.073318735 -0.20641042 0.059606783
0003b0 d9 15 24 be 50 79 5a 3b 2a fc 27 be c9 3f b9 bd
       -0.16023959 0.0033336468 -0.16404787 -0.09045369
0003c0 89 4e 64 3f 3b 82 ab 3d b4 ac 33 bd 68 8a 3e bf
       0.89182335 0.08374449 -0.043865874 -0.7442994
0003d0 62 6a 06 bd 1a d5 e2 3e 72 c1 65 bc a9 67 ae be
       -0.0328163 0.4430321 -0.014023172 -0.3406346
0003e0 b9 02 9b 3e ed c2 59 3e 3b d7 e4 3b 2a 9e 03 3e
       0.30275515 0.21265765 0.0069836653 0.12853304
0003f0 b4 b5 37 3e b9 4b 08 3d cf e8 bc bd 65 19 b9 3e
       0.17940408 0.03327534 -0.09224092 0.36152187

net.0.0.bias f4 [64]
000000 eb 8e b8 3c f6 f8 71 be 3f bd 4c be 9d 0e 87 be
       0.022529086 -0.23630127 -0.19994067 -0.26378337
000010 21 e5 c6 3d 4f 68 df bd a0 3f 3f 3d 8e b6 5c bd
       0.097116716 -0.10908567 0.046691537 -0.053885035
000020 be 3a 73 be fd 34 99 3d 25 8b 10 3e 46 85 87 bd
       -0.23752877 0.0748081 0.1411558 -0.06617217
000030 93 cd 37 3e 23 23 7a be 6f 6d 8a bd 03 24 9c bd
       0.17949514 -0.24427466 -0.06759154 -0.07624056
000040 2f 31 b0 bd 4c 02 01 bd c7 27 c5 3e a4 ad 6e be
       -0.08603131 -0.03149633 0.3850691 -0.23308426
000050 08 ce 2e bb f6 8a ba 3e 5a f7 e1 bd ce 0c 82 3e
       -0.0026673097 0.36434144 -0.11033507 0.25400394
000060 74 10 ae bd eb a6 a3 bd 7c 52 66 be 46 f2 ce bb
       -0.08499232 -0.079908215 -0.22492403 -0.0063155023
000070 3a 31 05 be 28 b8 8d bd 71 32 85 3e 9f e3 dc bd
       -0.1300706 -0.06919891 0.26015046 -0.10785603
000080 ca 27 5b 3e 0e 3f 1b 3e 04 aa 86 bd 67 f7 ad bd
       0.21401897 0.15160772 -0.06575397 -0.08494454
000090 b1 bd b6 be 56 3e 6b bd c8 2b 67 3d f5 e9 04 3e
       -0.35691598 -0.057432495 0.056438237 0.12979873
0000a0 65 d9 de bb 6a 2f 3c bd b4 96 d8 3d 03 15 56 be
       -0.006800818 -0.045943655 0.10575619 -0.20906453
0000b0 a6 5d d3 3e aa cf 1d be 2e 97 47 be a7 79 89 bd
       0.41282386 -0.15411249 -0.19491264 -0.067126565
0000c0 62 60 01 3e 8d c3 29 3d 04 47 db 3d 3b 02 07 3e
       0.12634423 0.041446257 0.107069045 0.13184445
0000d0 71 75 57 bd 3d 69 d6 bc 59 6c 36 3e 03 fe 2a 3d
       -0.052602235 -0.026173228 0.17814769 0.04174615
0000e0 f2 9c 9d bb 99 95 33 be 36 7e 96 3d 0a e8 9b 3e
       -0.004809969 -0.17537536 0.073482916 0.3045047
0000f0 02 a1 4d 3e 84 88 5a be 6e 2e 89 be 6d d3 cc 3d
       0.20080951 -0.21341139 -0.26793236 0.10001264

net.1.0.weight f4 [64, 64]
000000 74 06 18 3b eb 8b 9f bd 32 17 9f bd a2 9c b0 3c
       0.0023197206 -0.07790359 -0.07768096 0.021559063
000010 a5 f5 1d be 41 af 1e bd d3 cd 84 be 6c b1 7f 3c
       -0.15425737 -0.038741354 -0.2593828 0.0156062655
000020 fc b8 18 3d 65 dc 28 be 2e 7b 22 3e 31 3e a2 bd
       0.03728579 -0.16490324 0.15867302 -0.07922018
000030 28 49 7f bc 58 7a 34 bc bd d0 9a bc 96 76 a0 39
       -0.015581407 -0.011015497 -0.018898362 0.00030605932
000040 95 0c ac bb d4 de d2 bd 93 75 99 bd 46 69 95 3d
       -0.0052505233 -0.10296407 -0.07493129 0.0729547
000050 e4 59 4b 3d 84 34 97 be 4f 67 23 be 8f ea cd bd
       0.049646273 -0.29532254 -0.15957378 -0.10054504
000060 db 98 64 3e c5 01 37 3d 4e d2 6f bd 8a 2d 9c bd
       0.22323935 0.044679422 -0.05855017 -0.076258734
000070 bc 2e 4b be 9b 64 92 be ab df 68 3d d8 76 be bd
       -0.19842046 -0.2859238 0.05685393 -0.093000114
000080 49 dd 43 bd ed 31 58 be 92 2a e8 bb e6 c5 4b 3d
       -0.047818456 -0.21112795 -0.007085153 0.049749278
000090 f4 c6 64 3d 96 41 e1 3c 95 19 02 bd 4d bf 75 3d
       0.0558538 0.027497094 -0.03176268 0.05999689
0000a0 50 b6 48 bd ce 78 86 3c 4c 4f c8 3d e2 5a c4 38
       -0.04900199 0.016415026 0.0978075 9.3629365e-05
0000b0 33 81 c4 b9 3e 34 19 be c8 2f 2c 3d 6e 3b b1 3d
       -0.00037480294 -0.14961335 0.042037755 0.086539134
0000c0 09 af 83 be 3b 02 b8 bd 40 04 74 3d 1b 1c 75 bd
       -0.2571948 -0.089848004 0.059574366 -0.059841257
0000d0 77 79 1a 3e b6 fb 11 3d 3a 5a 8a bb 6a 98 7a bc
       0.15085398 0.03564044 -0.0042221816 -0.015295127
0000e0 d2 9c c0 bc 1e 9b 0a bd 96 13 40 bd f7 04 11 3d
       -0.023512278 -0.033839338 -0.04689368 0.035405125
0000f0 0b 2e 31 bd e2 9c 98 bc a6 ab c6 3d 2a 58 10 3e
       -0.0432568 -0.018629495 0.09700708 0.14096132
000100 86 85 da bd 8c 7b b4 be 3b fd 2b 3d c3 60 a8 bd
       -0.10669999 -0.3525051 0.041989546 -0.08221581
000110 de 49 83 3e c4 a8 18 bb a0 56 5d 3d fa 9f 91 be
       0.25642294 -0.0023293952 0.05403769 -0.28442365
000120 88 58 83 3e be e6 e1 3d 46 6a 2b bf 58 21 66 bd
       0.2565348 0.11030339 -0.66959035 -0.056184143
000130 07 00 e6 bd 11 89 2f 3c 21 e6 ea 3c 5c ad ab bd
       -0.11230474 0.0107138315 0.028674187 -0.08382675
000140 fb d2 5c bd 80 55 e7 bc b9 a4 89 3d 3a c4 15 be
       -0.053912144 -0.028239012 0.067208715 -0.14625636
000150 60 18 49 be 87 a4 6f 3e db 89 af bd 6f 1e 5e 3f
       -0.19638205 0.23402606 -0.08571216 0.8676519
000160 3b 94 d5 bd 85 03 86 be 4a d9 b6 bd 2b 9b 22 be
       -0.10428663 -0.2617456 -0.08928163 -0.15879504
000170 bb 00 a7 bc d3 bc af bd 37 bb 68 3d 8e 6d fd bd
       -0.02038609 -0.08580937 0.056819167 -0.123744115
000180 eb 37 df bd 51 2a 8e 3d e4 8f c5 be 76 d4 45 bc
       -0.108993374 0.06941665 -0.38586342 -0.01207458
000190 e1 15 e8 3c 81 d8 a1 bd 34 cf 45 3c 36 32 9c 3d
       0.028330745 -0.07902623 0.012073327 0.076267645
0001a0 7c 2e 64 3e 66 86 12 be b3 72 5f bf f1 28 f6 bd
       0.22283357 -0.14309081 -0.8728439 -0.12019528
0001b0 ce 9a 07 3f e4 0c 95 3d 9e 31 b4 bd 07 11 09 be
       0.5297059 0.07277849 -0.08798526 -0.13385402
0001c0 a7 f1 de bd 84 b8 07 bf b9 d4 15 be 3b 9a 10 3c
       -0.10885935 -0.53015924 -0.14631929 0.008825834
0001d0 a5 e6 a2 bd 83 0e 1b be 8a f4 30 bd a7 9f 36 3d
       -0.07954148 -0.15142255 -0.04320196 0.04458585
0001e0 67 d4 3d be b0 cd b3 bc 2a 44 e0 3c 37 60 71 3e
       -0.18538056 -0.021948665 0.027376253 0.2357186
0001f0 c9 40 3e 3e 8b f6 4d be 65 10 59 be 1d 56 3c 3d
       0.18579401 -0.2011358 -0.2119766 0.04598056
000200 f6 60 c7 bc fe 74 f0 3d 18 13 9f 3c 8e b1 8f 3b
       -0.024338227 0.117410645 0.019418284 0.00438518
000210 44 44 9d bd 0d 62 18 bd f0 ee 6a bd b8 39 54 be
       -0.07679036 -0.037202884 -0.057356775 -0.20725143
000220 2e 40 da bd 70 7e 9e 3d ba 54 97 3d 54 4e dd bc
       -0.106567726 0.0773896 0.07389207 -0.027014889
000230 bf 9d bd 3d 51 b8 c4 bc 72 bb 02 bb f6 86 74 bd
       0.09258603 -0.02401367 -0.0019948152 -0.05969902
000240 0e 95 ef bc 8e 32 0b be 64 2d c7 3d b8 52 a4 3c
       -0.02924588 -0.13593504 0.097254544 0.020058975
000250 96 ed 98 bb de 4f 63 be 67 6c f2 3c 68 b9 da 3c
       -0.0046669943 -0.22198436 0.029592706 0.026699737
000260 4b 9e 95 bd 40 82 7f 3d 91 47 c9 bd fa 39 c7 bc
       -0.073055826 0.062380075 -0.09828103 -0.024319638
000270 e9 77 93 3e f0 25 b6 3d 41 aa 66 bd 22 df 02 3d
       0.28802422 0.08893955 -0.05631471 0.031951077
000280 03 e4 eb bd 87 18 a2 bd 09 c7 8d 3d ce 1f 5f 3e
       -0.11518099 -0.079148345 0.069227286 0.21789476
000290 16 2a ba bb 61 b1 2a bc b4 c2 93 3d 1a 79 a8 bd
       -0.0056812866 -0.010418267 0.07214871 -0.08226223
0002a0 20 39 a7 be 22 fe 9d bc 34 13 b3 bd d6 a6 f0 bd
       -0.3266077 -0.019286219 -0.08743897 -0.117505714
0002b0 18 4c d8 bd 51 d7 70 bb 87 78 90 bc b0 ab aa 3d
       -0.10561389 -0.0036749432 -0.017635597 0.08333528
0002c0 88 21 0e be b8 56 0b be 54 90 fd bc c0 a2 81 bd
       -0.13879979 -0.136073 -0.03095261 -0.0632987
0002d0 39 57 eb bd 6b 22 88 3e 5b 3f e0 3c 9b 5d 10 bd
       -0.11491246 0.2658876 0.02737396 -0.03524552
0002e0 9e 8c 23 bc 95 b0 4c bc ce cd 84 bb b4 f8 12 bd
       -0.009982256 -0.012493272 -0.004052854 -0.035881713
0002f0 1f 9b 60 bd a9 f1 66 3c 3e 28 a3 bc a8 cf ce be
       -0.054835435 0.014095702 -0.01991665 -0.40392804
000300 66 ab 24 3e 92 5b 19 bf 67 bd bb 3d 4d 15 45 3e
       0.16081008 -0.5990535 0.09166985 0.19246407
000310 3c 51 cd bd bb 3f bd 3c e2 36 10 be 83 94 bc 3e
       -0.1002526 0.023101678 -0.14083436 0.36832055
000320 c8 8f 54 3a 88 5c 0f 3d b6 c3 bd bd 15 ab 3e bc
       0.0008108583 0.035000354 -0.092658445 -0.011637469
000330 21 a5 ba bd 33 d6 80 3e 45 23 66 3d 7e 22 74 be
       -0.09113527 0.2516342 0.05618598 -0.23841283
000340 9c 0e 11 3e 4d a3 2a bd cf 57 70 3e 98 d6 d6 3d
       0.1416573 -0.041659642 0.23470996 0.10490149
000350 69 c7 b5 bd 01 f9 96 be 2b 8b 62 be 24 97 07 be
       -0.08875925 -0.2948685 -0.22123401 -0.1324125
000360 92 1b bd 3d 84 e1 06 3e 1c 3b 2e bd 00 bc c3 3d
       0.09233774 0.13171965 -0.04253684 0.095573425
000370 42 f3 c1 3e 01 e5 08 bf 2b 08 8d 3d 0e e4 56 3e
       0.37880903 -0.5347443 0.068863235 0.20985433
000380 fb aa 10 bf 8e 37 00 bd 39 c4 b6 3e 96 45 9f bd
       -0.56510895 -0.03130298 0.3569658 -0.07776944
000390 c9 ae c9 bd 94 ba a0 be 37 df 24 3d 7d 21 9f 3d
       -0.09847791 -0.31392348 0.040251937 0.07770059
0003a0 67 6f 5c bd 2c cb 8d 3e 69 6b 28 3e d6 43 ee bd
       -0.05381718 0.2769407 0.16447224 -0.116340324
0003b0 ad bf c3 bf 59 67 73 3e b9 ff 1c 3e 99 3a 0b 3e
       -1.529287 0.23769893 0.15331925 0.13596572
0003c0 98 8f 06 bf e9 7f 15 bd 2d d5 ad be 96 c3 15 be
       -0.52562857 -0.036498938 -0.33951703 -0.14625391
0003d0 e1 12 ad 3e af 1f 5d 3c 2e aa ac bd 08 b8 68 3e
       0.33803466 0.0134963235 -0.08430897 0.22726452
0003e0 f5 ac d0 3e 3d 2e fa 3c 45 50 09 be fd 8b c1 be
       0.40756956 0.030539626 -0.13409527 -0.37802115
0003f0 20 3d 0b be a8 a4 bd 3e 79 2b b3 3d 6a f6 73 3d
       -0.13597536 0.37039685 0.08748526 0.05956117

net.1.0.bias f4 [64]
000000 1c c4 4f bc ee 33 a6 3d c2 f3 89 3c 4d 90 6b be
       -0.012681033 0.081153736 0.016839866 -0.23004265
000010 89 f8 16 3e b0 ea 54 3d 14 06 08 bd ed 2f d4 bc
       0.14743246 0.051981628 -0.03320892 -0.025901759
000020 ac c4 20 3d 25 0b 24 be ea ee ff 3c b9 c4 0e 3e
       0.03925006 -0.16019876 0.031241853 0.13942231
000030 15 40 17 bc c0 50 85 bd 34 b6 24 be 9f c4 88 bd
       -0.009231587 -0.065095425 -0.1608513 -0.066781275
000040 19 ba d5 3d b0 f1 bc 3d 77 08 01 3e 41 19 59 bd
       0.10435886 0.09225786 0.12600885 -0.0530026
000050 da 18 98 3d 28 08 c0 3c a5 8d 05 3e 29 38 97 3d
       0.07426615 0.02344139 0.13042314 0.073837586
000060 8d 19 96 3c dc 81 e9 3d 02 e0 7a bd ba ae cd bc
       0.01832273 0.11401722 -0.061248787 -0.02510773
000070 38 3c fb 3c b3 54 9e be de ea e7 3c 09 7e a0 3b
       0.030668363 -0.30923995 0.028310236 0.004897837
000080 a9 6f 3e 3d 98 de cc bd 94 3b 1c 39 2e a3 d1 3d
       0.046493206 -0.10003394 0.00014899514 0.10236202
000090 35 c3 61 3c 9f 98 5c 3d 67 52 b3 3d da 16 6e 3d
       0.013779451 0.05385649 0.087559514 0.05812726
0000a0 98 af 31 3d 73 ce 1d 3e d1 4c a1 bd 70 b5 f3 bc
       0.04338035 0.15410785 -0.0787598 -0.029749602
0000b0 95 dc dd 3d f2 eb 1c be 6e d1 c5 3d 49 af 9c bc
       0.10833088 -0.15324381 0.09659086 -0.019126551
0000c0 0c fe 28 bd 91 6c 4e bd 11 c5 27 3d 46 3a 17 be
       -0.041257903 -0.050396506 0.04095942 -0.14768323
0000d0 eb 82 2b bc e7 54 15 3e 96 6a 97 bd c4 69 f1 3c
       -0.010468225 0.14583169 -0.073933765 0.029469378
0000e0 58 8e 52 3d 84 27 52 bd 83 96 20 be c2 00 b5 bd
       0.05140528 -0.051307216 -0.15682416 -0.08838035
0000f0 0a 94 93 3d a3 32 bc 3c bb 27 a1 bd cf 94 3e be
       0.072059706 0.022973364 -0.07868906 -0.18611453

net.2.0.weight f4 [6, 64]
000000 0f 35 bd be 8d 46 ca 3c b3 eb 8e 3e d1 b0 c1 3e
       -0.36954543 0.024691844 0.279142 0.37830213
000010 f1 21 32 bd 1f 37 7d be c8 96 12 bd 28 a7 c7 be
       -0.0434894 -0.24728058 -0.035788327 -0.38994718
000020 c5 a2 2f 3c cb 86 00 bd 70 f2 2d be 0f d2 d6 bd
       0.01071996 -0.03137855 -0.16987014 -0.10489284
000030 6e eb 70 3d d6 0c de be 73 ae 71 bf 3c ad a4 be
       0.058818273 -0.43369168 -0.94406813 -0.32163417
000040 e7 26 96 be 32 71 76 3e 86 6f 8a 3d 5e 27 8a 3e
       -0.29326555 0.24066618 0.06759553 0.2698316
000050 88 57 2e 3e 3b 8c d8 3e 4a ee ff 3d 2e c5 5f 3f
       0.17025578 0.42294487 0.12496622 0.8741025
000060 2e 24 e7 bd 27 6f 41 3e 6c 81 97 bb f7 28 f6 3e
       -0.112861976 0.18890058 -0.0046235826 0.4807813
000070 8a fa ae 3e 17 bc 4f bf 96 c3 13 3d 9a 6b fa 3d
       0.3417552 -0.8114638 0.036075197 0.122275546
000080 c3 4a ff bc 8c 6a 01 bd de 0a aa 3e 78 06 32 be
       -0.031163579 -0.03159575 0.33211416 -0.1738528
000090 eb 08 96 be 01 0c 39 bd db 3c 1b 40 3a 61 37 3e
       -0.2930368 -0.045177463 2.4255893 0.17908183
0000a0 66 1b 7f be c6 be 4f be de 6c 04 3f e1 eb c3 3d
       -0.24912795 -0.20287618 0.5172862 0.09566475
0000b0 07 9d 0a 3e df 9b bc be c9 72 7b 3d 76 da c2 3d
       0.13536464 -0.3683767 0.061388765 0.09514324
0000c0 8c 2e c1 be 5f bd d4 bd 32 c1 b4 bd 24 88 09 be
       -0.37730825 -0.10387682 -0.088259116 -0.1343084
0000d0 a0 b0 5c 3f b8 cc 36 3f 56 08 14 3f f0 a6 1c 3e
       0.8620701 0.71406126 0.5782522 0.15298057
0000e0 57 4f f0 3d f6 0d 79 3d aa 3b 47 3f a8 72 ba 3f
       0.11733883 0.06080433 0.77825415 1.456624
0000f0 84 a2 8a be ec a7 45 3d 4d bd 7b 3f 87 f0 00 3f
       -0.27077115 0.048255846 0.98335725 0.50367016
000100 44 bf 42 3e 1a f7 05 bf 79 4c ec 3d 17 31 3e 3f
       0.19018275 -0.5233017 0.115380235 0.74293655
000110 b5 f2 2e be 55 7b d5 3e 92 e0 11 bf 05 69 b3 be
       -0.17084773 0.41695657 -0.5698329 -0.3504106
000120 12 08 ed 3e 1a a1 94 bd 45 a0 f9 3e f5 30 33 bf
       0.4629522 -0.0725729 0.48755088 -0.6999658
000130 4a 5f aa 3e a9 e9 37 bf 7d 0b c6 be 8f 72 29 3f
       0.33275825 -0.7184091 -0.3868064 0.6619043
000140 c2 31 54 be 1e c1 cc 3d b9 fa 28 3e b8 96 1d bf
       -0.20722106 0.09997772 0.16501893 -0.61558104
000150 68 63 97 bd df 51 e5 be 26 0f 1e 3e ca 1b 38 be
       -0.07392007 -0.44789025 0.15435466 -0.1797935
000160 be df 1b 3f 6c 39 fd bd a4 e1 45 3f 61 2f d8 bd
       0.6088828 -0.12364468 0.77297425 -0.10555912
000170 ea bd 55 be 68 84 02 3f c3 78 55 3e ee 0c e8 3e
       -0.20873228 0.50983286 0.20846848 0.45322365
000180 7d b9 e0 3e 16 8c 83 3f 7b 59 b5 3d 71 bc 1d 3e
       0.43891516 1.0277126 0.08854958 0.15403916
000190 64 e7 8f be 7c ec f1 bd 16 67 11 3e 4b 4c 32 3f
       -0.28106225 -0.11812684 0.1419948 0.69647664
0001a0 3f fb f6 bc c7 51 32 bd b3 b2 43 bf 1d de 4a 3d
       -0.0301491 -0.04353502 -0.7644455 0.04952823
0001b0 1e 9f 0a 3f 9f 4a 67 bf 19 48 15 3d 41 6c e1 be
       0.54149044 -0.9034824 0.03644571 -0.44027904
0001c0 a0 47 07 bf 2e 52 70 3e 35 76 c6 bd 9a bc aa bf
       -0.52843666 0.23468849 -0.09690515 -1.3338807
0001d0 9a 47 4c be dd 98 e1 bd 52 c4 1f be 69 3c 8d 3f
       -0.19949189 -0.110154845 -0.15602234 1.1034061
0001e0 a8 b0 93 3e 59 25 99 bf 25 7d 08 bf 4a 67 b9 3c
       0.28845716 -1.1964523 -0.53315955 0.02263226
0001f0 03 0e d0 be b0 14 e4 3e ea 19 6d bf 21 3a a1 3f
       -0.4063569 0.44547033 -0.92617667 1.2595865
000200 7b b9 db bb 02 42 14 bf 2c 58 d2 3d 09 16 ce 3e
       -0.0067054606 -0.5791322 0.10270724 0.40251186
000210 0f a8 74 be e2 ae 5d be 6b 2c 39 bf ed 09 e7 3d
       -0.23892234 -0.21648744 -0.723334 0.1128119
000220 1e f0 f4 3e c6 fe 53 3f bf 27 ac be 93 35 21 bf
       0.47839445 0.8281063 -0.33624074 -0.6297237
000230 9e 8d fb 3d 19 32 3f 3a 8e 84 9d 3d 4d 66 9c 3e
       0.12282871 0.0007293537 0.076912984 0.305468
000240 b2 b6 3e bf 76 a8 15 be e1 9d cb 3e 78 f3 9b 3e
       -0.7449752 -0.14615044 0.3976889 0.3045919
000250 d8 9e 2d bf 7d b8 03 3d aa 81 3c be 8a 62 82 3d
       -0.678205 0.032158364 -0.18408838 0.06366451
000260 54 7c 1b 3f 1a d2 45 bd c6 33 5f be f1 94 6e bd
       0.60736585 -0.04829607 -0.21797094 -0.05824751
000270 e4 dd 39 3e 26 6c 1d bf a6 96 bc 3d fe 5e 91 3f
       0.18151051 -0.61493146 0.092084214 1.1357114
000280 f7 09 98 be 81 6b 36 3c 1c 29 58 bf 36 3c 4d 3e
       -0.29695103 0.011134029 -0.8443773 0.200425
000290 32 82 2f 3c ea 49 3a 40 a9 6c 66 3d e4 b9 5c 3f
       0.010712193 2.9107614 0.05625597 0.86221147
0002a0 9f 32 a1 3e b9 65 09 3d 1c af be 3e 77 1e b4 3e
       0.31483933 0.033544276 0.37242973 0.35179493
0002b0 32 cc 32 3e b5 c7 44 be 5d a6 96 3e 85 f1 a3 3f
       0.17460707 -0.19216807 0.294238 1.2808081
0002c0 52 bf 09 bf 78 2e 0d bf f0 e7 23 c0 42 dd ee be
       -0.53807557 -0.5514903 -2.5610313 -0.4665318
0002d0 5d a0 a4 bd 43 70 d4 bd 47 07 f0 bd 34 6e 1d bd
       -0.08038399 -0.10372975 -0.11720138 -0.038435176
0002e0 5e bc da be 1d 92 23 be a8 66 d7 bc 65 ee 5c bf
       -0.42721838 -0.15973707 -0.026294068 -0.8630126
0002f0 a2 00 36 3f 71 a1 81 bd d7 ae 26 3f 63 84 4d bc
       0.71094716 -0.06329621 0.65110534 -0.0125437705
000300 80 ea c8 bd 34 c0 be 3c 05 70 06 3e a6 1c e6 3d
       -0.09810352 0.023285009 0.1312867 0.11235933
000310 f9 f7 02 be 94 78 73 bd e3 4a 9f 3c 40 51 e2 bc
       -0.12789907 -0.059441164 0.019444888 -0.027626634
000320 d1 14 cf 3c 87 40 81 bd 64 14 60 3d 53 a6 32 bd
       0.02527848 -0.06311136 0.054706946 -0.04361565
000330 f7 d8 1d 3c 6d d2 07 be 0c 38 81 3e 43 4d 08 be
       0.009634248 -0.13263865 0.25238073 -0.13310723
000340 32 8e 53 be f0 90 3d 3d 02 8a 96 bb e8 bd 35 3d
       -0.20659712 0.0462808 -0.0045940885 0.04437056
000350 6a cd c8 bc 33 c3 99 39 54 57 2d be dc 1a cf ba
       -0.024512012 0.0002932787 -0.16927844 -0.0015800851
000360 7d 01 09 be f5 41 f1 bc 79 5e 18 bd 6d 6f 9f 3b
       -0.13379474 -0.029450396 -0.03719947 0.004865578
000370 8c 3c 1c 3e 3e da 76 3c a1 ee 57 bd c1 20 50 3d
       0.15257472 0.015066681 -0.05271781 0.050812487
000380 54 00 fa 3c 3b 58 c8 b9 81 fe 8f 3a 67 2f 54 bd
       0.030517735 -0.0003821271 0.0010985882 -0.05180302
000390 a4 3d 1d bd 00 23 bf 3b 53 6a 87 3d 45 31 71 bc
       -0.038388863 0.0058330297 0.066120766 -0.014721219
0003a0 78 01 c0 bd a8 48 19 be d7 75 72 3d 32 a2 67 bd
       -0.0937528 -0.14969122 0.059194412 -0.056551166
0003b0 83 b7 4d 3c a3 20 3d 3b c3 be bb be 06 19 92 3c
       0.01255596 0.0028858564 -0.36668977 0.017834198
0003c0 28 3c d4 3c 54 05 1a bd ee 59 7c 3c b2 f9 7c 3c
       0.025907591 -0.037602738 0.0154023 0.015440391
0003d0 88 91 27 3e cc 41 4c 3d 42 f2 c2 3c c2 25 91 bd
       0.1636411 0.049867436 0.023797158 -0.0708728
0003e0 90 61 e9 bd 2e 19 46 3d 0d 20 a4 bb bf 83 98 3c
       -0.11395562 0.048363857 -0.0050087036 0.018617509
0003f0 80 8a a9 bd 16 da 9b 3d da c2 d8 3d 08 3a 78 bd
       -0.0827837 0.07609956 0.1058404 -0.060602218

net.2.0.bias f4 [6]
000000 d7 fe 1b 3c 4d f0 4b 3d 90 0a d6 3d 5f 4a aa bd
       0.009521208 0.049789716 0.104512334 -0.083149664
000010 b3 57 00 be 9c 8b c0 bd
       -0.12533455 -0.094016284
