suboptimal_policies/HopperPyBulletEnv-v0_smol.pth (torch, 51415 bytes, 6 tensors)

net.0.0.weight f4 [100, 15]
000000 2d 69 35 bf fe 4c 84 bd ab 14 25 bd 9b 9f c1 be
       -0.7086361 -0.064599976 -0.040302914 -0.37817082
000010 74 59 9f bd 01 ce 63 be bb 65 4a 3d 9f 50 1f bf
       -0.07780734 -0.22246553 0.049413424 -0.62232393
000020 a5 0d d8 3e 78 e8 6a 3d 2a ee 47 be 73 aa fa bd
       0.4219791 0.057350606 -0.19524446 -0.12239542
000030 11 14 c9 be a0 82 7a be d2 cb 00 be d5 92 dd 3f
       -0.39273122 -0.24463892 -0.12577751 1.7310435
000040 62 ee 32 3c c4 06 26 be a0 64 0b bf c7 1c f1 3b
       0.010921093 -0.16213518 -0.54450417 0.007358167
000050 62 5b 80 3e 9f ff c0 3d 8e 7b 09 bf 45 c3 26 3f
       0.2506972 0.09423756 -0.53704154 0.6514171
000060 79 e7 d0 3d a2 33 ed 3c 1e 04 57 3e f0 f8 2d 3e
       0.102004 0.028955285 0.20997664 0.16989493
000070 bf 33 ae 3e 24 86 b4 bc e0 df 0b 3f c6 fd 2d bd
       0.34023854 -0.02203662 0.5463848 -0.042478345
000080 c8 c1 d3 bd 3b 37 cf be 03 23 7b 3d 90 44 2d 3c
       -0.10339695 -0.40471825 0.061312687 0.010575429
000090 38 3b 85 3c c6 bb f2 be 91 d0 a5 3e 47 ee 33 bd
       0.01626359 -0.47408885 0.32385686 -0.04392841
0000a0 bb d2 1e 3e e5 7c 59 3c d8 86 db 3e a2 26 c7 3c
       0.15510075 0.013274406 0.42876315 0.024310414
0000b0 cc 95 3a be ae 0c 55 be 59 78 01 3e b4 19 fe 3d
       -0.18221205 -0.20805618 0.12643565 0.12407246
0000c0 3e 48 f8 be a8 70 2a 3b 7d 8e 08 bf 20 d1 cf 3c
       -0.48492616 0.002600709 -0.5334242 0.025368273
0000d0 47 d3 c1 bc 57 c6 77 3e 40 1d 1f 3e 51 f9 21 3d
       -0.023660315 0.24196754 0.15538502 0.039544407
0000e0 34 8e e8 3e 42 b2 e4 3a ec 60 7e 3d c1 b9 2f bc
       0.45420992 0.0017448144 0.06210415 -0.0107254395
0000f0 ff 4e db 3d 9d d0 8f 3d 26 9c d3 3d 99 27 78 3e
       0.10708427 0.07022212 0.10332517 0.24233855
000100 1d 22 20 3c 23 24 aa be 83 be 03 3e 41 66 97 3e
       0.009773758 -0.33230695 0.12865643 0.295702
000110 6b cc 30 3e a1 ac 54 be 5f 54 07 be fc 34 51 be
       0.1726548 -0.20768978 -0.13215779 -0.20430368
000120 3e 3b 90 be 5f 48 a8 3e 57 82 7d bd 80 e6 4b bd
       -0.28170198 0.32867715 -0.06189188 -0.04978037
000130 0f 8d c8 bd 7e ed 1d bc d0 86 a2 bd 36 91 90 bd
       -0.0979253 -0.009639142 -0.0793587 -0.07058947
000140 03 f5 41 3d 30 dd 63 bd a9 17 ab be fd 11 4b be
       0.047352802 -0.055630863 -0.3341649 -0.1983108
000150 a4 4d 87 bc 9b d4 fb bc 5c 8d a9 3d ec 3b 01 bf
       -0.016516514 -0.030741027 0.08278915 -0.5048206
000160 7c 0f 8f bc 11 f5 af 3d 6f e5 95 be 36 72 9d bd
       -0.017463438 0.085916646 -0.29276606 -0.076878
000170 aa 52 9b 3c 68 a4 ed 3e 39 75 97 bd 31 c7 9d 3d
       0.018960316 0.46414495 -0.07395405 0.07704008
000180 a3 84 d2 3d 6b 73 87 bb 08 38 17 bf 95 e2 0c be
       0.10279205 -0.004133632 -0.5906987 -0.13758309
000190 25 2f 5d 3c 9f e7 c4 be 2a 0e 4d bd 87 b6 a0 be
       0.01350001 -0.38457963 -0.050062336 -0.31389257
0001a0 b2 52 f4 bd 6e 9a cf 3e 84 20 7a bc 87 2d 49 3e
       -0.119298354 0.40547508 -0.015266541 0.19646274
0001b0 c7 f2 44 3e 71 28 fd 3d 5e e2 90 3d 27 e1 24 3d
       0.19233237 0.12361229 0.07074426 0.040253785
0001c0 49 42 2d 3c d0 db 1d be ec 92 18 3a d1 39 97 bd
       0.010574886 -0.15415883 0.0005820233 -0.073840745
0001d0 d5 28 ae 3e 36 82 a3 be 04 8e c4 ba 42 45 66 3b
       0.34015527 -0.3193528 -0.0014995937 0.0035136496
0001e0 5f 01 0e 3f e0 3d e4 bd 6e 84 6e bd c2 6b 4a be
       0.5547084 -0.11144614 -0.058231764 -0.19767669
0001f0 2c 4e ee bc 46 dd 5d bb dd 57 be bd b5 19 bf be
       -0.02909001 -0.0033853813 -0.09294102 -0.373243
000200 50 04 30 3e 56 0c a5 be 90 4b a5 3d fa c2 4f bd
       0.17189145 -0.32235974 0.08071053 -0.050723054
000210 76 6a 78 be 0b 94 e7 3e 97 1e 89 3e 56 ee 5f bf
       -0.24259362 0.45230135 0.2678115 -0.87473047
000220 7d c7 89 bd b8 f7 a5 bd cb bc 23 3f 87 1a ed 3d
       -0.067275025 -0.08103889 0.6395995 0.11577325
000230 47 87 55 be a2 31 52 bd 88 91 12 3f 30 fb 7d be
       -0.20852385 -0.051316865 0.57253313 -0.24802852
000240 cc ef a7 3d 27 01 c6 3b d2 c3 03 3e 84 da 6d be
       0.082000345 0.006042618 0.12867668 -0.23227888
000250 d1 2c a0 3b d7 4c 24 be 92 37 24 3e 7a 01 b8 bd
       0.004888155 -0.16044937 0.16036823 -0.08984657
000260 9c 0f 9d bb 3f b9 23 be 47 ab 47 bd 37 e4 a1 bd
       -0.0047931205 -0.15988635 -0.048747327 -0.07904857
000270 52 a1 dc bd 96 bc 97 be aa 31 49 3e e8 8a 2f 3e
       -0.10772957 -0.29636067 0.19647852 0.17142832
000280 a6 f6 87 3d 3c 74 56 3e 9f 4b 18 bf 8a a3 32 bc
       0.06638841 0.20942777 -0.5949039 -0.010903249
000290 82 d5 a1 bc 5c c7 af 3e 39 83 5e 3c d6 56 a8 bc
       -0.019755129 0.34331787 0.013581091 -0.02054922
0002a0 e4 5a a2 bf 19 da 03 3d ca 4a c7 3e 94 20 89 bc
       -1.2683988 0.032190416 0.38924247 -0.016739167
0002b0 fe ed 66 be 48 5e 1e 3f 98 e4 92 3e 8e da fc 3c
       -0.22551724 0.6186261 0.28690028 0.030865934
0002c0 7b f3 dc 3e af 62 66 bd 25 70 06 3e 03 97 ad bd
       0.4315451 -0.056246456 0.13128717 -0.08476069
0002d0 5d 7a 81 be a2 d3 4b bd f8 37 d4 bd ae a9 83 3e
       -0.25288668 -0.049762376 -0.10362238 0.25715393
0002e0 47 54 25 3d 96 b2 c2 be 19 b5 c9 3d 37 86 34 3f
       0.040363576 -0.38026875 0.09848995 0.70517296
0002f0 94 ef 8a bd 2b f2 fc 3e b5 7d 8e bd e4 72 e8 bd
       -0.06783977 0.4940351 -0.069575705 -0.11350039
000300 6f 20 00 bf 70 d8 a1 be 10 a4 0d bc 6e aa 07 bf
       -0.5004949 -0.3161044 -0.008645073 -0.5299443
000310 af fb ba 3d d5 ee b4 bd c5 99 73 bf 74 da 8b 3d
       0.09130036 -0.08834616 -0.9515651 0.06828776
000320 cd e4 9d be ad 68 a7 bd a1 78 f5 be 12 43 65 3e
       -0.30838624 -0.08174262 -0.47943595 0.22388867
000330 de 5b 29 bd 9f aa 73 be 58 13 e1 3d f1 4c 90 be
       -0.041347377 -0.23795556 0.10990018 -0.28183702
000340 d6 a8 35 3d bd fb c2 bd 8b 1c 87 3e b2 ec 99 3d
       0.044350468 -0.095206715 0.26388964 0.07515849
000350 2e a5 3b 3e 68 bd f7 be ad 81 93 bb ed 58 3c bf
       0.1832473 -0.48386693 -0.0045015425 -0.7357319
000360 e9 21 3a 3d 39 4c 6f 3e d0 bc 83 3e 61 88 74 3e
       0.045442495 0.2336892 0.2572999 0.2388015
000370 7d 77 0f be a0 f7 b6 bd e1 a5 63 3e 97 10 c6 3e
       -0.14010425 -0.089339495 0.22231247 0.38684532
000380 6c 62 31 be de 42 f4 bc 1c 1a fc bc 5d 7f 87 bd
       -0.17322701 -0.029817041 -0.030774169 -0.066160895
000390 6e a6 47 3e 38 78 91 bc d6 df 30 be 69 25 e0 bd
       0.19497082 -0.01775752 -0.17272887 -0.109446354
0003a0 53 ad fb be 82 53 47 bc 7c ca 67 be 38 87 6b bb
       -0.49155673 -0.012165906 -0.22635835 -0.003593875
0003b0 34 8b 3b be ec d9 66 3e ec 56 b2 bd ff ae c8 bd
       -0.1831482 0.22544068 -0.08707985 -0.09799003
0003c0 4f a5 18 3f 2e 8b 0a 3d 77 69 46 bc 0c c8 9b be
       0.5962724 0.03382414 -0.012110106 -0.3042606
0003d0 bb 8d 01 3e d5 b6 30 bd a5 06 0c 3e fb 05 13 be
       0.12651722 -0.043143112 0.1367441 -0.1435775
0003e0 97 2a aa 3e 48 42 95 bd 61 c8 56 bd 37 2a 08 be
       0.33235618 -0.07288033 -0.05243719 -0.13297354
0003f0 59 f5 b6 be 27 e7 79 be bd 02 e9 3c 18 88 28 3f
       -0.3573406 -0.24404584 0.028443689 0.6583266

net.0.0.bias f4 [100]
000000 94 e7 31 be e7 15 8b 3d 08 8e 17 3d 30 93 1f 3d
       -0.17373496 0.06791287 0.037000686 0.03895873
000010 3d 9d 12 3d e0 f0 27 3d c3 40 cd 3d a8 9b 73 bb
       0.035794485 0.0410012 0.10022118 -0.0037171636
000020 38 a5 55 be a7 2d d7 3d 27 17 b8 bd 57 b3 2e be
       -0.20863807 0.10506754 -0.08988791 -0.170606
000030 e6 f6 eb bd ed cc 1c 3e 44 b4 00 3e 85 6f 8e 3d
       -0.115217015 0.15312548 0.12568766 0.069548644
000040 29 22 3f 3d 4b 82 55 bd 63 81 78 bd 74 18 ca 3c
       0.046663437 -0.05212621 -0.060670268 0.024669863
000050 86 b7 09 be da bc da 3c ab 71 10 bd 35 7e 81 3c
       -0.13448915 0.02670138 -0.035264652 0.01580725
000060 c7 83 93 bd b7 c5 35 be 2a 85 a5 3c de fb 00 3e
       -0.07202869 -0.17751203 0.0202051 0.1259608
000070 0b 98 a8 3d ef c9 0d bb 09 26 44 bd 8c 42 1a 3e
       0.08232125 -0.0021635254 -0.047887836 0.15064448
000080 ac 1d de bc 3e 83 0d be dc 9d 46 3e 67 a5 bf bd
       -0.027113758 -0.13819596 0.19396156 -0.0935772
000090 9e f6 8b bd e1 70 c3 3d 44 fd 3f 3c 62 b8 98 bc
       -0.06834148 0.09543014 0.011718098 -0.018642608
0000a0 17 2c 2a be 60 4f 13 be 14 a9 b6 bc f4 59 80 3d
       -0.16618381 -0.14385748 -0.02229742 0.06267157
0000b0 05 d9 16 bd b8 cb 20 3d fc c8 cd 3d cb 23 a3 3c
       -0.03682806 0.03925678 0.100481 0.019914528
0000c0 2d f2 e9 bd 70 88 04 be a7 e1 14 bd e5 f5 0b bb
       -0.114231445 -0.12942672 -0.03634801 -0.0021356281
0000d0 14 b3 8f 3d c8 9c eb 3d 72 0c 84 3d a7 93 e7 bd
       0.07016578 0.11504513 0.06447686 -0.11307459
0000e0 10 34 c4 3d 1b bb 1b 3e d0 a6 d1 bd f1 b9 4e be
       0.09580243 0.15208094 -0.10236895 -0.20188119
0000f0 5c 38 77 bd 64 09 d6 3d c0 8a dc 3c 16 53 06 be
       -0.060356483 0.1045101 0.02692163 -0.13117632
000100 e5 28 89 bd b3 a8 a5 bd d5 28 82 3e 4d d5 2f be
       -0.06697253 -0.080888174 0.25421777 -0.17171212
000110 7a 1f 8c 3d 32 76 8c 3b a8 a4 45 be d3 30 c7 3d
       0.06841941 0.004286551 -0.19301093 0.09726109
000120 0b ef fa bc ac 7d 3f 3d b4 5e d9 3c ff e0 92 3d
       -0.030631563 0.04675071 0.026534416 0.07171821
000130 22 5b ee 3d 4c bd ac bd af 2a 53 3e 40 b1 e2 3d
       0.11638476 -0.08434543 0.20621751 0.11068964
000140 8b d4 d9 3c 37 e2 4f bd a2 de c1 3d 4c 99 9e bc
       0.026590606 -0.050752845 0.09466292 -0.019360207
000150 d2 69 f5 bd 2f 27 bc 3d 9e 79 1e 3e 56 e9 a8 bd
       -0.11983074 0.09187161 0.15476081 -0.0824763
000160 8a 12 1f 3e f9 f1 b8 bd d4 43 05 3c 16 d4 35 3d
       0.15534416 -0.090305276 0.008133847 0.044391714
000170 63 96 10 3e a2 30 40 3e dc 79 25 be c1 21 b6 3d
       0.14119868 0.18768552 -0.16159767 0.08893157
000180 db 33 d8 3c 36 7d ab bb 07 63 69 be a8 a9 d2 3d
       0.026391914 -0.005233432 -0.22791682 0.102862656

net.1.0.weight f4 [100, 100]
000000 14 bf 2b 3e 2c 89 c0 bd 2d 5a b2 bc 61 d3 80 3d
       0.1677211 -0.094011635 -0.021771515 0.06290317
000010 5e ee 7a 3d 3a f1 48 3e fa b7 e2 bb af 29 ec 3c
       0.06126248 0.1962327 -0.0069189044 0.02882847
000020 d9 09 2c be 95 fd 06 bd 61 42 01 3e ec f3 c3 3c
       -0.16800632 -0.03295668 0.12622978 0.023920022
000030 c3 02 87 3c e3 2a 1a 3c 78 f8 57 3b ad 07 28 3e
       0.01648081 0.009409639 0.0032954495 0.16409178
000040 05 90 41 3d c0 46 7b bb a6 2f 26 bd ba 00 bb bd
       0.04725649 -0.003834173 -0.040572785 -0.09130998
000050 e7 97 2b bd 0c ac 4b bc 2c 24 ae bd 9f 74 16 3d
       -0.041892912 -0.012431156 -0.08502993 0.036732312
000060 09 e3 90 3b 1e 60 83 3d aa f6 9f bd 58 b4 8a 3c
       0.004421596 0.06414817 -0.07810719 0.016931698
000070 03 29 78 bc 3d 7b 3d bc 57 c6 c3 bc 89 3c ea 3c
       -0.015146497 -0.011565027 -0.023898287 0.028593319
000080 da 32 b2 3d 2a 19 a0 bd 60 ab ce 3d 65 ef bc bc
       0.087011054 -0.078173 0.10091281 -0.023063371
000090 e5 91 93 3d d0 a5 29 bd 9c c5 8a bb 61 59 f5 bd
       0.072055615 -0.041417897 -0.0042349827 -0.11979938
0000a0 3a d2 39 3d ae d4 c1 bd 3f 93 1f 3d 2d e3 c7 bb
       0.045366503 -0.094643936 0.038958784 -0.0061000795
0000b0 0e 66 1d 3e 3a 9e 79 3d 29 12 53 be 6c 3d 25 3d
       0.15370962 0.060941912 -0.20612396 0.04034178
0000c0 c0 16 2d be 7e b1 7f be 9a 6f 61 3d d1 13 79 bc
       -0.1690321 -0.24970052 0.055038072 -0.0152024785
0000d0 f8 29 89 bc c8 b6 24 3e 1f 14 95 3c 5e 58 0f bc
       -0.016743645 0.1608535 0.018198071 -0.008749096
0000e0 07 9a 33 3d c7 fc 11 3d 81 66 13 3d f3 94 05 3d
       0.043848064 0.035641458 0.035986427 0.032612752
0000f0 d2 81 1c 3d 98 b6 d1 3c 83 1b 04 3e b8 90 f0 bd
       0.038209744 0.025599763 0.1290112 -0.11746353
000100 e2 ba c1 3d d6 a1 bd 3c a1 e1 07 3e b1 03 fa 3d
       0.09459473 0.023148458 0.13269664 0.12207735
000110 7a c2 a9 bd c2 d1 e0 3c 0f 4e 13 be 6c b4 9c bc
       -0.082890466 0.02744377 -0.14385246 -0.019129
000120 26 cd fa 39 40 4f be bd 86 e4 ad bd 8e de a9 3d
       0.00047836563 -0.092924595 -0.08490853 0.08294402
000130 b1 fe 3b 3d c0 b7 35 bd 0e 2a 63 bc 72 59 07 bc
       0.04589719 -0.04436469 -0.013865007 -0.0082610715
000140 a9 6f 04 3e 67 50 29 be 91 b0 5b 3d bf 98 5a bc
       0.1293322 -0.16534577 0.053635184 -0.013342082
000150 e4 d4 63 3d 02 85 9e 3d 42 1a 4c 3d 91 84 fd bd
       0.05562295 0.07740213 0.04982973 -0.12378801
000160 bb cf 4e 3d 60 de 0b be 02 d7 31 3d 68 87 99 3c
       0.050491076 -0.13659048 0.043417938 0.018741325
000170 90 26 f6 3d 8c 8e ef 3c 58 4a 98 bd ed 17 7e 3d
       0.12019074 0.029242776 -0.07436055 0.062034536
000180 a3 4e 56 3d 40 2a 93 bc a7 f9 c4 bd 1a ba 91 bd
       0.052321088 -0.017964482 -0.0961793 -0.07115574
000190 dc 99 e6 be 78 d9 1d be df 20 03 be ee c1 b2 3e
       -0.4503926 -0.15414989 -0.12805508 0.34913582
0001a0 f3 23 bb 3d cf bc fd bb 30 9c 2e 3e 30 df d9 3c
       0.09137716 -0.007743455 0.17051768 0.026595682
0001b0 82 06 cc 3d 42 66 03 bf e2 f4 ef be a8 00 24 3d
       0.09962179 -0.5132791 -0.46866518 0.04003969
0001c0 4b 06 86 be 16 02 44 be 60 da ef bb 5c 2b c5 bc
       -0.26176676 -0.1914142 -0.0073197335 -0.024068527
0001d0 0a 49 36 be c8 76 cc 3e 84 a4 cc be 38 1d 96 3d
       -0.178013 0.39934373 -0.39969265 0.07329792
0001e0 1b e9 90 be 7b 1a c0 bb 95 17 46 3e 5c c9 17 3e
       -0.28302845 -0.0058625317 0.19344933 0.14822906
0001f0 9b b5 d1 bc 5f 74 7a 3c 02 22 d7 3c f4 c6 23 3e
       -0.025599292 0.015286534 0.026261333 0.15993863
000200 74 b7 53 3e 85 af 85 be c8 5e cd bd cd 27 12 3e
       0.2067545 -0.26110473 -0.10027844 0.14272995
000210 34 28 28 3e e5 95 2d bd 09 f0 74 3e 52 62 95 be
       0.16421586 -0.04237928 0.23919691 -0.29176575
000220 91 55 d5 be cb 18 b8 bb 67 13 aa 3e e2 89 6b be
       -0.41666844 -0.00561819 0.33217928 -0.23001817
000230 03 db 0c be cd 65 99 bf 86 0e bf 3d 97 44 d6 be
       -0.13755421 -1.1984192 0.09328942 -0.41849205
000240 15 ff 61 3f c3 b8 2b 3e 77 17 fe be 4e ea 0c 3c
       0.8827985 0.167697 -0.49627277 0.0086007845
000250 33 fb 86 3e 66 c8 12 be 8a 97 8a bd aa 34 5c bf
       0.26363525 -0.14334258 -0.06767185 -0.8601786
000260 18 81 aa bd 50 cb b3 3e b6 df 9b bc ba fe 73 be
       -0.08325404 0.35116053 -0.019027572 -0.23827639
000270 d6 84 21 3e db 3a a0 3d cb af 26 be 3b 76 3a be
       0.15773329 0.07823726 -0.16277997 -0.18209164
000280 b2 8a 0c 3e 23 c3 b6 3d c3 5f 46 bf 17 a5 53 3c
       0.13724783 0.08923938 -0.7748987 0.012917778
000290 03 e4 5f bf 61 4c 18 be f0 9e af 3e aa 91 4c 3e
       -0.87457293 -0.14872886 0.34300947 0.19977441
0002a0 21 6a 08 bf 2b 1d d2 3d e2 49 87 bf 4d 66 01 be
       -0.5328694 0.102594696 -1.0569422 -0.12636681
0002b0 3b 04 2e bc fa 03 60 3e d4 52 15 be b3 99 6c bd
       -0.010621126 0.21876517 -0.14582378 -0.057763766
0002c0 50 bb d3 3d 3b 37 c4 be ba c2 b7 3d 4a f7 ab bc
       0.103384614 -0.38323388 0.08972688 -0.02099194
0002d0 61 4c 33 3e c4 25 38 bf ed 51 37 be 6b 42 af be
       0.17509605 -0.71932626 -0.17902346 -0.3423036
0002e0 55 9c b2 3d 83 d7 16 be ee 99 bf 3d 02 ac 72 bf
       0.08721224 -0.14730649 0.09355532 -0.94793713
0002f0 d5 af 47 3e 68 87 4f 3e d5 80 2f 3e c5 4a f5 3c
       0.19500668 0.20266497 0.1713899 0.02994288
000300 d7 c3 12 bb 93 31 53 3d 9b 31 0f be 40 6b e4 3c
       -0.0022394562 0.05156095 -0.13983767 0.027883172
000310 57 fe f7 3d 89 80 b9 be 56 ce 97 be 59 74 43 bc
       0.12109058 -0.36230877 -0.2964961 -0.011929595
000320 ca 58 7b be 52 97 38 bf 90 36 05 bd 31 82 38 be
       -0.24545589 -0.72105896 -0.032522738 -0.18018414
000330 8a b7 6b 3c 83 94 a3 bd 01 fb 26 3e 57 f2 2e 3e
       0.014387021 -0.07987311 0.16306688 0.17084633
000340 a4 46 de bc 7b 30 98 3d 65 cd e3 bd 77 19 2d bd
       -0.027133293 0.07431122 -0.1112316 -0.042260613
000350 a4 0e 66 3d c3 90 5c 3e fe ec 26 be 63 5f a6 3b
       0.056166306 0.21539597 -0.16301343 0.005077289
000360 ef f1 64 be 3f e6 13 3f 7b 3c 96 3c 15 6b e6 bc
       -0.22357915 0.577732 0.018339386 -0.028127233
000370 fc 69 dc 3c 71 74 1c bd 9f 76 4d 3c 3e 62 de bd
       0.026906006 -0.038196985 0.0125404885 -0.10858582
000380 98 4a ab bd 09 1c 58 3d 02 7b 25 3e 3c ad 03 3e
       -0.08363837 0.05276111 0.16160205 0.12859052
000390 72 13 a3 3d ac 5d d9 bb f5 66 ed 3c c5 10 08 3c
       0.07962693 -0.006633481 0.028979758 0.008304779
0003a0 40 26 8a 3d 22 81 1e be 3b bd 9f 3d 85 df 32 3d
       0.06745577 -0.15478948 0.07799765 0.043670196
0003b0 3c 5b d5 be 6e 50 8b bd 46 05 bc 3d 81 31 0e be
       -0.4167117 -0.0680245 0.09180693 -0.13886072
0003c0 fd bb a1 be d6 25 a8 be 60 e9 6f bd 69 02 58 bd
       -0.31588736 -0.32841367 -0.058572173 -0.052736674
0003d0 8b 99 9b 3e 96 71 39 be 3c 20 a2 3d 00 51 1b 3e
       0.3039058 -0.18109736 0.079163045 0.15167618
0003e0 aa ad d5 be 9e c0 55 be f1 1f f4 3b cd 84 06 bf
       -0.41734058 -0.20874259 0.007450097 -0.5254639
0003f0 b4 37 90 3d bf 2a 0c 3e 2d 92 61 be 61 b3 41 be
       0.070418745 0.13688181 -0.22028418 -0.18916084

net.1.0.bias f4 [100]
000000 e2 ca b6 3d 61 a1 ff 3d 1d 90 83 3d a4 d0 24 3d
       0.089254156 0.124819525 0.06423972 0.040238038
000010 44 d2 08 3e e3 09 d1 bb 5a e1 aa 3c 76 40 17 bc
       0.1336146 -0.0063793524 0.02085941 -0.009231677
000020 c5 0b ca 3c aa b1 00 3d 1f 3a 02 3d 25 8d 20 bd
       0.024663815 0.031419434 0.03179371 -0.039197106
000030 a0 cd 93 bd 53 08 ea 3d 76 f0 db 3d ab 88 ed bb
       -0.07216954 0.11427369 0.10739224 -0.007248958
000040 6b 2b c4 bd 8f 78 a4 3d 16 af 5c bd b7 9e 1a 3c
       -0.09578594 0.08030807 -0.053877912 0.009437255
000050 2c 52 83 3d 66 cc 9d 3d e2 bc e9 3d 46 e2 8b 3c
       0.064121574 0.077050015 0.1141298 0.017075669
000060 bb c1 43 bd 76 3b 02 3e 0c 8b e7 bd aa 25 1a 3e
       -0.047792178 0.12717995 -0.11305818 0.1505343
000070 bd 02 a2 bc ff 71 0e 3e 72 85 7d 3d 93 34 15 bc
       -0.019776696 0.13910674 0.06189484 -0.009106773
000080 62 fc 67 bc 02 0f 15 3e cb 8b c6 bc 73 0e 82 3e
       -0.014159294 0.14556506 -0.02423658 0.2540165
000090 da 15 45 3d 9e 5f 16 be 34 b2 4b 3d 43 d7 17 3e
       0.048116542 -0.14684913 0.049730495 0.1482821
0000a0 03 74 68 3d 6c ae 07 3d 07 74 93 3d 99 40 4a 3d
       0.056751262 0.033125326 0.07199865 0.04937801
0000b0 f1 32 45 3d c2 aa 91 3e dc d2 b5 3d 47 6c 9d 3d
       0.048144285 0.2845059 0.08878109 0.07686668
0000c0 6f 2a e1 3d 36 42 53 3e c6 a6 02 3d 7d 31 aa bc
       0.10994422 0.20630726 0.03189733 -0.020775551
0000d0 77 e5 59 3e bd 61 81 be fd a3 dd 3d 06 39 29 3d
       0.2127894 -0.2526988 0.10822294 0.041314147
0000e0 ff e0 c1 3b 7a 3f 56 3d da 35 8d bc 14 e5 1f 3e
       0.005916714 0.05230663 -0.017237592 0.1561473
0000f0 ab 76 a3 bd 96 31 9a 3e 56 cc e5 3d 84 75 ca 3d
       -0.079816185 0.30115956 0.112206146 0.098856956
000100 c7 7e c0 3d d0 83 dd 3d f9 8d 97 3d 75 ab 29 3d
       0.09399181 0.10816157 0.07400126 0.04142328
000110 cf 4f 95 3c 59 cf 94 3d 7d c8 dd 3d fc 8e 15 be
       0.018226532 0.07266111 0.10829256 -0.14605325
000120 d7 56 14 3e fc a5 cb 3d 9f 3d ea bc 95 bc 10 3e
       0.14486252 0.099437684 -0.028593836 0.14134438
000130 9c 9c f0 3d 5a 3e da 3d 4c a2 93 3b 4f 3a 2b 3d
       0.11748621 0.10656424 0.0045054313 0.041803654
000140 4e 09 02 3e f1 90 1b 3d a7 ed a7 3d 1c 73 57 bc
       0.12698862 0.037980024 0.081996255 -0.013150003
000150 ac 32 be bd 72 12 f4 3c 35 37 04 3e 8d 0a bc 3d
       -0.09287009 0.029793952 0.12911685 0.091817
000160 f2 20 b4 3d 76 5c 16 3e d4 a0 8b bd e5 16 47 3d
       0.08795346 0.14683709 -0.06817785 0.04860582
000170 3b dd 50 3d 8a 2f 12 3d 05 9f 31 3e 79 9c 65 3d
       0.05099223 0.035689868 0.17345817 0.056057427
000180 90 c7 5f bd 48 30 d7 3d f4 9e 04 3d 86 85 49 3e
       -0.054633677 0.10507256 0.032378152 0.19679841

net.2.0.weight f4 [6, 100]
000000 2d cd 59 3c f9 94 4f be 4f fd b0 be 43 f7 cc 3d
       0.013293547 -0.20271672 -0.3456826 0.10008099
000010 1c b2 c1 3d af c4 bc bc 3a 95 06 3f 72 56 c7 3d
       0.094578 -0.023043005 0.5257145 0.09733285
000020 da 26 df 3e cb 62 b7 bd 3b 5f 89 3e 77 b9 5e be
       0.4358433 -0.0895439 0.26830468 -0.21750437
000030 95 27 90 bd 04 72 82 3d 7d 83 07 bd 32 0f 8b 3c
       -0.070388 0.06369403 -0.03308438 0.01697502
000040 be 08 d2 3d 64 13 72 bd 09 d7 ba 3e 4e d5 ad bd
       0.10255574 -0.059100524 0.36492184 -0.0848795
000050 60 63 41 be 4c d2 57 bd 08 ff 8f 3f 11 71 c7 3d
       -0.18885565 -0.05269079 1.1249704 0.097383626
000060 7f d1 df bd 97 d9 2e 3e 26 23 c2 bd dc d7 43 be
       -0.1092863 0.17075191 -0.0947936 -0.19125313
000070 6d 03 d8 be 9b 04 e6 3d 68 a0 c0 3d d6 07 ab 3d
       -0.42190114 0.11231347 0.09405595 0.08351104
000080 c7 2d 38 3e b7 eb 15 3d a5 7e 68 be 6c 7e ed bc
       0.17986213 0.03660175 -0.22704561 -0.028990947
000090 9c 3d 72 3e 47 de 26 3f 8b 79 fa 3b be 40 b2 3d
       0.23656315 0.6518292 0.0076438836 0.08703755
0000a0 e6 ef 73 be e0 13 d3 3e 92 de cc be 2a 3d cc 3e
       -0.23821983 0.412261 -0.40013558 0.39890414
0000b0 ce 04 3a 3f f7 2c 8b 3d 2d 96 a4 bd e7 06 87 3e
       0.7266358 0.06795686 -0.08036456 0.26372454
0000c0 fe 39 fb bc 13 21 de 3b b5 40 33 3e 05 a7 01 bd
       -0.030667301 0.006778845 0.17505153 -0.031653423
0000d0 e0 ad 08 3b d8 2c ee 3e aa c5 fd 3d 08 fe 9e 3c
       0.002085559 0.46518588 0.12391217 0.01940824
0000e0 4d 37 37 be ec e4 e5 bd 01 bc 04 bf 85 6b 22 3e
       -0.1789219 -0.11225304 -0.5184937 0.15861328
0000f0 76 7f bf 3e b3 a7 b2 bd fe 90 aa 3d e1 01 d0 bb
       0.37401932 -0.08723392 0.08328436 -0.0063478802
000100 52 aa 50 bd 22 1c 33 be ad d4 47 3e fc ca 7f be
       -0.05094368 -0.174912 0.19514723 -0.24979776
000110 6f bf 15 be d8 91 67 3c e5 a3 39 bd f4 ea 4c bf
       -0.14623807 0.014133893 -0.045322318 -0.8004601
000120 85 40 a9 bd 15 92 3b be 38 9c f4 bc 41 ac fa 3c
       -0.08264259 -0.18317445 -0.029859647 0.030599715
000130 f3 c3 9b 3d c5 00 dd 3d e1 1d a1 be 57 ab 62 be
       0.07605734 0.107911624 -0.31468108 -0.22135673
000140 e7 1c a0 bd a7 fc 73 3e b1 c6 c9 bd 18 81 30 3d
       -0.07818013 0.23826848 -0.098523505 0.043091863
000150 8f f1 0f 3d 95 df 64 3e 3f 6f 25 be 72 be 15 3d
       0.035142478 0.22350915 -0.16155718 0.036558576
000160 bd c3 aa be 1b 05 e8 bd 0b df 84 3d 10 34 47 be
       -0.3335246 -0.11329099 0.064878546 -0.19453454
000170 50 85 1f bd 6b 14 1c 3e 46 07 d8 bd 60 b7 43 3e
       -0.038945496 0.15242164 -0.10548262 0.19112921
000180 5d 1b 5a bd d1 5f 31 3e d6 e8 a5 be d1 2b 44 3c
       -0.053248752 0.17321707 -0.32404202 0.011973337
000190 b7 5a a5 bc 1f 45 12 bf 1c e5 8a bd 23 86 7b 3c
       -0.020184858 -0.5713672 -0.067819804 0.015351805
0001a0 ff 42 91 3c 96 45 b1 bc a2 07 a3 3d 6f 85 31 bf
       0.017732142 -0.021639626 0.0796044 -0.6934423
0001b0 b7 0d e9 bd 7e 17 00 3d 03 46 3a be 7d cd 20 3f
       -0.11379569 0.031272404 -0.1819077 0.6281355
0001c0 37 a5 02 bd c5 05 37 3e 56 90 b0 be 05 c2 d5 be
       -0.031895842 0.17873295 -0.3448512 -0.41749588
0001d0 67 1d 08 3f 96 95 da 3e 89 85 24 3f f4 0e b1 be
       0.53169864 0.4269225 0.6426626 -0.3458172
0001e0 9c d8 46 3e 47 f1 d3 bd 2a a1 42 be ae 6f 9a 3c
       0.19418567 -0.103487544 -0.19006792 0.018852081
0001f0 01 d1 4b 3f ec bc 03 3e 4b 54 99 be b1 4d 7e 3d
       0.7961579 0.12865037 -0.29947123 0.06208581
000200 ca e2 0f bf 7e 8a 79 bd b6 4e 3d be 75 f3 60 be
       -0.5620543 -0.060923092 -0.18487057 -0.21967871
000210 26 0f 56 3f d4 3c 62 bc 68 64 36 be c0 b2 9e 3d
       0.83616865 -0.013808448 -0.1781174 0.077489376
000220 49 b8 87 3e 1f a0 29 be 55 4a 1b 3f 32 82 b1 3d
       0.26507786 -0.16564988 0.60660297 0.08667411
000230 ab b2 58 3e ba b0 bd 3d c7 17 f1 3e e3 da b3 3e
       0.21161906 0.092622235 0.47088453 0.35127935
000240 f1 4d f9 3e df 56 3e 3d 83 3d 1e be a2 a2 c6 3e
       0.48692277 0.046469565 -0.15453152 0.38795954
000250 ce 0a 06 be a1 c8 31 bd 44 ff 5d 3d fa d7 43 bc
       -0.13090059 -0.043404225 0.05419852 -0.011953348
000260 fd e0 1d 3d 01 23 4f bf 6e 2f 28 3f 30 64 46 3e
       0.038544644 -0.80912787 0.6569737 0.19374156
000270 ba b8 81 be f6 90 1a 3e 3f 70 5b bf 9e 41 b8 3e
       -0.25336248 0.1509436 -0.8571815 0.35987562
000280 d1 3f 36 3f 5a d6 89 bb 1e 4a 0b 3d 0b ab 11 3d
       0.71191126 -0.004206461 0.03400623 0.03556351
000290 20 97 4d bd 6e 4e 04 bf 02 5a 59 be 98 8e 3c 3e
       -0.050192952 -0.51682174 -0.21225742 0.1841377
0002a0 71 db 5e 3e 3b 73 c6 3b d6 56 b2 bc 9f 8e 8d be
       0.21763398 0.006056217 -0.021769922 -0.27647874
0002b0 c8 e3 2e 3d 25 77 cb bd 3b f2 e2 bd 7e 09 92 bd
       0.042697698 -0.099348344 -0.11081358 -0.07130717
0002c0 71 17 d1 3d 4d 11 0d 3f 88 a0 11 bf ff 0c a1 be
       0.10209549 0.55104524 -0.56885576 -0.31455228
0002d0 4f 19 29 3e af 50 cb bd 19 0f a5 be cc 2c 44 bb
       0.1651356 -0.099274985 -0.3223808 -0.0029933928
0002e0 cb 2d 3f 3e 21 82 f5 3c 92 ad 93 3c e8 36 cd 3d
       0.18669812 0.029969277 0.0180271 0.10020238
0002f0 08 a8 d2 bc 06 5d 20 3d 26 36 92 be 2d 17 1f be
       -0.02571489 0.039151214 -0.28556937 -0.15536185
000300 6d 2a 29 be fb 7e bf bd 18 27 e1 3e 5d 8a a2 3d
       -0.1652009 -0.093503915 0.4397514 0.07936547
000310 7b 27 3d be f1 4f 89 be 96 93 f2 bd 92 98 86 3c
       -0.18472092 -0.26818803 -0.11844556 0.016430173
000320 06 84 ae 3d 69 4f 0e bf 22 81 7a bd e1 74 29 bd
       0.08521275 -0.5558992 -0.061158307 -0.04137123
000330 68 d2 ac 3d e5 4d 25 bd 86 cb 21 3f 68 80 b8 3e
       0.08438569 -0.04035749 0.6320118 0.36035466
000340 a5 01 9b 3d 40 02 c8 3d 87 eb 51 bf c8 31 b4 bc
       0.07568673 0.09766054 -0.8200001 -0.021996394
000350 7f 5f 79 bf fb c8 8d bd bd ca a0 bf 13 21 6c bd
       -0.9741134 -0.069230996 -1.2561871 -0.05764873
000360 0e 77 4d 3e 8e e2 6a 3e 81 e6 ca be ab ef 36 bf
       0.20064947 0.22937986 -0.39628986 -0.71459454
000370 2f 0b b7 bd 7d 7f 86 3d bf 19 0d be 82 8d e3 bc
       -0.0893768 0.06567285 -0.13779353 -0.027777437
000380 e0 81 04 bf 89 13 cc bd b5 2e 6f bf 68 e7 1f c0
       -0.51760674 -0.099646635 -0.93430644 -2.498499
000390 73 08 4f 3d c7 2a 39 3e 62 8a 9c 3c e9 dc 94 3d
       0.050545167 0.18082725 0.019108955 0.07268698
0003a0 f4 91 de be c6 d3 2a bd db 20 b1 3e 88 71 2a bb
       -0.43470728 -0.04170587 0.3459538 -0.0026007611
0003b0 0c 10 8d 3d 43 54 14 bb e1 80 29 3f 6d 97 b1 3d
       0.06887826 -0.0022633232 0.6621228 0.0867146
0003c0 a9 d7 ee bd 4e 2a 44 3f a4 ac 6f 3e 94 72 fa 3d
       -0.11662228 0.7662705 0.23405701 0.12228885
0003d0 cb 59 67 3e 2b 6f a3 bb 35 14 a7 3e c5 e1 d1 3d
       0.22592847 -0.0049876175 0.32632604 0.1024814
0003e0 b2 fd c1 3d db e9 cc 3d 9f fa fc bf 40 7f 3a bc
       0.09472217 0.10005542 -1.9763983 -0.011382878
0003f0 9c 3a 46 3e fa 7f 83 be d1 6d b7 bd 1e 08 1e 3e
       0.19358295 -0.25683576 -0.08956493 0.15432784

net.2.0.bias f4 [6]
000000 98 3a a3 bc 26 5e 4b 3d c6 6a df 3c fb 06 ce bd
       -0.0199254 0.049650334 0.027272593 -0.10059925
000010 76 cf fa bc c1 0a fc bc
       -0.030616503 -0.030766847
