suboptimal_policies/HopperPyBulletEnv-v0.pth (torch, 51415 bytes, 6 tensors)

net.0.0.weight f4 [100, 15]
0.48310575 -0.075816646 0.0038930592 0.045206405 -0.06789804 0.6751939 -0.0768167 -0.0737169
0.020379944 -0.14385295 -0.5702173 -0.29759207 0.057944387 0.27794114 0.17845823 -0.27973822
-0.05184291 0.12448075 0.021051403 -0.0073971306 -0.34216836 -0.054625332 0.4000884 -0.17705055
0.101395786 0.46846086 0.14709748 0.0148675395 -0.16214588 -0.18468551 -0.2711313 0.03592971
-0.004639888 0.95647776 0.04832992 -0.57791895 0.08526795 0.9104736 -0.07505991 -0.027107181
-0.42684132 -0.106182784 -0.20024627 -0.21649988 -0.006671545 1.2672802 0.0069741467 -0.15409234
0.46445078 0.04552063 0.41915348 -0.059890747 -0.32734767 -0.23830765 -0.43042713 0.08882529
-0.1024859 -0.6395294 -0.009785931 -0.13249639 -0.20873964 -0.093213595 0.10552635 -0.12318651
-0.0010832485 0.3973195 0.041776076 0.17898516 -0.0055249208 -0.35822338 -0.02070121 -0.3357418
-0.0070062056 0.036181536 -0.06976968 -0.19166924 0.046313055 -0.0007611329 -0.46582478 -0.041440442
-0.48304638 -0.034561265 -0.6000744 -0.02575351 0.13255978 0.2916476 0.50253516 0.14009811
0.17422888 0.027967881 0.14259568 0.07090064 -0.009030457 -0.18342684 0.027421774 -0.29475614
0.08555529 -0.38056943 -0.0065460536 -0.2957724 0.07648542 -0.36145136 -0.10525876 -0.17317407
-0.046156876 -0.27774277 -0.050961033 -0.048560534 -0.15032278 0.012360675 -0.56266457 -0.017333819
0.38800925 0.07416179 -0.0039330223 0.050271302 0.25034726 0.23223707 0.46591076 0.08419583
-1.6206485 -0.08909437 0.036237445 -0.6113256 0.058183588 -0.46447188 -0.004673046 0.71490216
-0.034462903 0.28039914 -0.01433587 0.7403413 0.2101561 0.15206769 0.12828518 0.09771799
-0.08128573 0.053694542 -0.24286285 0.058388762 0.20387733 -0.08654698 0.32232478 -0.081520945
0.29315498 0.3199909 0.09935446 0.29501688 0.1060431 -0.061201088 0.118503995 0.026730038
0.091405965 -0.7478867 0.029157069 0.020580087 0.057833385 -0.4631004 -0.2289979 0.19939843
0.1372673 0.32422337 -0.10305325 0.24404573 0.28302166 -0.12612267 0.09012511 -0.098603226
0.31133988 0.068669245 -0.4566535 -0.020664312 -0.94925946 0.042177465 -0.11784984 -0.07698328
-0.2924564 -0.1573263 0.06557493 -0.1665232 -0.8147847 0.057597462 -0.10814177 0.64038
0.03971786 -0.4621891 0.021667097 0.09718713 -0.042728983 -0.27401662 -0.28481904 -0.28192648
-0.012767134 -0.37490484 0.04476857 -0.34743637 -0.07554497 0.14834207 0.8152727 0.019745225
0.5715801 -0.08679184 1.226659 -0.036342636 -0.12651238 -0.67518353 -0.5035326 -0.19863415
-0.10127784 0.03838605 0.12527537 0.08648635 -0.005450695 0.02155928 -0.034208767 0.13117942
0.08421554 0.35295588 0.0775714 -0.38126314 0.16323094 0.7133158 0.037771497 0.19227144
-0.16141158 -0.7352181 -0.054744374 0.14612001 -0.11768164 0.035299134 -0.21244009 0.0056374823
0.15694092 0.13562065 0.15559408 -0.6123551 0.09121147 -0.07110259 0.01414757 -0.038839668
0.7381095 0.029194314 -0.038087726 0.006682513 0.03788656 0.106358305 0.038458798 -0.09970264
-0.04962281 0.15120645 0.10569218 0.020402089 -0.27594903 0.25767004 -0.0703988 -0.70181865
00000000: a359 f73e c245 9bbd b222 7f3b 5a2a 393d
00000010: 210e 8bbd 82d9 2c3f 1352 9dbd e3f8 96bd
00000020: d7f3 a63c 304e 13be c3f9 11bf fd5d 98be
00000030: 1857 6d3d 4d4e 8e3e c1bd 363e d939 8fbe
00000040: 3b59 54bd c3ef fe3d fe73 ac3c a163 f2bb
00000050: b130 afbe d0be 5fbd 63d8 cc3e bd4c 35be
00000060: 98a8 cf3d 1ada ef3e b9a0 163e fb96 733c
00000070: 9209 26be 331e 3dbe b9d1 8abe 082b 133d
00000080: 340a 98bb badb 743f 98f5 453d 7ff2 13bf
00000090: f7a0 ae3d cc14 693f 03b9 99bd e10f debc
000000a0: f28a dabe 5c76 d9bd 5c0d 4dbe 25b2 5dbe
000000b0: fa9c dabb 3d36 a23f 6287 e43b 62ca 1dbe
000000c0: 7ecc ed3e d773 3a3d 499b d63e 0050 75bd
000000d0: 1d9a a7be ec06 74be f260 dcbe 09ea b53d
000000e0: 21e4 d1bd 33b8 23bf 2b55 20bc 22ad 07be
000000f0: d8bf 55be c5e6 bebd 331e d83d 3549 fcbd
00000100: cafb 8dba 766d cb3e 641d 2b3d e347 373e
00000110: 650a b5bb 0e69 b7be 9595 a9bc 59e6 abbe
00000120: 5094 e5bb 1733 143d 68e3 8ebd f144 44be
00000130: c2b2 3d3d c486 47ba 9680 eebe 74bd 29bd
00000140: db51 f7be 1d90 0dbd 7a9e 19bf 06f9 d2bc
00000150: c0bd 073e d652 953e 25a6 003f e175 0f3e
00000160: 0e69 323e e61c e53c 9a04 123e 5b34 913d
00000170: 7bf4 13bc 3fd4 3bbe a1a3 e03c 47ea 96be
00000180: 9d37 af3d ffd9 c2be 4780 d6bb 7b6f 97be
00000190: 63a4 9c3d 2710 b9be e891 d7bd 8b54 31be
000001a0: fe0e 3dbd 4d34 8ebe 84bc 50bd 69e7 46bd
000001b0: 37ee 19be 6e84 4a3c c90a 10bf a7ff 8dbc
000001c0: 26a9 c63e 23e2 973d 95e0 80bb 48e9 4d3d
000001d0: 842d 803e 8ecf 6d3e db8b ee3e dd6e ac3d
000001e0: 6971 cfbf 1c77 b6bd b76d 143d d67f 1cbf
000001f0: ea51 6e3d 42cf edbe 5a20 99bb d403 373f
00000200: f928 0dbd 7a90 8f3e ffe0 6abc 0287 3d3f
00000210: 2933 573e a2b7 1b3e 315d 033e 5f20 c83d
00000220: 2279 a6bd cfee 5b3d 0ab1 78be 0e29 6f3d
00000230: 38c5 503e 8b3f b1bd c107 a53e 74f4 a6bd
00000240: 6918 963e d9d5 a33e 5a7a cb3d 740c 973e
00000250: 202d d93d fead 7abd 39b2 f23d f4f8 da3c
00000260: 0d33 bb3d 8175 3fbf ceda ee3c 9297 a83c
00000270: b3e2 6c3d 7f1b edbe 6d7e 6abe 1a2f 4c3e
00000280: cd8f 0c3e 9b00 a63e 950d d3bd 20e7 793e
00000290: 37e8 903e 4d26 01be 8393 b83d 7df0 c9bd
000002a0: f167 9f3e 76a2 8c3d 7dce e9be 3448 a9bc
000002b0: ab02 73bf 47c2 2c3d 425b f1bd 69a9 9dbd
000002c0: d8bc 95be 251a 21be 264c 863d 0f85 2abe
000002d0: bb95 50bf 51eb 6b3d 6f79 ddbd f2ef 233f
000002e0: 32af 223d 0da4 ecbe 327f b13c 0c0a c73d
000002f0: 9604 2fbd e84b 8cbe cdd3 91be ab58 90be
00000300: 3e2d 51bc 87f3 bfbe 405f 373d 2ee3 b1be
00000310: 52b7 9abd fce6 173e b6b5 503f bdc0 a13c
00000320: 1353 123f ecbf b1bd 2a03 9d3f 04dc 14bd
00000330: 768c 01be d4d8 2cbf 83e7 00bf c066 4bbe
00000340: c26a cfbd b13a 1d3d 3048 003e c11f b13d
00000350: be9b b2bb 169d b03c 7e1e 0cbd e653 063e
00000360: 3279 ac3d a2b6 b43e c1dd 9e3d ec34 c3be
00000370: 0326 273e dd9b 363f 49b6 1a3d cee2 443e
00000380: 1449 25be 4137 3cbf a33b 60bd 7ca0 153e
00000390: 1203 f1bd d395 103d e589 59be a1ba b83b
000003a0: 1fb5 203e 24e0 0a3e 0e54 1f3e 4ec3 1cbf
000003b0: 14cd ba3d 3c9e 91bd 36cb 673c 5816 1fbd
000003c0: bff4 3c3f ea28 ef3c e001 1cbd fbf8 da3b
000003d0: f02e 1b3d 62d2 d93d f986 1d3d e630 ccbd
000003e0: 4a41 4bbd ddd5 1a3e 2475 d83d 4822 a73c
000003f0: 3149 8dbe 54ed 833e 3f2d 90bd 63aa 33bf

net.0.0.bias f4 [100]
0.011756692 -0.034075215 -0.012878178 -0.14808927 0.09622219 -0.14400747 0.08060869 -0.008686397
0.062049553 0.11527858 0.013985389 -0.0063295783 -0.19869329 0.123864815 -0.10380172 0.13514745
0.063079655 0.11791322 -0.035676006 -0.11421389 0.062131885 0.042536974 0.0069804965 -0.041216668
-0.000447661 -0.06817835 0.18848237 0.13375992 -0.038779326 0.007961108 -0.0016702148 0.008532963
-0.042726558 -0.042376984 -0.05919196 0.05428848 -0.14287545 -0.040275954 -0.044214364 -0.008593958
0.014583333 0.012200533 0.017211523 -0.009314547 -0.07831727 0.11890545 -0.11067944 0.20939381
0.07224244 -0.05593749 0.03783188 -0.016067022 0.053989816 0.092680305 -0.12415319 0.010503325
-0.06029276 -0.026732974 -0.050214622 -0.021509204 -0.10269764 0.044329826 -0.12963402 0.104224354
0.04753943 0.06588616 0.038163416 0.026507173 -0.12708274 -0.12296364 0.021088317 -0.09097084
-0.13995393 -0.07750393 -0.072836146 -0.0017346205 0.1919684 -0.016714666 0.14528431 -0.08003635
0.043305907 -0.05108647 -0.14816922 0.024325155 0.03358154 -0.0065073874 -0.014734572 -0.09615054
0.07920521 0.0303489 -0.048868205 0.04307061 -0.0028439125 -0.08524615 -0.10096308 0.028433744
0.023780132 -0.007590652 0.11009784 -0.23318332
00000000: 249f 403c 7492 0bbd fefe 52bc b7a4 17be
00000010: 2410 c53d b276 13be 2b16 a53d 6451 0ebc
00000020: ac27 7e3d 2d17 ec3d f922 653c 5a68 cfbb
00000030: 4176 4bbe d6ac fd3d ff95 d4bd 1864 0a3e
00000040: e82f 813d 7c7c f13d 0121 12bd f9e8 e9bd
00000050: 017e 7e3d 403b 2e3d a6bc e43b cfd2 28bd
00000060: 0bb4 eab9 17a1 8bbd 8601 413e 5cf8 083e
00000070: 12d7 1ebd 4f6f 023c 1ceb daba d7cd 0b3c
00000080: 0b02 2fbd 7d93 2dbd 4573 72bd 995d 5e3d
00000090: f14d 12be 66f8 24bd 1f1a 35bd accd 0cbc
000000a0: efee 6e3c bfe4 473c 2eff 8c3c 0b9c 18bc
000000b0: ce64 a0bd b384 f33d e7ab e2bd 556b 563e
000000c0: d8f3 933d b61e 65bd 9af5 1a3d fd9e 83bc
000000d0: 6d24 5d3d 2ccf bd3d 0744 febd 2316 2c3c
000000e0: 8bf5 76bd 1cff dabc d9ad 4dbd 1234 b0bc
000000f0: 2453 d2bd 3193 353d c8be 04be 9473 d53d
00000100: b5b8 423d 53ef 863d 3e51 1c3d 9225 d93c
00000110: fa21 02be 5cd4 fbbd 68c1 ac3c eb4e babd
00000120: 1550 0fbe 61ba 9ebd 1e2b 95bd 355c e3ba
00000130: 5d93 443e 32ed 88bc 69c5 143e 19ea a3bd
00000140: 8961 313d 0c40 51bd acb9 17be 8c45 c73c
00000150: cc8c 093d ec3b d5bb 4669 71bc 93ea c4bd
00000160: 5736 a23d 429e f83c 072a 48bd cf6a 303d
00000170: ef60 3abb 8995 aebd bbc5 cebd e2ed e83c
00000180: 8dce c23c 01bb f8bb fa7a e13d 9cc7 6ebe

net.1.0.weight f4 [100, 100]
0.00011050977 0.026342742 -0.19330265 -0.22248368 0.18104967 0.016211629 -0.06908597 0.07088011
0.07058597 0.043259934 -0.2945697 0.09914039 -0.08525142 -0.37533537 0.10467137 0.13419528
-0.00469112 -0.054189015 0.21226172 0.29795668 -0.034306172 -0.4927264 0.33003432 -0.111536086
0.3345243 -0.04485895 0.1858099 0.107172444 -0.30820268 -0.037336808 -0.014085722 -0.24346942
-0.22273032 0.19300044 -0.98887503 0.06417161 0.23422135 -0.21168138 -0.3964349 0.022201344
0.07191372 0.017986655 -0.027353268 0.067593634 -0.07027329 0.15266119 0.057430483 -0.2460722
0.152789 0.19063166 0.075546786 0.047248326 -0.04252283 0.034148563 -0.075205654 -0.2018132
0.016546292 -0.08029181 0.10095079 0.02243374 -0.69219744 -0.01520596 0.09980722 -0.44010463
-0.18229792 -0.097793385 -0.00817402 0.08035643 0.31604967 -0.10365475 -0.2437128 -0.08571738
0.09379379 -0.052542225 0.08585813 0.023957828 -0.05215995 0.24159262 -0.10233005 -0.01624035
0.18951763 -0.20095488 -0.119100094 0.22672346 -0.04941121 0.064116806 -0.108658254 0.14840262
0.028324302 -0.100432985 -0.2515696 0.035807524 0.17940605 -0.107701354 -0.2960346 -0.008891431
0.29043686 -0.19903196 0.12699205 -0.49293315 -0.046010006 -0.011641146 -0.05786805 -0.11064134
0.07454319 -0.074421845 0.20351925 -0.041315008 0.18893616 -0.07720384 0.10477141 -0.15645519
-0.28368667 -0.2683636 0.029746478 -0.22886807 -0.046163913 0.37068003 -0.038484145 -0.107360065
0.22185907 0.25932834 -0.760337 -0.017472334 0.16974875 -0.030350996 -0.057263598 -0.34642684
0.021335024 -0.21315804 0.16737787 -0.10823619 -0.03215323 0.0111437375 0.00089244853 -0.18972474
-0.08554316 0.23778063 0.14990391 -0.20165658 -0.10015895 0.16911821 -0.07583867 0.19344187
-0.1082097 -0.42950094 -0.004156634 -0.09689496 -0.032114737 -0.115341045 0.020404235 0.14112954
-0.13337466 0.03491524 0.006055088 -0.0026889145 0.05640319 -0.17663391 -0.01238721 0.056890268
0.024137812 -0.021039594 -0.09338374 -0.5370313 0.2384437 0.23360257 0.11776862 0.025284786
0.15164307 -0.26179782 0.19065067 -0.402473 0.09922151 0.1000306 0.030812325 0.20609643
-0.0061254846 -0.23441985 -0.060745865 -0.37333375 0.041047584 0.24865511 0.13176282 -0.45330352
0.10713523 -0.05272255 0.121963404 -0.24488492 -0.30269092 0.12047219 0.32090354 -0.018376086
0.0040386985 0.06616129 0.14753388 0.1536311 0.15715551 0.09979056 -0.06228361 -0.08291984
0.00920431 -0.11054896 0.10311321 0.010191905 -0.0291104 -0.01900315 -0.022814052 0.03310291
-0.022497226 -0.02168317 -0.094869554 0.013904444 -0.079225324 -0.05950876 -0.08694673 0.05579996
0.13638218 0.03817163 -0.069216974 0.014878058 0.0124010695 -0.04249599 0.0799354 0.07581894
-0.020682734 -0.08618408 0.0141978385 0.033281863 -0.050003678 -0.02918668 0.012030015 0.0049887574
-0.09888682 0.050246675 -0.011434769 0.030808778 -0.063680716 0.026611937 0.05423219 0.019492242
0.013599387 -0.0015297277 -0.023242818 -0.013161697 0.033830874 -0.034559395 -0.053207118 0.20446125
-0.060477383 -0.027742213 -0.027159803 -0.0057073133 0.013364188 0.041324798 -0.019708468 -0.0465764
00000000: 7bc1 e738 bccc d73c 21f1 45be c3d2 63be
00000010: 1665 393e 40ce 843c f27c 8dbd 9729 913d
00000020: 618f 903d 5431 313d d7d1 96be 1e0a cb3d
00000030: 4c98 aebd f52b c0be f15d d63d 7d6a 093e
00000040: f7b7 99bb 4df5 5dbd 235b 593e c78d 983e
00000050: a184 0cbd a246 fcbe 42fa a83e 086d e4bd
00000060: c546 ab3e 05be 37bd f344 3e3e 3a7d db3d
00000070: becc 9dbe 7bee 18bd cdc7 66bc 0c50 79be
00000080: 6b13 64be e8a1 453e ea26 7dbf 686c 833d
00000090: b9d7 6f3e 01c3 58be 84f9 cabe 98df b53c
000000a0: 8047 933d c058 933c f613 e0bc 886e 8a3d
000000b0: 71eb 8fbd 3753 1c3e 3a3c 6b3d 5afa 7bbe
000000c0: b874 1c3e f234 433e 46b8 9a3d 7687 413d
000000d0: 6b2c 2ebd 5ddf 0b3d 6c05 9abd 1fa8 4ebe
000000e0: 178c 873c 0870 a4bd 4abf ce3d f6c6 b73c
000000f0: da33 31bf 6b22 79bc ba67 cc3d 6555 e1be
00000100: 4eac 3abe e647 c8bd 53ec 05bc e991 a43d
00000110: 43d1 a13e f148 d4bd d98f 79be 988c afbd
00000120: f516 c03d 8436 57bd 63d6 af3d 3543 c43c
00000130: aca5 55bd 0e64 773e 6b92 d1bd 7c0a 85bc
00000140: e910 423e 1ec7 4dbe c0ea f3bd 322a 683e
00000150: 6963 4abd ac4f 833d 3888 debd dbf6 173e
00000160: 5e08 e83c cfaf cdbd bbcd 80be e9aa 123d
00000170: 38b6 373e 8792 dcbd d991 97be 5dad 11bc
00000180: 24b4 943e 09cf 4bbe 340a 023e bc61 fcbe
00000190: fd74 3cbd 81ba 3ebc 0c07 6dbd ed97 e2bd
000001a0: 1aaa 983d 7b6a 98bd 5a67 503e ed39 29bd
000001b0: 7b78 413e 0c1d 9ebd 6592 d63d ca35 20be
000001c0: 613f 91be f466 89be e3ae f33c 645c 6abe
000001d0: 5f16 3dbd c6c9 bd3e 8da1 1dbd 98df dbbd
000001e0: 062f 633e afc6 843e 72a5 42bf 2422 8fbc
000001f0: 9ed2 2d3e a7a2 f8bc 3c8d 6abd dc5e b1be
00000200: cac6 ae3c 1a46 5abe 1b65 2b3e f0aa ddbd
00000210: 1bb3 03bd 3994 363c 35f3 693a 3447 42be
00000220: 4131 afbd c47c 733e 6980 193e 107f 4ebe
00000230: 2320 cdbd 532d 2d3e 4e51 9bbd a015 463e
00000240: 0c9d ddbd 8ce7 dbbe 6034 88bb dd70 c6bd
00000250: be8a 03bd ed37 ecbd c826 a73c 4384 103e
00000260: 5e93 08be 4803 0f3d c269 c63b 8038 30bb
00000270: 0807 673d 85df 34be b9f3 4abc c505 693d
00000280: a9bc c53c 3a5b acbc f93f bfbd e27a 09bf
00000290: 962a 743e 8335 6f3e ad30 f13d 0a22 cf3c
000002a0: 5248 1b3e 5d0a 86be ee39 433e f110 cebe
000002b0: a634 cb3d d8dc cc3d 216a fc3c f10a 533e
000002c0: 4ab8 c8bb c20b 70be a8d0 78bd 9a25 bfbe
000002d0: 8321 283d 729f 7e3e d5ec 063e 6617 e8be
000002e0: b769 db3d 9af3 57bd f3c7 f93d 1dc3 7abe
000002f0: 4efa 9abe 20ba f63d 784d a43e 7289 96bc
00000300: 0f57 843b 927f 873d 1f13 173e 7951 1d3e
00000310: 60ed 203e fe5e cc3d 191d 7fbd e1d1 a9bd
00000320: adcd 163c 7e67 e2bd 052d d33d f3fb 263c
00000330: ef78 eebc 7eac 9bbc 89e4 babc eb96 073d
00000340: 1a4c b8bc e7a0 b1bc f84a c2bd 77cf 633c
00000350: e340 a2bd 75bf 73bd 2111 b2bd 808e 643d
00000360: c5a7 0b3e db59 1c3d a1c1 8dbd 19c3 733c
00000370: db2d 4b3c 4610 2ebd 2cb5 a33d f646 9b3d
00000380: d66e a9bc 4781 b0bd 0d9e 683c 9052 083d
00000390: a8d0 4cbd e818 efbc 8a19 453c bb78 a33b
000003a0: 2c85 cabd 75cf 4d3d e658 3bbc b162 fc3c
000003b0: 096b 82bd 4701 da3c 9322 5e3d 32ae 9f3c
000003c0: f7cf 5e3c 2581 c8ba b967 bebc 29a4 57bc
000003d0: 3e92 0a3d 278e 0dbd b5ef 59bd 4a5e 513e
000003e0: 22b7 77bd a343 e3bc 3c7e debc 6a04 bbbb
000003f0: 78f5 5a3c 3144 293d a773 a1bc e5c6 3ebd

net.1.0.bias f4 [100]
0.088813186 0.3326998 0.2469576 0.059638616 -0.037917692 0.13730854 0.11963019 0.15453295
0.10938668 0.17432177 -0.11658589 -0.063343145 -0.18516071 -0.032065637 -0.07476089 -0.014425262
0.1751172 0.08522443 0.13130204 0.12290163 0.0029857554 0.12795874 0.0035889777 -0.13835086
0.12676837 -0.02283658 0.10310051 0.11121191 0.24487875 0.060465384 0.061808974 0.5739475
0.041751236 0.060781617 0.01960379 0.019785006 0.23294245 -0.15375102 0.057865903 0.3957844
0.014073167 0.07408239 0.068946876 0.058585428 0.17973305 0.018859616 0.100774795 0.26247796
0.1896502 0.024901059 -0.15928486 0.2801512 0.11886833 0.09145559 0.035297003 0.33473718
-0.15414348 -0.075454965 0.24280399 -0.013990955 0.043621927 0.05211057 0.16332212 0.031310685
0.22392537 -0.12915114 0.014315082 -0.13404414 0.06766213 0.0066698426 -0.08536925 -0.06011092
0.11160105 0.05834251 0.06889379 0.1625678 0.15413867 0.09571638 -0.10743933 0.12380409
-0.026528765 -0.00011587716 -0.19465446 -0.26157227 0.2758849 0.09881435 0.02694744 0.09964017
-0.12448048 -0.053417083 -0.08140984 -0.017919026 0.09634573 0.00037232757 0.009704325 0.06586388
0.1302332 0.17401873 -0.024824236 0.04542254
00000000: b0e3 b53d a157 aa3e 74e2 7c3e 9f47 743d
00000010: 954f 1bbd 9c9a 0c3e ac00 f53d e33d 1e3e
00000020: 2006 e03d 6881 323e 95c4 eebd 0dba 81bd
00000030: c59a 3dbe 4257 03bd 3d1c 99bd ef57 6cbc
00000040: ec51 333e 258a ae3d 0b74 063e dab3 fb3d
00000050: aaac 433b 9e07 033e 0e35 6b3b d9ab 0dbe
00000060: 91cf 013e c813 bbbc 5c26 d33d 12c3 e33d
00000070: 7fc1 7a3e 8daa 773d 682b 7d3d 39ee 123f
00000080: 5803 2b3d 25f6 783d 2198 a03c 2a14 a23c
00000090: 7788 6e3e e870 1dbe cc04 6d3d 41a4 ca3e
000000a0: 2493 663c 82b8 973d 0534 8d3d 46f7 6f3d
000000b0: f10b 383e 7b7f 9a3c 0463 ce3d 8363 863e
000000c0: a933 423e 4efd cb3c 921b 23be fa6f 8f3e
000000d0: 3d71 f33d 124d bb3d 9793 103d ac62 ab3e
000000e0: cad7 1dbe 2288 9abd 9ca1 783e 523a 65bc
000000f0: e8ac 323d e571 553d ea3d 273e a23f 003d
00000100: b14c 653e 3240 04be ce89 6a3c de42 09be
00000110: 7192 8a3d b28e da3b 13d6 aebd de36 76bd
00000120: 178f e43d 8ef8 6e3d 3018 8d3d 2c78 263e
00000130: 87d6 1d3e f306 c43d 2709 dcbd 008d fd3d
00000140: da52 d9bc 1403 f3b8 8053 47be cdec 85be
00000150: c940 8d3e 2e5f ca3d e1c0 dc3c 2510 cc3d
00000160: 9fef febd dfcb 5abd 34ba a6bd ecca 92bc
00000170: e950 c53d f634 c339 e4fe 1e3c a4e3 863d
00000180: da5b 053e f731 323e 325c cbbc fc0c 3a3d

net.2.0.weight f4 [6, 100]
0.036132984 -0.0010256537 -0.018086726 -0.12897433 0.0070202635 -0.06991961 0.1243716 -0.24425262
0.31667933 0.19867025 0.12804656 0.14079481 0.09518933 0.76842636 -0.1606122 0.41885695
-0.15800904 -0.65425396 -0.22535478 0.531362 -0.001036002 0.07448948 -0.015402994 -0.115214586
-0.07965757 -0.19057205 0.026028745 0.044912145 0.083003394 -0.08009951 -0.0775446 -0.0026015504
0.12212984 -0.063751765 -0.06893649 0.09937714 0.08981585 0.57961327 0.5717746 -0.028749816
0.0908843 -0.029086668 0.20507117 0.22831106 0.03141656 -0.08124679 0.04732243 0.3237543
-0.087040864 0.53887916 0.023599427 0.27522266 0.08812009 -0.13548222 -0.010875287 0.097687535
-0.061687954 0.6490839 0.10252299 -0.16578984 0.009778883 0.04566405 -0.006261874 0.5221425
-0.092291266 -0.041239798 -0.41368917 0.5087299 -0.5912277 -0.6165723 -0.4117198 -0.30788216
-0.06081864 0.9811799 -0.1410382 -0.17989784 0.0024333734 0.012300063 -0.15521546 -0.18049255
-0.115203954 0.13204654 0.7403561 0.8230831 0.09294776 0.100198396 0.13761793 0.16218005
0.5327449 -0.048091415 0.66151696 -0.13570407 -0.17915748 -0.19651079 0.00924244 0.01083128
-0.06897523 0.28544417 1.9922768 -0.26906496 0.16315636 -0.028066237 0.0031066923 0.9537451
0.0035489092 0.28262615 0.10556839 0.8063707 0.009959181 0.04607915 0.47127953 -0.51379347
-1.694293 -0.15929756 0.22345482 -0.116931595 0.02198144 0.24600469 -0.032858647 -1.8074834
-0.018402558 -0.031407095 -0.0011023341 -0.5380812 0.31938538 -0.3741677 0.40354148 -0.061850324
0.02554193 -0.14274031 0.32413316 0.0112297805 -0.06272162 0.018496422 0.57946336 0.088787965
0.03286834 0.4338263 0.10732479 0.0006035004 -2.1499856 0.3263608 0.11431644 0.114114225
0.023792688 0.14739093 -0.027812943 -0.09720941 -0.23921017 -0.11613441 0.27787837 -0.04610451
-0.31983784 -0.3507548 0.67505765 -0.19540502 0.21530345 -0.25631213 0.010947166 0.36432675
-0.01665463 0.135793 -0.009220179 -0.23543295 -0.001049697 0.1078363 -0.20713693 -0.16716923
-0.09077972 -0.50590247 -0.8824269 -0.25111282 -0.49758795 -0.3241772 -0.04412976 -0.20967989
0.049062993 0.0024165176 1.1804978 -0.15883568 0.22246073 -0.1663539 0.28633428 0.70816356
-0.012997151 -0.12292849 0.57436985 0.058836892 0.39442834 -0.114373215 -0.10214725 0.18079278
-0.41531715 0.20680714 -0.015966397 -0.13024129 -0.16081782 -0.19305702 -0.6266893 0.016856214
-0.10377455 0.041488886 -0.023807675 0.20106193 0.025338551 0.31174234 0.25924522 0.46715954
0.39359286 -0.03259598 0.5760803 0.1759389 -0.30189145 -0.3908555 -0.038285334 -0.1446519
-0.10629912 0.3092065 0.12241713 -0.11700192 0.01924731 -0.21616022 -0.0014296727 -0.16120303
0.13924627 -0.1664618 -0.1939904 -0.044201568 -0.031906903 -0.4002944 0.039886795 0.027748836
-1.159944 -0.061330635 0.91433984 -0.09236279 0.02937952 0.3872092 -0.61521935 0.037290223
0.09583614 0.16101788 0.13305691 -0.15471111 0.0064247246 -0.025525853 -0.029139401 -0.036683504
0.099285595 -0.016359659 1.0934973 0.25613704 -1.2178358 0.42560574 -0.03874676 0.15936038
00000000: 2e00 143d 3a6f 86ba 9d2a 94bc d911 04be
00000010: 3d0a e63b 0332 8fbd 8ab6 fe3d 5c1d 7abe
00000020: cb23 a23e 3770 4b3e a31e 033e 842c 103e
00000030: a0f2 c23d 97b7 443f 8677 24be 6b74 d63e
00000040: 1fcd 21be 307d 27bf 67c3 66be 5707 083f
00000050: 75ca 87ba f18d 983d d75c 7cbc a0f5 ebbd
00000060: 8223 a3bd 5225 43be 3c3a d53c ccf5 373d
00000070: affd a93d 360b a4bd b4cf 9ebd c67e 2abb
00000080: 361f fa3d 4990 82bd 932e 8dbd 3e86 cb3d
00000090: 5ff1 b73d 8961 143f d25f 123f bc84 ebbc
000000a0: 8c21 ba3d 2a47 eebc 2dfe 513e 60ca 693e
000000b0: a7ae 003d b864 a6bd 2ad5 413d 20c3 a53e
000000c0: 7b42 b2bd fcf3 093f 9653 c13c fce9 8c3e
000000d0: 4e78 b43d dabb 0abe 422e 32bc 6710 c83d
000000e0: 82ac 7cbd 5d2a 263f 93f7 d13d d0c4 29be
000000f0: 9c37 203c 3a0a 3b3d 6830 cdbb 22ab 053f
00000100: 3403 bdbd 10eb 28bd 11cf d3be 1f3c 023f
00000110: b35a 17bf afd7 1dbf f0cc d2be bba2 9dbe
00000120: f71c 79bd 9b2e 7b3f 516c 10be 2437 38be
00000130: 3b79 1f3b 3486 493c cdf0 1ebe 0ad3 38be
00000140: 0df0 ebbd 3537 073e fa87 3d3f 93b5 523f
00000150: 655b be3d d134 cd3d b7eb 0c3e 8712 263e
00000160: f861 083f 81fb 44bd 2d59 293f 02f6 0abe
00000170: 0f75 37be 203a 49be 9a6d 173c ae75 313c
00000180: e342 8dbd bd25 923e ed02 ff3f e2c2 89be
00000190: 7612 273e 2aeb e5bc a699 4b3b a428 743f
000001a0: d194 683b 60b4 903e 3d34 d83d 4f6e 4e3f
000001b0: d52b 233c 7ebd 3c3d 8d4b f13e f887 03bf
000001c0: 98de d8bf e61e 23be 57d1 643e d579 efbd
000001d0: 6c12 b43c a7e8 7b3e ca96 06bd 9e5b e7bf
000001e0: f6c0 96bc baa4 00bd 327c 90ba b1bf 09bf
000001f0: 7b86 a33e e992 bfbe fd9c ce3e c456 7dbd
00000200: 4f3d d13c 842a 12be c8f4 a53e 1dfd 373c
00000210: 3174 80bd cf85 973c b657 143f 77d6 b53d
00000220: f4a0 063d 7b1e de3e 19cd db3d 3a34 1e3a
00000230: 5d99 09c0 c318 a73e bd1e ea3d b8b4 e93d
00000240: e2e8 c23c a6ed 163e f8d7 e3bc ba15 c7bd
00000250: 83f3 74be e1d7 edbd 1346 8e3e 15d8 3cbd
00000260: c9c1 a3be 2296 b3be 94d0 2c3f 4118 48be
00000270: 8278 5c3e 583b 83be be5b 333c 0989 ba3e
00000280: 4a6f 88bc 520d 0b3e 3c10 17bc 5615 71be
00000290: fd95 89ba 47d9 dc3d b41b 54be 692e 2bbe
000002a0: b8ea b9bd d382 01bf bbe6 61bf dc91 80be
000002b0: d9c3 febe 8efa a5be 68c1 34bd 53b6 56be
000002c0: 47f6 483d 705e 1e3b 8d1a 973f d2a5 22be
000002d0: bfcc 633e ad58 2abe 689a 923e 354a 353f
000002e0: 01f2 54bc efc1 fbbd e709 133f f4fe 703d
000002f0: 83f2 c93e 813c eabd 9432 d1bd be21 393e
00000300: 73a4 d4be 40c5 533e f6cb 82bc f95d 05be
00000310: 6dad 24be bdb0 45be b66e 20bf 0b16 8a3c
00000320: c087 d4bd 40f0 293d 5008 c3bc 2ee3 4d3e
00000330: cb92 cf3c b19c 9f3e cabb 843e 892f ef3e
00000340: 0185 c93e 5d83 05bd 007a 133f 5429 343e
00000350: 8491 9abe 361e c8be 15d1 1cbd a11f 14be
00000360: 5ab3 d9bd 5050 9e3e d5b5 fa3d b49e efbd
00000370: 89ac 9d3c 1b59 5dbe db63 bbba 6812 25be
00000380: 9396 0e3e f674 2abe 6ba5 46be b40c 35bd
00000390: d0b0 02bd 63f3 ccbe 5660 233d 8751 e33c
000003a0: 0c79 94bf d535 7bbd 2d12 6a3f b428 bdbd
000003b0: 52ad f03c 4940 c63e 047f 1dbf a2bd 183d
000003c0: bd45 c43d dfe1 243e 1240 083e 976c 1ebe
000003d0: 7f86 d23b 981b d1bc c1b5 eebc 7141 16bd
000003e0: 3f56 cb3d b104 86bc b8f7 8b3f 6524 833e
000003f0: 0be2 9bbf ffe8 d93e ecb4 1ebd 5e2f 233e

net.2.0.bias f4 [6]
0.0022825052 -0.018282691 0.12207938 -0.2111884 -0.084933065 -0.13200608
00000000: 1596 153b 95c5 95bc c104 fa3d c641 58be
00000010: 63f1 adbd 9a2c 07be
