suboptimal_policies/HopperPyBulletEnv-v0_big.pth (torch, 287767 bytes, 6 tensors)

net.0.0.weight f4 [256, 15]
00000000: ea83 7dbc a12f 9fb6 1de0 c43d e152 2d3d
00000010: 8ba1 00b7 242c 76bd adfb 3037 8b15 143e
00000020: 3bdc 0fbe dfcf 673d e905 91bd df7c 003d
00000030: 12b0 c7bc b455 0bbc 8ce2 473b 3a9e 5fbe
00000040: 7148 71b7 01d4 3abe 9e5b 7ebe 216c 8837
00000050: 8bb3 af3e 35ff 5537 8df9 b9be 8fd4 0d3e
00000060: 37dc 3ebe 7579 59be be2e b8bd 12b3 173e
00000070: 61b9 8f3e dced 803d 017f a3bd 7a7e 04b7
00000080: 5577 303e 28e9 0fbf 67fb cb36 b392 54be
00000090: 65b5 9537 91c4 0c3e e7d8 92bd 2120 0fba
000000a0: 7b95 a43d 99eb 633e 3b38 a83d c222 efbc
000000b0: a88d 30bc 071b 5a3e f3f4 c136 73dd 8fbe
000000c0: 3046 cdbd 690b 7137 053a debc 7f74 2fb7
000000d0: 5488 ebbe fed6 073f b54d 823d 1e2b b73e
000000e0: 91d1 073e b3eb 8cbc ea87 1c3c f231 d4bc
000000f0: 79dc 9f3d b5f4 d5b5 55bf 163c f768 7ebd
00000100: d543 4437 3618 81bd 38b4 8637 94a1 853e
00000110: ad4d 643d f2b8 4f3c 833c 0a3d eb0b aebd
00000120: a011 6abd ee00 b3bb 208f 553e 09f9 93bd
00000130: 51be 17b7 ffa2 c6bc 1783 a4bd 598b 1236
00000140: 3e3e 423e 17ac 83b7 8bc7 073d 6e2d f33d
00000150: e147 dcbd f229 6ebf 9b64 babd c721 0cbe
00000160: cf98 1d3d 02ff 8b3d 9c5c e33e 90c0 7836
00000170: c993 74bd 17b7 1e3f 64b1 8d37 761a aabd
00000180: 8183 71b7 8391 893e f494 93bd 714b c7bd
00000190: 7f2e ce3e 30cd b33e 1984 66be 40a8 733d
000001a0: b0fd e7be e32e b0bd 2527 83b6 eef2 063e
000001b0: 0258 0bbf 334f 3bb7 1444 a4be c6ae ee36
000001c0: 13d7 75be 56c2 91bd 50b2 463e f26e 75be
000001d0: 4e9c cc3e b3d7 cabd 54b9 1e3d b7d1 85bc
000001e0: 2fb3 093e 29f5 ccb4 f8f2 93bd 6122 8f3d
000001f0: 08e1 fbb6 92a9 4c3d 5447 8737 f7b5 8bbe
00000200: 79e3 d1bd 867b 16be e67f 23bf 6c26 df3d
00000210: 4787 4a3d 7604 07be b37d 35be 2053 34bf
00000220: 3fe5 91b7 da6e e2bc f2f5 b4bc 7343 cc35
00000230: d21e 043d e987 1a37 1bb5 d03e 089a 98be
00000240: c9a3 a2bd 9096 9abe 9240 43be 579c f53e
00000250: e4f0 34bd f2f4 743c 8ece 8abb 2900 8637
00000260: 1402 64bc d3a4 1cbe 676e 2037 b42a 58bb
00000270: 9fb2 e636 dfbf 0abe ed02 ffbc 3af3 c13d
00000280: 6c1c 3e3e e5fc c5bd 7169 833d 8fa9 ce3c
00000290: d221 8dbd b1c1 5c3e 3525 36b6 1168 1cbe
000002a0: 866e 9abc 30df 5b37 3359 e63e 2316 20b7
000002b0: bf1f cdbd 7a40 623e 4fb8 ef3c e422 753e
000002c0: 34bd 92bb f5f8 463e 0093 123e 4a16 ad3d
000002d0: 93b5 6c3e 2633 2837 f47e 05be 02b7 933d
000002e0: 5d6c 56b7 c547 0f3f 96d5 5837 38c8 29be
000002f0: 6c21 713e 6e52 e73c 23e1 c2bd cf6d 0dbe
00000300: 99ba 2a3e 81fd d3bd f648 67be d392 ddbe
00000310: 491b 9837 01a2 54bd c425 51be 649b 2cb7
00000320: 5011 1a3e 8221 4a34 009e 0cbe b4a8 26be
00000330: 60a3 2fbe 1c9c 64be f8df febd e9a8 803e
00000340: 810b 473d 5215 cf3b b676 f9bd b8cd 8db7
00000350: 3c66 47bd f668 8f3d b100 3eb6 0c04 3cbe
00000360: 4dd6 5536 0aee 11be 386a 26be 5105 b03e
00000370: f72b 953d 1808 823d 73a9 893d f239 863c
00000380: 49ce 9bbc 3061 61be 1883 9337 9baa 91bd
00000390: a9c7 8dbe 334d e5b5 f315 dc3d d8ca f6b6
000003a0: 94e1 41be 6fa4 06be d8ac aebe ed26 e4bd
000003b0: 3bae 3d3e e619 9e3d 4e51 a0bd af3e 253c
000003c0: 0099 863e 852a 30b7 1f37 44bd 8e07 aa3d
000003d0: ad82 3937 e920 053f 891b e8b5 0679 05bd
000003e0: 1273 65be c382 083e 17db ae3e f3b5 de3e
000003f0: f5d9 6d3e b35c c7bc d3cc adbc 2f82 2b3e
-0.015473345 -4.744114e-06 0.09613059 0.042315368 -7.667007e-06 -0.06010069 1.0549015e-05 0.14461343
-0.14048855 0.056594726 -0.070812054 0.031369086 -0.024375949 -0.00850432 0.0030500023 -0.21837702
-1.4381586e-05 -0.18244936 -0.24839637 1.6262815e-05 0.34316668 1.2755209e-05 -0.36323205 0.13850616
-0.18638693 -0.21237738 -0.0899329 0.14814404 0.2807112 0.06295368 -0.079832084 -7.897261e-06
0.17233022 -0.56215143 6.0791385e-06 -0.20759086 1.7846653e-05 0.13746859 -0.07170277 -0.00054598047
0.08036324 0.22257842 0.0821385 -0.029191379 -0.010775961 0.21299373 5.780364e-06 -0.2809864
-0.10023153 1.4367376e-05 -0.027127275 -1.0457937e-05 -0.46002448 0.5306243 0.06362478 0.35775083
0.13263537 -0.017202234 0.009553889 -0.025902722 0.07805724 -1.5940956e-06 0.009200891 -0.06211182
1.1698304e-05 -0.06303446 1.6057966e-05 0.26099837 0.05573814 0.012678372 0.033749115 -0.08498367
-0.057145715 -0.0054627573 0.20855379 -0.07225234 -9.044613e-06 -0.024247644 -0.08032816 2.1836806e-06
0.18969056 -1.5696553e-05 0.033149283 0.118738994 -0.10755897 -0.93032753 -0.0910122 -0.1368476
0.038475808 0.06835748 0.44406593 3.7066966e-06 -0.05971125 0.6199812 1.6891114e-05 -0.08305828
-1.43953375e-05 0.2686883 -0.07206145 -0.09731186 0.4026985 0.35117483 -0.22511329 0.059486628
-0.45310736 -0.08602693 -3.9086613e-06 0.13178608 -0.54431164 -1.1164509e-05 -0.3208319 7.113299e-06
-0.24007826 -0.07117145 0.19403958 -0.23968104 0.39963 -0.099044226 0.03875096 -0.016335351
0.1344726 -3.8176339e-07 -0.07224077 0.06988979 -7.50658e-06 0.049966402 1.6126469e-05 -0.27287266
-0.10248465 -0.14695558 -0.6386703 0.10896 0.049445417 -0.13185295 -0.17723732 -0.7043934
-1.7392098e-05 -0.027640749 -0.022089932 1.5218815e-06 0.032255955 9.210759e-06 0.40763173 -0.29805017
-0.07941396 -0.30192995 -0.190676 0.4797084 -0.044175044 0.014950978 -0.004236049 1.597412e-05
-0.013916511 -0.1529725 9.562448e-06 -0.0032984437 6.8753284e-06 -0.13549756 -0.031129325 0.0947022
0.1856553 -0.096673764 0.06416596 0.025227336 -0.06891216 0.21558262 -2.714177e-06 -0.15274073
-0.01885153 1.3105382e-05 0.4498993 -9.541897e-06 -0.10015821 0.22094908 0.02926269 0.23939091
-0.004478121 0.19430907 0.14313889 0.08451517 0.2311614 1.0025489e-05 -0.1303671 0.0721264
-1.2780624e-05 0.55968887 1.2924333e-05 -0.16580284 0.23547906 0.028237548 -0.09515598 -0.1381142
0.16672744 -0.103510864 -0.22586426 -0.4327608 1.8132518e-05 -0.05191231 -0.20424563 -1.0288179e-05
0.15045667 1.8824906e-07 -0.13732147 -0.16275293 -0.17152166 -0.22325176 -0.124450624 0.25128868
0.048594955 0.0063196803 -0.121808454 -1.6904305e-05 -0.048681483 0.070024416 -2.8312609e-06 -0.18360919
3.1864213e-06 -0.14250961 -0.16251457 0.34379056 0.07283776 0.063492 0.06721773 0.016385052
-0.019019263 -0.2200973 1.758481e-05 -0.071126185 -0.2769139 -1.7084297e-06 0.10746374 -7.3549854e-06
-0.18933707 -0.13148664 -0.34116244 -0.11140237 0.18523495 0.077197835 -0.07828008 0.010085746
0.26288605 -1.0500317e-05 -0.04790413 0.08302222 1.1057285e-05 0.5200334 -1.7293361e-06 -0.03258612
-0.22407177 0.13331132 0.34151527 0.4349819 0.23227675 -0.024336195 -0.021215832 0.1674888

net.0.0.bias f4 [256]
00000000: 9cde c43d dfd3 3abe 5777 303e fbdb 8fbe
00000010: 19fc 163c da8c c6bc 1895 74bd a0f1 063e
00000020: 52f4 93bd f862 e2bc 6706 64bc 615d 1cbe
00000030: 0b83 05be b88e 54bd b968 47bd 1ca5 91bd
00000040: 0931 44bd ee53 80bd 797c 7d3e 861a a4bd
00000050: 29f5 a13e 5027 acbc 4b1d a23d e8e3 26be
00000060: 7563 bbbd 52de 6a3d 37d4 83bd 4664 20be
00000070: 2c48 6f3d 3663 f4bc ad0f d7bd 704a 023e
00000080: 2918 1e3d 6826 2ebd 93e6 c1bb 5832 a7bd
00000090: 853f 86bd 3ab8 0abd 2bf8 98bc b540 a03d
000000a0: e62f 84bd c954 62bd 3032 163e f5f8 a6bd
000000b0: fb7d 8e3d 8161 9abc ff60 47be 4fef 273d
000000c0: 8290 eebd b5aa a1bc a8d6 743a 0c04 d0bd
000000d0: 30e9 db3d 5e3d 513d c31d e8bd 25eb d4bd
000000e0: d85a 87bd 3206 29be 4406 bc3d 8bc3 623d
000000f0: 8c0d 9ebd 012a 92ba e630 65bd 8cd5 aebd
00000100: 899e 123d 382d 393d f681 dc3c c8b9 05bd
00000110: eb0f 3dbc 65b4 39be e358 38bc 4fc3 5cbc
00000120: 7649 26bd da6f e0bd 457f 033d 5115 9dbc
00000130: 1f3b 8dbb 7510 963d 7c1c c1bc 9b89 15bd
00000140: b8fe 02be 5e0f c3bd c7d8 2fbe f823 2f3d
00000150: 7dc5 0f3d 81f9 d1bd f171 d6bd 164d d13d
00000160: 84ac d43d dca6 953c c801 f5bc 4348 96bd
00000170: cd5c 873d 5fa6 8dbd 1b75 30bd 2f20 f1bc
00000180: ef0f 22bd f8df 0ebe f720 4dbc f7b3 473c
00000190: 0b1d 45bd b7ca c5bc f5a9 47bc f0f5 89bc
000001a0: d3a2 7bbd 0248 493d 46b7 e2bc 6440 663d
000001b0: faeb df3d 6898 20bd 7a7b 88bc de22 ec3d
000001c0: b4a5 c2bd 3850 01be 884f eebd 0bf8 c0bc
000001d0: efda 09bd 4197 f43c 4192 bdbd c579 8cbd
000001e0: 0f40 ebbd a688 e5bd f5d3 cabb 5608 c7bd
000001f0: 0789 f3bc 3c4e 49bd bc05 413d 6532 40be
00000200: ba53 403d d039 fe39 23bf 1d3d 5166 55be
00000210: 8cd3 c7bd d9f3 0bbd 548c 953d 71e4 5dbd
00000220: 81d7 bf3c a179 e7bc efba 313e 799a 853d
00000230: 1cc1 ccbd 892f 923d c89c 633c a8a4 a8bd
00000240: 5281 9f3e 007a c9bd fd14 40bd 751b 59be
00000250: 4033 bd3d 1dfa 86bd f171 4f3b 8d55 debc
00000260: b73d c8bd 4b1b b63b c48b 5f3d 1d26 393c
00000270: 8d07 de3d cbc7 2bbd 6107 a13b 7a47 953c
00000280: 486f a03a 2630 89bd 7a3b 613d ba8e 47bd
00000290: cf89 9a3d d1be 94bb dc65 c9bc e739 0fbd
000002a0: 7af2 f03c 63d5 70bc e55b 323e bdc8 953d
000002b0: dc86 0b3a 1b2a aa3c 15f5 133d d764 c03d
000002c0: 5881 ff3b e498 33bd b984 99bd b6b5 3ebe
000002d0: f365 5e3d 0aa6 febd da47 753d e547 123b
000002e0: ad3d 54bc d57e 55bd c047 81bd 8715 efbc
000002f0: 586d 80bc 5098 163d da31 b53c 3ee7 8abd
00000300: 2e85 1abe 428e 1b3d 3279 acbc e931 c8bd
00000310: 0dc5 79bd 35ab 42bb 943f 19be 1315 febb
00000320: 3ef4 3e3d 78ff eabd d01f aabc 6266 13bc
00000330: b0e3 a13d 0f3c e4bd d41f 97bd 5996 2bbb
00000340: cb74 06be 8364 e8bc 59d3 e63d e795 a0bd
00000350: b5ac 67bd 2f8c 18bd 4f65 f03b cc3f 3fbd
00000360: e2be 4abc bf5a e73d fe0a ac3d a9ca 1bbd
00000370: 7489 823d 9c93 a03d faea 263b 9a14 b9bd
00000380: edab 613c 21a8 563e 8030 1abe 2bbb 56bd
00000390: 651f 68bd 22d5 8cbd 64c1 29bc 3492 c93c
000003a0: c16f f4bd 4c19 22be dcaa 2dbd 71e6 25bd
000003b0: a47b f1bd c0bd 343e 2077 ea3c 9bc1 293c
000003c0: 0d37 aebd 465c 0f3d 0a32 fbbd 9f4b f13d
000003d0: 7aa1 c7bd bccb 463a 489d 17bd daff 98bd
000003e0: c74e 3c3d 1bc6 853d 547b 153c 607b da3d
000003f0: 9c18 26be 5e66 53bc 6c19 563d 7048 373d
0.09612772 -0.18244885 0.17233025 -0.2809752 0.009215378 -0.024237085 -0.0597125 0.1317811
-0.07224335 -0.027635083 -0.013917542 -0.15269996 -0.1303827 -0.05189392 -0.048683856 -0.0711157
-0.047898326 -0.06266008 0.24754514 -0.080128714 0.31632355 -0.02101484 0.079157434 -0.16297877
-0.09149829 0.057340927 -0.06436961 -0.15663251 0.058418438 -0.029832464 -0.10501037 0.12723708
0.03859726 -0.042517096 -0.005917379 -0.08163899 -0.06555084 -0.0338671 -0.018673023 0.07824842
-0.064544484 -0.05525664 0.14667583 -0.081529535 0.069576226 -0.018845322 -0.19470595 0.040999707
-0.116486564 -0.01973472 0.00093398476 -0.10157022 0.10737836 0.051083915 -0.113338016 -0.10396413
-0.06609124 -0.1650627 0.091808826 0.055362266 -0.077174276 -0.0011151434 -0.055954836 -0.085368246
0.035795722 0.04520914 0.026917439 -0.032647878 -0.01153944 -0.18135221 -0.011251661 -0.0134743
-0.0405974 -0.10958834 0.032103796 -0.019175204 -0.0043100263 0.07327358 -0.023573153 -0.036508184
-0.1279248 -0.095244154 -0.17172538 0.04275891 0.03510045 -0.10252667 -0.10470951 0.10219781
0.10384467 0.018268041 -0.029908076 -0.073380016 0.06609497 -0.069164984 -0.04308043 -0.029434292
-0.039565977 -0.13952625 -0.012520066 0.012188903 -0.0481234 -0.024144514 -0.012186517 -0.016840905
-0.06143458 0.049140938 -0.027675282 0.05621375 0.10933681 -0.039207846 -0.01666044 0.11530088
-0.095042616 -0.12628257 -0.11636263 -0.023555776 -0.033656057 0.02985728 -0.09256411 -0.06859163
-0.114868276 -0.11207704 -0.006189818 -0.09718387 -0.029728426 -0.049146876 0.04712461 -0.18769224
0.046954848 0.0004848973 0.03851236 -0.20839812 -0.09757146 -0.034168098 0.07302156 -0.054172937
0.02341819 -0.02825624 0.17356466 0.06523604 -0.0999777 0.07137973 0.01389236 -0.08234531
0.3115335 -0.09837723 -0.046895016 -0.2120188 0.09238291 -0.06590674 0.0031653608 -0.027140403
-0.09777396 0.005557453 0.05457665 0.011300591 0.10841284 -0.041938584 0.0049142097 0.01822256
0.0012240196 -0.06698637 0.054988362 -0.0487201 0.07545816 -0.0045393487 -0.024584703 -0.03496733
0.029412497 -0.014699313 0.17417867 0.073136784 0.0005322525 0.02077203 0.0361224 0.09394234
0.0077974014 -0.04384698 -0.07496018 -0.18624005 0.054296445 -0.12434013 0.059882976 0.0022320685
-0.012954158 -0.05212291 -0.06312513 -0.02918507 -0.01567714 0.03676635 0.022118498 -0.06782387
-0.15089867 0.037977464 -0.021053884 -0.097751446 -0.060978938 -0.0029704098 -0.1496566 -0.007753977
0.046619646 -0.11474508 -0.020767123 -0.008996578 0.07904756 -0.11144268 -0.073791176 -0.0026182143
-0.1313049 -0.02836824 0.1127078 -0.078410916 -0.05656119 -0.037243064 0.0073362957 -0.0466917
-0.012374612 0.11296605 0.08400534 -0.03803507 0.06373873 0.07840654 0.0025469647 -0.090371326
0.0137739 0.20962574 -0.15057564 -0.05242459 -0.056670565 -0.06876589 -0.010361049 0.024605848
-0.11935378 -0.15829962 -0.042399272 -0.04050297 -0.11791161 0.17650509 0.028621256 0.010361101
-0.08506594 0.03500011 -0.122654036 0.11782002 -0.09747596 0.00075834594 -0.03701523 -0.07470675
0.045973565 0.06531926 0.009123642 0.10668063 -0.16220325 -0.012902824 0.052270338 0.044746816

net.1.0.weight f4 [256, 256]
00000000: 8785 873d 9109 c33d 812c b43d 68a5 9ebe
00000010: efb3 b1bd 13c8 36be 551f fc3d d5df cebc
00000020: 7b3c 1cbe 5b90 b3bd c319 5fbe a7f7 7c3d
00000030: 920c d8bd 6aa7 533e e673 c6bd 2594 20bd
00000040: 173a 833d 3c1d d6b8 83c8 923d 1828 b53d
00000050: d5a2 95bd 71f4 b6bd 9724 083a bce7 f9bd
00000060: 48b0 9a3e f289 733d 8dcc 913d cc15 533d
00000070: 2687 ea3c 3e2c 18bd df15 1e3d 0604 c53c
00000080: 3b5e 8a3e f7e8 acbc 7ba3 2abc 5a33 15be
00000090: c483 1ebe d2f7 033e 4498 a6bc 95d5 c8bd
000000a0: bb66 83bd 3c75 09be 8217 1ebe 5870 dbbc
000000b0: 4285 4cbd a4f7 ebbd 369d f73c fe92 363b
000000c0: 8da6 6238 f081 ecbd a03c 3bbd 7cce 6eba
000000d0: d265 853d 25b3 81bd 1ca6 4ebe 019a 043a
000000e0: 85c2 88be 3e0b e0bd de67 d6bd b336 d4be
000000f0: 6269 aabb 38b8 7a3c 692c 61bc 3a24 4bbd
00000100: 20a9 cbbd a471 debd 32d1 39bd 9dc7 703b
00000110: 5882 bbbd d355 07bd 6d97 3bbc 553a c93c
00000120: 11eb 90bc 6f76 3fbd 66af 75be 31f8 593d
00000130: 6554 97be 9f24 f03a 99d0 8ebc 98d8 313d
00000140: 0646 02be ce6a a13e 9338 b43d ace7 e33c
00000150: 905e 843c 1dbf 2b3d dc20 acbd 722a 13be
00000160: 924a 77bd 5ed3 f03d 62de 70be 1998 b6bb
00000170: 5a0a bbbd 60bf 4c3d 7ab7 bbbc 5d94 65bc
00000180: 24e7 af3b 4352 f53d 2491 aabd 9d9d 90bc
00000190: d55f 97bd dcc3 82bd e8e3 a23d be74 8cbc
000001a0: 5d8b 6f3e b8d8 d53c ecb1 9abc c14c 08be
000001b0: af52 94bd 3557 9c3e 8717 65bd bc00 6b3c
000001c0: 8e0e f93c 27d1 b8ba dfa0 0c3d 7203 633d
000001d0: a937 3fbc 42d9 b53d 4515 2abe 9cdc 6b3d
000001e0: 72ec 013e 635c 163d 6d72 4bbd 78ae bdbc
000001f0: 4a0f 14bd 545d 80bd bbf2 13be 3b0f dcbd
00000200: 9cdb 9fbd 6efb d4bc 72ac 48bd 4ecb 98bd
00000210: a0bf 023d c105 99bd fd49 a1be 5ff7 42bd
00000220: ccb7 b2bd ad3e 6fbd 8715 a4bc 431e 843e
00000230: de0a 883d 8a42 723d c541 c6bc 4e64 613d
00000240: 6fe8 edbc 5cd6 6ebc ff13 0fbe 57b3 10be
00000250: 7ffb c3bd dad1 e43c 3bd2 87bd 9419 acbd
00000260: 1187 193e ee41 13bd 3791 50be 8d6b 05be
00000270: ee46 9abe 903a 67bd 53e6 a8bd 7e0b f5bd
00000280: cfc9 f4bd d4fe dabb 4fd3 b73b 11c9 123e
00000290: 99ca 1438 7fdf 65bd 4fd3 f3bd d8df b8bc
000002a0: ea55 52bd 7bbe 26be 2c84 ad3d 052d 29bd
000002b0: b63d 373e bb20 6bbd cb2d b0bd 77b6 b1be
000002c0: 2914 473c 4365 8e3d 674a 863e 23cd a9bd
000002d0: 2ffa 0fbd 1912 1cbd b30e 4a3c d228 c03d
000002e0: 52ba c53c 870e ee3d 22dd 663c 02a2 c9bd
000002f0: 9437 e9bc 463d a9bb addf 1f3d 38ab 3bbd
00000300: 38e7 d8bd 8985 99bd 5b18 a3bd e8e5 3bbe
00000310: e887 dcbd cffb 15bd 46bc 0c3d 4db5 363c
00000320: 01a4 82bd 2d0b e33d d220 0cbd fb4a 44bd
00000330: 1e8e 203d a02d 2e3d 37bc 6c3e e665 70bd
00000340: 7f70 9dbe f414 9ebd 731d 39bd 3480 71bd
00000350: d790 44be 2752 a0bd 7c6c 72bc 93fa c0bb
00000360: e73d 983c 49a4 80bd b141 92bc d7f0 17bb
00000370: a391 8bbd b205 22be 7875 d0bb 66bf e1bc
00000380: d46b ee39 b940 213d b2db 35bc 830f 4c3d
00000390: 00e8 9cbd 42b8 503d 3e1c 56ba 82c4 95bd
000003a0: 22a3 ac3e f9ce 863b f287 a6bd 7cf4 3bbd
000003b0: e7fd ce3d 8d92 28bd a906 18bc 1d1c e7bb
000003c0: ad0a c9bd 99fc 053d 108c e33d b734 e03d
000003d0: b39f fabc 7fea 64be c907 283d 0e68 263d
000003e0: 6c65 4bbc 0ccd 68bd 05dd 9abd 1a23 e7bb
000003f0: cf5f 84bd 4b99 33bd e8e8 153e f266 27bc
0.06617265 0.09523309 0.08797551 -0.3098557 -0.08676898 -0.1784976 0.123106636 -0.025253216
-0.15257446 -0.08767768 -0.21787171 0.061759617 -0.105492726 0.20669332 -0.096900746 -0.03920378
0.06407564 -0.000102097605 0.07167151 0.08845538 -0.07306448 -0.08933342 0.00051934406 -0.12202403
0.30212617 0.059457727 0.07119093 0.05153446 0.028628897 -0.037151568 0.038595077 0.02404977
0.27025017 -0.02110718 -0.010414953 -0.1457037 -0.15479952 0.12887505 -0.020336278 -0.098063625
-0.06416079 -0.13423628 -0.15438655 -0.026786968 -0.049931772 -0.11521843 0.030226331 0.002785861
5.403771e-05 -0.11548221 -0.045712113 -0.0009109748 0.06513561 -0.06332997 -0.20180553 0.0005058349
-0.26710907 -0.10939644 -0.1046903 -0.41447982 -0.005200551 0.01530271 -0.013743498 -0.049595095
-0.099443674 -0.10861519 -0.04536552 0.0036740073 -0.091557205 -0.033040833 -0.011449677 0.024563948
-0.017690213 -0.046743806 -0.2399269 0.05321521 -0.29556575 0.0018321461 -0.017433451 0.04341945
-0.12722024 0.31526798 0.08799853 0.02782043 0.016158372 0.041930307 -0.08404705 -0.1437166
-0.06037385 0.11759065 -0.23522332 -0.0055723307 -0.09132834 0.049987197 -0.022914637 -0.014012423
0.0053681303 0.11978581 -0.083284646 -0.01765328 -0.073913254 -0.063850135 0.07953626 -0.01714551
0.23393007 0.026104316 -0.018883668 -0.1331053 -0.07242333 0.30535284 -0.05593064 0.014343437
0.030402448 -0.0014100418 0.034333106 0.055423208 -0.011670985 0.08879329 -0.16609676 0.057583436
0.12687853 0.0367092 -0.04966967 -0.023154482 -0.036147393 -0.06267801 -0.14448063 -0.107450925
-0.07805559 -0.025998797 -0.04899258 -0.07460652 0.03192103 -0.074718006 -0.3150176 -0.047599193
-0.08726463 -0.05840938 -0.020029796 0.25804338 0.06642698 0.059145488 -0.024201283 0.0550273
-0.029041497 -0.014577474 -0.13972472 -0.14130913 -0.095694534 0.027932096 -0.06631895 -0.08403316
0.1499293 -0.035951547 -0.20367895 -0.13029309 -0.3013224 -0.056452334 -0.08247056 -0.119650826
-0.119525544 -0.00668321 0.0056099067 0.14334513 3.5474633e-05 -0.056121346 -0.11905538 -0.022567675
-0.051351465 -0.162836 0.084724754 -0.0413027 0.17894635 -0.05740426 -0.08602484 -0.34709522
0.012150803 0.06952908 0.2622864 -0.0829108 -0.035150703 -0.038103197 0.012332606 0.09382786
0.024136696 0.116238646 0.014090808 -0.09845354 -0.028468885 -0.005164775 0.039031673 -0.045817584
-0.105909765 -0.07496173 -0.0796363 -0.18349421 -0.107681096 -0.036617097 0.03435924 0.011151624
-0.063789375 0.11086116 -0.034210987 -0.04792307 0.039198034 0.04252398 0.23118673 -0.058690928
-0.3074989 -0.0771884 -0.0451941 -0.058960155 -0.19195877 -0.07828169 -0.0147963725 -0.005889246
0.018584205 -0.06281335 -0.01785359 -0.0023184323 -0.068148874 -0.15822485 -0.0063616596 -0.027557086
0.00045475236 0.039368365 -0.011099743 0.04981948 -0.07661438 0.050956972 -0.00081676606 -0.073128715
0.3371821 0.0041140285 -0.08131398 -0.045887455 0.10107022 -0.041155387 -0.009278932 -0.007052912
-0.09816489 0.0327116 0.11110699 0.109475546 -0.030593729 -0.22355078 0.04102305 0.040626578
-0.012414318 -0.056836173 -0.075616874 -0.007053745 -0.064635865 -0.043847363 0.14639628 -0.010217415

net.1.0.bias f4 [256]
00000000: f1cc 373d 4fc5 2abb f69a 20be 3311 613d
00000010: 413f 1ebe d5f5 0dbd bfd7 043d 533f c93d
00000020: 3ebb 6fbd 1911 443d 0215 f33b a512 1f3d
00000030: 2e1c d9bc e83d dabd d502 b33c 4b39 983c
00000040: ec83 93bc ea7d 2bbd 6933 a2bd 00a6 16bd
00000050: eebe a3bc bde5 38bd 0114 5ebd fd48 083d
00000060: de47 133c 2e0c 9dbd 1892 713c a138 cabd
00000070: 9ea5 bc3d 6735 66bd a93b ff3c b280 643c
00000080: 2073 28bd 3878 48be b7fe 423d b248 503d
00000090: 29e3 31be 7a05 ca3d 99e1 9d3c 37fd 513d
000000a0: 3e79 37be bf48 003e 64a1 81bd 9207 433c
000000b0: 3e8f cb3d ee7d 903d d71b a73b b2e5 823d
000000c0: f941 873d 3641 e33a 3a7f 093d ebc5 9fbd
000000d0: adec 51bc 3d98 87bd 584d 25bd 5641 2f3c
000000e0: 26ef 083c 4508 3d3d 106a 573d d5e5 f53b
000000f0: 2012 9abc bbfe 213d 9031 30be 21e2 0f3c
00000100: d7a9 bbbd 4faa cfbd d827 04bd 15f0 f73c
00000110: 8ed3 373d a9b4 07be a6bd 1f3d d731 6d3d
00000120: c84a d73d 886e 17bd ef3f 3d3d 4cd3 72bc
00000130: d56d 303d 1fb7 ce3d 62a5 ba3c 04b6 243d
00000140: db68 92be 32fe ef3c 4b40 a1bc 8e28 243d
00000150: 7c6d a0bb 51b3 6fbe d158 b93d f75a 8f3d
00000160: 1fc7 c8bd 8d0e 8bbd cd5d 3b3d eff3 0d3c
00000170: 8217 ccbd 131a bd3c f78d c53b 2517 b8bc
00000180: f098 913c c219 70bd 9ad5 653c 03a7 ccbd
00000190: 9898 0ebe f75c 2dbd ab27 1bbd ec92 eebc
000001a0: 7f83 62bd 709b a13d fc1b c2bd 402f 923d
000001b0: 53c3 11bd af0c 0e3c bda1 31bd 98af 80bd
000001c0: b115 2c3d ce3f 91bd c7ec 9cbc 6f40 ffbc
000001d0: 1b5b 993d bff9 2b3e adb2 dc3c fdbf d93c
000001e0: 8c48 dcbc 2e8d e4bd f218 dbbd 20db ad3c
000001f0: d1d1 19bd 6b92 17be 6ef0 c83b e125 023c
00000200: 8235 2ebd 3b45 ea3a f8d1 df3a 8941 4e3d
00000210: 2083 e3b9 639b 92bc 18fd 4bbd 5d19 36bd
00000220: 36ab 783d 76d7 5abd 537e 093d a725 013d
00000230: c7fd a13d 107c 53bb 447b c73c 7a45 ae3c
00000240: aeb2 243d baa1 e0bb 2b95 11be fad7 a4bd
00000250: 7782 4abd f3af d23c 2676 bb3c 5d77 dc3c
00000260: 74cb 5bbd c624 0d3d be8b c83c 7f3e 803d
00000270: ef44 813d c04c 09bd 486e ebbd e540 b1bc
00000280: 4a2e ec3d c44e c73c 1183 56bd 989a 3bbd
00000290: 2719 183d b876 e73c ec51 783d f5ac 953c
000002a0: 2a75 24bb e07f 86bd 3e71 35bc ddc6 023d
000002b0: b3b1 56bd 1e97 5dbd 84d6 ab3d 06c1 d0bd
000002c0: ab26 593c a010 88bd f4c1 c63c b354 e93b
000002d0: 8000 853c 8ef0 61bd eab2 55bc 06e3 003b
000002e0: 44ad e63c c7ab 94bd 0b2b 4a3d 4504 1c3d
000002f0: fe78 95bd 59a8 18be de87 383d c238 1e3c
00000300: f4f2 303d afa2 c33d 3905 7abe 864d 5abd
00000310: f863 edbb 79be 9cbc 4996 523d e45a 91bb
00000320: 9ec1 1a3d 57a0 d53c 146a dc3d 0eb9 bfbd
00000330: c246 01be a2ea ed3c 5ecd 17be 0960 41bd
00000340: 423b a73c 085a c6bc 6316 223d 4cf1 523c
00000350: a00d 0ebd 27c2 6b3d 80f5 8a3d 23fb cebd
00000360: 46a3 6ebd f9e6 adbc 8da2 babc 8c7d b23d
00000370: f48a 5cba 91e8 223d b8f1 133c ae8c 35bd
00000380: 8ae1 eabc bc53 d33c 3242 543d b621 f4bb
00000390: 9ea0 dcbc e2ac 79be 5d64 ff3d bbe1 c33c
000003a0: 8afd 513d 0e45 9bbc a158 433d 0c10 c7bd
000003b0: 8e9c edbc 9558 973d 648d 44bd b911 15bd
000003c0: 386a 44bd f26c 923c 80b8 f9bd 8e40 8ebb
000003d0: 7dcc 5fbd 65c1 6fbc 3082 01bb 4d1d 0f3d
000003e0: e94b 4dbb 488d 6dbc 2043 ddbb 9869 cabc
000003f0: f7da 7cbd 869d 083d 6412 8c3d 1cee 603d
0.04487318 -0.0026057546 -0.15684113 0.054948043 -0.15453817 -0.03465827 0.032432314 0.09826531
-0.058528177 0.047867868 0.007418276 0.03883614 -0.026502695 -0.10656339 0.021851936 0.018582007
-0.018007241 -0.041868128 -0.07919962 -0.036779404 -0.019988503 -0.04514097 -0.054218296 0.033272732
0.008989302 -0.07668339 0.014744304 -0.09874082 0.092112765 -0.056203272 0.031156378 0.013946699
-0.041125417 -0.1957711 0.047606196 0.050850578 -0.17371811 0.09864326 0.019272612 0.051266875
-0.17917344 0.1252775 -0.06329611 0.01190366 0.09939431 0.07055269 0.0050997543 0.06391467
0.0660438 0.001733816 0.0335686 -0.07801422 -0.012812776 -0.06620834 -0.040356964 0.01069673
0.008357799 0.046150465 0.052591383 0.0075042048 -0.01880747 0.03954957 -0.17206407 0.008781941
-0.09163254 -0.10139906 -0.03226456 0.030265847 0.04487949 -0.1325251 0.038999222 0.05790886
0.1051231 -0.036970645 0.04620355 -0.014820885 0.043073494 0.10093521 0.022783939 0.040212646
-0.28595623 0.029296014 -0.019683978 0.04007774 -0.004895864 -0.23408248 0.090501435 0.06999772
-0.09803604 -0.06789885 0.045743752 0.008664115 -0.09965421 0.023083722 0.0060288864 -0.022471974
0.017773122 -0.058618315 0.014027977 -0.099927925 -0.13925397 -0.042324986 -0.037879627 -0.029122792
-0.055301186 0.078909755 -0.09477994 0.071379185 -0.035586666 0.008670016 -0.043367136 -0.06283492
0.042012874 -0.07092248 -0.019155873 -0.031158654 0.0748808 0.1679449 0.026940668 0.026580805
-0.026890062 -0.111597404 -0.10698117 0.021222651 -0.037553612 -0.14801948 0.006132177 0.007943601
-0.042531498 0.0017873415 0.0017076125 0.050355468 -0.0004339451 -0.01789636 -0.049801916 -0.044457782
0.060710154 -0.053428136 0.033567738 0.03153005 0.07909732 -0.0032269992 0.02435077 0.021273363
0.040209465 -0.006855217 -0.1421706 -0.08049007 -0.049440827 0.025718665 0.022883486 0.026912386
-0.053660825 0.034458898 0.024480697 0.0626192 0.06311976 -0.03352046 -0.11495644 -0.02163739
0.115322664 0.02432955 -0.05237109 -0.04580173 0.037133362 0.028254852 0.060625 0.018270949
-0.002509425 -0.06567359 -0.011074362 0.031927932 -0.05241556 -0.054099195 0.08390525 -0.10193066
0.013253848 -0.06643796 0.024262406 0.0071206926 0.01623559 -0.05516105 -0.013043145 0.0019666567
0.028158791 -0.072593264 0.049357455 0.03809001 -0.07298468 -0.1490797 0.045051448 0.009657087
0.04320045 0.09552514 -0.24416055 -0.05329659 -0.007244583 -0.019133793 0.051412854 -0.004435884
0.037782304 0.026077433 0.1076242 -0.09361468 -0.12624648 0.029042546 -0.14824435 -0.047210727
0.020413999 -0.024212852 0.03957213 0.0128749125 -0.034680963 0.057558205 0.06785107 -0.10106494
-0.05826118 -0.0212283 -0.022782588 0.087153524 -0.00084130396 0.039772574 0.009029798 -0.044323616
-0.028671999 0.025796764 0.05182094 -0.0074503077 -0.026932057 -0.24382356 0.12470315 0.023911348
0.051267184 -0.018953826 0.047691945 -0.097198576 -0.029005315 0.073899426 -0.047986403 -0.036393855
-0.04795286 0.017874215 -0.12193394 -0.0043411916 -0.054638375 -0.014633511 -0.0019761436 0.034940053
-0.0031325764 -0.014499016 -0.0067523867 -0.024708554 -0.06173226 0.03335335 0.06839445 0.05491458

net.2.0.weight f4 [6, 256]
00000000: 47a2 20be 614e 1b3d 2e38 8cbe 998a e7bc
00000010: 2d56 f83c 33b8 303e e65f d53d 9df1 3b3c
00000020: 867b 1b3e 60e3 a5bc 495a 13bb 7129 8cbe
00000030: 469b 893d 2eb7 2a3d 7f42 683e ad8e 803d
00000040: d82d 21be 3156 fc3d 1581 b03e 5244 a73c
00000050: 2d7b ee3c 06dc a43b 124a e83c 9181 723e
00000060: c919 b13e ea18 0d3e 38cb e33e 05a4 96bc
00000070: 5dad 193d fcae d63d 22ec 7c3d 5bc1 b3bc
00000080: 8396 913d 8125 77bc ff82 89be a192 0ebc
00000090: 36cb 433e e33f c33c 6862 6dbd 24af 053d
000000a0: 3c24 89bd a4e3 14bd 3d39 273e 3f95 1f3e
000000b0: 9555 17be abc2 99be 8f63 703d 9d27 06be
000000c0: d4ea 4d3d 37f2 c23c 88a9 90bd a6e6 403d
000000d0: c8bf 0a3d cd5c d43d 00d3 fb3e 52ce 79bc
000000e0: ef1b 803d 3fed c0be 59ce f9bc 71b6 10be
000000f0: e43d 35be db5d a03e cfb8 ef3c e27a 5a3e
00000100: 7141 5c3f 82d2 dfbe d398 25bf 42ee e5bc
00000110: 3ec8 503d b0f8 e5bf 50d7 6dbd b601 a63e
00000120: 5fb2 e4be edc5 19bd 5561 1f3c a205 16be
00000130: 0fd7 d5bc 4d08 363d 474d 413f ff18 443d
00000140: fb4c d1bc da19 82bc 5c98 a9be 95a0 89be
00000150: d37b 8fbe f635 e73e bb45 3cbe 3c2e 393d
00000160: f021 97bd 1f01 5cbb 4d90 233e c694 0e3f
00000170: bbed 03be a9b7 fabe 8943 3f3f 6db9 1740
00000180: 6b6f 563f 3ef7 81bd b9a0 363a f7bf 04be
00000190: b28c 31be 01b1 5fbe 08be f93c c3ae f13d
000001a0: 29d2 8b3c 267a 403c 38fb 943e e06f b6bd
000001b0: ded1 713e ea88 193e d79a 63be 750b 49bd
000001c0: bd21 b0bc 7664 b63c 7868 36be a92b 233e
000001d0: d192 c13c fe77 c8bb dd33 4e3f 077c 3b3c
000001e0: 207a 6a3d 55a7 0e3e fffb 323e 5015 eb3d
000001f0: f2cf 8bbd 161d c13c 9551 50be 33a2 293e
00000200: 911e 0e3e c958 17be 6131 423e 3d64 0fbe
00000210: e4bc 983d bae5 6fbd 249f 6540 f1b8 1e3e
00000220: 88ff 86bd 795a 073f 4dbd 133d 4462 023d
00000230: d49e 51bc 32cc d43e e82f 97bd 4a40 4fbc
00000240: 0aad e43e 7a9a 213c 0c45 e93d d0af bd3d
00000250: cfa9 eb3d c6d3 3bbc 00c8 30be 3710 febd
00000260: 68e5 2a3d 4bf0 363d c0a9 33be 0d3d 7fbc
00000270: 9516 6fbe f8f0 b2bd 806a 83be e680 e63e
00000280: 395e ca3d db73 66bd 16db 5b3d b446 f7bd
00000290: faac dbbd 11fb 77be 9117 563e 7f71 673d
000002a0: 49eb 6ebe 49c3 27bd 7a09 92bd 4afb 023f
000002b0: fab0 253e d019 d2bd b477 f33b e9bf 653d
000002c0: 4ee6 843e a439 b53f e06c 96bc 0a6d bbbe
000002d0: 4c14 b33b ade5 8bbf 195c c73e 2b0e b73e
000002e0: b0ac 8ebe 4503 663e eb29 9ebe ee42 16be
000002f0: 19a5 5c3e f5b4 eabd b3bb a53b 4d68 14be
00000300: 175c e43d 9199 26bc 0953 c8be 5fea 293e
00000310: 70c2 ee3d dd96 113e 2342 43bc 5966 ad3e
00000320: 09a8 853c cab1 3b3d 82e9 0c3d 57bb 8e3d
00000330: 1c62 003e 8e5c 5c3e 8b7b 2c3e da58 873d
00000340: 8c37 eb3e ac95 a93d 64a0 ddbd 05a3 4fbe
00000350: a4da e43d 5ec8 a6bd aba7 0f3f 3b4a bcbe
00000360: 2104 0a3e 4f0d ef3d 1f4e b6bb 35f4 543d
00000370: af67 103e ee8f 043e f7c4 6bbe 4986 253e
00000380: 36a3 e4bd c8c8 80be c3cc 033c f969 abbe
00000390: 1e37 303c ddaa 3d3f d97d c1ba 3abe 15be
000003a0: 3388 d8bd 0c48 34bf 773f 5fbe 21dc 8bbd
000003b0: 62e2 20bc 8065 3d3d a66a 653e 9730 ec3f
000003c0: 1b27 7c3c 17a6 bb3d ccdb 073c 6f7a c73c
000003d0: bdaa cd3e 8d1b 863d 5ff1 2d3e 8049 5e3a
000003e0: b204 353c bd1a 9dbc b34d 193b e767 843d
000003f0: 5820 953e 805f bb3c 2e94 74bd d9dd 883d
-0.15686904 0.037916545 -0.27386612 -0.02826433 0.03031453 0.17257766 0.10418682 0.011471179
0.15183839 -0.020250022 -0.0022484234 -0.27375367 0.06719069 0.0416786 0.22681616 0.06277213
-0.15740144 0.12321127 0.34473482 0.02041832 0.02911147 0.0050311117 0.028355632 0.23682238
0.34589985 0.13779035 0.4449098 -0.018388757 0.037518848 0.10482594 0.06174863 -0.021942785
0.07108786 -0.015084625 -0.26857755 -0.008701951 0.19120488 0.023834174 -0.057955176 0.03263773
-0.06696364 -0.036349908 0.16330428 0.15584277 -0.1477874 -0.30031332 0.058688696 -0.13101049
0.050272778 0.023797138 -0.070635855 0.047094963 0.033874303 0.10369263 0.49184418 -0.0152469445
0.06255328 -0.37681004 -0.030493902 -0.14132096 -0.1769939 0.31321606 0.029262928 0.21335939
0.86037356 -0.43715292 -0.64686316 -0.028067712 0.050972216 -1.7966518 -0.058066666 0.3242318
-0.44667336 -0.037542272 0.009727796 -0.14650586 -0.026103524 0.04444151 0.7550854 0.0478754
-0.025549402 -0.015881468 -0.33124053 -0.26880327 -0.28024158 0.45158356 -0.18385975 0.04521011
-0.0737952 -0.0033570004 0.15973015 0.5569576 -0.12883656 -0.48968247 0.74712425 2.3706925
0.8376376 -0.06345986 0.00069666986 -0.12963854 -0.17338827 -0.21844865 0.030486122 0.11800911
0.017067986 0.011747872 0.29097915 -0.08908057 0.23615214 0.14993635 -0.22227035 -0.049083192
-0.021500463 0.0222647 -0.17813289 0.15934624 0.023629578 -0.00611782 0.8054789 0.011443145
0.057245374 0.1393102 0.17478941 0.114786744 -0.06826772 0.02357344 -0.20343621 0.1656578
0.13878848 -0.14779963 0.18964149 -0.14003082 0.07457903 -0.058568694 3.5878382 0.15500237
-0.065917075 0.52872425 0.036069203 0.031831995 -0.012794215 0.4156204 -0.07382184 -0.012649605
0.44663268 0.00986349 0.11390123 0.09262049 0.11506998 -0.011464065 -0.17263794 -0.124054365
0.041722685 0.044662755 -0.17545223 -0.0155785205 -0.23348458 -0.087373674 -0.2566719 0.45020217
0.09881253 -0.056262832 0.053675734 -0.120740324 -0.10726352 -0.24216868 0.20907427 0.056504723
-0.23331942 -0.040957723 -0.07130714 0.51164687 0.16180792 -0.102588296 0.007430041 0.056091223
0.2595696 1.4158216 -0.018362463 -0.36606628 0.005465066 -1.0929466 0.38937452 0.35752997
-0.27866125 0.22462185 -0.30891356 -0.14673969 0.21547355 -0.11460296 0.005057776 -0.14492913
0.11150377 -0.010168449 -0.3912585 0.16593312 0.1165818 0.14217706 -0.011917624 0.33867148
0.016315477 0.04582385 0.034402378 0.06969326 0.12537426 0.21519682 0.16844003 0.06608744
0.45940816 0.08280501 -0.10821608 -0.20277031 0.11174515 -0.08143686 0.56115216 -0.36775383
0.13478138 0.1167246 -0.005563512 0.051990706 0.14102052 0.1294553 -0.23024355 0.16164507
-0.111639425 -0.25153184 0.0080444245 -0.33479288 0.010755328 0.7408884 -0.0014762237 -0.14623347
-0.10572853 -0.70422435 -0.21801554 -0.06829096 -0.009819599 0.046239376 0.22403964 1.8452328
0.015390183 0.091625385 0.00829215 0.024350373 0.40169325 0.06548224 0.16986607 0.000847958
0.011048483 -0.019177789 0.002339226 0.0646513 0.2912624 0.022872686 -0.059711628 0.06682939

net.2.0.bias f4 [6]
00000000: ec1e 893b 1cb6 ef3c 34a8 4c3c 7f5a 3abe
00000010: 420e 1fbe f1b6 22be
0.0041845944 0.029261641 0.012491275 -0.18198584 -0.15532783 -0.15890099
