suboptimal_policies/Hopper-v4_200.pth (torch, 177367 bytes, 6 tensors)

net.0.0.weight f4 [200, 11]
0	0xbdd90478	-0.105965555
1	0x3f927a19	1.1443511
2	0xbe105f9a	-0.14098969
3	0xbf076da7	-0.5290169
4	0x3cc18474	0.023622729
5	0xbef8d2c0	-0.4859829
6	0xbeb035bd	-0.34416
7	0x3e81ef8e	0.25378078
8	0xbe326899	-0.17422713
9	0xbcdcada8	-0.026938275
10	0x3d594e05	0.05305292
11	0x3c99647d	0.018724674
12	0x3eb6944e	0.35660022
13	0x3ea2c37d	0.3178977
14	0x3e02c79f	0.12771462
15	0x3e28ced5	0.1648515
16	0xbe3e6645	-0.185937
17	0xbd5e078e	-0.054206423
18	0xbd3b18f3	-0.04567809
19	0xbded202a	-0.115784004
20	0xbd08fdf8	-0.03344533
21	0xbe13516a	-0.14386526
22	0xbd5e8d03	-0.054333698
23	0xbebccecb	-0.3687652
24	0x3e484a46	0.19559583
25	0xbe34ca42	-0.1765528
26	0x3e08bb41	0.13352682
27	0x3a4ccec0	0.00078127906
28	0x3d9a6eb0	0.07540643
29	0x3d2d0850	0.042244256
30	0x3bb8de26	0.0056417165
31	0x3e43dae5	0.1912647
32	0xbde02d95	-0.10946194
33	0xbe3e25fe	-0.1856918
34	0xbeaae6df	-0.33379266
35	0x3ec95bb3	0.39327773
36	0xbe8626e7	-0.26201555
37	0xbe447d47	-0.19188415
38	0x3d6ae7ce	0.057349972
39	0xbe605692	-0.21908024
40	0x3e504212	0.20337704
41	0xbe2204c0	-0.15822124
42	0xbdbcad49	-0.09212739
43	0x3d0d2ef7	0.034468617
44	0xbe1254fd	-0.14290233
45	0x3f93876a	1.15257
46	0x3d6fe2a4	0.05856575
47	0x3ce35cfd	0.027754301
48	0x3e6811d6	0.22663054
49	0x3d09a989	0.033608947
50	0x3c910341	0.017701747
51	0x3d8f39ed	0.0699347
52	0xbc7ed716	-0.01555421
53	0x3d3278b6	0.04357215
54	0x3d73d5c3	0.05953003
55	0xbe84be20	-0.25926304
56	0x4049f10c	3.1553373
57	0x3caf9fcc	0.021438502
58	0xbe15b3a8	-0.14619315
59	0x3cd13a68	0.025540546
60	0x3d915c7a	0.07097717
61	0xbdbe41f9	-0.09289927
62	0xbe263089	-0.16229452
63	0x3e123e60	0.14281607
64	0x3d83c674	0.06434336
65	0x3aec0fb1	0.0018010047
66	0xbd5c4ffb	-0.053787213
67	0x3df8aa8e	0.12141906
68	0xbe494267	-0.19654237
69	0xbed9fb5f	-0.42574593
70	0x3eca3dcb	0.3950027
71	0xbe638735	-0.22219546
72	0x3f3d85fd	0.74032575
73	0x3b3b1e33	0.0028551936
74	0x3d71eae2	0.059061892
75	0x3e59f9b8	0.21286666
76	0x3d09e122	0.03366197
77	0x3d97cd5f	0.07412218
78	0xbf8e7fd0	-1.1132755
79	0xbe145b91	-0.14488055
80	0x3bacfc02	0.005279065
81	0xbd10af4d	-0.03532343
82	0x3dae9435	0.08524362
83	0x3e1556b8	0.14583862
84	0xbdc48f5c	-0.09597656
85	0x3d9d7d1e	0.0768988
86	0x3d1bc049	0.038025174
87	0x3d3b6fca	0.045760907
88	0xbd170251	-0.036867443
89	0xbf87e0de	-1.0615499
90	0xbe3fe46f	-0.18739484
91	0x3f5a4554	0.85262036
92	0xbd0cb066	-0.034347914
93	0xbddde91a	-0.10835476
94	0x3ecd1a55	0.40059152
95	0xbe80027f	-0.25001904
96	0x3dfbf5f5	0.12302772
97	0x3daf3b6d	0.085562564
98	0xbe2686bd	-0.16262336
99	0xbd00f798	-0.031486124
100	0x3f875569	1.057294
101	0x3e20b0d7	0.15692459
102	0x3e63b5b7	0.22237287
103	0x3ec3c0a4	0.3823291
104	0xbd640490	-0.055668414
105	0xbe22453d	-0.15846725
106	0xbd330433	-0.043705177
107	0x3deea65f	0.116528265
108	0xbdb55a24	-0.088550836
109	0x3d23db88	0.040004283
110	0xbd8032d4	-0.06259695
111	0x3d31258a	0.04324869
112	0xbca9a891	-0.020710262
113	0xbe8f591e	-0.2799768
114	0xbd4728cc	-0.04862289
115	0xbcf457d2	-0.029827032
116	0x3d93acaa	0.072106674
117	0x3d2f3560	0.04277551
118	0xbe3193f9	-0.17341603
119	0x3da7a9c9	0.08186681
120	0xbdc89f61	-0.09796024
121	0x3bc47ca6	0.0059963046
122	0x3eda08f5	0.4258496
123	0x3d664f9a	0.056228258
124	0x3eb82a47	0.35969755
125	0xbddb8a70	-0.10719764
126	0x3df856a8	0.12125903
127	0xbdb1a580	-0.08674145
128	0xbe33707c	-0.17523378
129	0x3d3c726e	0.046007566
130	0x3c271db8	0.010199957
131	0xbd916650	-0.07099593
132	0xbea01fb8	-0.312742
133	0x3ed0f9e2	0.40815645
134	0xbedc84c5	-0.43070045
135	0x3e5dc185	0.21655853
136	0xbe082f2b	-0.13299243
137	0x3e0a2d14	0.13493758
138	0xbc7dbc9d	-0.015486863
139	0xbe52cd2d	-0.20586081
140	0x3e84dcd4	0.25949728
141	0xbd0b8702	-0.0340643
142	0xbd6873ae	-0.056750946
143	0xbe434254	-0.19068271
144	0xbf36aa65	-0.7135375
145	0xbeb5cd4d	-0.35508195
146	0xbebb1069	-0.36535957
147	0x3e27b3a7	0.16377126
148	0xbe8ccd52	-0.27500397
149	0xbe7f3150	-0.24921155
150	0xbc5bf92b	-0.0134261055
151	0x3d4f3706	0.050589584
152	0xbce76109	-0.028244512
153	0x3d6099ee	0.0548343
154	0xbda72332	-0.0816101
155	0xbfa42d5a	-1.282634
156	0xbea0f116	-0.31433934
157	0x3f142bae	0.5787915
158	0x3e607ce1	0.21922638
159	0xbd347662	-0.04405821
160	0xbd80d222	-0.0629008
161	0xbddba736	-0.10725252
162	0x3d4bcac5	0.049753923
163	0x3dc52472	0.09626092
164	0x3d0a350a	0.03374199
165	0xbc418d17	-0.011813424
166	0xbef90bc2	-0.48641783
167	0xbf0986c2	-0.5372125
168	0xbddc0b01	-0.10744286
169	0xbcbf9a4e	-0.023389008
170	0xbdd9314b	-0.10605105
171	0x3df30790	0.11866677
172	0xbe6c2335	-0.23060305
173	0xbbe66af6	-0.0070317937
174	0x3db74be2	0.089500204
175	0xbd4eca9b	-0.05048619
176	0x3daa8f64	0.08328131
177	0xbde08abd	-0.10963962
178	0x3ed5ddfa	0.41770917
179	0xbcf024c7	-0.029314412
180	0x3e8e5e0c	0.27806127
181	0xbc682ffc	-0.014171597
182	0xbd4d0a5b	-0.050058704
183	0xbe4378fd	-0.19089122
184	0x3d4ac919	0.049508188
185	0xbdbb59c4	-0.09147981
186	0x3c9143df	0.017732559
187	0xbdd5ff53	-0.1044909
188	0xc019cc47	-2.403093
189	0xbe908b10	-0.28231096
190	0xbed5f78e	-0.41790432
191	0xbeb3681d	-0.3504037
192	0x3db9b914	0.09068504
193	0xbdb6f7c1	-0.08933974
194	0xbea428aa	-0.32062274
195	0x3e79d89f	0.2439904
196	0x3e107082	0.14105418
197	0x3c99e8c7	0.018787755
198	0xbf225b69	-0.6342073
199	0x3f831f6c	1.0243964
200	0xbeb894f7	-0.3605115
201	0xbe3af6c2	-0.18258193
202	0xbdde5beb	-0.10857376
203	0x3da3418e	0.07971488
204	0xbeea777b	-0.4579428
205	0xbd29874c	-0.041388795
206	0x3da36fd6	0.079803154
207	0xbc4521d4	-0.012031991
208	0x3d1ad83b	0.03780387
209	0x3ec501a8	0.38477826
210	0xbf1dcb4d	-0.6163834
211	0x3ef9124f	0.4864678
212	0x3ed5aaa6	0.41731757
213	0x3e8728aa	0.26398212
214	0xbe196f2d	-0.14983816
215	0x3d8a468d	0.06751738
216	0xbd520c7e	-0.051281445
217	0x3d43d728	0.04781261
218	0x3d21948e	0.039448313
219	0xbbe6ebf2	-0.00704717
220	0xbe35422b	-0.17701022
221	0xbf5e2246	-0.8677105
222	0xbe1a0695	-0.15041573
223	0xbf53d9ba	-0.827541
224	0xbebe810d	-0.37207833
225	0x3dbfd7cb	0.09367331
226	0x3e025d3e	0.12730882
227	0xbce6607d	-0.028122181
228	0xbe07217a	-0.13196364
229	0xbdd44676	-0.10365002
230	0x3cbe7a75	0.023251751
231	0xbe945cb1	-0.28976968
232	0x3f928a7b	1.1448511
233	0xbe9a8cd4	-0.30185568
234	0x3ead3405	0.3382875
235	0xbec84dcf	-0.39121863
236	0xbc2d4bf9	-0.010577195
237	0xbe50b595	-0.20381768
238	0xbe0ecd70	-0.13945556
239	0x3ca0d882	0.019634489
240	0x3e2fe4b6	0.1717709
241	0xbdb0bdfa	-0.08629985
242	0xbbe515b6	-0.0069911135
243	0x400985d7	2.148794
244	0x3ea5d2d7	0.3238742
245	0xbc997d0a	-0.018736381
246	0x3d4acad8	0.049509853
247	0x3da877d6	0.08225982
248	0x3d6168a7	0.055031445
249	0x3da4ed96	0.080531284
250	0x3ccc3182	0.02492595
251	0xbb811548	-0.0039393045
252	0xba523d77	-0.0008020023
253	0xbdafb8af	-0.085801475
254	0xbf4bda14	-0.79629636
255	0x3cb77576	0.022394877

net.0.0.bias f4 [200]
0	0xbc8abd3f	-0.016935943
1	0xbd7aacba	-0.06119988
2	0xbcd76031	-0.026290985
3	0xbe47fc1f	-0.1952977
4	0xbdceb2a6	-0.10092668
5	0x3cc620fa	0.024185646
6	0xbd0d4e9f	-0.034498807
7	0xbd036f77	-0.032088723
8	0xbe18822e	-0.1489341
9	0xbd204767	-0.039130595
10	0xbd8c2c9a	-0.068444446
11	0xbcc82295	-0.024430552
12	0xbe797a34	-0.24363023
13	0xbd8f5070	-0.06997764
14	0x3ceba309	0.028764265
15	0x3d2b80f1	0.041871015
16	0xbd323c31	-0.043514434
17	0x3ca19b6f	0.019727437
18	0xbdc41e50	-0.09576094
19	0x3e33712a	0.17523637
20	0xbda57675	-0.080792345
21	0xbbbf3169	-0.0058347476
22	0x3ae98ee7	0.0017819077
23	0xbddfdd9d	-0.10930941
24	0xbe19761c	-0.14986461
25	0x3e407708	0.18795407
26	0xbe040679	-0.12893094
27	0x3d1121e6	0.03543272
28	0xbeb09fbc	-0.34496868
29	0xbdc88c21	-0.097923525
30	0xbe96839b	-0.29397282
31	0xbd917a0d	-0.071033575
32	0x3bf2334a	0.007391368
33	0xbe52e10d	-0.20593663
34	0xbc3e66fd	-0.011621234
35	0x3e2f458d	0.17116375
36	0xbd1c15d0	-0.03810674
37	0xbdf734ca	-0.120706156
38	0xbe8b0d71	-0.27158692
39	0xbce6cbd8	-0.028173372
40	0x3e88de12	0.26731926
41	0x3dc29422	0.0950091
42	0xbddf62ab	-0.10907491
43	0x3e10d563	0.141439
44	0xbdc90d1a	-0.09816952
45	0xbe1132cb	-0.14179532
46	0xbaa35400	-0.0012460947
47	0xbd71eb31	-0.059062187
48	0xba3a02e5	-0.0007095768
49	0x3ec83ab9	0.39107302
50	0xbc831fa1	-0.016006293
51	0xbdb05cff	-0.086114876
52	0xbec21629	-0.37907532
53	0x3ca2a620	0.019854605
54	0xbb192f03	-0.0023373968
55	0xbddbb80c	-0.107284635
56	0xbd88cf82	-0.06680204
57	0x3db84531	0.08997572
58	0xbdb2caa2	-0.087300554
59	0x3c3b7eb5	0.0114437835
60	0xbd6d69f8	-0.057962388
61	0xbd0b4ec2	-0.034010656
62	0xbe0ccbcc	-0.13749617
63	0xbe3cf2cf	-0.18451999
64	0x3d816360	0.063177824
65	0x3c8c7339	0.017144786
66	0xbe139f7d	-0.14416309
67	0xbe2b5387	-0.16731082
68	0x3da25a1f	0.079273455
69	0xbd238864	-0.039924994
70	0xbe9d9865	-0.3078033
71	0x3cb5edee	0.02220818
72	0x3ce75ded	0.02824303
73	0x3d8005d4	0.062511116
74	0x3e406efb	0.18792336
75	0x3d9571f5	0.07297126
76	0xbdba8807	-0.091079764
77	0x3d91c5a8	0.07117778
78	0x3cf09905	0.02936984
79	0x3de1b44a	0.110207155
80	0x3ddb6da8	0.10714275
81	0xbe1c6e18	-0.15276372
82	0xbe30042a	-0.17189088
83	0xbdf9315b	-0.12167617
84	0xbe575398	-0.21027982
85	0xbc833326	-0.0160156
86	0x3ca86bb8	0.020559177
87	0xbe05ba2a	-0.13059297
88	0xbe8a1a34	-0.26973116
89	0x3d4257bc	0.04744695
90	0xbd347a87	-0.044062164
91	0x3e88619d	0.26636973
92	0x3b9ef275	0.0048506805
93	0xbe38c0c8	-0.1804229
94	0xbe8e2fcd	-0.27770844
95	0xbcb91748	-0.02259411
96	0xbd0a9968	-0.033837706
97	0xb9d35d0d	-0.00040314384
98	0x3dc66184	0.096865684
99	0x3cba28d0	0.022724539
100	0xbd8300ca	-0.06396635
101	0xbdcde583	-0.100535415
102	0xbe843830	-0.25824118
103	0xbc521e62	-0.012824627
104	0x3cd8fb79	0.026487099
105	0xbd833ece	-0.064084634
106	0xbd929d40	-0.07158899
107	0xbd92e81b	-0.07173177
108	0x3da12c50	0.0786978
109	0xbe226736	-0.15859684
110	0xbc2f4117	-0.010696671
111	0xbe70a4cf	-0.2350037
112	0xbc8e3f4b	-0.017364165
113	0x3e59b83c	0.21261686
114	0xba375499	-0.0006993502
115	0xbe30e431	-0.17274548
116	0x3cec2cba	0.028829921
117	0xbdfa419e	-0.12219547
118	0x3df0d042	0.11758472
119	0xbe422317	-0.18958698
120	0x3e8e5623	0.27800092
121	0xbde7a1c0	-0.11310148
122	0xbd404402	-0.046939857
123	0xbe895ff5	-0.26831022
124	0x3d78042b	0.06055085
125	0xbe99a91a	-0.30011827
126	0xbca639e8	-0.020291284
127	0xbd49de4f	-0.049284276
128	0xbe84d5c7	-0.2594435
129	0xbe51fc8b	-0.20506494
130	0xbe41c2a1	-0.18921901
131	0xbd1eceda	-0.038771488
132	0xbe4209a4	-0.1894899
133	0x3d96b315	0.07358376
134	0x3d8e8bf1	0.069602855
135	0xbe83c43e	-0.25735658
136	0xbe5ed0a8	-0.21759284
137	0xbdb0d85a	-0.08635016
138	0xbd9cf3d6	-0.076636955
139	0xbeb10853	-0.34576663
140	0xbdda7ffe	-0.10668944
141	0x3c7fab59	0.015604817
142	0x3d2c4c52	0.042064972
143	0xbd235b06	-0.03988173
144	0x3e3c088f	0.1836264
145	0xbcbdc213	-0.02316383
146	0x3d5f41b8	0.054506034
147	0xbe9d31d6	-0.30702084
148	0x3bce9009	0.0063037914
149	0xbe281781	-0.16415216
150	0xbd1d0c22	-0.03834165
151	0x3d4e16d7	0.05031475
152	0xbdc290ad	-0.09500251
153	0xbe901137	-0.28138134
154	0xbf0899ef	-0.53359884
155	0x3c8a61b7	0.016892297
156	0xbe8ed4ef	-0.2789683
157	0xbdbf4767	-0.09339791
158	0xbe56f3f9	-0.20991506
159	0xbdf13a4b	-0.117786966
160	0xbce1b9aa	-0.027554352
161	0xbe7a411c	-0.244389
162	0xbe1c8484	-0.15284926
163	0x3dbdc891	0.09266771
164	0xbe140cdd	-0.14458032
165	0xbe22d789	-0.15902533
166	0x3e331ebe	0.17492196
167	0x3e2935e8	0.1652447
168	0x3dd9a7d3	0.10627713
169	0x3c79e172	0.015251504
170	0xbe1921eb	-0.14954345
171	0xbe268255	-0.16260655
172	0x3e507549	0.2035724
173	0x3e010864	0.12600857
174	0xbe933fa8	-0.28759503
175	0xbeddc294	-0.43312514
176	0xbe0175d4	-0.12642604
177	0xbe26e63b	-0.16298763
178	0x3e063701	0.1310692
179	0xbe34893d	-0.17630477
180	0xbdf642d0	-0.12024462
181	0xbd15fd5b	-0.03661857
182	0x3d8706d5	0.065931
183	0xbdab329b	-0.083592616
184	0xbe340fec	-0.17584199
185	0x3cf7eea7	0.030265165
186	0xbd08ee26	-0.03343024
187	0xbdff16ce	-0.124555215
188	0xbdbe79bc	-0.09300563
189	0xbdc7ecba	-0.09761949
190	0x3d099eb4	0.033598617
191	0xbe05e5bb	-0.13075916
192	0x3b46e8fa	0.0030351267
193	0xbc88bef2	-0.016692612
194	0x3c4bd8bd	0.012441811
195	0xbe999d46	-0.30002803
196	0x3d99e007	0.07513433
197	0x3e36fc8b	0.17869775
198	0xbd9ca823	-0.07649257
199	0xbe0d9155	-0.13824971

net.1.0.weight f4 [200, 200]
0	0x3cbf1cf1	0.02332923
1	0xbd458b5c	-0.048228607
2	0x3db038d4	0.08604589
3	0xbd2885eb	-0.04114334
4	0x3d5c7d7f	0.05383062
5	0x3c1167b4	0.008874822
6	0x3dc98ae3	0.09840944
7	0x3dca9c53	0.09893098
8	0xbce6feae	-0.028197613
9	0x3c5514ae	0.013005419
10	0xbd4d62ab	-0.050142925
11	0x3c335dfb	0.0109477
12	0x3d457efe	0.048216812
13	0x3d4e43f8	0.05035779
14	0x3c2a02e4	0.010376666
15	0xbde796e3	-0.11308076
16	0x3dc15550	0.094401
17	0x3e1b365d	0.15157457
18	0xbd2d8867	-0.04236641
19	0xbe4f8d67	-0.20268784
20	0x3d355d5d	0.04427849
21	0x3ce5a1a7	0.028031183
22	0xbcffa754	-0.031207718
23	0x3d5727ad	0.052528072
24	0x3dad1fdc	0.08453342
25	0x3ce4348f	0.027857093
26	0x3cac542e	0.021036234
27	0xbcf0b085	-0.029381046
28	0xbebc3e5e	-0.36766332
29	0x3b08ceb7	0.0020875165
30	0xbdc1a70f	-0.09455692
31	0xbd995dc5	-0.07488588
32	0xbca3604e	-0.019943383
33	0xbd9f1d50	-0.07769263
34	0x3d57fcc8	0.052731305
35	0xbda593d5	-0.08084837
36	0xb9a40690	-0.00031285407
37	0xbdb706ce	-0.08936845
38	0x3d74dbe9	0.059780035
39	0x3da2f51b	0.079569064
40	0xbd163e02	-0.03668023
41	0x3c973a1e	0.01846033
42	0xbdcb838f	-0.09937202
43	0xbd491aeb	-0.049097937
44	0xbd1e1d41	-0.038602117
45	0x3e1409db	0.14456885
46	0xbe1758ff	-0.14780043
47	0x3dbba998	0.09163207
48	0x3d2e4a0e	0.042551093
49	0xbcf3db85	-0.029767761
50	0xbd8cf1a1	-0.068820246
51	0xbd98547b	-0.07437988
52	0x3dba303b	0.090912305
53	0xbc15961e	-0.009130029
54	0xbdacbd78	-0.08434576
55	0x3d8ba15e	0.06817888
56	0x3e516749	0.20449556
57	0xbd5e1cca	-0.054226674
58	0xbe2017df	-0.15634106
59	0x3d57dfc3	0.05270363
60	0xbac58399	-0.0015069126
61	0x3e23d664	0.15999752
62	0x3d0ca0b3	0.034332942
63	0xbd9a15b1	-0.075236686
64	0x3e035a12	0.12827328
65	0xbc21d766	-0.009878015
66	0xbd406a16	-0.04697617
67	0x3e2de976	0.1698359
68	0xbe0933f7	-0.1339873
69	0x3c4a423b	0.012344892
70	0x3af077e2	0.0018346275
71	0xbe367d9c	-0.17821354
72	0x3c43219e	0.01190987
73	0xbcb1f6cc	-0.021724127
74	0xbd896169	-0.06708033
75	0xbd18e49f	-0.037327405
76	0x3dec3b1a	0.1153471
77	0xbd78265d	-0.06058346
78	0x3e209dc9	0.1568519
79	0xbb06defd	-0.0020579689
80	0x3dfee4c2	0.12445976
81	0x3d0a9026	0.033828877
82	0x3cd9be3e	0.026579972
83	0x3e196889	0.14981283
84	0x3db33da2	0.0875199
85	0x3c8a5722	0.016887251
86	0xbde879dd	-0.113513686
87	0xbd1942dd	-0.03741728
88	0xbe00b497	-0.1256889
89	0x3d033869	0.03203622
90	0x3b5320ae	0.0032215524
91	0x3d4517b5	0.048118312
92	0xbdb09781	-0.08622647
93	0xbb33c579	-0.0027430935
94	0x3d56df14	0.052458838
95	0xbe219441	-0.1577921
96	0xbdcc0aac	-0.09962973
97	0x3cc78d3d	0.02435934
98	0xbdeea5aa	-0.11652692
99	0xbe3a13d3	-0.18171625
100	0xbc4382e9	-0.011933067
101	0xbe58f2ab	-0.2118632
102	0x3d5c7ae2	0.053828128
103	0xbb2c4358	-0.0026285257
104	0xbda9d810	-0.08293164
105	0x3e375bb3	0.17906074
106	0xbccf4e55	-0.025305906
107	0xbd0ea43f	-0.034824606
108	0xbc1e9a2a	-0.00968031
109	0xbd0c7cda	-0.034298755
110	0xbe3ec6d0	-0.18630528
111	0xbe1a88fa	-0.15091315
112	0xbde72abe	-0.11287449
113	0xbdc0d434	-0.094154745
114	0x3b880dbc	0.004152028
115	0xbd3219c5	-0.043481607
116	0x3c1edef3	0.00969671
117	0xbda247b3	-0.07923832
118	0xbd46d18c	-0.048539683
119	0xbc8ad613	-0.016947782
120	0xbcf22c31	-0.029562088
121	0xbcd98d68	-0.026556686
122	0x3dcd5ed9	0.100278564
123	0x3c82cb13	0.015965974
124	0xbcb9f428	-0.02269943
125	0x3c0f048e	0.008729113
126	0x3d10c311	0.03534228
127	0xbd2fdadd	-0.042933334
128	0xbdf9797a	-0.12181373
129	0x3da045a0	0.0782578
130	0xbdd4946e	-0.10379873
131	0xbdb6ebb4	-0.089316756
132	0xbe71a4e0	-0.23598051
133	0xbda9750a	-0.082742766
134	0x3d8785fc	0.06617352
135	0xbe6cba02	-0.23117831
136	0xbe2066d3	-0.15664224
137	0x3c79bfbc	0.015243467
138	0x3c40d082	0.011768462
139	0xbe2b6365	-0.16737135
140	0xbda7c032	-0.08190955
141	0xbd3606e1	-0.044440154
142	0xbd908037	-0.07055705
143	0x3b99b66c	0.004690936
144	0x3d942cab	0.07235082
145	0x3c24ad01	0.010051013
146	0x3bab9e7f	0.0052374
147	0xbd10d9d2	-0.03536398
148	0xbd56a29c	-0.05240117
149	0xbd727ca5	-0.0592009
150	0x3d34879b	0.044074636
151	0xbd09c182	-0.03363181
152	0xbe8da47b	-0.2766455
153	0x3db458b3	0.088059805
154	0xbc86b882	-0.016445402
155	0xbdaeabd9	-0.08528871
156	0xbdf1ba74	-0.11803141
157	0x3dc07f8f	0.0939933
158	0x3db2831a	0.08716412
159	0xbc966c2a	-0.018362124
160	0x3dabb871	0.08384789
161	0x3d04e3ba	0.03244374
162	0xbd347bce	-0.04406338
163	0x3d0d8a82	0.03455592
164	0x3d12a0af	0.03579777
165	0xbd0e1b30	-0.034693897
166	0xbd5091be	-0.05092024
167	0x3d67b928	0.056573063
168	0xb999081b	-0.00029188473
169	0x3dcf6c0b	0.101280294
170	0x3d539ee5	0.051665206
171	0x3d5c03bb	0.053714495
172	0xbe0f6f4f	-0.14007305
173	0xbd376e98	-0.044783205
174	0x3da9ba99	0.08287544
175	0xbe298cac	-0.16557568
176	0xbcc9cbfe	-0.024633404
177	0x3c54b6a4	0.012982998
178	0xbd1b155b	-0.037862163
179	0xbd744573	-0.059636544
180	0x3d5f3c85	0.054501075
181	0x3deab87d	0.114609696
182	0x3a04e08b	0.000506886
183	0x3dd0b2fc	0.101903886
184	0xbd24c43e	-0.040226214
185	0x3ba9965f	0.0051753963
186	0xbe4a84f6	-0.19777283
187	0xbc125913	-0.00893237
188	0xbdbd7faa	-0.092528656
189	0x3d1d62da	0.03842435
190	0x3da5b7b4	0.08091679
191	0x3d4c1048	0.049820215
192	0xbd45c100	-0.048279762
193	0x3c113932	0.008863734
194	0x3cb0dd43	0.02158988
195	0x3e3c7f28	0.18407881
196	0xbe3b4f36	-0.18291935
197	0x3e164130	0.14673305
198	0xbdec704d	-0.11544857
199	0x3a67dbde	0.00088447134
200	0xbdc7285b	-0.09724494
201	0x3d2722b1	0.04080457
202	0x3e53fdb2	0.20702246
203	0xbe21cb84	-0.15800291
204	0x3c4fa058	0.012672506
205	0x3e0d7770	0.13815093
206	0x3e5a940b	0.21345536
207	0xbd3546d3	-0.044256996
208	0xbe2775c2	-0.16353515
209	0x3e6f5807	0.23373424
210	0x3e06d54f	0.13167308
211	0x3dc9e1a9	0.098574944
212	0x3b025d1b	0.001989192
213	0x3c452219	0.012032055
214	0x3d0d6d24	0.034527913
215	0x3c74364a	0.014905522
216	0x3c20e424	0.009820018
217	0xbebea6c7	-0.37236616
218	0xbf0d6407	-0.55230755
219	0xbdbbe8d5	-0.091752686
220	0x3a67a3bc	0.0008836349
221	0xbf022b5a	-0.508474
222	0x3cfdfde1	0.031004848
223	0xbe82e1a1	-0.25562766
224	0x3e62cb0e	0.22147772
225	0x3d699a7b	0.05703209
226	0x38a92356	8.06513e-05
227	0x3dc83f68	0.09777719
228	0xbf0000a0	-0.50000954
229	0xbc8fb288	-0.017541185
230	0xbdbc42c2	-0.091924205
231	0x3e1a9ade	0.1509814
232	0x3e176bfb	0.14787285
233	0xbe47b001	-0.19500734
234	0xbe7dae9f	-0.24773644
235	0xbd91c7c9	-0.07118184
236	0xbc8d4b55	-0.017247835
237	0x3df49d9e	0.119441256
238	0xbc85b8ee	-0.016323533
239	0xbc3c1cba	-0.011481458
240	0x3cc10111	0.023560079
241	0xbcaaa6cd	-0.02083149
242	0x3de7f83f	0.11326646
243	0xbdd40b8c	-0.10353765
244	0x3de36969	0.1110409
245	0x3da992cd	0.08279953
246	0x3e233d21	0.15941288
247	0xbcff1836	-0.031139474
248	0xbd842cea	-0.06453879
249	0xbee9dd34	-0.45676577
250	0x3df29ddc	0.118465155
251	0x3e0fda1e	0.14048049
252	0xbd5193fe	-0.051166527
253	0x3ccc42d1	0.024934204
254	0x3da660ab	0.08123907
255	0x3d60c62b	0.054876488

net.1.0.bias f4 [200]
0	0x3ef4b516	0.47794408
1	0x3e1f95c5	0.15584476
2	0xbd2e02bb	-0.042483073
3	0xbe8be820	-0.27325535
4	0xbe113b1d	-0.14182706
5	0x3c20ab87	0.00980652
6	0xbb48abb5	-0.0030619923
7	0xbe974024	-0.29541123
8	0xbde9db16	-0.114187405
9	0x3d9b7b4a	0.07591875
10	0x3e30a1ce	0.17249224
11	0xbc3749a8	-0.011186995
12	0xbd8e2aea	-0.06941779
13	0x39886734	0.00026016834
14	0xbe3736c4	-0.17891985
15	0xbd8b1c2f	-0.06792485
16	0x3ce2c344	0.027681
17	0x3d2e7594	0.0425926
18	0xbe68cf9f	-0.22735451
19	0x3d7b4be2	0.061351664
20	0x3c8dd2f8	0.017312512
21	0xbca8f820	-0.020626128
22	0xbdb855bc	-0.090007275
23	0x3edd1717	0.4318168
24	0xbe2a8d97	-0.16655575
25	0x3dbfb2ae	0.09360252
26	0x3dbb540b	0.09146889
27	0x3d9e0914	0.07716575
28	0xbde1b5c2	-0.11020996
29	0x3bae097c	0.005311189
30	0x3c6add71	0.014335022
31	0xbe2d8bd6	-0.16947874
32	0xbe8c1711	-0.27361348
33	0xbd97e11c	-0.07415983
34	0x3e345b9e	0.17613074
35	0x3e0d14bf	0.13777445
36	0x3d96b96d	0.07359586
37	0x3dfc5254	0.1232039
38	0x3f0fa86c	0.56116366
39	0x3d13809f	0.036011335
40	0xbdb4784e	-0.08812009
41	0xbd6affa1	-0.057372693
42	0xbd59e411	-0.053196017
43	0xbe0bcdb7	-0.13652693
44	0x3eaabb89	0.33346203
45	0xbccf1699	-0.02527933
46	0x3e04a3cb	0.12953107
47	0x3e58cd02	0.21171954
48	0x3dd1794d	0.102282144
49	0xbe73733f	-0.23774432
50	0x3bd0c4d6	0.006371121
51	0x3dcecf46	0.10098128
52	0xbddb7511	-0.10715688
53	0x3e525d5e	0.2054343
54	0x3d680a09	0.056650195
55	0x3e6669bf	0.22501276
56	0xbc2bae25	-0.010478531
57	0xbdac2907	-0.08406263
58	0x3e272594	0.16322929
59	0xbd8a98c0	-0.06767416
60	0x3dc9f155	0.098604836
61	0x3e6adba1	0.22935344
62	0x3dcb2776	0.09919636
63	0x3d979555	0.0740153
64	0xbb9b3656	-0.004736702
65	0x3d84abda	0.064780906
66	0xbdf579d2	-0.11986126
67	0x3aa49160	0.0012555532
68	0x3d922837	0.071365766
69	0xbdd24cd3	-0.10268559
70	0x3b3012dc	0.002686671
71	0x3ddfdd44	0.10930875
72	0x3daffe55	0.08593432
73	0x3e18c737	0.14919744
74	0xbe9a6da7	-0.30161783
75	0x3ad69f67	0.001637441
76	0x3d5ea4b4	0.054356292
77	0xbd89acee	-0.06722437
78	0x3dc9ef64	0.09860113
79	0xbb6bf584	-0.0036004493
80	0x3c152c3a	0.009104783
81	0x3d8c507c	0.06851289
82	0xbd97c50a	-0.07410629
83	0xbd8cdc90	-0.068780065
84	0x3e2ca3de	0.16859385
85	0xbe3ec100	-0.18628311
86	0xbe215e4c	-0.15758628
87	0x3df4a44e	0.11945401
88	0x3e92feec	0.28710115
89	0xbea06e14	-0.31333983
90	0x3da3e327	0.0800231
91	0x3d6416c7	0.055685785
92	0x3d1097ea	0.035301127
93	0xbca3ded8	-0.020003721
94	0xbd9005b8	-0.07032341
95	0x3e69278a	0.22768989
96	0xbdad5613	-0.08463683
97	0x3e862595	0.26200548
98	0xbbc7540b	-0.0060830167
99	0x3de3714c	0.11105594
100	0xbdcb96e8	-0.099408925
101	0xbd52d8a9	-0.051476154
102	0x3e38db14	0.18052322
103	0x3d347acb	0.044062417
104	0xbdcd5289	-0.10025508
105	0x3d84082e	0.06446873
106	0xb9e2a4ec	-0.00043228955
107	0xbdbb2283	-0.09137442
108	0x3e2846a6	0.164332
109	0x3e234ba0	0.15946817
110	0x3ecbddfd	0.398178
111	0x3cb7982a	0.022411425
112	0x3ed76f3e	0.4207706
113	0x3e3c4128	0.1838423
114	0xbb818809	-0.003952984
115	0x3e302524	0.17201668
116	0x3d574b46	0.05256202
117	0xbe572a01	-0.21012117
118	0xbe970aae	-0.29500335
119	0xbbfafa4d	-0.0076592327
120	0xbdd52f0a	-0.104093626
121	0x3d31c9e2	0.04340542
122	0xbd1137d5	-0.035453636
123	0x3d498d46	0.049206994
124	0xbd1ef7ea	-0.038810648
125	0x3d36b299	0.044603918
126	0xbd8ca1f4	-0.068668276
127	0xbb3f6ab3	-0.0029207885
128	0x3de6af1f	0.112638704
129	0x3e7ccc08	0.24687207
130	0x3dacc9c2	0.0843692
131	0x3d1c3832	0.03813953
132	0x3d9a31a0	0.075289965
133	0x3db8c74b	0.09022387
134	0xbde4e7ec	-0.11177048
135	0xbe141420	-0.14460802
136	0x3e80e7f2	0.2517696
137	0x3e3e381e	0.18576095
138	0x3e34b0c9	0.17645563
139	0x3e519696	0.204676
140	0xbb409e6b	-0.00293913
141	0x3c11685f	0.008874982
142	0xbdfaa124	-0.122377664
143	0xbb13c22a	-0.002254615
144	0x3e41f773	0.1894205
145	0x3e1a5e4b	0.15075032
146	0x3dcdb192	0.100436345
147	0x3e0bf396	0.1366714
148	0x3d9b9b8b	0.07598027
149	0x3cfa9a47	0.030591143
150	0x3d5aa830	0.053383052
151	0xbd27bb87	-0.040950324
152	0xbe6b9279	-0.23005094
153	0x3dbb7ec8	0.09155041
154	0xbe1d7759	-0.15377559
155	0x3efa5bdf	0.48898217
156	0xbe852c0f	-0.26010177
157	0xbde8ee20	-0.11373544
158	0xba43fd92	-0.00074764446
159	0x3d825c7e	0.06365298
160	0x3dd23504	0.10264018
161	0xbcf50cc4	-0.029913314
162	0x3d35e394	0.04440649
163	0x3d8a5714	0.0675489
164	0x3d757b67	0.05993214
165	0x3da14de3	0.07876184
166	0xbd9aa11b	-0.0755026
167	0x3d9e1613	0.07719054
168	0x3dd4b21d	0.10385535
169	0xbd8e86a3	-0.06959274
170	0xbd715c8b	-0.058926146
171	0x3e75cd41	0.2400408
172	0x3e621f69	0.22082295
173	0x3dabf8d0	0.083970666
174	0x3dd33f8f	0.10314857
175	0x3d5bf207	0.053697612
176	0x3df4d93e	0.11955498
177	0x3e3c2487	0.18373309
178	0xbdf8ab2e	-0.12142025
179	0x3b9c5785	0.0047711753
180	0xbdd28004	-0.10278323
181	0xbc9be382	-0.019029383
182	0xbe832c70	-0.2561984
183	0x3e13bbf7	0.14427172
184	0xba2aaca9	-0.0006510714
185	0xbe4c7e40	-0.19970036
186	0xbc790b5e	-0.015200464
187	0xbeb292e2	-0.34877688
188	0x3dd10f3c	0.10207984
189	0xbe319e2d	-0.17345496
190	0xbd15a616	-0.036535345
191	0xbc135756	-0.0089929905
192	0x3b60eaae	0.0034319567
193	0x3e3d085f	0.18460225
194	0x3cdf5d2b	0.027266106
195	0xbc1dbc96	-0.009627482
196	0x3cb9a802	0.02266312
197	0x3e3ec272	0.18628863
198	0xbb512336	-0.0031911856
199	0xbe648d7a	-0.22319594

net.2.0.weight f4 [6, 200]
0	0xbc12ac96	-0.0089522805
1	0x3db643d3	0.08899655
2	0xbe2f6b08	-0.17130673
3	0x3d8916f2	0.066938296
4	0x3e30e26f	0.17273878
5	0xbf296175	-0.6616433
6	0xba4fafed	-0.00079226383
7	0x3f18e8b0	0.5973005
8	0xbe406ee6	-0.18792304
9	0x3e083bd6	0.13304076
10	0x3e6ca4b2	0.23109701
11	0x3f28b764	0.6590483
12	0xbece97d0	-0.403502
13	0xba2b8d25	-0.00065441645
14	0xbe4d5ac8	-0.20054162
15	0xbebc9d06	-0.3683855
16	0x3d3ea4b3	0.04654379
17	0xbe8b80a6	-0.27246588
18	0xbd7327d1	-0.059364144
19	0x3e98e90a	0.29865295
20	0x3e012c82	0.12614635
21	0xbe699bea	-0.22813383
22	0x3e7e4944	0.24832636
23	0x3a8f434e	0.0010930093
24	0xbec8e38d	-0.39236107
25	0x3f36256d	0.7115086
26	0x3e036cfe	0.12834546
27	0x3cf74acb	0.030187031
28	0x3e447de1	0.19188644
29	0xbce775a7	-0.028254343
30	0x3e40b1ee	0.18817875
31	0x3e17a880	0.14810371
32	0xbf23e7d6	-0.6402563
33	0x3fb83e33	1.4393982
34	0xbe1c510d	-0.15265293
35	0xbe205918	-0.15658987
36	0x3e25613d	0.16150375
37	0x3ed98f20	0.42492008
38	0x3c209e18	0.0098033175
39	0x3d47aef4	0.048750833
40	0x3ced34e9	0.028955894
41	0x3de7e7b0	0.11323488
42	0xbe34b486	-0.17646989
43	0xbe5d1707	-0.21590815
44	0xbccfb345	-0.025354037
45	0x3e049ffb	0.12951653
46	0xbf1f5387	-0.6223683
47	0xbe9562b9	-0.29176882
48	0xbebb2841	-0.3655415
49	0xbe1d82b7	-0.15381895
50	0x3fb904e8	1.4454622
51	0xbd965816	-0.0734102
52	0xbebc5698	-0.36784816
53	0xbd24a588	-0.040196925
54	0xbc0c55cc	-0.008565377
55	0xbde6d3b4	-0.11270848
56	0xbddf8f62	-0.1091602
57	0xbd0010ea	-0.03126613
58	0x3e915525	0.28385273
59	0xbf1393fd	-0.5764769
60	0x3d1225d7	0.035680618
61	0xbe6adaae	-0.22934982
62	0x3e4bfe12	0.19921139
63	0xbebd14c3	-0.36929902
64	0x3d66e2be	0.056368582
65	0x3dd07e9b	0.10180398
66	0x3e0affb6	0.13574108
67	0x3dc0fa58	0.09422749
68	0xbef72598	-0.4827087
69	0x3e12dc76	0.14341912
70	0x3eeb6f33	0.45983276
71	0xbee91fe0	-0.4553213
72	0x3d269fce	0.040679745
73	0xbe26f0ca	-0.16302791
74	0xbea5dc6f	-0.3239474
75	0x3efe8143	0.49707994
76	0xbd4b74b9	-0.049671862
77	0x3dcbce63	0.099514745
78	0x3f1072bb	0.56425065
79	0x3aadd286	0.0013261593
80	0x3dcd9cd2	0.10039677
81	0xbd999e43	-0.07500889
82	0x3e9496dd	0.2902135
83	0x3f0782ad	0.5293377
84	0xbf19dcb7	-0.6010241
85	0xbe48d8b1	-0.19613911
86	0x3dfb608c	0.12274274
87	0x3def26d2	0.11677326
88	0xbdcf9f7d	-0.10137842
89	0x3e695a5a	0.22788373
90	0x3f478c96	0.7794889
91	0x3ed5c4b8	0.41751647
92	0xbde095c6	-0.10966067
93	0xbeb55a69	-0.3542054
94	0x3f19c2f4	0.600631
95	0xbef8bd2d	-0.4858183
96	0x3e45005a	0.19238415
97	0x3e6e25f7	0.2325667
98	0x3f21b96c	0.63173556
99	0xbe286439	-0.16444482
100	0xbd326b6f	-0.043559488
101	0x3f21e5f8	0.6324153
102	0x3e602a1e	0.21891066
103	0x3c8dbe78	0.017302737
104	0x3eddcfc4	0.43322575
105	0x3da71fc9	0.081603594
106	0x3b17a144	0.0023136893
107	0xbe999938	-0.2999971
108	0x3e8964b8	0.26834655
109	0xbe456ce5	-0.19279821
110	0x3cab4495	0.020906726
111	0x3e1a7e63	0.15087275
112	0xbc34f59a	-0.011044884
113	0xbceaf5e7	-0.028681708
114	0xbf597603	-0.84945697
115	0x3f4e0410	0.8047495
116	0x3e5b7fea	0.21435514
117	0x3e9cf2ba	0.30653936
118	0x3dc1ac87	0.09456735
119	0xbe5e81e2	-0.21729234
120	0x3ce0d02c	0.027443014
121	0x3ec8a173	0.39185676
122	0xbe579049	-0.21051134
123	0xbdf8c516	-0.12146966
124	0xbdc50bf6	-0.09621422
125	0x3d8120b9	0.063050695
126	0xbf38ff2d	-0.7226437
127	0xba82c365	-0.0009976445
128	0x3dc846be	0.09779118
129	0xbd3d8f1c	-0.046279058
130	0xbf14ae6b	-0.5807864
131	0xbda1f8ba	-0.07908769
132	0xbd15ab08	-0.03654006
133	0xbe35aa64	-0.1774078
134	0xbcd50c73	-0.026006913
135	0xbed3c38a	-0.41360122
136	0xbd8c7e76	-0.06860058
137	0xbe85dad1	-0.26143506
138	0x3df9d029	0.121979065
139	0x3ddcc742	0.10780193
140	0xbe7c8e39	-0.24663629
141	0xbe90435a	-0.28176385
142	0xbe727ed5	-0.23681195
143	0x3b1ca81f	0.002390392
144	0x3e97edfe	0.2967376
145	0xbefd0c87	-0.4942362
146	0xbf0f965a	-0.56088793
147	0xbf11569c	-0.5677278
148	0x3e44f447	0.1923381
149	0x3def7288	0.11691767
150	0xbe21f791	-0.15817095
151	0x3b7044ea	0.003666217
152	0xbe689659	-0.22713603
153	0x3eb96e5c	0.3621701
154	0x3dd7c861	0.10536266
155	0xbc412f0e	-0.011791004
156	0x3e78c5d0	0.2429421
157	0xbde6d090	-0.11270249
158	0x3ec089fd	0.37605277
159	0xbed83239	-0.42225817
160	0xbdeafec1	-0.11474372
161	0x3e1457d2	0.14486626
162	0xbd519cf4	-0.051175073
163	0xbd031bff	-0.03200912
164	0x3d23a760	0.039954543
165	0xbed9adfa	-0.42515546
166	0x3ce07693	0.02740029
167	0x3cd9d34c	0.026590012
168	0x3edd34cd	0.43204346
169	0x3e590544	0.21193415
170	0x3e9a12ce	0.30092472
171	0x3e492c4e	0.19645807
172	0x3e817fce	0.2529282
173	0x3f47d643	0.7806131
174	0xbc1a4610	-0.009416118
175	0x3e112ae1	0.14176513
176	0x3f24b62e	0.64340484
177	0x3e8ba1b8	0.2727182
178	0x3f24e915	0.64418155
179	0xbdb017d1	-0.085982926
180	0xbf27d5ae	-0.65560424
181	0x3ef1393a	0.47113973
182	0x3f08f1de	0.5349406
183	0xbe245262	-0.16047052
184	0x3669c011	3.4831503e-06
185	0x3ed56106	0.41675586
186	0xbe9ceacf	-0.30647895
187	0x3dfc28bd	0.12312458
188	0x3ebc72ad	0.3680624
189	0xbc8fd16f	-0.01755592
190	0x3ea6524e	0.32484668
191	0xbf178112	-0.5918132
192	0x3f348ce8	0.70527506
193	0xbdb4868a	-0.08814724
194	0xbd5f0faf	-0.054458316
195	0xbebf5d83	-0.3737603
196	0xbe22ff07	-0.15917598
197	0x3e61daf6	0.22056183
198	0xbb0e938b	-0.0021755423
199	0x3f70171a	0.9378525
200	0x3c3cebe0	0.011530846
201	0x3f697bba	0.91204417
202	0x3ec3b6be	0.3822536
203	0x3f40e00a	0.75341856
204	0xbfa656a7	-1.2995194
205	0x3f16991e	0.5882739
206	0xbb28a466	-0.0025732755
207	0x3e0d37a6	0.1379076
208	0xbeeb8ced	-0.46005955
209	0x3ecc6c86	0.39926547
210	0xbed37780	-0.4130211
211	0xbe605091	-0.21905734
212	0x3e528e5e	0.20562121
213	0x3b36eca0	0.0027912036
214	0x3ef8d5d2	0.48600632
215	0x3f168052	0.5878955
216	0x3ac6cfd7	0.0015168142
217	0xbe33ae27	-0.17546903
218	0x3e078a76	0.13236412
219	0xbec80954	-0.39069617
220	0x3e2e33d5	0.1701196
221	0x3c10f800	0.00884819
222	0xbed2b972	-0.4115711
223	0xba8a5c0b	-0.0010555995
224	0xbb1a8e8a	-0.0023583495
225	0xbf757693	-0.95884055
226	0x3d4eab42	0.050456293
227	0xbcca2e34	-0.024680234
228	0x3e1a2792	0.15054157
229	0xbea7d8bc	-0.32782543
230	0x3f06dc7d	0.5268019
231	0x3e9e0aa0	0.3086748
232	0x3f145000	0.5793457
233	0x3c0c08f9	0.008547061
234	0x3d59684e	0.05307799
235	0xbf4039cb	-0.75088185
236	0xbed79a57	-0.4210994
237	0xbf7fba23	-0.998934
238	0xbd99be84	-0.07507041
239	0xbed870b8	-0.42273498
240	0x3f0800f7	0.5312647
241	0xbd8cd350	-0.06876242
242	0x3e1e84f0	0.15480399
243	0x3e87bcdb	0.26511273
244	0x3dac3815	0.08409134
245	0x3d7846ff	0.060614582
246	0x3d9be13c	0.076113194
247	0x3dcb00f6	0.09912293
248	0xbe03c1f6	-0.12866959
249	0x3f220afd	0.63298017
250	0xbfbc03d1	-1.4688665
251	0x3e9d04d8	0.30667758
252	0x3e519987	0.20468722
253	0x3d396251	0.045259777
254	0xbeb55d43	-0.35422716
255	0x3ee791bc	0.45228374

net.2.0.bias f4 [6]
0	0xbd7b569b	-0.06136189
1	0xbdaf136f	-0.085486285
2	0xbdcd07b6	-0.10011236
3	0xbefa1204	-0.4884187
4	0xbea3fede	-0.32030386
5	0xbe96a6c7	-0.29424116
