suboptimal_policies/Walker2DPyBulletEnv-v0_big.pth (torch, 301079 bytes, 6 tensors)

net.0.0.weight f4 [256, 22]
00000000: f606 3a3d 89b1 892a 8f48 76bd 3cb0 7ebe
00000010: 1baa b9aa 1433 423d 1b9c 15ab fafa eabd
00000020: de7a b1bd bffa fa3d 4dcc 0c3f b4f7 f73c
00000030: e6e1 6e3d 2373 d23d 8dff 1ebe cfc3 75be
00000040: a680 90be 2810 9b3d 9879 023e 9924 cc3d
00000050: 0bb4 a93c 9553 f33d c1a3 653c 6ddc a1ab
00000060: 8bd7 6ebc 454e 15bd 196b c2a8 d526 ac3e
00000070: 7e99 a5ab 1d4a fb3c 2598 b7bc b964 28bd
00000080: c6ad 7dbe 4392 633e 8a0e aebc 4f81 a03e
00000090: ca09 2c3c dc65 d33d d167 ad3d abbf af3e
000000a0: 789d 253c 29b5 6ebe d0d9 1f3c f52c 1ebc
000000b0: 0bd1 3bbe 6365 c029 cadf 113e 1a36 e53e
000000c0: 03dd e32a b751 d4be 3cc5 052b 8d89 053f
000000d0: d7e9 e6bd 5ff3 94bd 42ac ddbe db3a 91be
000000e0: 9fc6 053b e224 81bc df9e d1bd ac46 9e3c
000000f0: 2e4f 98be 5fbc be3e cc2e cd3d 0282 44bd
00000100: abdb 81bc da52 98bd a914 613e d16e 99ab
00000110: 29dc 3abe 9b82 f4bc 7a78 b22a 6cc5 963e
00000120: 7fb5 7f2b c4a2 24bf a005 e73e e616 ddbd
00000130: 5a4c a63e 825e b93c fa51 4ebe cc13 b6bc
00000140: e5ce 46be 51b5 0c3c 93ab ddbd 5d69 713b
00000150: 9cca 0cbb c920 a0bd 436b f1bc e8f3 a2bd
00000160: 0354 efbc dd10 57ab b500 e7bc 385b 1bbe
00000170: 926f 29ab 48c8 debe fdc2 0e2b c28e 08bd
00000180: ed93 b83d bba0 603e 35aa a4b9 b1fd 023e
00000190: b600 46bd be66 51bd d8bb f53d e48c 36be
000001a0: f1f4 c0be 0942 b1be 440e b5bd 4f10 07be
000001b0: d6f9 81bc 61d3 f4bc 4681 ef3d 7cd6 7428
000001c0: ed44 bdbd 069b c6be 61ba 1a2a f8e7 c7be
000001d0: 1cc9 e028 d71c d4bd 9209 a83c ba33 783d
000001e0: a925 463e 3379 233f 7a90 083e de6b 13be
000001f0: 296a 0a3e c4d6 023e bbe0 c43e 5755 57bd
00000200: c579 14be 099d 233d d527 463c 9893 843b
00000210: 6ac4 fd3c 55af b7aa aa5b 95bb 25d3 143f
00000220: c6a7 49ab 63bc 443f a5b3 092b e8d8 8cbc
00000230: c49e bdbc c974 cfbd a216 063e 391a 023e
00000240: e65a 793d 8ff1 6ebd 1119 2dbe 250a f63d
00000250: adcd 3f3d b392 a73e d1ac e2bd 213e d1bd
00000260: 5041 21bc 171b 523d 1478 003e fcf0 742a
00000270: 3b53 80bd a059 4d3e 2e3d d32a b4ed ee3d
00000280: c571 cf28 a84f c93c ae19 883e ee12 153e
00000290: 7fa8 f0bd 53a0 593c aa8e 0b3e fb3e 353c
000002a0: 097d 7abe b480 fcbd b32c cd3d ad42 90bd
000002b0: a5f3 6bbd 6615 bebd 487d 003d 8b07 05bc
000002c0: 9fa2 313e c0a8 95ab 35a6 6dbe e9a5 a4be
000002d0: 86c1 532b f600 a23c d666 6f2a 917e aabe
000002e0: ca9e 363e 542a e83e 5852 e2bd 2341 b83e
000002f0: 4a94 f2bc d730 7c3c fd8d cb3d b33e fbbe
00000300: ea40 813e 3406 6fbe e58f a53d 50a6 dcbc
00000310: 060b 163e da9a dbbc 190d 16bd c7cf 92ab
00000320: 9490 07bd 32f1 01bf 5d6b 89ab 7958 433d
00000330: f94e 8bab f2fe 6bbd b06a 35bc 9d85 81be
00000340: f6ac 48be db14 403d 6fbd 883d 6974 4c3d
00000350: 4121 e1bb a455 70be 560f 25be 20c2 4c3d
00000360: 456b 4fbc e3ad 41be abfc 37bc d444 4d3d
00000370: 035d 8b3e d904 17ab 02f2 0d3e 84d4 a03e
00000380: 1dd9 3c2b 6264 483e c80b f829 83a8 f93e
00000390: 1110 a43d fd69 ac3e 0e36 f43d 1334 8e3d
000003a0: 588e 6a3c a401 d13c 418e d0bd 7493 a6be
000003b0: a510 a2bd 44d0 a6bd b626 36bd fdb4 41bd
000003c0: edc4 533e 3dfc 32bd e6dc d0bd 6feb 1aab
000003d0: d31e 01bd 68a7 79bb 37de 66ab d5b7 a6be
000003e0: aa0a e32a e2ec f7bd 9bad 3cbe b14d 2f3e
000003f0: 40bc 143e f912 16bf 6dd0 efbd 6635 04bf
0.045416795 2.4459278e-13 -0.06012779 -0.24871916 -3.2980636e-13 0.047411993 -5.3152074e-13 -0.11473651
-0.08666013 0.12254857 0.5499924 0.030269481 0.058320902 0.10275867 -0.15527172 -0.24000476
-0.2822315 0.07571441 0.12741697 0.09967918 0.020715734 0.118811764 0.014016093 -1.1500918e-12
-0.014577757 -0.036451597 -2.1584773e-14 0.33623376 -1.1766558e-12 0.030674988 -0.022411415 -0.04111168
-0.2477332 0.22223763 -0.021247167 0.31348655 0.010500381 0.103221625 0.08467067 0.3432592
0.010108344 -0.23311295 0.00975652 -0.009654273 -0.18341462 8.5441006e-14 0.14245525 0.4476784
4.0476658e-13 -0.41468593 4.752481e-13 0.5216301 -0.1127507 -0.07272982 -0.43295485 -0.28365216
0.0020412577 -0.015764657 -0.102353804 0.019320808 -0.2974791 0.3725309 0.100186914 -0.047975548
-0.015851816 -0.07437678 0.21980537 -1.0902062e-12 -0.18248047 -0.029847434 3.170275e-13 0.29447496
9.0846075e-13 -0.6431086 0.4512148 -0.10795383 0.32480127 0.022628073 -0.20148459 -0.022226237
-0.19414862 0.008588151 -0.10823741 0.0036836483 -0.002148307 -0.07818753 -0.029470092 -0.07956678
-0.029214865 -7.6406747e-13 -0.02819858 -0.15171516 -6.0195696e-13 -0.43512177 5.0719135e-13 -0.03333927
0.090125896 0.21936314 -0.00031407332 0.12792088 -0.04834052 -0.051123373 0.11998719 -0.17827183
-0.37686875 -0.34620693 -0.088406116 -0.13189815 -0.015866201 -0.02988595 0.11694579 1.359123e-14
-0.09241662 -0.38790148 1.3742611e-13 -0.39044166 2.4956213e-14 -0.10357063 0.020512376 0.060596205
0.19350304 0.6385681 0.13336363 -0.14396617 0.1351706 0.12777239 0.38452706 -0.05257162
-0.14499576 0.039944682 0.012094458 0.004045915 0.030977447 -3.262899e-13 -0.0045580463 0.5813468
-7.164238e-13 0.76849955 4.8921484e-13 -0.017193273 -0.023146994 -0.10129697 0.13094571 0.12705316
0.060877703 -0.058335837 -0.16904093 0.12013654 0.046827007 0.3272911 -0.11068118 -0.10216928
-0.009842232 0.051295366 0.12545806 2.1755162e-13 -0.06265875 0.2005372 3.752358e-13 0.11666432
2.3030956e-14 0.024574116 0.26582092 0.14558002 -0.11750888 0.013282853 0.13628641 0.011062379
-0.2446176 -0.12329236 0.10018291 -0.070439674 -0.057605404 -0.09281425 0.031369478 -0.008119474
0.17347191 -1.0633924e-12 -0.23207934 -0.3215783 7.5230826e-13 0.019775849 2.1263143e-13 -0.33299688
0.1783401 0.45344794 -0.11050862 0.35987195 -0.029611725 0.015392504 0.099391915 -0.49071273
0.25244838 -0.2334221 0.08084086 -0.026934773 0.14652643 -0.026807237 -0.036633585 -1.0431594e-12
-0.033096865 -0.5075866 -9.764235e-13 0.047691796 -9.898463e-13 -0.05761618 -0.0110728 -0.2529725
-0.1959723 0.04689489 0.066767566 0.049915705 -0.0068704193 -0.2347017 -0.16119131 0.04998982
-0.012659852 -0.18913989 -0.011229674 0.050114468 0.272194 -5.3652704e-13 0.1386185 0.31412137
6.709232e-13 0.19569543 1.1015456e-13 0.48761377 0.08010877 0.33674613 0.119243726 0.06943526
0.014316164 0.025513478 -0.10183383 -0.32534373 -0.07913331 -0.08145192 -0.04447051 -0.047291745
0.2068059 -0.043697584 -0.10198383 -5.503852e-13 -0.031523537 -0.0038094167 -8.20208e-13 -0.32562128
4.03307e-13 -0.12105729 -0.184256 0.1711948 0.14524937 -0.586227 -0.11709676 -0.5164398

net.0.0.bias f4 [256]
00000000: 8d48 76bd 41d7 6ebc 26dc 113e 7fdc 3abe
00000010: 2af5 e6bc 1645 bdbd dc63 95bb 5d54 80bd
00000020: 26a6 6dbe d290 07bd 20f2 0d3e b61e 01bd
00000030: 40e7 59bd 864f 31bd a60b a53c b210 0abc
00000040: ef47 aa3b 845b 393e 9368 2ebe 0158 eebc
00000050: 3a7f 0dbe bedc 2fbd f73a 46bd ef00 f9bc
00000060: e0e1 943d a7fc 51bd 6f27 363d 6210 21bc
00000070: a287 a3bd d997 21bd eeaf 36bd 4c5a dabd
00000080: ffb8 05be 0d73 09be fd5f c7bc 0fab 7dbc
00000090: 0f89 cbbd 58d5 34bc 2622 f6bc cbf2 77bd
000000a0: 0efb 453d f76f 49bd 585f 87bd c02a fdbd
000000b0: e6d8 e8bd d46b 5b3d 5970 05bb 7901 b1bd
000000c0: f48e 063d 21f6 12bd 5c63 9abc ccfd eb3d
000000d0: 234e 49bd 03e9 e93c 18bf c23c 51f3 54bd
000000e0: 5f43 75bd 89af 17bd 3821 26bc 0445 eabc
000000f0: 886f 18bd c9e0 ffbd 5273 863e eb66 c2bd
00000100: 2b36 b3bc 9499 81bd f76b c9bc 1a7f 9b3d
00000110: 2a62 21bc 769c 263c 5251 bebd ec5d 86bd
00000120: 8e82 2dbe 20c9 2b3d e862 173c c890 6fbd
00000130: d72c 663c d4d0 e8bd 382d 4abc 710a a23d
00000140: b101 06be 63ec e7bc 124a 34bd 98d9 82bb
00000150: 3c24 16bc b87d 15be 789e ecbc be1a d53c
00000160: aae4 35bd 0b11 8a3c da2b 0d3e 930f b4bd
00000170: 351b 86bb 8d9c b3bd 92f4 d8bc 7424 c5bd
00000180: fde8 bbbd 6624 de3c a14e 33bd 72bf 903c
00000190: c3ad 27bd 0766 a4bd d19f 41bd 0579 80bc
000001a0: 4d43 0a3d 24b2 8b3d 787f f43c 8739 903c
000001b0: 7c3b 9cbd febf 35bd aadd 073e ed12 8b3d
000001c0: 52b2 80bd a96d 1ebc 3e2a 2bbd f50c eabd
000001d0: 2362 083d 5d68 ccbb 2d31 02bd 8dd8 b7bd
000001e0: 88fa d7bc 1ef2 11bd 8122 0c3e 5137 7d3d
000001f0: 096f 8bbd afd2 a23d 518a 93bc 5c6a 18bd
00000200: 540c 90bd c951 43be 3b38 41bd c8c5 ffbd
00000210: fac2 b2bd b159 0c3d 7860 52bd 0ad6 44bc
00000220: b6e9 44bc 0ac3 aaba 3f75 2ebc 28b3 8f3d
00000230: c45d 49bd 644e 88bc 8ff5 21bd 9cc2 04bd
00000240: 4822 5f3d 325c 0e3d a198 063b f319 5fbc
00000250: f2c7 4cbe cbdc a43d 927c 86bd d765 103c
00000260: 08ed cabd 3a3a a6bb 8949 243b d049 06bc
00000270: 44af 763b b42e 58be 5d45 46bd 7129 9fbd
00000280: ffd4 b83d 325f 62bc c08d 533d ada7 7a3c
00000290: 4937 843e a4b7 f2bb ce0d d8bb f80f f83d
000002a0: 7d6a c1bd 065e c1bc 7f22 dcbc f3bc 28bd
000002b0: d8bb 1a3e 9326 cbbd 2df3 e03b 8dca e5bc
000002c0: c1ed a3bc 6d2c 8ebc f5c5 c33c 54ed 4e3d
000002d0: bb43 813c 96bd 04be 2549 13bc 011b cbbc
000002e0: 2496 3c3d 6ba0 dabd 8008 2c3e 1eae 36be
000002f0: 79ae 703a 999b 51bd d7e4 08be 8a7a 9dbd
00000300: 72dd efbc 5475 a4bc 9119 a3bb 726c 2dbd
00000310: 4645 dbbd 109c 46bd c0f7 a6bd 9b60 c7bd
00000320: dc77 c3bc f204 6abd 7f2b dcbc 596b a23e
00000330: c2fe a6bd f297 74bd 2fd4 8cbd 2218 ea3b
00000340: d347 f3bc 73bf cb38 7c6f 07bc 991a cbbd
00000350: e3c7 51bd d42f f3bc 0d1b 023c fc33 92bc
00000360: 2eb3 0bbe 6d92 93bd d990 5ebd c0d4 bfbc
00000370: 394e 83bd 3ff2 5bbd 787e 98bc 9995 033e
00000380: 5508 38bd 888b 98bd ff84 91bd d9a2 12bd
00000390: e268 803c 406e aabc c366 2bbc da60 8ebd
000003a0: eaf6 e8bd ce70 4ebd 5d8e 87bd a388 89bd
000003b0: 2817 683d b273 63be f0c2 26bd a8ca e6bc
000003c0: 7bf9 bdbd 66d3 37bc 61d4 c1bd 691c 12bd
000003d0: a8c4 7abd ae12 91bd 82b1 b9bb 59bc 71bd
000003e0: 0bf3 bfbc cd63 56bd e7d4 113d 2573 bebc
000003f0: 97e5 5dbe 7231 33bd 40b4 2fbc cb33 bbbc
-0.060127784 -0.014577688 0.14244136 -0.18248175 -0.028193075 -0.09241693 -0.0045590233 -0.06266091
-0.23207912 -0.033097096 0.13861895 -0.03152343 -0.053199053 -0.04328873 0.020147156 -0.008426832
0.0051965634 0.18101317 -0.1703208 -0.029094698 -0.13818064 -0.042935126 -0.048396077 -0.030395953
0.07269645 -0.05126634 0.0444712 -0.009830566 -0.07984854 -0.039451454 -0.044601373 -0.10661754
-0.13058852 -0.13422795 -0.024337763 -0.015482678 -0.09938251 -0.011037193 -0.03004558 -0.06053428
0.048335128 -0.049179044 -0.06609982 -0.123616695 -0.11369495 0.05356963 -0.0020361154 -0.08642859
0.032851174 -0.035879258 -0.018846206 0.11523017 -0.049146783 0.028553491 0.023772761 -0.051989857
-0.059878703 -0.037032638 -0.010139756 -0.028597362 -0.03721574 -0.12494046 0.26259857 -0.09492286
-0.021876415 -0.06328121 -0.024587614 0.07592602 -0.009850064 0.010169139 -0.09292854 -0.06560883
-0.16944334 0.041939855 0.00923989 -0.058487684 0.014048777 -0.11367956 -0.012339883 0.07912148
-0.13086583 -0.02831096 -0.04401595 -0.0039932244 -0.009163912 -0.14598739 -0.028884158 0.026013728
-0.044407524 0.01685383 0.1378626 -0.08792033 -0.004092599 -0.08770094 -0.026483808 -0.096260935
-0.09175298 0.027116966 -0.04377616 0.017669413 -0.040937196 -0.08027273 -0.047271553 -0.015682707
0.03375559 0.06821087 0.029845938 0.017605556 -0.07628533 -0.04437255 0.13268152 0.06790719
-0.06284012 -0.0096697 -0.041788332 -0.114282526 0.033296715 -0.006238027 -0.03178518 -0.08976851
-0.02636458 -0.03563129 0.13685037 0.061820332 -0.06808288 0.07950341 -0.01801029 -0.037210807
-0.070336014 -0.19074167 -0.047172766 -0.12488896 -0.08728595 0.034265224 -0.05136153 -0.0120139215
-0.012018612 -0.0013028097 -0.010648071 0.07016593 -0.049161687 -0.016638942 -0.039540824 -0.032412156
0.054476053 0.034755893 0.0020537751 -0.013617027 -0.19998148 0.080499254 -0.06566729 0.008813343
-0.099084914 -0.005072859 0.0025068244 -0.008196309 0.0037641088 -0.21111566 -0.048405994 -0.07771576
0.09025001 -0.013816642 0.051648855 0.015298766 0.2582343 -0.0074071456 -0.0065934425 0.12112421
-0.09444139 -0.023604404 -0.026871918 -0.04119582 0.15110719 -0.09919467 0.0068649263 -0.028050685
-0.02001083 -0.017355168 0.023898104 0.050519302 0.015779367 -0.12962946 -0.008989607 -0.02479315
0.046041623 -0.106751285 0.16800117 -0.17839858 0.0009181272 -0.05117378 -0.13368545 -0.07689388
-0.029280398 -0.020075478 -0.004977413 -0.04233975 -0.10706572 -0.048488677 -0.08152723 -0.09735223
-0.023860864 -0.057133622 -0.02687621 0.31722525 -0.0815406 -0.05971522 -0.06876408 0.00714399
-0.029697334 9.7154545e-05 -0.008266326 -0.099171825 -0.051216017 -0.029685892 0.00794102 -0.017847054
-0.1364257 -0.07205663 -0.054337356 -0.023416877 -0.06411404 -0.05369782 -0.018614992 0.12850036
-0.04492982 -0.074484885 -0.07105445 -0.035799835 0.015675012 -0.020804524 -0.010461512 -0.06952067
-0.1137522 -0.050400548 -0.066189505 -0.067155145 0.05666271 -0.22212103 -0.04071325 -0.028172806
-0.092761 -0.011219835 -0.09464336 -0.035671625 -0.061222702 -0.07083641 -0.0056669125 -0.059017513
-0.023431322 -0.05234127 0.03560343 -0.023248265 -0.21669613 -0.043748327 -0.010724127 -0.022851845

net.1.0.weight f4 [256, 256]
00000000: 8bca 043c 870b f9bc e79d 2bbe aa4b 80bd
00000010: 5102 5f3c bae0 47bd a6f5 94bc 0d48 7abc
00000020: a15d ba3a d624 85bc ec27 243c 3177 ef3c
00000030: 4fde 0ebe 93d9 92bc f1db 10be e061 073d
00000040: e224 9a3d afa9 57be b5ba 0c3d dfb2 82bc
00000050: d822 02be 651f 503c 3871 09bd a066 bebc
00000060: 3821 1abe a114 c43c dabb 36be c67d 3a3c
00000070: dd32 d5bc ecfc bdbd df2e 263b 5fa5 bdbd
00000080: 360e b5bc 5cc8 853d 948f c1bc 2e5e 63bc
00000090: c393 88bb 281f 44bb ffb3 eb3c 411e 883c
000000a0: 3b90 41bd 3139 eebc 83ee 65bd 1aa8 863c
000000b0: 19ae e53d dd28 15be ee4c e93d 52d5 06bd
000000c0: d0ff ffbb 8136 b6bd 8afc 72bc 20a4 81bb
000000d0: 5d56 ca3c 62f2 23bd 58bd 5cbe a637 143d
000000e0: 465a da3c 7597 f2bc 6193 87bd 9dbb e53c
000000f0: 290b 67bd 5016 653e d2e2 e9bd f663 473e
00000100: d7a1 333d 6e73 c13d e4f9 37bc 48b9 11be
00000110: 0508 5b3d 50f6 4fbd 7f4e d73c 2763 07bd
00000120: 4d4e a53c 427d a4bd c11e efbd 7f2f a6bc
00000130: 7585 bdbe 7cf9 b73b 74ce cfbd 4caa 2bbd
00000140: 797b b93d dc08 3c3b 68d2 e7bc 4750 8cbe
00000150: e69c be3d 071d 943d b183 a9bb c8c1 6f3c
00000160: a0b8 be3b c7d0 dbbc 57b6 93bd 226a 483d
00000170: a0fa cb3b 2510 d13d e910 5dbd 2791 4d3d
00000180: 62bb 95bc e69d 92be 023e d9bb a628 90bd
00000190: 9241 8dbb 782a 323c 1fd5 c53d b814 29bc
000001a0: befb 3fbc 33fd f6bc 1117 b3bd c72f 02bd
000001b0: 340c 8abd 8b83 fa3b cc7b 0bbe 110c b0bd
000001c0: d4ce aebc f132 6bbc f2c5 ab3c d427 81bd
000001d0: 605f 0bbe 4d7c f6bd f4bb 5abd dbc7 97bd
000001e0: daa6 f7bb 5c71 2abd d8f5 81bc 9bec 18be
000001f0: 7dc1 883c e964 9abd 17b2 8a3a 3582 6ebd
00000200: 922b 56bc 8396 723d 32b7 823c 5876 f73d
00000210: 534f 2cbc 4003 12bd 6e0a 433d 26a9 1cbd
00000220: 7a95 c73c b68f 1fbd 6975 afbc 0e0d 1abd
00000230: f9a0 bc3c b594 63bc 9a86 60bc e7b9 3b3c
00000240: 5742 4fbd e523 bdbd 92e6 b6bd 6ef7 50be
00000250: a661 153e 2bbd 2dbd 8918 13bd af9d 883c
00000260: 70f8 babd 2ebe 833c 6042 64bd 8bb6 ad3c
00000270: 64d9 14bc d76b 033e 12b8 05bd 6f0d 82bb
00000280: 45c8 5ebd a651 9cbc 315e 073c 8e47 05bd
00000290: bdb5 3abc 4889 0bbc aa44 a1bc 15c9 3cbd
000002a0: a798 cebc b243 57bd fe6b 373c e43b 0e3e
000002b0: 30bc 383d ee49 f5bc e893 54bd 3d25 1dbd
000002c0: aee3 ff3c 9e59 5fbd 9109 853d 67e8 81bd
000002d0: 8ae8 9cbc f45d e33d 0841 8dbd 1956 f0bc
000002e0: 27cc 7cbd 6c29 5d3c da6e 44be 0e33 0ebd
000002f0: ce30 a9bc 145d 3f3c 6a3b a03d 3cdf 06bd
00000300: 077a 2f3c 8f69 b0bc dcb1 da3c 77b9 72bc
00000310: d596 0d3e 9658 7fbb cbed e03c bbf6 4ebc
00000320: 2d50 30bc c2b1 85bd 5d3c 8ebc 8abd 1bbe
00000330: 5742 273b d756 b5ba 0493 763b c4b8 1f3c
00000340: 0b4c 80bd 93b8 0bbd aa93 90bc aa40 d0bb
00000350: 09ee 16bd babc 453d a909 02be da3c 1ebd
00000360: 3d74 133d aa4b 58bd a255 25ba 92a7 9a3d
00000370: c951 18bb a177 fcbc ec67 9fbb f962 d2bd
00000380: 94ff 88bc 6acb 583b e0b0 cabb cf63 aabc
00000390: 02ae c33d 9cc6 813d 32bd 86bd f16b b1bc
000003a0: 6b82 203d 16e4 e1bc d1b3 f4bc 94de d53c
000003b0: 4523 773d f5f4 903e ca4e 09bd 0479 66bd
000003c0: cacc 063c 96d1 9939 5c07 ae3d a627 cd3b
000003d0: 620f e53d a661 c2be 9105 73bd 6d2d 18bd
000003e0: 7637 d93b d12f c2bc a1dd 4b3c e60d 10be
000003f0: a720 0f3e 28b6 e3bc 23e1 b3bb b463 1cbc
0.008104931 -0.030401004 -0.16759454 -0.06264432 0.013611392 -0.0487983 -0.01818354 -0.015275967
0.0014218577 -0.016252916 0.010019284 0.02923164 -0.13951991 -0.017926013 -0.14146401 0.033052325
0.07526566 -0.21060823 0.034357745 -0.015954433 -0.12708604 0.012702798 -0.03355524 -0.023242295
-0.15051734 0.023935618 -0.17845097 0.011382526 -0.02602523 -0.09276757 0.0025357527 -0.09260058
-0.022101503 0.06532356 -0.023628034 -0.013877435 -0.004168005 -0.0029925797 0.028772352 0.016615989
-0.04725669 -0.029080005 -0.056135666 0.016437579 0.11214847 -0.1456637 0.11391626 -0.03291828
-0.0078124776 -0.088971145 -0.014830718 -0.003956333 0.024699384 -0.040026076 -0.21556604 0.036185883
0.026654374 -0.029613236 -0.06619907 0.028043563 -0.056407128 0.22371793 -0.11420216 0.19471726
0.043855514 0.094458446 -0.011229012 -0.14230835 0.053474445 -0.05077201 0.026282547 -0.033053543
0.020178938 -0.080317035 -0.11675788 -0.02028632 -0.37015882 0.0056144577 -0.101468 -0.041910455
0.09056754 0.0028691804 -0.028298572 -0.27404997 0.0930727 0.07232099 -0.0051731695 0.014633603
0.005820349 -0.026832951 -0.07212513 0.04892934 0.006224945 0.102081574 -0.053971205 0.050187256
-0.018277828 -0.28636092 -0.0066297064 -0.07039003 -0.004310795 0.010874383 0.0965979 -0.010319881
-0.011717735 -0.030150032 -0.08744634 -0.031783845 -0.06740609 0.0076450757 -0.13621444 -0.085960515
-0.021338858 -0.014355407 0.020968411 -0.06306425 -0.13610601 -0.12035427 -0.053401902 -0.07411166
-0.007557732 -0.041612014 -0.015864298 -0.14934008 0.016693825 -0.07538778 0.0010581639 -0.058229644
-0.013071911 0.05922557 0.015956495 0.12083119 -0.010516959 -0.03564763 0.04761737 -0.03824725
0.024363268 -0.038955413 -0.02141829 -0.037610106 0.023025976 -0.013890435 -0.0137039665 0.011457897
-0.050600376 -0.09235362 -0.089306965 -0.20406887 0.14588031 -0.042416733 -0.03591207 0.016676752
-0.09129417 0.016081896 -0.055727363 0.021205207 -0.009085033 0.12834106 -0.032646246 -0.0039688866
-0.05439021 -0.019081902 0.008262203 -0.032538943 -0.011395869 -0.008516617 -0.019686062 -0.046090204
-0.025219275 -0.052554794 0.011195181 0.13890034 0.045101345 -0.029942479 -0.051898867 -0.03836559
0.031236496 -0.054528825 0.06495965 -0.06343155 -0.019153852 0.111019045 -0.06897169 -0.02933793
-0.061718132 0.013498645 -0.19182912 -0.03471666 -0.020653155 0.011679906 0.07823832 -0.032927737
0.010710246 -0.02153471 0.026696138 -0.014814726 0.13827069 -0.0038962713 0.027457139 -0.012632067
-0.010761303 -0.06528045 -0.017362768 -0.15209022 0.002552172 -0.0013835084 0.003762425 0.009748641
-0.06264504 -0.03411157 -0.017648537 -0.006355365 -0.0368481 0.048275687 -0.12698998 -0.03863225
0.035999525 -0.052806534 -0.0006307011 0.07551493 -0.0023242107 -0.030818762 -0.0048646834 -0.10272784
-0.016723432 0.0033080229 -0.006185636 -0.020799546 0.09554674 0.0633671 -0.06579055 -0.021657916
0.039186876 -0.02757458 -0.0298709 0.02610711 0.06033637 0.28311887 -0.033522405 -0.056267753
0.008227536 0.00029338588 0.084974974 0.00626083 0.11184575 -0.37965125 -0.05933148 -0.037152696
0.006628926 -0.023704441 0.012442977 -0.14067802 0.139773 -0.02779682 -0.005489485 -0.009545255

net.1.0.bias f4 [256]
00000000: 3b21 123d a80e d23e 5783 46bc 715c 4e3d
00000010: 74f2 313d 566a 21be 506a 24be 8093 943e
00000020: 0369 30bd d2db 183c f1c5 53bc 617f 153e
00000030: c13d 99bd f8ff aabd 3545 0d3d 46b7 373d
00000040: edba 6abc d635 0b3c e6f9 4e3d 404e 4a3e
00000050: 3931 83be 3a78 99bd 59f9 8abd d1f2 8cbc
00000060: 28ea 253d 9388 813b c0d4 b33d bde8 eabc
00000070: 7104 493c e671 48be b8a1 5e3d 04f4 f83d
00000080: 3464 2b3d 757b e73c fbea cfbe e580 5ab9
00000090: 9d16 093e 341a 9c3d 0b10 953c 62d4 3f3d
000000a0: bc7e 043d a332 6cbe 6b71 d7bb 0298 16bd
000000b0: b9ed 8b3d 84ef 1f3e 1263 04be 6d68 753e
000000c0: b5e2 64bd c5f3 9abc cad0 e43c c767 ee3b
000000d0: a7a5 efbc 51ec 373c e2c6 e73c ea27 a33d
000000e0: d707 4e3e 7822 4f3d 5092 73bc 356f 1f3d
000000f0: 2da7 34bc 7894 833c f8f0 1d3d 29a1 afbc
00000100: 3410 6dbd 6601 1138 086d 033e 4dbb 863d
00000110: eb5e 9bbc 6669 5a3c 8871 883c 2b77 b6bb
00000120: d634 eb3b 9105 b43d 2674 4bbe c429 093d
00000130: 15af 31be 786a c53d 051f 8b3d b880 debb
00000140: f058 143e 6456 f33c 48f8 043e c798 833d
00000150: 0a60 f43d ff1a c8bc 4fdc 233e fa06 5a3d
00000160: 5f39 843d 125a c73c 714b 97be b441 a6bb
00000170: 50fe 853d b10f 46bd 9a06 56bd 05a4 15be
00000180: b327 d13d d55e eabb 6fc5 53be 0575 08bd
00000190: 6438 b53c 1e80 75bd 9b3e 27be 401b 9fbd
000001a0: 48d5 98bd 1fe5 1e3e ec5a fdb9 331d d13c
000001b0: e152 693d c63e 323d 6976 b53d b520 a2bb
000001c0: 14b0 e5bc 4804 44be 3b32 88be 228a bdbc
000001d0: 82c3 7f3c 7181 c63d 82fd 553d e8a0 b5bd
000001e0: fba1 0f3d 470f 5b3c d1a5 e83c d72e 99bc
000001f0: 9935 ee3d 91e8 ae3d 8907 272f da91 e93d
00000200: 5aa6 543d 883e b9bc 75e6 843d 668f 8d3c
00000210: 964f 833d 0837 0f3e 154f 423d 97e8 93bd
00000220: 20e3 243b 9700 c1bd ece2 f13c 8c0f 223d
00000230: 02d9 693b 6708 e23c a378 1a3d 95d6 be3d
00000240: 8afe 11be d028 2dbe ce5f aebd 9809 95bd
00000250: 32be b6bd 3252 68be 0230 afbd 4412 1fbd
00000260: 272a e53d 73e3 323e 9f2b 42bd b39c 0e3d
00000270: 175b c0bc 5e44 6a3c b1a0 28be 707f 313c
00000280: db7e 56bd a508 c03c e76a 8dbc 28cd 233d
00000290: 219c ea3d d1a0 52bd 1d4b 7d3d 3625 c6bd
000002a0: ffb3 c53d dda3 4ebc 3fb8 113d 8fd0 10bd
000002b0: 1686 95be 7f39 5b3b 2e58 8cbd 4c11 b13b
000002c0: 3dd1 c6bd 4cfe ec3d 6f36 f53c 5a9c 8c3d
000002d0: 635c 443d b587 4dbe 109b c0bb ce02 a7bb
000002e0: 906b 803d f2ad 8abd 2716 203c e6f8 86be
000002f0: bb9d efbb f103 cd3d b3eb 8fbd b599 32be
00000300: 645e 21be 20ae 363d 2394 5fbe 79b6 e5bc
00000310: 40ed 0a3c d2fe 953d 8503 dcbd a760 8a3d
00000320: 72a7 b539 214e b93d 1587 88bd 9ff8 023c
00000330: 45e3 743d f490 903d 7323 473d b0cc 4ebd
00000340: d9fd 803c 2ecf f43c ca44 4a3d f35e 913d
00000350: 05fb d83d 1db2 793d 65f6 313d 7328 303d
00000360: 93f5 99bd ad41 603d 0193 6fbe 0e3d 4c3d
00000370: 10ed 293d 85c2 033e 9327 be3c 1187 f5bc
00000380: de08 c13d 7a07 01bc f1f0 acbb 5924 d13d
00000390: 5a2b a239 9f62 73ac dd57 a5bc e77b 2a3d
000003a0: 2ba5 90bd 9546 803d 6046 843c 5fce f43d
000003b0: 0ccd 033d d571 4cbc e36a c7bd 6043 103d
000003c0: b2b2 853d cf8e 50bd 9cb2 fb3c bcbb adbc
000003d0: f96b 003e ea32 febd fab6 473d ff93 e93c
000003e0: 891f 0f3e ef15 2abe 4694 51be 1ed4 9bbc
000003f0: 5580 313d 6b89 70bd a95e 563d 2d85 aebd
0.035676222 0.41026807 -0.012116275 0.050381128 0.043444112 -0.1576322 -0.1605618 0.29018784
-0.043068897 0.009329753 -0.012925611 0.14599372 -0.07482482 -0.083496034 0.03448983 0.044852518
-0.014326793 0.008496722 0.05053129 0.19756413 -0.2562349 -0.074936345 -0.067858405 -0.017205628
0.040506512 0.0039530485 0.08780813 -0.028675431 0.012269125 -0.19574699 0.054353446 0.12155917
0.041843608 0.028257111 -0.40608963 -0.00020838117 0.13387533 0.07622185 0.018196126 0.046833403
0.032347426 -0.23066191 -0.0065748 -0.03676606 0.068324514 0.15618712 -0.12928417 0.23965617
-0.055880267 -0.018915066 0.02793159 0.007275555 -0.029253794 0.011225776 0.028293077 0.079665974
0.20120178 0.05056998 -0.014866427 0.038924415 -0.011026186 0.016062006 0.038559884 -0.021439152
-0.05787678 3.4571996e-05 0.12834561 0.065786935 -0.018966159 0.013330793 0.016655698 -0.005568405
0.0071779294 0.08790124 -0.19868526 0.033487096 -0.17351945 0.09639448 0.06793026 -0.006790247
0.14487052 0.02970428 0.12985337 0.06425624 0.119323805 -0.024426935 0.1600201 0.05322931
0.06456255 0.024334941 -0.29549745 -0.0050737504 0.06542647 -0.04835481 -0.05225239 -0.1461335
0.1021265 -0.007152418 -0.20680784 -0.033314724 0.022121616 -0.059936635 -0.16332476 -0.077688694
-0.07462555 0.1551709 -0.00048323662 0.025526619 0.056963805 0.043516897 0.088604756 -0.0049477466
-0.028038062 -0.19142258 -0.26600823 -0.023137156 0.015610578 0.09692658 0.052243717 -0.08868581
0.035066586 0.013370342 0.02839938 -0.018699093 0.11631317 0.08540452 1.5191239e-10 0.11404772
0.051916458 -0.022612825 0.06489269 0.017280292 0.06411664 0.13985837 0.0474387 -0.07222097
0.002515979 -0.09423941 0.02952715 0.039565608 0.0035682325 0.027591897 0.037712704 0.09318272
-0.14257255 -0.169101 -0.08514367 -0.072772205 -0.089229956 -0.22687605 -0.08554079 -0.03883578
0.111896805 0.17469577 -0.04740488 0.03481741 -0.023480935 0.014298527 -0.16467549 0.010833606
-0.052367073 0.023441622 -0.01726289 0.039990574 0.114555605 -0.051422898 0.06183921 -0.09675066
0.09653472 -0.01261231 0.0355761 -0.035355147 -0.29203862 0.0033451018 -0.068527564 0.0054036733
-0.09707878 0.11571941 0.029933183 0.06865759 0.04793967 -0.200713 -0.00587786 -0.00509677
0.06270516 -0.06771459 0.0097709065 -0.2636177 -0.007312504 0.100105174 -0.07027378 -0.17441447
-0.15758663 0.044599652 -0.21833853 -0.028041111 0.008479416 0.07323994 -0.10742859 0.06756716
0.00034647767 0.09048105 -0.0666639 0.007993846 0.059787054 0.070588976 0.04861779 -0.050488174
0.015746044 0.029883947 0.04938201 0.07098188 0.10594753 0.060960878 0.04344787 0.043007325
-0.07517543 0.054750133 -0.23395921 0.049862914 0.041485846 0.12867172 0.02321223 -0.029971631
0.094255194 -0.007875318 -0.005277746 0.10212011 0.00030931347 -3.4587123e-12 -0.020183498 0.04162207
-0.07062753 0.062634625 0.016146839 0.11953425 0.03217797 -0.012478312 -0.09737184 0.035220504
0.06528224 -0.050917443 0.030724816 -0.021207683 0.12541188 -0.12412055 0.048758484 0.028512953
0.13976873 -0.1660993 -0.20466718 -0.019022044 0.043335278 -0.058724802 0.05233637 -0.08521495

net.2.0.weight f4 [12, 256]
00000000: 00c5 c3bd b405 b33d f987 a13d 6fb2 2fbf
00000010: 4f2c 7abd 1937 86bc 70b3 2c3d a1ee a0bc
00000020: cc4a aa3c c269 6e3d 2140 903e 48ef 3e3c
00000030: 9a1c 23bd 3eb6 a3bc 455d 16bf d2b1 d93c
00000040: f699 ac3d b76d 193d e419 943c b773 9f3e
00000050: 3f1d 16be 6ef8 f3bd 0038 e33d d444 393c
00000060: 8508 4e3c 4a78 383e 9bd0 2cbd 8504 883e
00000070: b45e 95bc e35e 863d a392 b23e 3e2e 023e
00000080: f9c6 18be 776e 1e3e 6577 abbc 61ab 173c
00000090: f540 f23c e270 2cbe 5677 d63c 1b78 843d
000000a0: 7fef 85bc d1e1 45bd 54ab 6abe e24d 63ba
000000b0: db93 0ebd 6c68 5b3f a60b 9bbd bdad 19be
000000c0: bd1a b03d 2de8 8f3d d07a 6d3d c213 9a3d
000000d0: 0097 34be 6a54 f53e 8b34 41bd 2ca1 2b3e
000000e0: 8299 08be c8d8 ce3d 84e3 0dbd e7eb b63d
000000f0: ae2a 083f cdc0 563d 519f b53d dd7f 903d
00000100: 3823 8a3d 5aa6 14be 4fe7 01be 5a99 1dbe
00000110: f6e5 af3d 950a ed3d 3494 9a3d 5f5b 233e
00000120: b0cc f73d f407 f53c a09c a03d 9628 083d
00000130: 688c 573b 241c 98bd 6576 96bc 5c3c a43d
00000140: 0dda 743c 8514 103e 29b6 22bb 7999 9b3d
00000150: d2d1 99bd e173 a9bd 6a5e 083e aa25 6fbe
00000160: 95e9 29bd 5573 3dbd b86e 9c3e 6b71 953e
00000170: ea94 82be 9ea6 683d 9ae1 ae3e e8f8 ecbd
00000180: 8771 29be b1dd d93e 23d1 a23e 2a3e 853f
00000190: afb4 0abe 85bb f53c 6cca 9ebe 06d2 d8bb
000001a0: 90e2 4cbc 342a 3d3d ca1b 8e3d 2a15 1739
000001b0: 6fed 693d 6aea 963e 09d4 bcbd c068 323c
000001c0: e657 b0bd d780 123e 094d 00be 2c91 bf3b
000001d0: db7d b73d d668 35bd a67f 0ebe 51d1 aabd
000001e0: a4f9 3f3e 08b4 d43e 60dd 8fbb 47e9 1cbe
000001f0: 366e 9f3e bc6a 703e 13d4 3130 0e0a a13e
00000200: 6f43 9cbd 0a51 a03d f24c 17be 22db a73a
00000210: 3378 5fbe bb67 2dbe 584f 23bd 7eac 973e
00000220: d161 9f3e dc55 f83d 1012 e3bd a5ee 783d
00000230: 5a81 e63e 903e 9a3d 5713 01be 2fd0 69be
00000240: a5ac fe3d 52de f33d 3739 0f3e f921 913e
00000250: 5431 2abe 9bf8 87bc b26d 47bd 333f e83d
00000260: fe91 53be f333 0dbe 842a 82bc 3190 2abe
00000270: 12a3 02bd 838d f3bd ced1 303e 7ac4 0b3d
00000280: f769 c83b b3ec a2bd 96cc 823e b3dc 28be
00000290: 3a50 50be 64a3 c73d 3099 8fbe 53a2 aa3b
000002a0: a8b2 063e bd7b 8dbe ced9 c93e cf5b f4bd
000002b0: d169 a6bd 73bb 653d 83ff 93bd 0cf0 903c
000002c0: 7d31 c03d 506a 823d 3e06 af3e b85d 7cbd
000002d0: aaa9 7cbe 5e9f 53bf 719f 0b3e b7cc d2bd
000002e0: 3233 743d ad7d 3a3f 9b93 b53d 26ac 613d
000002f0: bec5 97be c63f f63c a261 3abf 0698 1b3d
00000300: b203 173e 7dcd 48bd c86a 94be 1038 c23d
00000310: 5ba8 d6be a792 86bd f0df afbb 1f4e ffbd
00000320: 909e 2c3e 992a 40be 8c42 813e 44f1 a53f
00000330: 4142 58be 64c6 673d 9e74 063f 88a1 cc3d
00000340: 5990 dfbd 3992 20be f8bb 44be 2895 c63d
00000350: 66fe edbd 02fc 67be fa41 853e d1c2 e2bd
00000360: 7452 b7bd 1112 9d3d 8221 05be 4dc1 bcbc
00000370: 6d71 3dbd 50f9 883d 93fd f2ba 8769 30be
00000380: f685 0b3f 592d 353d 394c 763d 0680 05bc
00000390: 6fd4 ecbc 83b5 07ac 29ee 70be 326d 6fbe
000003a0: cbe8 e33d 099a 053e 7ca6 4dbc c570 893d
000003b0: 085e 88be dde3 49be 2408 563f 90ad af3b
000003c0: ac6f c93d 174a 99bc 240f 083e 2d40 503d
000003d0: 257c 6bbd 9cd0 9b3d f581 35bd 54d5 863c
000003e0: bb98 603e c7a1 863e 9b3e 513d 3457 88bd
000003f0: 95ec 203c 8269 133d 0fc7 b33d a68a 25be
-0.09559059 0.08741322 0.07887263 -0.68631643 -0.061077412 -0.016383694 0.042163312 -0.019645037
0.020787619 0.058206327 0.28173926 0.011653729 -0.0398222 -0.01998436 -0.5873607 0.02657405
0.08427803 0.037458148 0.018078752 0.3114297 -0.14659594 -0.119126186 0.110946655 0.011307914
0.012575273 0.18014637 -0.04219113 0.26565948 -0.018233635 0.06561067 0.348775 0.12712952
-0.14919652 0.15471826 -0.020930955 0.0092571685 0.02957199 -0.16839936 0.02617995 0.06468221
-0.016349552 -0.04831106 -0.22916919 -0.0008670968 -0.034808975 0.8570621 -0.07570581 -0.15007682
0.0859885 0.07026706 0.05797845 0.075233 -0.17635727 0.47915965 -0.04716925 0.16760701
-0.13339809 0.100999415 -0.034640804 0.089317136 0.53190124 0.052429963 0.08868278 0.07055638
0.06744999 -0.14516583 -0.12685893 -0.1539053 0.085887834 0.11574284 0.07547799 0.15952824
0.12099588 0.029911019 0.07842374 0.03324183 0.0032890085 -0.074272424 -0.018367002 0.08019325
0.0149445655 0.14070328 -0.0024827814 0.07597632 -0.07510723 -0.08274055 0.13317266 -0.23354211
-0.041482527 -0.046252567 0.30553222 0.29188094 -0.25504237 0.056799524 0.34156495 -0.115709126
-0.16547213 0.4255195 0.31800184 1.0409596 -0.13545488 0.029996643 -0.3101381 -0.0066168336
-0.012505189 0.046182826 0.06938894 0.00014408366 0.0571112 0.2947572 -0.0922013 0.010889232
-0.08610515 0.14306961 -0.12529387 0.0058461633 0.08959552 -0.044289432 -0.13915882 -0.08340705
0.18747574 0.41543603 -0.0043904036 -0.15323363 0.31138772 0.23478216 6.46936e-10 0.31452984
-0.076300494 0.07827957 -0.14775446 0.0012806396 -0.21823196 -0.16934101 -0.03987059 0.2962379
0.31129315 0.121257514 -0.110874295 0.060774464 0.45020562 0.07531464 -0.12605034 -0.22833322
0.12435273 0.119076386 0.1398667 0.28346232 -0.1662038 -0.016598037 -0.048688598 0.11340179
-0.2066116 -0.13789348 -0.015889414 -0.16656567 -0.031893797 -0.118922256 0.17267534 0.03412292
0.0061161476 -0.07955303 0.25546712 -0.1649044 -0.20343104 0.09747961 -0.2804656 0.005207339
0.1315409 -0.27633467 0.39423984 -0.119315736 -0.08125652 0.05608697 -0.07226469 0.017692588
0.09384439 0.06367934 0.3418445 -0.061612815 -0.24674097 -0.8266505 0.13635041 -0.102929525
0.059619136 0.72848016 0.08866044 0.055095814 -0.29643053 0.030059706 -0.72805226 0.037986778
0.14747503 -0.049024094 -0.28987718 0.09483349 -0.4192532 -0.065709405 -0.0053672716 -0.12466072
0.16857362 -0.1876625 0.25246084 1.2964253 -0.21119024 0.056585684 0.52521694 0.09991747
-0.10916204 -0.1568078 -0.1921233 0.09696418 -0.11620788 -0.22654727 0.260269 -0.110723145
-0.089512736 0.076694615 -0.13001063 -0.023041392 -0.04625075 0.066881776 -0.0018538706 -0.17227755
0.54501283 0.0442327 0.060131285 -0.008148199 -0.02890989 -1.9285413e-12 -0.23528351 -0.23381498
0.11128386 0.13047041 -0.0125519 0.06710962 -0.2663424 -0.19715829 0.8360617 0.0053612664
0.09835753 -0.018712087 0.13287026 0.050842453 -0.05749144 0.076081485 -0.04431339 0.016459145
0.21933262 0.262953 0.051085096 -0.06657258 0.009822031 0.035989292 0.08778202 -0.16166171

net.2.0.bias f4 [12]
00000000: 5131 953d 6fa2 b63d 4192 3e3d 5a6d 42bb
00000010: 7234 063e 46cb a33d db07 c6bd 464c cabd
00000020: 4aa9 c0bd cc91 eabd f5e7 d3bd 83bf c4bd
0.07284797 0.089177005 0.046526197 -0.002966723 0.13105944 0.07997756 -0.09669467 -0.09877829
-0.09407289 -0.1145359 -0.10346977 -0.096068405
