suboptimal_policies/Walker2d-v4_100.pth (torch, 54615 bytes, 6 tensors)

net.0.0.weight f4 [100, 17]
0	0xbe180417	-0.1484531
1	0x3eac7371	0.33681825
2	0x3e485627	0.19564115
3	0xbf0a3fcc	-0.54003596
4	0x3ecf3f37	0.40477917
5	0x3f84c4cb	1.0372556
6	0xbccaab25	-0.024739811
7	0x3ee9eab9	0.45686892
8	0xbcc56f03	-0.024100786
9	0xbedeeb1e	-0.43538755
10	0x3e364039	0.17797936
11	0x3b706ac1	0.0036684724
12	0x3cc272f7	0.02373646
13	0xbe20ba6f	-0.15696119
14	0xbe3f12ae	-0.1865947
15	0xbd523844	-0.05132319
16	0xbe4999bf	-0.19687556
17	0xbf0d1c0f	-0.5512094
18	0x3f316c2c	0.6930568
19	0xbde1fcc4	-0.11034539
20	0xbf43e496	-0.7652067
21	0xbe9a6b97	-0.3016021
22	0xbd8e27f4	-0.06941214
23	0xbe020767	-0.12698136
24	0xbe828b05	-0.25496688
25	0xbd2ae5cb	-0.041723054
26	0xbea7722e	-0.327043
27	0x3e95df0e	0.2927174
28	0xbe9f7f67	-0.31151888
29	0xbe624d3e	-0.22099778
30	0x3dfb3bfa	0.12267299
31	0xbea75b46	-0.32686824
32	0x3dddb491	0.10825456
33	0xbe1e7042	-0.1547251
34	0xbeadfd49	-0.33982304
35	0xbe381fbc	-0.17980856
36	0x3cafdd6e	0.02146789
37	0xbeb0b45c	-0.34512603
38	0x3e84f2af	0.25966403
39	0x3cc60e42	0.02417672
40	0xbf68dc05	-0.90960723
41	0x3ecb62ac	0.39723718
42	0x3d2ecc56	0.04267534
43	0xbe9a1a22	-0.30098063
44	0x3e4a170e	0.19735357
45	0xbe63edac	-0.22258633
46	0xbe676cb6	-0.22600064
47	0xbd3ce68f	-0.046118315
48	0xbe1eaf64	-0.15496594
49	0x3da66f36	0.081266806
50	0xbdba34b5	-0.09092084
51	0x3d3244b2	0.043522544
52	0xbf810ac8	-1.0081415
53	0xbdf2b094	-0.11850086
54	0xbea4d21d	-0.32191554
55	0xbe09b611	-0.13448359
56	0x3cbea2b5	0.023270944
57	0x3d2a4f44	0.0415795
58	0x3ebae418	0.36502147
59	0xbf38c8f5	-0.72181636
60	0x3e37a064	0.17932278
61	0xbe4f2b55	-0.20231374
62	0xbde58a59	-0.11208028
63	0x3d293362	0.041308768
64	0x3ec0bb29	0.37642792
65	0x3bf97ac7	0.007613513
66	0xbe09b54e	-0.13448068
67	0xbe804422	-0.2505198
68	0x3ec7b17e	0.39002603
69	0xbf218aca	-0.631024
70	0x3f879936	1.0593631
71	0x3e0b2d63	0.13591532
72	0x3ceddcfa	0.029036034
73	0x3f955faf	1.1669825
74	0x3ece6f4d	0.4031929
75	0xbda60b83	-0.081076644
76	0xbf1dae76	-0.6159433
77	0x3dc4fb72	0.09618272
78	0x3dd0e9ee	0.102008685
79	0x3c7b514a	0.015339205
80	0xbca143c7	-0.019685639
81	0xbe24dee8	-0.16100657
82	0x3e1bb3d3	0.15205316
83	0x3e0121f7	0.12610613
84	0xbd61841c	-0.05505763
85	0x3f0e2d3d	0.5553778
86	0xbf30f2fb	-0.6912076
87	0xbf1da147	-0.61574215
88	0xbdd819a0	-0.105517626
89	0x3e953c4d	0.29147568
90	0x3e64096e	0.22269222
91	0xbf7100a8	-0.94141626
92	0xbeee409b	-0.46533665
93	0xbe9d38b3	-0.3070732
94	0xbc57d8d8	-0.013174258
95	0xbe48a185	-0.19592865
96	0x3e591c04	0.21202093
97	0xbdab3d78	-0.083613336
98	0x3cc0f82e	0.023555841
99	0x3d2c3471	0.0420422
100	0xbda6bd85	-0.08141617
101	0xbd2a367c	-0.041555867
102	0x3e87c076	0.26514024
103	0xbf418657	-0.7559561
104	0xbd8df235	-0.06930963
105	0x3ef9992e	0.4874968
106	0xbdf11221	-0.11771036
107	0x3e9c6d51	0.30552152
108	0xbdb2500e	-0.087066755
109	0x3e81814d	0.2529396
110	0x3d565910	0.05233103
111	0x3f0613cc	0.5237396
112	0xbc7fdf8f	-0.015617265
113	0xbd2d2b97	-0.0422779
114	0xbd82e972	-0.063921824
115	0x3ea5cef8	0.32384467
116	0xbc1bd30a	-0.009510765
117	0x3e539bd5	0.20664914
118	0x3906f9fa	0.0001287236
119	0x3d016e43	0.031599294
120	0xbeb11bbc	-0.34591472
121	0x3e26cdac	0.16289395
122	0xbee275f1	-0.44230607
123	0x3c373cf9	0.011183971
124	0x3fa686cd	1.3009888
125	0x3d9ffc48	0.07811791
126	0x3e9e57e5	0.30926433
127	0xbcc253f6	-0.023721676
128	0x3eceb739	0.40374163
129	0x3db6ba98	0.08922309
130	0xbe1e337f	-0.15449332
131	0xbdf29479	-0.11844725
132	0x3e8f6835	0.2800919
133	0x3c602c13	0.013682383
134	0xbd10e280	-0.035372257
135	0x3e82d041	0.2554951
136	0xbe33712a	-0.17523637
137	0x3ef4b8c6	0.4779722
138	0x3d395c6f	0.045254167
139	0xbcaf4fb7	-0.021400316
140	0x3de7534b	0.11295184
141	0x3e95518d	0.2916378
142	0x3ea9a247	0.3313162
143	0x3e884bd6	0.26620358
144	0x3e5945bc	0.21218008
145	0x3e3adab7	0.18247496
146	0xbeb15f5e	-0.34643072
147	0x3ecd0418	0.40042186
148	0x3d1079b3	0.03527231
149	0xbd9b1185	-0.07571701
150	0x3e3cac8e	0.184252
151	0x3dc40e9f	0.09573101
152	0xbe2c83c7	-0.16847144
153	0xbd962662	-0.0733154
154	0x3c6857c3	0.01418108
155	0x3d920a8e	0.071309194
156	0x3f3783b0	0.71685314
157	0x3eb821e7	0.35963365
158	0x3f05459f	0.5205936
159	0x3f05fb25	0.5233634
160	0x3e94993f	0.29023167
161	0x3e715ea4	0.23571259
162	0x3e2d4770	0.16921782
163	0xbd223cb0	-0.039608657
164	0x3e9ff318	0.31240153
165	0x3e9f7eea	0.31151515
166	0x3d1aaf70	0.037764966
167	0xbda63f9b	-0.081176005
168	0x3b53493e	0.00322397
169	0x3c35e873	0.0111027835
170	0xbf610ac2	-0.8790704
171	0x3f1ec019	0.6201187
172	0xbf995667	-1.1979493
173	0xbec893a1	-0.39175132
174	0xbecb5ea3	-0.3972064
175	0xbf6c6275	-0.92337734
176	0x3e4c97ee	0.19979832
177	0x3eb21b4b	0.34786448
178	0x3da67d9a	0.08129425
179	0xbefa7241	-0.48915294
180	0xbddc1682	-0.107464805
181	0xbbddcdf1	-0.006768935
182	0x3df7369c	0.12070963
183	0x3cbefbbb	0.023313394
184	0xbdedc83a	-0.11610456
185	0xbe694b50	-0.22782636
186	0xbe431445	-0.19050701
187	0x3d0ad4b9	0.033894274
188	0xbf0bf348	-0.5466809
189	0xbd255c69	-0.040371332
190	0x3ec97e42	0.3935414
191	0x3d49a202	0.04922677
192	0xbec30434	-0.38089144
193	0x3e8ad40e	0.2711491
194	0x3e950a5b	0.29109463
195	0x3f0d157b	0.551109
196	0xbb9b0de2	-0.0047318796
197	0xbdf86b67	-0.1212986
198	0x3d81a676	0.06330578
199	0xbda4bb93	-0.080435894
200	0xbc64b807	-0.013959891
201	0x3e536c38	0.20646751
202	0xbd2f4ba4	-0.042796746
203	0xbe2d4fb8	-0.16924942
204	0x3e0674c5	0.13130482
205	0xbf84d85c	-1.0378528
206	0x3e06319b	0.1310486
207	0xbecd3a66	-0.40083617
208	0x3e281daa	0.16417566
209	0xbf1e398d	-0.61806566
210	0x3e92bf74	0.28661692
211	0xbf685b94	-0.9076474
212	0xbca2d39a	-0.01987629
213	0x3c2d6e64	0.010585401
214	0xbdb68a01	-0.08913041
215	0xbe5d150a	-0.21590057
216	0xbe4a918e	-0.19782087
217	0x3d9c3a3e	0.07628296
218	0xbd09fcf2	-0.033688493
219	0x3e5412e4	0.20710331
220	0x3dc4ff28	0.0961898
221	0xbf030993	-0.51186484
222	0x3f41e62a	0.7574183
223	0x3dbb3418	0.091407955
224	0xbda5689e	-0.08076595
225	0xbefd5bf6	-0.49484223
226	0xbeee0f30	-0.46495962
227	0x3ebbb749	0.36663273
228	0x3e80eac8	0.25179124
229	0xbc5f92a6	-0.013645804
230	0xbdaeca2d	-0.08534656
231	0x3e96a807	0.2942507
232	0x3e55e15a	0.20886746
233	0xbdbd40e2	-0.09240891
234	0xbdfd2075	-0.12359706
235	0x3d9027bc	0.07038829
236	0x3d40982d	0.047020126
237	0x3e88b6fc	0.26702106
238	0x3e853f43	0.26024827
239	0xbf114c19	-0.5675674
240	0x3e27d0f5	0.16388305
241	0xbd0c6bdd	-0.034282554
242	0xbda4fc2b	-0.0805591
243	0xbef1287d	-0.47101203
244	0x3e339703	0.17538075
245	0x3e154ebd	0.14580818
246	0xbdb6f7e9	-0.08934004
247	0xbe959e63	-0.29222402
248	0xbdef7b4a	-0.116934374
249	0xbe463346	-0.19355497
250	0xbdf6f244	-0.12057927
251	0x3d42ef03	0.04759122
252	0x3e9b52d9	0.30336645
253	0x3e3a9efb	0.18224709
254	0xbdc175b2	-0.09446277
255	0x3e7e0e1c	0.2481007

net.0.0.bias f4 [100]
0	0xbdec169c	-0.1152775
1	0xbe346689	-0.17617239
2	0xbe5ba95f	-0.21451329
3	0x3d478048	0.048706323
4	0x3f031af2	0.5121299
5	0x3e1165cf	0.14198993
6	0x3e8332b0	0.2562461
7	0x3dc27141	0.09494258
8	0x3cec6d49	0.028860705
9	0x3e15f33c	0.14643568
10	0xbf275c32	-0.65375054
11	0xbe1fdf34	-0.15612489
12	0x3e1794cd	0.14802857
13	0xbf090d51	-0.53535944
14	0x3eb88aff	0.36043546
15	0x3e24d299	0.16095962
16	0xbef6656d	-0.48124257
17	0xbea39677	-0.31950733
18	0xbc6d6df1	-0.014491544
19	0xbe3ef8a2	-0.18649533
20	0x3d900c9e	0.070336565
21	0xbd03d516	-0.032185636
22	0x3deb0f02	0.11477472
23	0x3d0dff3d	0.034667242
24	0x3e12f33f	0.14350604
25	0x3eb19d65	0.34690395
26	0xbe9bfb8d	-0.30465356
27	0x3e3018c0	0.17196941
28	0xbbcf6ece	-0.0063303476
29	0x3f01381d	0.5047625
30	0xbdeec22f	-0.11658131
31	0x3c06a567	0.008218146
32	0xbe5ea7cc	-0.21743697
33	0x3e3cd0a4	0.18438965
34	0x3e9853d6	0.29751462
35	0xbe491769	-0.19637837
36	0x3e42d124	0.19025093
37	0x3d9ff2fd	0.07810018
38	0xbe2741af	-0.1633365
39	0x3eb7bef0	0.3588786
40	0xbe05c138	-0.13061988
41	0x3e93be40	0.28856087
42	0xbe17c362	-0.14820626
43	0x3cf0ce08	0.029395118
44	0x3db87dd3	0.09008374
45	0xbdae736f	-0.08518111
46	0x3cb211e7	0.021737052
47	0x3db756ba	0.08952089
48	0x3e3bcc44	0.1833964
49	0xbd89627b	-0.06708237
50	0x3eca3b87	0.3949854
51	0xbea1ad09	-0.31577328
52	0x3d20a23e	0.039217226
53	0xbf3f4f8c	-0.74730754
54	0xbd92200e	-0.0713502
55	0xbef39b55	-0.47579446
56	0x3d243ad5	0.04009517
57	0xbf10e8b0	-0.5660505
58	0xbda38a74	-0.07985392
59	0xbe862ef9	-0.26207712
60	0xbd4ef110	-0.050522864
61	0x3df09803	0.11747744
62	0x3d1df1e0	0.038560748
63	0x3d9a399b	0.075305186
64	0xbe008eea	-0.12554517
65	0xbde934be	-0.11387013
66	0xbdbe26f7	-0.09284776
67	0xbdc13a6a	-0.0943497
68	0x3a279d76	0.0006394008
69	0x3d089a71	0.03335041
70	0x3e17af09	0.14812864
71	0x3e13e612	0.14443234
72	0x3ddc7ee7	0.10766392
73	0x3eaaf67d	0.3339118
74	0x3dcac20a	0.09900291
75	0xbe96af2c	-0.2943052
76	0x3e7f4858	0.2492994
77	0x3ed42670	0.41435575
78	0x3eac6604	0.33671582
79	0xbd92f0ae	-0.07174812
80	0x3ca017a0	0.019542515
81	0x3f0aea04	0.5426333
82	0xb9ea5a01	-0.00044699016
83	0x3cb29d39	0.021803485
84	0x3d65d568	0.056111723
85	0xbe8738a0	-0.2641039
86	0x3e329bb2	0.17442206
87	0x3c79fb87	0.015257723
88	0xbd0c32be	-0.03422808
89	0x3e9869be	0.29768175
90	0x3f014683	0.5049822
91	0xbc609be9	-0.013709047
92	0x3d9773a6	0.07395105
93	0xbeb15e1b	-0.3464211
94	0x3dac5303	0.08414271
95	0x3ce534dc	0.027979307
96	0xbca3d19d	-0.019997412
97	0xbc05c9a7	-0.008165753
98	0xbcd52133	-0.026016807
99	0x3dd1d00a	0.102447584

net.1.0.weight f4 [100, 100]
0	0xbd3a6040	-0.045501947
1	0xbc9e7bd2	-0.019346152
2	0xbdda795d	-0.106676795
3	0xbd5703e1	-0.052493934
4	0xbd0737cc	-0.033012196
5	0x3d5a46cd	0.053290177
6	0xbcef3840	-0.029201627
7	0x3dc5be1c	0.09655401
8	0xbd30bd78	-0.04314944
9	0x3e060d15	0.13090928
10	0xbd945f62	-0.07244755
11	0x3d8eb152	0.06967415
12	0xbde0a11c	-0.10968229
13	0xbe8e5bee	-0.27804512
14	0xbb9d75be	-0.0048052957
15	0x3db5bdfe	0.08874129
16	0x3ebfe64b	0.37480387
17	0xbe65dda9	-0.22447838
18	0x3c13c3fe	0.009018896
19	0xbbc044a5	-0.005867558
20	0xbe04a9b6	-0.12955365
21	0x3cbf1c38	0.023328885
22	0x3d0126d9	0.03153119
23	0xbc07a4d8	-0.008279048
24	0xbd34f79e	-0.04418146
25	0x3caf200a	0.021377582
26	0xbe170c50	-0.1475079
27	0x3d8e8a95	0.06960026
28	0x3c9a3e6d	0.018828595
29	0x3d069f1f	0.032866593
30	0x3c8beef3	0.017081713
31	0xbdb79442	-0.08963825
32	0xbd81629a	-0.06317635
33	0xbe2d9335	-0.16950686
34	0xba8c1cdd	-0.0010689754
35	0xbe012aca	-0.12613979
36	0x3db915da	0.09037371
37	0xbd279223	-0.04091085
38	0xbe146675	-0.1449221
39	0xba4f1c89	-0.00079006754
40	0x3cdb7faf	0.026794283
41	0x3d027f27	0.031859543
42	0x3c833642	0.016017083
43	0x3d212a94	0.039347246
44	0xbd3dda12	-0.046350546
45	0xbe932870	-0.2874179
46	0xbd8aae0f	-0.0677148
47	0x3e232680	0.15932655
48	0x3d127a6e	0.03576129
49	0xbc95fc23	-0.018308705
50	0x3e12eb2d	0.14347525
51	0xbc6ef21d	-0.0145840915
52	0xbe0cb4e7	-0.13740884
53	0x3d868cfe	0.06569861
54	0x3da072c2	0.07834388
55	0xbcb270ea	-0.021782357
56	0x3de6c31d	0.11267684
57	0x3d53fe92	0.05175645
58	0x3dc79545	0.09745268
59	0x3db8b647	0.09019142
60	0xbe28f091	-0.16498019
61	0x3ca472b7	0.020074232
62	0x3b09259f	0.0020926965
63	0x3d7428c8	0.059609205
64	0xbe908cc3	-0.28232393
65	0xbdfe2762	-0.124098554
66	0x3d3ca632	0.046056934
67	0x3d725f5c	0.059172973
68	0x3c9a1e0c	0.018813156
69	0xbc845a7f	-0.016156433
70	0x3da63fb8	0.08117622
71	0x3e3459f1	0.17612435
72	0xbef39774	-0.47576487
73	0x3d95268f	0.07282745
74	0xbd84f6ea	-0.064924076
75	0xbeaa0fc4	-0.33215153
76	0x3e172744	0.14761072
77	0x3e2c8709	0.16848387
78	0x3db8326c	0.08993992
79	0x3daffc7c	0.085930794
80	0xbd22f191	-0.039781157
81	0x3e3de0d9	0.18542804
82	0x3d50eabc	0.05100511
83	0xbd45b6b5	-0.048269946
84	0xbdb8921b	-0.090122424
85	0xbda8e604	-0.08246997
86	0x3e13aa81	0.14420511
87	0x3e025c54	0.12730533
88	0xbcb7b634	-0.022425748
89	0xbda057fd	-0.078292824
90	0xba2d6d2e	-0.00066156953
91	0x3d9b28ce	0.07576142
92	0x3da87d2d	0.082270004
93	0x3d1fa951	0.038979832
94	0xbd428985	-0.04749443
95	0x3d942bf1	0.07234944
96	0xbeae130d	-0.3399891
97	0xbce7a02f	-0.028274624
98	0x3d148f3f	0.036269423
99	0x3d738ff8	0.05946347
100	0x3e29ec55	0.1659406
101	0x3d05185a	0.032493927
102	0x3d5d9d61	0.054105166
103	0x3e0b9ee3	0.13634829
104	0xbe2214da	-0.15828267
105	0xbde7bb4d	-0.11315022
106	0x3b942edc	0.0045221876
107	0x3e6eeefa	0.2333335
108	0x3d0580e7	0.032593634
109	0x3e82d1fd	0.25550833
110	0x3e00cfb3	0.12579231
111	0xbe36aa74	-0.1783846
112	0xbe1e11f3	-0.15436535
113	0x3e118c59	0.14213695
114	0x3d3116bb	0.043234568
115	0x3df8ec96	0.121545
116	0xbc8af92b	-0.016964516
117	0x3e91e683	0.2849618
118	0x3ba01adc	0.0048860144
119	0x3e982c06	0.29721087
120	0x3d8ab081	0.06771947
121	0xbd96ddd9	-0.07366533
122	0x3daf15da	0.0854909
123	0x3e35dd8e	0.17760298
124	0x3cc1973f	0.02363169
125	0x3cda6a5c	0.026662044
126	0x3d50fd50	0.051022828
127	0x3db23d6b	0.08703121
128	0xbd0c74c7	-0.034291055
129	0xbe933529	-0.28751495
130	0x3d07fa6c	0.033197805
131	0xbd1d21c0	-0.038362265
132	0xbe70832c	-0.23487538
133	0x3ddefebb	0.1088843
134	0x3d907317	0.07053202
135	0xbd4aeed7	-0.04954418
136	0xbea11579	-0.31461695
137	0x3ca9fa38	0.020749196
138	0xbdbeac23	-0.09310176
139	0xbe65d56e	-0.22444698
140	0xbd70f717	-0.058829393
141	0xbd3329cb	-0.04374103
142	0x3d8d52aa	0.069005325
143	0x3e8f18bf	0.27948567
144	0x3e2cfaf4	0.16892606
145	0x3e22f1b6	0.15912518
146	0x3dfd2443	0.12360432
147	0x3d92c6a7	0.07166796
148	0x3e0bf451	0.13667418
149	0x3dd9326e	0.10605322
150	0xbdadc612	-0.084850445
151	0x3c8eff24	0.017455645
152	0x3c649703	0.01395202
153	0xbed1e63c	-0.40995967
154	0xbcedcdee	-0.029028859
155	0xbd80dae2	-0.062917486
156	0x3d122782	0.03568221
157	0x3e536e59	0.20647563
158	0x3e22e68f	0.15908264
159	0xbdf33f0c	-0.118772596
160	0x3dbd517c	0.092440575
161	0xbe395386	-0.18098268
162	0xbcf8c8a2	-0.030369107
163	0x3db9f51e	0.090799555
164	0xbd3a337b	-0.04545925
165	0x3da68d55	0.08132426
166	0xbd16d0b8	-0.036820143
167	0xbd95a9d6	-0.07307784
168	0xbdbae90e	-0.09126483
169	0xbd341d84	-0.04397346
170	0xbe9e8cb0	-0.3096671
171	0x3e7f85a6	0.24953327
172	0x3e1c5e9f	0.1527047
173	0x3d4012f2	0.046893068
174	0xbe4d737b	-0.20063584
175	0x3f014aa5	0.50504524
176	0xbd61c0d0	-0.05511552
177	0x3d31c542	0.04340101
178	0xbd9f5c63	-0.07781293
179	0xbe054116	-0.1301311
180	0xbe4b576b	-0.19857566
181	0xbed81486	-0.42203158
182	0x3d08ff22	0.03344644
183	0x3e06a399	0.13148345
184	0xbdc3178e	-0.09525977
185	0xbcf2614b	-0.029587409
186	0x3e8f7315	0.28017488
187	0x3ec44bf0	0.38339186
188	0xbd049d12	-0.032376356
189	0xbdffd80a	-0.12492378
190	0x3de1ce48	0.11025673
191	0x3cf4f220	0.02990061
192	0xbd1bb994	-0.038018778
193	0x3dc86e84	0.09786704
194	0x3e1a7cdf	0.15086697
195	0xbd8c8d67	-0.06862908
196	0x3d041cc2	0.032253988
197	0x3e257df8	0.16161335
198	0x3d8fb04b	0.07016047
199	0x3d18ae1e	0.037275426
200	0x3e20e085	0.15710647
201	0xbdb9f4f9	-0.09079928
202	0xbe1886be	-0.1489515
203	0x3d7019af	0.058618244
204	0x3db83aec	0.089956135
205	0x3c06face	0.008238507
206	0xbe1f5b5b	-0.15562193
207	0x3d70170b	0.058615725
208	0x3e496a91	0.19669558
209	0xbd1a2d54	-0.037640885
210	0x3e966512	0.29373986
211	0xbed89f73	-0.4230915
212	0xbcb3f699	-0.021968173
213	0x3d7036c2	0.05864597
214	0x3d819298	0.06326789
215	0xbd24ec75	-0.040264565
216	0xbdca2b61	-0.09871555
217	0x3da1bd70	0.078974605
218	0xbea3eec1	-0.32018092
219	0x3e21dddc	0.15807289
220	0xbe7a5016	-0.24444613
221	0xbdc30896	-0.09523122
222	0xbca45fca	-0.020065207
223	0x3dc155e2	0.09440209
224	0x3d8b65de	0.06806539
225	0x3a82c619	0.0009977251
226	0xbd7163a1	-0.058932904
227	0xbe1f4fae	-0.15557739
228	0x3d1cd6ef	0.038290914
229	0x3dbba6d1	0.09162677
230	0x3ca97ee1	0.020690383
231	0x3dc3e114	0.095644146
232	0xbcdafe57	-0.026732607
233	0xbee8716e	-0.4539904
234	0x3ec590e8	0.38587117
235	0x3d8f41f5	0.06995002
236	0x3d9bbd1d	0.0760443
237	0xbe9724fc	-0.29520404
238	0xbe029586	-0.12752351
239	0x3cabe49e	0.020983037
240	0x3d5e0e95	0.054213125
241	0xbe738288	-0.23780262
242	0xbc12c656	-0.00895842
243	0x3e4e055c	0.20119232
244	0x3df2049b	0.11817285
245	0x3e128630	0.14309001
246	0x3add9ffd	0.0016908642
247	0xbe733ad3	-0.23752908
248	0x3ed0c936	0.40778512
249	0x3de97aec	0.114003986
250	0x3d8ddd77	0.06927007
251	0x3c9b6bc2	0.018972281
252	0xbd38f0aa	-0.04515139
253	0x3e30d067	0.17266999
254	0xbd3b7f2d	-0.04577558
255	0xbe0ff402	-0.14057925

net.1.0.bias f4 [100]
0	0x3dbbc4be	0.09168385
1	0xbe072fdf	-0.13201855
2	0x3e2cfe90	0.16893983
3	0xbd5d65d2	-0.05405218
4	0xbe3f9b54	-0.18711597
5	0x3cf4eb7d	0.029897446
6	0x3d9a2373	0.07526293
7	0x3e5ebc5d	0.21751542
8	0xbd74a260	-0.059725165
9	0xbdb3b61b	-0.08774968
10	0x3d8cc839	0.06874127
11	0x3dd822a5	0.10553483
12	0x3df2f559	0.118632026
13	0xbea2a3b7	-0.3176553
14	0x3e24e2df	0.1610217
15	0xbe6a3571	-0.22871949
16	0x3df82c7d	0.121178605
17	0x3e0a395f	0.13498448
18	0xbd2b7d2e	-0.041867428
19	0x3e0f9953	0.14023332
20	0x3da8b8b4	0.08238354
21	0x3d8e6a78	0.06953901
22	0x3de6f187	0.112765364
23	0xbe3cc8b6	-0.1843594
24	0x3d9f5592	0.07779993
25	0x3e642570	0.22279906
26	0x3d1b8d4b	0.037976544
27	0x3d1d626c	0.03842394
28	0x3e04a151	0.12952162
29	0x3d1a2f98	0.037643045
30	0xbd1b007e	-0.037842266
31	0xbc5d8cfa	-0.013522381
32	0x3cfbace0	0.030722082
33	0xbd711049	-0.05885342
34	0x3dbeb6b0	0.093121886
35	0xbd93d73d	-0.07218788
36	0xbd5c8d40	-0.053845644
37	0x3cae2cf8	0.021261677
38	0x3e2c0e64	0.16802365
39	0x3e26d6dc	0.162929
40	0xbda596f4	-0.08085433
41	0xbd251e86	-0.040312313
42	0x3e855a42	0.26045424
43	0xbcfa708d	-0.030571247
44	0x3ca538e2	0.020168725
45	0xbe75c873	-0.24002247
46	0xbe561c08	-0.2090913
47	0x3dcb7aae	0.09935509
48	0x3d34eb84	0.044169918
49	0x3da60538	0.08106464
50	0x3f0f2acd	0.55924684
51	0x3d63bce8	0.055600077
52	0x3dc222cf	0.094792955
53	0xbd8495b4	-0.06473866
54	0x3d2c5c88	0.042080432
55	0x3e140639	0.14455499
56	0xbdf3d59b	-0.119059764
57	0x3cee3973	0.029080128
58	0x3db01306	0.085973784
59	0x3dc19246	0.094517276
60	0x3e32f4c4	0.17476183
61	0xbd8b18e3	-0.06791856
62	0x3e9324ea	0.287391
63	0x3e5f4616	0.2180408
64	0x3de9ca9d	0.114155985
65	0x3dd2f0d0	0.102998376
66	0xbba13d79	-0.004920658
67	0x3e78c310	0.2429316
68	0x3e041a5e	0.12900683
69	0x3e005cd9	0.12535419
70	0x3e3e8224	0.18604332
71	0x3dc01c0f	0.09380352
72	0x3e946570	0.2898364
73	0xbe0776b9	-0.13228883
74	0x3d5a8cde	0.053356998
75	0x3e0a3995	0.13498528
76	0x3c761f63	0.015022132
77	0x3ea2ab20	0.31771183
78	0x3b2a7dfd	0.0026015036
79	0x3dc0b622	0.09409739
80	0x3e3b3d18	0.18285024
81	0x3df4703a	0.11935468
82	0x3e0a8202	0.13526157
83	0x3e2f3f55	0.17114003
84	0x3deaffd3	0.11474576
85	0x3e6e0e68	0.23247683
86	0x3a77db02	0.0009454937
87	0x3e1ab399	0.15107574
88	0xbd84008e	-0.06445418
89	0xbe049a45	-0.12949474
90	0x3e1434d7	0.14473282
91	0x3e858fa8	0.26086164
92	0x3d8b337c	0.06796929
93	0xbd89b78a	-0.067244604
94	0x3a02f77f	0.0004995986
95	0x3cb606c6	0.022220027
96	0x3e8058c8	0.25067735
97	0x3e81c585	0.25346008
98	0x3e465286	0.19367418
99	0xbc6f8644	-0.014619414

net.2.0.weight f4 [12, 100]
0	0x3e96a0ba	0.294195
1	0xbec370ee	-0.38172096
2	0xbe3a155e	-0.18172213
3	0xbc0595a0	-0.008153349
4	0x3f114a4a	0.5675398
5	0xbe2204f5	-0.15822203
6	0xbd540f38	-0.051772326
7	0xbe802e8e	-0.25035518
8	0xbec46f6f	-0.38366267
9	0x3f046e26	0.51730573
10	0x3e2cf0b6	0.16888699
11	0xbdcdeb49	-0.10054643
12	0x3d2ad44d	0.041706372
13	0xbe7edb75	-0.24888404
14	0xbe93112b	-0.28724036
15	0x3c664548	0.014054604
16	0xbca9ec32	-0.02074251
17	0xbc0055d2	-0.007832961
18	0x3df631f9	0.1202125
19	0x3de809a8	0.11329967
20	0xbe533749	-0.20626558
21	0x3ea34a0e	0.31892437
22	0x3e0db3ab	0.13838069
23	0xbe8e0c53	-0.27743778
24	0x3db03a90	0.0860492
25	0x3ec676fb	0.3876265
26	0xbcf3921b	-0.029732754
27	0xbd51ad4a	-0.051190652
28	0x3ea57bce	0.32321018
29	0xbe00d5c6	-0.12581548
30	0xbecb08b4	-0.39655077
31	0x3d6900c6	0.056885503
32	0x3dd29aee	0.10283457
33	0xbde29443	-0.11063435
34	0xbe716bd8	-0.23576295
35	0xbcfa585e	-0.030559715
36	0x3e9ba4a7	0.30399057
37	0xbe8fb97c	-0.280712
38	0xbeb17ff0	-0.3466792
39	0xbcc839a0	-0.02444154
40	0x3ef8e840	0.48614693
41	0xbdbcdd0b	-0.09221848
42	0xbead287c	-0.3381995
43	0x3cab2c38	0.020895109
44	0xbed03248	-0.40663362
45	0x3d96d1b3	0.07364216
46	0x3e2522f7	0.1612662
47	0xbebc3c54	-0.36764777
48	0xbe00e340	-0.12586689
49	0x3ceb40f0	0.028717488
50	0xbe05e325	-0.1307493
51	0x3de32842	0.11091663
52	0xbe0744a7	-0.13209783
53	0x3e87e316	0.2654044
54	0x3e090dd0	0.13384175
55	0x3de36928	0.11104041
56	0xbd92f3f0	-0.07175434
57	0xbd9132ac	-0.07089743
58	0x3efd7d4a	0.4950965
59	0x3c2f4cae	0.010699434
60	0x3dd366c6	0.10322337
61	0xbdb80900	-0.089860916
62	0x3e56d4ed	0.20979662
63	0x3dea5235	0.11441461
64	0x3b8e7e9d	0.0043485896
65	0xbcfe1125	-0.031014035
66	0x3e901ae4	0.28145516
67	0xbe522ad1	-0.20524146
68	0x3f146b40	0.5797615
69	0x3c433e74	0.011916745
70	0xbe72b2a3	-0.23700957
71	0x3e8c529d	0.2740678
72	0x3e05e5f6	0.13076004
73	0x3e4102db	0.18848746
74	0xbea58a3d	-0.3233203
75	0x3c7c9c38	0.015418105
76	0x3e4c88d8	0.19974077
77	0x3e3d6b0f	0.18497871
78	0xbdd2d14f	-0.10293829
79	0x3e39f513	0.18159895
80	0xbcc64194	-0.024201192
81	0x3dbe44d3	0.09290471
82	0xbe20086c	-0.15628213
83	0xbdc87d0e	-0.09789477
84	0xbd1a8825	-0.037727494
85	0xbd204b8b	-0.039134543
86	0xbca9db77	-0.020734532
87	0xbe173aa1	-0.14768459
88	0xbcad6a97	-0.02116899
89	0x3e63288e	0.22183439
90	0xbdb6aa52	-0.08919205
91	0xbde56322	-0.11200549
92	0x3e3b0cc2	0.18266585
93	0x3eac73d3	0.33682117
94	0xbda908a0	-0.08253598
95	0xbea73c6c	-0.32663286
96	0x3d6f23d1	0.058383767
97	0x3e1ad1f0	0.15119147
98	0x3e0aa07e	0.13537785
99	0x3e473bff	0.1945648
100	0xbdbbf29e	-0.09177135
101	0x3e315f2c	0.17321461
102	0xbd060940	-0.032723665
103	0xbe9efcd7	-0.31052276
104	0x3f1d4308	0.61430407
105	0xbe1576dc	-0.14596123
106	0xbe7ceac1	-0.24698927
107	0xbdf70e88	-0.120633185
108	0xbdca9ec3	-0.09893563
109	0xbd0bf943	-0.03417326
110	0xbefe768b	-0.49699816
111	0x3e53b151	0.2067311
112	0xbedb4f18	-0.4283378
113	0x3de38139	0.11108632
114	0x3dafe533	0.08588638
115	0x3e9ec472	0.3100925
116	0xbf180159	-0.59377056
117	0xbea71ade	-0.32637686
118	0x3e9ee4d6	0.31033963
119	0x3dbf651e	0.093454584
120	0x3dbb9a74	0.09160319
121	0xbe6ce335	-0.23133548
122	0xbdd0e5cd	-0.10200081
123	0x3e613e13	0.21996336
124	0xbe6014b6	-0.218829
125	0x3edebb29	0.43502167
126	0x3db47d98	0.088130176
127	0x3ec23e48	0.37938142
128	0x3ea65e2e	0.32493728
129	0xbe5b84e7	-0.21437417
130	0xbd2bdc7d	-0.04195832
131	0xbd40e70d	-0.047095347
132	0xbd066e87	-0.03282025
133	0xbdc7b5c9	-0.0975147
134	0x3dfdde98	0.12395972
135	0x3e0f1fcb	0.13976972
136	0xbe3c7a93	-0.18406133
137	0xbca5ee51	-0.02025524
138	0xbcd7d975	-0.026348809
139	0xbe9d8b4a	-0.30770332
140	0xbe0ec85b	-0.13943617
141	0x3d37f47c	0.044910893
142	0x3bc3156b	0.005953481
143	0x3c46e2d0	0.012139037
144	0xbc93b251	-0.018029364
145	0xbe33a46e	-0.17543194
146	0xbe9e6a8f	-0.30940673
147	0x3ede5516	0.4342429
148	0xbcea1e1f	-0.028578816
149	0x3e2bdb83	0.16782956
150	0x3cb493ea	0.022043187
151	0xbe00d1ef	-0.12580083
152	0x3dfcbe7b	0.12341019
153	0xbe15e56f	-0.14638303
154	0x3e0ef5a0	0.13960886
155	0x3d4dffab	0.050292652
156	0xbf25af87	-0.6472096
157	0xbe9721a0	-0.2951784
158	0x3e2d2b3a	0.16911021
159	0xbdc2dd69	-0.09514887
160	0x3f099a86	0.5375141
161	0x3d568d5f	0.052380916
162	0x3d27a44d	0.040928174
163	0xbe0f48f5	-0.13992675
164	0x3dbdc62b	0.09266313
165	0xbdd3b1ea	-0.10336669
166	0x3e54217c	0.20715898
167	0x3e5c7e3c	0.2153253
168	0x3e4706d8	0.19436204
169	0x3e8f2023	0.27954206
170	0xbf07e6a0	-0.5308628
171	0x3d8ea038	0.06964153
172	0x3e27d8d5	0.16391309
173	0xbe072a38	-0.13199699
174	0x3e374895	0.17898782
175	0x3e73225d	0.23743577
176	0x3e3bfd9c	0.18358463
177	0x3e821455	0.25406137
178	0xbf60a5a8	-0.8775277
179	0x3ecd2ff8	0.4007566
180	0xbe17441c	-0.14772075
181	0x3f45f168	0.7732148
182	0x3ea0cb4c	0.31405103
183	0x3e55336d	0.20820399
184	0xbea56ef7	-0.32311222
185	0x3c2275b2	0.009915756
186	0xbecd323a	-0.40077382
187	0x3dc95ae2	0.09831788
188	0x3e9263a8	0.28591657
189	0x3e2276c1	0.15865614
190	0xbe49ff71	-0.1972635
191	0xbe7617e1	-0.24032547
192	0xbcb6e2f8	-0.022325024
193	0xbe5e4764	-0.21706921
194	0xbdb7c003	-0.0897217
195	0xbd8db9be	-0.06920193
196	0x3de8d6af	0.11369073
197	0x3ecbb6a3	0.39787778
198	0xbdc1ebc9	-0.094688006
199	0xbe9f93e6	-0.31167525
200	0x39165ed9	0.00014340448
201	0x3ed0aa98	0.40755153
202	0x3daebf24	0.08532551
203	0x3ed18132	0.4091888
204	0x3e70ceb5	0.23516352
205	0x3ef1988e	0.47186702
206	0xbeb28db5	-0.3487374
207	0xbeb8001c	-0.35937583
208	0x3e963bfd	0.29342642
209	0xbe820370	-0.25393248
210	0x3ebbcb4c	0.3667854
211	0xbe875747	-0.26433775
212	0xbed228b2	-0.41046673
213	0x3dcc265b	0.09968253
214	0x3eb38e2e	0.35069412
215	0xbc38bd1c	-0.011275556
216	0xbe8ea3f1	-0.27859452
217	0xbd9efa8b	-0.07762631
218	0xbddd1ac3	-0.1079612
219	0x3dd0374b	0.10166796
220	0xbe104ddb	-0.140922
221	0xbe9cf2c1	-0.30653957
222	0xbe6bc53f	-0.23024462
223	0xbe2c3930	-0.1681869
224	0x3dd1e199	0.102481075
225	0x3e92df55	0.28686014
226	0x3de859b7	0.11345237
227	0x3e5c6b8c	0.21525401
228	0x3e155bf1	0.14585854
229	0x3e8df8dc	0.27728927
230	0xbe0a6467	-0.13514863
231	0x3eb9afad	0.36266842
232	0xbe11e29a	-0.14246598
233	0xbf4215a3	-0.75814265
234	0xbe586712	-0.21133068
235	0x3d0b16b6	0.033957206
236	0x3e579eac	0.21056622
237	0x3de45b87	0.1115027
238	0x3e4b8efa	0.1987876
239	0x3ea0bfdb	0.31396374
240	0xbd819021	-0.063263185
241	0x3d0eddf3	0.034879636
242	0x3daf43cf	0.08557855
243	0xbe680ea4	-0.22661835
244	0xbe58bfdd	-0.2116694
245	0xbec0909f	-0.37610337
246	0xbd37c230	-0.044862926
247	0xbd815fca	-0.063170984
248	0xbef4445a	-0.47708398
249	0x3e5a942a	0.21345583
250	0x3e0f81c4	0.14014345
251	0x3e632560	0.22182226
252	0xbd96d822	-0.07365443
253	0x3dfc31a6	0.12314157
254	0x3d562b25	0.05228724
255	0xbca5f7e9	-0.020259814

net.2.0.bias f4 [12]
0	0x3d832cb3	0.0640501
1	0xbd0bdf8d	-0.03414874
2	0x3da18ce9	0.078882046
3	0xbd79aa93	-0.060953688
4	0x3ded6b49	0.11592729
5	0x3baece67	0.0053346637
6	0xbe226985	-0.15860565
7	0xbe2fa2b0	-0.17151904
8	0xbebf7e6c	-0.3740114
9	0xbe8433d5	-0.25820795
10	0xbe90726c	-0.28212297
11	0xbe49a289	-0.19690908
