suboptimal_policies/Walker2DPyBulletEnv-v0_smol.pth (torch, 56599 bytes, 6 tensors)

net.0.0.weight f4 [100, 22]
00000000: 4e81 0e3f a902 edbc 0361 d23b 8f93 c3be
00000010: 5ca8 2ebc 8689 853e adbf afbd 06fa a23e
00000020: 6644 25bf c55e 093f ee60 d6bd 2257 8e3b
00000030: a590 c23c 3232 023e 37e8 c83e 6212 27bf
00000040: d183 d6be cc86 dabd b223 963e 2894 90bc
00000050: d69c 92bd 3fba 153f 5d0a ef3e 2ade 783d
00000060: 3199 be3d ff53 56be 219b df3c a2c6 393f
00000070: 40a2 8bbd fdfe 943e 59e8 ad3d a11f 8a3e
00000080: f8cb 8d3e 1de5 4e3f b783 aabc e252 833c
00000090: 6151 d4bd cdad 1e3e c401 633e 76cf d43c
000000a0: cf0c e1bc d60c 87bd 1dfd b93d c024 5dbc
000000b0: 2c66 093f 400d bc3d b788 df3c c0ba 7d3f
000000c0: b7b7 303b 9485 c2be af0e 91bd 5ce9 553e
000000d0: da44 193e a579 10be 45b4 7d3e e18c b1be
000000e0: bf49 043d 66af 64be a6de 7bbe 70d2 083d
000000f0: 88fc d73d 6d9a 993e b48c 4b3d 09b5 2abe
00000100: a25f 423e 1a6b b2be f61b 133f c2f0 8bbc
00000110: 5803 02be 55b0 79bf ec16 86bc c99c 73be
00000120: ff4a c3bc f3ca 603e e442 c4be 33c5 90be
00000130: b6d9 b63e d985 2abe d8d2 9a3e 5f5a 8f3d
00000140: 8a8d b63e 2210 cd3e 431a 803e eb68 273f
00000150: 20f2 aebd e52b 693d 3f5a bebd 4df3 adbe
00000160: 90b8 19bf b144 533d e872 963e 96f7 933e
00000170: e9bb bf3d 46bf 61be 52d5 78bd 41f3 0f3e
00000180: f50f 423e de7f bf3c 8abf f6bd 95dc 50be
00000190: 3a5f 2bbf 3f30 b8be d96d 11bf 4e25 473c
000001a0: 42ee ed3d 1eba e0be 1f34 853e 3e1c 7b3d
000001b0: fee5 cb3c be57 3dbe d982 f2be 6adb f5bc
000001c0: 346d c0bd 351b d0be d4ed b1bd dd92 29bf
000001d0: 7e9b bb3b 68b2 cbbe 53b1 c93e 540c 39bd
000001e0: 910c 47be 1f79 033e 6c2a 3ebe 1310 d23d
000001f0: 30f6 7fbe dd43 f43d 87a6 59bc c0e0 0bbf
00000200: e4d5 09be e24e a7bc 47de a23b cc9a 2bbe
00000210: 173b c13d 5f8f 7f3d ef2a 2b3e f610 323f
00000220: 7ebf ac3d 7668 76be 4843 aabd 0a72 493f
00000230: 5bb6 f13d 1355 d53e 0c4c b23d 5454 6d3e
00000240: 17a9 923d 9c9a a2bc 6165 48be 8687 25be
00000250: c428 83bc 87fd 363d 4bbc 0e3e 2f62 8c3e
00000260: 815c 473b 1595 053e c934 483e 18f0 233d
00000270: 7b83 aabd a239 013f 461b e4bc 61fc 153f
00000280: d3a6 663d 49f3 bc3d 3bd6 8ebe 81f2 773e
00000290: 2f27 993e f20e 0cbf d4f4 fabd 547c eabe
000002a0: bdb5 f9bc 7983 c13e 7c72 c83e 5bc1 eebe
000002b0: 3ff7 c0bd 4a8a febe 662a 8e3d d468 6e3d
000002c0: da12 18be 5c7d 193c da5a 963d 5c39 b7bd
000002d0: bbcd 8f3d ec37 2cbe 9c33 7b3d bc17 a7be
000002e0: c79e e13d f12d d43e 49d9 35bd db7d a6bd
000002f0: febe b43d fa2c f8bc 0f34 e0be 42b8 f4be
00000300: 298b 1fbe 6315 32be 4712 9d3c 3b44 20bc
00000310: db77 b6bd abd1 263e 3fae ca3e 4787 48bd
00000320: 1e14 793e 9dfc 963e 021b adbd e6c7 d3bb
00000330: 80a0 7e3c d5f4 d43d 4674 f03e 6897 c03e
00000340: c601 693d d311 d63c 6886 bf3d bca6 80bd
00000350: cb9c 9cbd 7166 10be 2d9c 15bf 483d 2e3b
00000360: ad85 a13d 5e97 a7be 7186 30be 7960 8dbe
00000370: 28d6 1a3f 9a27 bcbd f9c3 f3bd 0daa 00bf
00000380: 2613 d53b ed64 303f 3b54 3f3c c876 32bf
00000390: f239 bebe b5bc 0dbf db73 aebd af74 90be
000003a0: dbb3 0fbd b510 2b3e dcda 7e3e 259f 8b3e
000003b0: aa79 83be a841 9abd d0a5 8d3d 08c7 abbd
000003c0: a3c0 d83d fb8e 553e 7696 fe3e d641 9d3c
000003d0: 11b4 bebc 5b7e 97bf 6bcc 88bc 1a4b c7bd
000003e0: c61e 82bd afe6 a03e e808 b53e dd9d d83e
000003f0: 3bbc 9dbe 8329 e73e 8c27 febd 92c8 393e
0.55666053 -0.028931933 0.006420256 -0.38198516 -0.010660257 0.26081485 -0.08581481 0.31831378
-0.6455749 0.5366023 -0.104677066 0.004343883 0.023750613 0.1271446 0.39239666 -0.65262425
-0.41897443 -0.10670242 0.29324108 -0.017648771 -0.0715882 0.58487314 0.46687594 0.060758747
0.09306563 -0.2093048 0.02729565 0.72568715 -0.06818056 0.2910079 0.084915824 0.26977256
0.27694678 0.8081835 -0.02081476 0.016030733 -0.10367084 0.15495987 0.22168642 0.025977831
-0.027471928 -0.06594245 0.09081481 -0.013497531 0.53671527 0.09182215 0.02728687 0.9911308
0.0026964971 -0.37992537 -0.07082879 0.20889801 0.14967671 -0.14108904 0.24775799 -0.34677795
0.032296892 -0.22332534 -0.24596652 0.033403814 0.105462134 0.3000063 0.04969473 -0.16670622
0.18981794 -0.34847337 0.5746454 -0.017082576 -0.12696588 -0.97534686 -0.016368352 -0.23790278
-0.023839472 0.21952419 -0.38332283 -0.2827545 0.35712975 -0.16652621 0.30238986 0.06999659
0.3565486 0.4005137 0.25020036 0.6539447 -0.085422754 0.056926627 -0.09294557 -0.33974686
-0.60047245 0.05157918 0.29384542 0.2889983 0.09362013 -0.22045621 -0.060750313 0.14057638
0.189514 0.023376402 -0.12048252 -0.20396645 -0.6694218 -0.3597431 -0.5680824 0.01215489
0.1161771 -0.43891996 0.26016328 0.06130623 0.024889942 -0.18490502 -0.47365454 -0.030011851
-0.09395829 -0.40645757 -0.0868794 -0.6623972 0.005725323 -0.3978455 0.393931 -0.045177773
-0.19438387 0.12839173 -0.1857087 0.10256972 -0.24996257 0.119270064 -0.013284332 -0.54639816
-0.13460499 -0.020423356 0.004970345 -0.16758269 0.094350986 0.06239259 0.16715597 0.6955713
0.08434962 -0.24063286 -0.08313614 0.78689635 0.1180236 0.4166647 0.08705911 0.231767
0.071611576 -0.019849114 -0.19569923 -0.1616498 -0.01601065 0.044675376 0.13939016 0.27418658
0.0030420127 0.13045152 0.19551386 0.040023893 -0.08325859 0.50478566 -0.027845036 0.58588225
0.05631144 0.092260905 -0.2789782 0.24213602 0.29912707 -0.54710305 -0.122537285 -0.4579798
-0.030482167 0.37795618 0.39149845 -0.46631894 -0.094221584 -0.4971488 0.069416806 0.05820544
-0.14850941 0.009368267 0.07341547 -0.08946487 0.07021662 -0.16818208 0.061328515 -0.32635295
0.110166125 0.414413 -0.044396672 -0.08129474 0.08825491 -0.030294884 -0.43789718 -0.47796828
-0.15580429 -0.17390971 0.019173754 -0.009781892 -0.08909579 0.1629092 0.39586064 -0.048957136
0.2432408 0.29489604 -0.08452417 -0.0064630387 0.015541196 0.103982605 0.4696371 0.37615514
0.056886457 0.026131546 0.09351808 -0.06281802 -0.076470934 -0.14101578 -0.5844143 0.002658682
0.07886825 -0.32732671 -0.17238785 -0.27612665 0.60483027 -0.09187241 -0.11902613 -0.50259477
0.006502527 0.68904 0.011677797 -0.69712496 -0.37153584 -0.5536607 -0.085181914 -0.28214023
-0.035083633 0.16705592 0.24888176 0.27269855 -0.2567876 -0.07532054 0.06916392 -0.083875716
0.105836175 0.20855324 0.49724168 0.019196432 -0.023279222 -1.1835436 -0.016699037 -0.09731121
-0.06353526 0.31425998 0.35358357 0.4230794 -0.3080767 0.45148858 -0.12409887 0.18142918

net.0.0.bias f4 [100]
00000000: d4d5 a6bd 4e7f 873c 84ad 49bd 58ae 13bd
00000010: 6ffd b03e c258 693d 60e5 5a3e 8e9b 8dbd
00000020: 21cb 1d3e cad7 1e3e c5ce cdbd 23ab cbbc
00000030: 6760 ec3c dd9b 35bd 97b6 003d e4ec 803d
00000040: f4aa e2bc e4fb 9bbc 42c5 2f3d f32a 0fbc
00000050: fced a53d e9d3 83bd 42ad bfbc 2ab7 65bc
00000060: 5da6 cbbd 38d9 0abd 2e67 bcbd 4207 4b3c
00000070: 843a 3bbd a33c 7e3c a77a ea3d d447 1cbe
00000080: f1f0 4f3e ddbe cd3c f971 96bd 7dd5 cfbc
00000090: d9ad 95ba 5873 16be d0ed 6bbd eab9 cfbd
000000a0: d8b8 073c facb 21bb 69ea cf3d 8512 043e
000000b0: 56d0 423e 6aa3 debd be7f 10be 0fa7 b43d
000000c0: cc37 a03d 23c4 8fbe 0e92 953d ed14 713c
000000d0: 5dac 9abd 1816 41bd 31d7 b8bd bf29 6fbd
000000e0: fa7a e33d 1985 a6bd 4634 8fbd b183 46bd
000000f0: 2ace 02bd 7fa7 083e 4c09 dc3d b982 b33c
00000100: 64c8 373c e1f6 c53b 843c 303d 91a8 903a
00000110: 2bb4 eabd cfb2 903d 596f 16bc df5c c2bd
00000120: 3317 e6bd 72ff 06be 6626 a5bb 82ec e23d
00000130: 5b6a 073d 2b2d 073d 1769 183d f1ec 8bbd
00000140: 3fc4 b83c 4a50 a9bd 9048 95bd 17e3 1c3d
00000150: 349d 033e 65df 9d3d 852c 333e 2f65 c13c
00000160: b78b 9fbd 003d 8dbd 6831 a03d d044 1abe
00000170: 6fe2 42be 45cb e83d bb91 933d c4f0 b83d
00000180: 1a8d 183d ba5e bebd d263 5cbd d82a 67bd
-0.08146253 0.016540196 -0.049237743 -0.03605494 0.34568354 0.05696941 0.21376562 -0.06914435
0.15409519 0.15512004 -0.10049204 -0.024861878 0.028854562 -0.044338096 0.03142413 0.06295183
-0.027669407 -0.01904101 0.04291273 -0.008738267 0.081020325 -0.06436903 -0.023398045 -0.0140207205
-0.09943841 -0.033898562 -0.091993675 0.012391867 -0.0457101 0.015517387 0.11449175 -0.15261775
0.20306756 0.025115425 -0.07345957 -0.025370354 -0.0011419608 -0.14692438 -0.057599843 -0.10142882
0.008283816 -0.002468823 0.10152132 0.1289769 0.19024786 -0.108710125 -0.1411123 0.088209264
0.078231424 -0.28079328 0.07303248 0.014714462 -0.07552407 -0.04714021 -0.090254195 -0.05838942
0.1110744 -0.08130855 -0.06992392 -0.048465434 -0.031934895 0.13345145 0.10743961 0.02191292
0.01121721 0.006041393 0.043026462 0.0011036565 -0.114601456 0.07065355 -0.009181821 -0.0949037
-0.11234894 -0.13183382 -0.005039978 0.110802665 0.033060413 0.03300206 0.037209596 -0.06832302
0.022554515 -0.08267267 -0.07289231 0.038302507 0.12852937 0.07708625 0.17497452 0.023607818
-0.0779032 -0.068964005 0.078219235 -0.15065312 -0.1903169 0.113668956 0.0720553 0.090302974
0.03724394 -0.092954114 -0.053806134 -0.056437343

net.1.0.weight f4 [100, 100]
00000000: f568 5cbe 97a9 a43d 9203 bf3e 5e28 5bbc
00000010: 5c29 42bf c691 13be 4f1a 2a3e deca 443e
00000020: 5e07 ef3c 07c8 1dbe 3d2b bdbe 702c 51be
00000030: 96bd 29be 071c 913e 0c46 ea3d d1bc 053e
00000040: f43c e73e 28dd 2d3e a541 cf3c 86b5 a93e
00000050: 49b3 10bf a182 82bf 352e 95be 2bca bfbc
00000060: 2406 8b3e 654a 1abe eb2c cb3c bb77 94be
00000070: 1d25 313d a967 09bf 17dc d7bd ff6d 373d
00000080: 165a f93e 2106 c83e ff0f 103d daa8 893e
00000090: 1cd0 d03e 4068 97be 9a3a 10bd f719 b2be
000000a0: cc77 adbd ab40 8dbc fdb9 47bd e9a2 e33e
000000b0: dcc5 223e 2091 60be ed2c 01be b7a4 f43c
000000c0: 2234 0e3d ad94 babe 0cd3 2f3c fd98 3cbe
000000d0: 9586 01bf d0d0 e9bd 60af 2bbf 1526 67be
000000e0: cf00 8abe 78f2 02be 709b 2a3e ccd2 0d3e
000000f0: 91e5 45be 52b2 cdbe c04d 713e a36b 15be
00000100: 7bb1 073e 3b2d 063e 0dd0 84bc c850 013f
00000110: 480b 9cbe d181 5f3e 839a 2d3e 6ff3 88bd
00000120: 082b 33be 24f2 66bd 182f c4bd 76c3 2fbe
00000130: 6d64 c5bc 9110 37be fa90 5abf 2695 95bd
00000140: d9ea f03e 115a 00be 4436 c33d 05a7 81be
00000150: 29a3 0dbe 53f9 76be dbbc 9e3d bb8c 0c3e
00000160: 7df6 efbc 4ebc 3e3e 2d59 0b3d e9ee bc3d
00000170: 6001 bebe d6b3 69be f1f7 cbbe 03c7 0abe
00000180: db7c d2be bacc 33bf ff22 7e3e 2bd0 29bb
00000190: 9fc1 9fbc 72a2 de3e 0760 203e aec2 ecbd
000001a0: 9552 e0bd 0775 1dbf f5c2 4b3e 431a 07be
000001b0: 63bb 03bd f1ff 473e 3d2e 37be 97c0 653c
000001c0: 11d2 f53d f0fd e33d 928b ad3a 9237 ffbd
000001d0: 59f1 503e a775 87be c4fc d6be 7bcc 6dbd
000001e0: 8170 22be b7ba f73e 333b 793d 85d9 753e
000001f0: e282 f43d 0f4b df3c dca1 92bd 4d06 c4bd
00000200: 06ee c1bc 33cc 3bbd f079 a0be a933 c8be
00000210: c362 133b 15ca 8abe 16d1 0f3d c11a 253e
00000220: c21e 993d 51df 93be 8361 f7bc 3c87 0e3e
00000230: 367a a8bd 638b 78bd be2a e83d a905 9b3d
00000240: 31b8 b13e eed0 abbe 98f6 2bbf e20c 1a3e
00000250: e982 003e 2f8a 03bf 4f59 febd 88b3 bc3e
00000260: b42e 713e a494 643d bdec 0ebe 60b2 10be
00000270: c837 2dbe ac8c 313d 8d1a f93d 3c9c 72be
00000280: 2ef4 5cbe 71b3 e23d 3770 0c3e b245 a53e
00000290: 83c0 2dbe 49e3 8f3d 9b86 083e 0b94 463e
000002a0: f754 d4be 29dc 933c b6fb 833c b74f 49be
000002b0: 2544 6ebe d568 c73e 9a83 d9be 2b56 1b3e
000002c0: 22b5 4c3e 5a32 173e bbdc d4be 6ca6 1a3e
000002d0: 9062 b43b aaa7 efbc c817 dfbd 182e 99be
000002e0: 0ec7 3ebf e4b2 dcbe 2a4d 143e 370b 4c3e
000002f0: 3263 7bbe b52b a43d 7004 1abe e87f febd
00000300: 066b 82be 41ea 02bf b8db 193e 5559 a7bd
00000310: 3a1b 883d c34d ac3d 1c20 a83d ab50 7cbe
00000320: 80a6 e43d 5f6f f93d 1f61 13bf 77a1 1dbe
00000330: d9bc 98bd 25bd ed3d d9f2 963e 90ab 933d
00000340: 12a4 b6bd 1a64 bcbe 0e90 02bf 9ca8 c5bd
00000350: 0e2b af3d 8531 1e3e 7cc6 1abf eae9 c7be
00000360: 2b1f b83d da02 93bf cfff 053d 8166 4b3d
00000370: 9a3c 22be 0b24 493f 465b 55be 2fc4 a93d
00000380: bffc f03a 211d 0a3f 1328 81bd 7b9d 0abe
00000390: 05d5 b23c 128e 823d f2e2 f5be 4a02 e8be
000003a0: 1d10 f53e 8f98 76bf adc2 6abf fa8e bdbe
000003b0: af20 aebd adec 0a3e 4e9f 7bbd b786 9bbd
000003c0: 3680 18be 0e62 253e ec4f 213d 84ea 503b
000003d0: cf62 373e 4761 553e bd6a 60bd aaa6 9fbc
000003e0: 920b d53d 757d f7bd 3679 5f3d 3a71 a73e
000003f0: e36f b23d 4d74 b33d ed00 70bd 6f76 a0bd
-0.21524413 0.08040159 0.3730741 -0.0133763235 -0.7584436 -0.14411077 0.16611598 0.19218013
0.029178318 -0.15408336 -0.3694705 -0.20427108 -0.16576228 0.28341696 0.11439142 0.13060309
0.4516369 0.16978896 0.025299856 0.33146304 -0.5652357 -1.0196115 -0.29136816 -0.02341183
0.27153122 -0.15067442 0.024801692 -0.28997597 0.043248285 -0.536738 -0.10540026 0.044782635
0.48701543 0.39067176 0.035171505 0.26886636 0.40783775 -0.29571724 -0.035212137 -0.34785435
-0.08470115 -0.01724275 -0.048761357 0.44460228 0.1589579 -0.21930361 -0.12614794 0.029863698
0.034717686 -0.36441556 0.01073147 -0.18417735 -0.5059598 -0.11416781 -0.67064476 -0.22573121
-0.26953742 -0.12787807 0.16660857 0.13849944 -0.19325854 -0.4017511 0.23564816 -0.14591841
0.13251297 0.13103192 -0.016212488 0.5051389 -0.30477357 0.21826865 0.16953473 -0.06687056
-0.17496884 -0.056383267 -0.09579295 -0.17164406 -0.024095738 -0.17877413 -0.85377467 -0.073038384
0.47054175 -0.12534358 0.09531835 -0.25322738 -0.13831772 -0.24118547 0.07750865 0.1372556
-0.02929234 0.1862652 0.03402059 0.09225256 -0.37110424 -0.22822508 -0.39837602 -0.1355248
-0.41110882 -0.7023426 0.24818037 -0.0025911431 -0.019501505 0.4348331 0.15661632 -0.1156057
-0.10953251 -0.61506695 0.19898589 -0.13193612 -0.032161128 0.19531228 -0.17888732 0.014022968
0.120029576 0.11132419 0.0013240448 -0.12461771 0.20404567 -0.2645695 -0.4198972 -0.058056336
-0.1586323 0.4838464 0.060847472 0.24008758 0.119390264 0.02725747 -0.071597785 -0.09571514
-0.023673069 -0.045849036 -0.3134303 -0.39101914 0.0022489286 -0.271073 0.03511151 0.16123487
0.0747657 -0.28881314 -0.030197864 0.13918775 -0.08226435 -0.060679805 0.113362774 0.07569439
0.3471084 -0.33557838 -0.6717315 0.15043977 0.12549938 -0.51382726 -0.12419378 0.3685572
0.23552972 0.055805817 -0.13957496 -0.14130545 -0.1691581 0.043347046 0.12163267 -0.23692411
-0.21577522 0.11069382 0.13714682 0.32279736 -0.16967969 0.07025773 0.13332598 0.19392411
-0.41471073 0.018049316 0.016111236 -0.19659315 -0.23268183 0.38947168 -0.42483217 0.15169589
0.19990972 0.14765301 -0.41574654 0.15102547 0.0055049136 -0.029254753 -0.10893208 -0.2991798
-0.74522483 -0.43105233 0.14482561 0.19926153 -0.24549559 0.08016149 -0.15040755 -0.1242674
-0.25472277 -0.51138693 0.15025222 -0.081713356 0.06645818 0.08413269 0.082092494 -0.24640147
0.1116457 0.121794455 -0.5757007 -0.15393625 -0.07457895 0.11608342 0.29482153 0.07210457
-0.08918013 -0.3679512 -0.5100106 -0.096513 0.08553134 0.15448578 -0.60459113 -0.3904565
0.0899032 -1.1485245 0.03271466 0.049658302 -0.1584343 0.7857062 -0.208356 0.08289372
0.0018385871 0.539507 -0.06306472 -0.13536637 0.021830091 0.06374754 -0.48024708 -0.45314246
0.47863856 -0.96326536 -0.917033 -0.37023145 -0.08502328 0.13566847 -0.06143122 -0.07594054
-0.14892659 0.16150686 0.03938286 0.0031878063 0.17908786 0.2083789 -0.054789294 -0.019488651
0.104025975 -0.12084476 0.054558955 0.32703573 0.08712747 0.08762417 -0.058594633 -0.078350894

net.1.0.bias f4 [100]
00000000: b146 b4bd 42e6 0f3e e9d2 4c3d bc8f 283d
00000010: 846f d43c 4ea9 0d3e e8f4 40be a269 96be
00000020: 8ff7 83bd 5535 22be 68f1 11be 6438 6c3e
00000030: 4273 883e 5b45 043d 968d 7bbd 3e69 28bc
00000040: 8499 a73d 22d7 b3bc 6d91 303e a189 0e3e
00000050: d2b2 443e a9bc 2f3f 313a 7b3e 5144 fc3c
00000060: a2eb 7e3b b709 87bd fedf 283e 2a3b 413d
00000070: 9717 95bd 3ae7 053e e079 ea3c 7623 5e3d
00000080: 5c46 75be 1887 2d3c fe98 26bc 6992 163e
00000090: ce1f 193d c17e 28bb 075f 223c 5240 f03d
000000a0: 5692 4b3e 87a6 853d cc86 81bd 905b 693e
000000b0: 0110 ce3b 1a37 cb3e 2118 6cbd f5c6 213d
000000c0: 8b40 313e 7324 153e ee63 823d a2fc 493e
000000d0: 5c15 aabe de5f 303e d324 853d a862 d8bd
000000e0: 392a 973c 9e4d cf3d 9758 e53c a845 4ebe
000000f0: 1fc9 b73c 5838 293e 8db9 423c 8377 073c
00000100: 6316 d6bd 4e9f 23be 292d 5bbd 7a54 20bd
00000110: 0fe4 63be e820 393e d8c5 b23e 1ff9 aa3c
00000120: 7256 5d3e 4605 4bbd 6a0a be3b 8825 3cbd
00000130: df2f 0a3e f9c9 00be 42a0 833e 387d 33bc
00000140: a64f 8bbc 3b53 5bbd 6666 6d3c c72e 8bbe
00000150: 0d44 2cbe 3fb0 833e adb3 f83c d8c8 a4bc
00000160: 7b15 cabd 10de 883d 3d19 9dbd 0029 7c3e
00000170: c44a 823e 4679 19be 8b83 683e 0a0b ab3e
00000180: 5f49 d13d 3b81 1f3e 2f71 b03e bcad 84be
-0.08802546 0.1405268 0.050005827 0.0411527 0.025932081 0.13834116 -0.18843424 -0.29377466
-0.064437024 -0.15840657 -0.14252245 0.23068386 0.26650435 0.032292705 -0.061414324 -0.010278998
0.08183578 -0.02195317 0.17242976 0.13919689 0.1920884 0.6864725 0.24533917 0.030794295
0.0038897772 -0.0659365 0.16491696 0.047175564 -0.0727989 0.13076487 0.028622568 0.054233037
-0.23952621 0.010591291 -0.010168312 0.14704289 0.037383847 -0.0025710317 0.009910352 0.11731018
0.19880041 0.06525903 -0.063245386 0.22788835 0.006288529 0.39690477 -0.0576402 0.03949638
0.17309777 0.14564686 0.06366716 0.19725278 -0.3321942 0.1722407 0.06501164 -0.10565692
0.01845275 0.10122226 0.027996344 -0.20143759 0.02243477 0.165254 0.011885059 0.00826824
-0.10453489 -0.15978739 -0.053509865 -0.039143063 -0.22254966 0.18078959 0.34916568 0.020870743
0.21615008 -0.049565576 0.0057995813 -0.04593423 0.13494824 -0.12577046 0.25708205 -0.010955147
-0.017005753 -0.05354617 0.014489746 -0.27184126 -0.16822834 0.25720403 0.030359114 -0.020115301
-0.09867378 0.0668298 -0.076708294 0.24625015 0.25447667 -0.14987668 0.2270643 0.3340686
0.102190726 0.15576641 0.34461352 -0.259138

net.2.0.weight f4 [12, 100]
00000000: 81f6 3fbe cd20 abbe 3d80 3d3c 16ae d7be
00000010: d660 e2be d04b 423d 8d0f 4d3d 1d40 823f
00000020: 1886 1c3e 4a66 5dbe 3bc4 09bf 5231 433e
00000030: 1f78 03bc 017b e8be 4d7a bbbd 2362 7b3e
00000040: d00b 35bf 1412 253d 2289 7a3e e2bf 89be
00000050: cbdd 6cbe 4814 213e 5d53 9b3c 8786 79be
00000060: f4f5 1bbf 26b2 a53e 92b5 113f bf96 403e
00000070: 7548 d93e 8ea5 4f3e b1d4 6bbe 1bc0 353e
00000080: 4a01 2c3f 3f99 0f3e 7ad2 ec3c 7845 0c3e
00000090: 7a37 f83d 305b 9fba 405a da3d 81b5 52be
000000a0: 17a9 0fbd 51d6 013f f4fa 75be 015a b03e
000000b0: ff3b 52be ac83 093e d990 25be cde7 9d3e
000000c0: cf43 593e e5d4 f93c b8d8 09bd b0ba 84bd
000000d0: 0e43 9ebd 201c 1dbe 87ad 26be d570 c5be
000000e0: 91d5 d83c 46f4 00bc fd50 babe 2d24 4e3f
000000f0: 4ace bebe 112e aebe 39df fa3e bb41 bd3e
00000100: 7955 1f3f e0f5 87be 0a03 59bf d5c7 963c
00000110: 43bd 8d3d 339f 8fbd 4902 32be 1f7f b2bd
00000120: 110b 27be 321d e23c 2d03 f03e 0435 f93c
00000130: e752 47be d6cd 873e d29e fb3d 19fb 21be
00000140: 7a1c cdbc b70f 913f 164d 62be dbb0 3e3e
00000150: 1cbd c23d 3937 fa3e 87d4 c43d 8f07 8bbe
00000160: 32d2 a33d 1b81 053e 7e08 273f 6c0c 623c
00000170: cba1 553e bafd ddbe feff de3d 607e be3d
00000180: 45cb 61bf 565c f63e ddfc 953e 36e6 50bc
00000190: 880a 9cbd 2205 dcbe 4eb9 18bf 0774 ab3e
000001a0: 86a7 333f b90c d33d 84f7 873f 1a5d 7c3d
000001b0: 61a4 ffbc 6b22 7ebf 033b 9d3d 2a0e 4d3d
000001c0: e715 5f3e f534 3bbf 6677 88bc 3bb3 5c3e
000001d0: 8297 1dbe 2750 f23e 5022 c8be 9f4b 2fbe
000001e0: 0ade 923e 514b bcbc 5d32 9bbb 4b95 0abe
000001f0: 9850 b8bd 1e50 c5be a167 46be 1beb 85be
00000200: c558 bbbb f9ba 033d 7599 f4bd 6832 08be
00000210: 4b1e aebe 9e53 0ebf 6c06 753e 78d0 86be
00000220: c17f 263f 2f13 c1be 86ef 23bf ebb1 813e
00000230: 577c 033f ad22 c4be cd8a c8be 7da6 dc3e
00000240: 70df 313e 9f24 bbbd cd79 7dbe 39a4 43bf
00000250: 77ed 2a3d abbe f23c 1d8f e63d 1b99 123e
00000260: 50be 30bf d706 0bbe 17b9 a9be 9391 11be
00000270: 844b 843e df54 233c b22b 79bf e254 7e3f
00000280: c382 60bd 3a4a 0f3f 6647 3c3e f457 2a3f
00000290: 9634 2fbb f7fd a7be 5fcd 7a3f 293e ea3c
000002a0: 8355 453c d93a 293f 1e7b d63c 0184 8c3d
000002b0: 7cbb 933e 6488 c73c 8a6a d53d d027 0dbd
000002c0: 6f92 e9bd 8ab0 4fbd 9271 413b 2fa3 16bd
000002d0: 6b9b 263d 6fae 4b3e 8009 a93d fbb1 933f
000002e0: d548 55bf bc04 11bf 60c2 243f c273 143e
000002f0: 2695 fbbe 3994 b6bd fb3a a3be ff54 0cbe
00000300: c060 76bd c116 9c3e 7f84 283e 533d 1cbc
00000310: b090 303f 8197 8a3e 7596 853e 6311 8d3a
00000320: 2aa1 503f d621 c4be b7ad 18be 313e 813e
00000330: 86ec 3b3e 7713 7dbd 9c48 7fbe fa7c a33c
00000340: a6d1 a73e 079e ebbe 432a 603e 6358 4bbe
00000350: bca2 85be d5b8 72bd eb51 de3e ec25 863f
00000360: 9f00 c33e 5ebc 4dbd 8cc5 d3be eb15 69be
00000370: e1fd 463d 1f8f d13d 4a34 883d ad4f 89be
00000380: e344 1abf 9a04 473d 03a7 d03d 45ab 743b
00000390: 47df 973f c9a9 43be 7163 aebd cf03 473e
000003a0: 4dd0 31bf 5999 b4be 7719 d03d 40ac 81be
000003b0: 07e1 d9bc 5ede 41bf e361 1cbf f747 9e3c
000003c0: 1c2e 60be 2110 a23e fb62 353f 8936 743e
000003d0: af56 54be 0f28 213e 4db9 f03e 6a82 193f
000003e0: d45f a1be 9a3e 61be 34d9 953e ff94 123e
000003f0: a33f 0cbf 88ee 173e 72c9 18bf 3a66 2f3f
-0.18746378 -0.33423463 0.011566219 -0.42125005 -0.44214505 0.04743558 0.05006366 1.0175816
0.15285528 -0.21621051 -0.5381505 0.19061783 -0.008024245 -0.45406345 -0.091541864 0.24549155
-0.7072115 0.040300444 0.24466375 -0.26904207 -0.23131482 0.15730393 0.01896065 -0.24367724
-0.6092217 0.3236248 0.5691768 0.18807505 0.42438093 0.20277998 -0.23030354 0.17749064
0.67189467 0.14023302 0.028908957 0.13698375 0.12119956 -0.0012157913 0.10661745 -0.20577051
-0.035073366 0.50717646 -0.24021512 0.34443668 -0.20530699 0.13429135 -0.16168536 0.30840912
0.21217273 0.030497024 -0.033653945 -0.0648092 -0.077276334 -0.1534276 -0.16277133 -0.38562647
0.026469024 -0.007870739 -0.36389914 0.8052395 -0.3726676 -0.3401952 0.4899843 0.3696421
0.62239796 -0.26554775 -0.8477026 0.018405834 0.069208644 -0.07012787 -0.17383684 -0.08715653
-0.16312815 0.027601812 0.46877423 0.030420788 -0.19465218 0.26524228 0.12286152 -0.15818442
-0.025037993 1.1332921 -0.22099718 0.18622153 0.09508726 0.48870257 0.09610849 -0.27154204
0.07999076 0.13037531 0.65247333 0.013796907 0.208625 -0.4335764 0.108886704 0.09301448
-0.8820079 0.48117322 0.29294482 -0.012750199 -0.07619196 -0.42972666 -0.5965775 0.3348696
0.70177495 0.10305161 1.0622411 0.061612226 -0.031206312 -0.9927127 0.07677271 0.050062336
0.21785699 -0.7312768 -0.016658496 0.21552746 -0.15389827 0.47326776 -0.39088678 -0.17118691
0.28685027 -0.022985132 -0.0047362284 -0.13533513 -0.08999747 -0.38537687 -0.19375469 -0.26155934
-0.0057173693 0.032160733 -0.11943332 -0.13300478 -0.34007487 -0.5559634 0.23928231 -0.26330924
0.65038687 -0.37709948 -0.6403736 0.25331053 0.513616 -0.38307706 -0.39168397 0.4309577
0.17370391 -0.09137844 -0.24753495 -0.7642246 0.04173037 0.029631933 0.112577654 0.14316218
-0.69040394 -0.13576828 -0.33149025 -0.14215688 0.25838864 0.009968965 -0.973323 0.9934827
-0.054812204 0.55972636 0.18386611 0.66540456 -0.0026734225 -0.32810947 0.9796962 0.028594093
0.012044313 0.6610542 0.026181754 0.06861115 0.28853977 0.024357028 0.10420711 -0.034461796
-0.11404883 -0.05070547 0.0029517156 -0.036776718 0.040675562 0.1989076 0.08253765 1.153869
-0.8331426 -0.5664785 0.6435909 0.14497283 -0.4913723 -0.0891499 -0.31880936 -0.13704298
-0.06015086 0.3048611 0.16456793 -0.009536105 0.68970776 0.27068713 0.26091352 0.0010762628
0.81495917 -0.38307065 -0.14910017 0.2524276 0.18351945 -0.06178614 -0.24930042 0.019957054
0.32777137 -0.46019003 0.21891122 -0.19857936 -0.2610072 -0.0592583 0.43421873 1.0480323
0.3808641 -0.05022847 -0.41361654 -0.22762267 0.04858196 0.10232376 0.06650598 -0.268186
-0.6026136 0.048588373 0.10188105 0.003733353 1.1865014 -0.19107737 -0.08515061 0.19435047
-0.69458467 -0.35273245 0.10161107 -0.2532673 -0.02659656 -0.7572993 -0.61086863 0.019321425
-0.2189259 0.3165293 0.7085416 0.23848929 -0.20736192 0.15737937 0.47016373 0.5996462
-0.31518424 -0.21996537 0.29267275 0.1431465 -0.547846 0.14837086 -0.5968238 0.6851536

net.2.0.bias f4 [12]
00000000: 6372 393e def5 dbbd 131b eabc f985 303e
00000010: 3743 6cbd 35d1 e3bc d462 fdbd efa7 27be
00000020: 0e6b e1bd 80bf bebd 0299 39bd b407 bebd
0.18110041 -0.10740255 -0.028577363 0.17238607 -0.05768129 -0.027809719 -0.123723656 -0.16372655
-0.11006747 -0.093138695 -0.045311935 -0.09278813
