suboptimal_policies/Walker2DPyBulletEnv-v0_big.pth (torch, 301079 bytes, 6 tensors)

net.0.0.weight f4 [256, 22]
0	0x3cca8c43	0.024725085
1	0x2de5651b	2.6079186e-11
2	0xbdd717a9	-0.1050256
3	0xbe25344d	-0.16133232
4	0xae1aab39	-3.5167622e-11
5	0xbe8fe141	-0.28101543
6	0xae793fc5	-5.6672684e-11
7	0xbe77ea75	-0.24210532
8	0xbdeb3be1	-0.1148603
9	0x3e25607a	0.16150084
10	0x3ec1802e	0.37793106
11	0x3e0154b3	0.12629966
12	0x3e100f86	0.14068422
13	0x3d2a229a	0.041536905
14	0xbe607cb9	-0.21922578
15	0xbe83ff8d	-0.25780907
16	0xbe538ec5	-0.20659931
17	0xbd5d82d1	-0.054079834
18	0x3e4436f9	0.19161595
19	0x3dc0beb8	0.09411377
20	0x3d16adc2	0.036786802
21	0x3d197c9b	0.03747235
22	0x3ccb8c02	0.024847034
23	0xaf06d850	-1.2264079e-10
24	0xbc79c1c1	-0.015243948
25	0xbda3adf4	-0.07992163
26	0xac21f5de	-2.301596e-12
27	0x3ea12ddb	0.31480297
28	0xaf09f671	-1.2547631e-10
29	0x3c7db20b	0.015484343
30	0xbb073e1d	-0.0020636388
31	0x3c927736	0.01787911
32	0xbe56b5d9	-0.20967807
33	0x3e6e0fb6	0.23248181
34	0xbc4e0736	-0.012574961
35	0x3eac3333	0.33632812
36	0xbc8c1dce	-0.017104056
37	0x3d18ca4b	0.037302297
38	0xbcd8b265	-0.026452253
39	0x3ee0b354	0.43886817
40	0x3d1aba2b	0.0377752
41	0xbe936aec	-0.28792512
42	0x3bf822d4	0.007572511
43	0xbce187ec	-0.027530633
44	0xbe26e005	-0.16296394
45	0x2d204929	9.111192e-12
46	0x3ddec8f3	0.10878172
47	0x3e4b3f0b	0.19848268
48	0x2e3dd3fa	4.3161898e-11
49	0xbeb06b14	-0.34456694
50	0x2e5edaee	5.0671405e-11
51	0x3f089ccd	0.5336426
52	0xbd7c1a90	-0.06154877
53	0xbc287b75	-0.010283341
54	0xbed76622	-0.4207011
55	0xbe8fcab7	-0.28084347
56	0xbd6e8ef7	-0.05824181
57	0xbdb8485d	-0.08998177
58	0xbd39bb2e	-0.045344524
59	0xbe1caa5c	-0.15299362
60	0xbea90c4e	-0.330172
61	0x3eb291ef	0.34876963
62	0x3e0b73d5	0.13618405
63	0xbca20f79	-0.019782769
64	0x3d16b293	0.036791395
65	0xbda22bdb	-0.07918521
66	0x3e601d50	0.21886182
67	0xaeff9eba	-1.1624253e-10
68	0xbdb760e4	-0.08954027
69	0xbc1ed342	-0.0096939225
70	0x2e14af0f	3.3806787e-11
71	0x3e4ba09b	0.19885485
72	0x2ed5060d	9.6871934e-11
73	0xbee05b83	-0.43819818
74	0x3eed7365	0.46377102
75	0xbe0fa6d3	-0.14028482
76	0x3e6afd6f	0.2294824
77	0xbd7055b8	-0.058675498
78	0xbe7badec	-0.24578065
79	0xbd5035b1	-0.050832454
80	0xbe6a2e72	-0.2286928
81	0x3e786e67	0.24260865
82	0xbd7fd92d	-0.062462974
83	0x3dfb2927	0.122637086
84	0xbc441736	-0.011968425
85	0x3d14d1a2	0.036332734
86	0xbc025c0b	-0.007956515
87	0xbd2e4b2d	-0.042552162
88	0xbd117a68	-0.035517126
89	0xaeb32b4c	-8.1476687e-11
90	0xbd802f94	-0.06259075
91	0xbd6e439f	-0.058169957
92	0xae8d28aa	-6.419161e-11
93	0xbf6487a7	-0.8926949
94	0x2e6dd92a	5.408044e-11
95	0xbd18db3d	-0.037318457
96	0x3d903916	0.07042138
97	0x3d4f05f5	0.05054279
98	0xbc507ea8	-0.01272551
99	0x3d16d23d	0.036821593
100	0x3b0f13d3	0.0021831885
101	0xbd21c44c	-0.039493844
102	0x3dbf5c30	0.09343755
103	0x3cc236bd	0.023707742
104	0xbed534c1	-0.4164181
105	0xbee70d72	-0.45127445
106	0xbda34b2e	-0.07973324
107	0xbd2f885b	-0.042854648
108	0xbd6bd560	-0.057576537
109	0x3d87d156	0.066317245
110	0x3e18584c	0.14877433
111	0x2bcbf6d9	1.4492532e-12
112	0xbdc566ba	-0.09638734
113	0xbe3b9924	-0.18320137
114	0x2d80e877	1.465515e-11
115	0xbedd7f08	-0.4326098
116	0x2c3b43e8	2.6611994e-12
117	0xbdf65a7b	-0.120289765
118	0x3d5dd580	0.054158688
119	0xbd6a4322	-0.05719293
120	0x3ea3465c	0.31889617
121	0x3f070a10	0.5274973
122	0x3e312b36	0.1730164
123	0xbe343a03	-0.17600255
124	0x3db9c052	0.09069885
125	0x3e0522d0	0.13001561
126	0x3e1eb259	0.15497722
127	0xbe58602f	-0.21130441
128	0xbe0b2611	-0.1358874
129	0x3d19f06f	0.03758281
130	0x3cddcdca	0.027075667
131	0xbd6d39ed	-0.05791657
132	0xbdad3ec0	-0.08459234
133	0xae190671	-3.4793893e-11
134	0xbc25fd23	-0.010131153
135	0x3ec5db92	0.3864408
136	0xaea7ff3e	-7.639621e-11
137	0x3e06ba69	0.13157047
138	0x2e65689f	5.2161494e-11
139	0xbe1a036e	-0.15040371
140	0xbcf69a9d	-0.030103022
141	0xbd696446	-0.056980394
142	0x3e0c0e8f	0.13677429
143	0x3d3647a8	0.04450193
144	0x3db975cd	0.09055672
145	0xbcef8606	-0.029238712
146	0xbe9f2fae	-0.31091064
147	0xbe9d6844	-0.3074361
148	0xbe09ff27	-0.13476239
149	0xbd90aa0c	-0.07063684
150	0xbdc37d11	-0.09545339
151	0xbdb4db8f	-0.0883094
152	0x3cd6f437	0.026239498
153	0x3d73bb05	0.059504528
154	0x3e030d46	0.12798032
155	0x2dcc0ccb	2.3197796e-11
156	0xbd44078b	-0.047858756
157	0x3d873d40	0.066034794
158	0x2e2ffb43	4.001356e-11
159	0x3e04de25	0.12975366
160	0x2c2cd188	2.4558983e-12
161	0x3d8a673c	0.06757972
162	0x3eac568a	0.33659774
163	0x3e6b7438	0.22993553
164	0xbe3d4b33	-0.18485717
165	0x3d633de7	0.055478957
166	0x3e36bd8d	0.17845745
167	0xbb2eb1f6	-0.0026656366
168	0xbe8b4c1e	-0.2720651
169	0xbe368235	-0.17823108
170	0x3e403890	0.18771577
171	0xbda7e3d0	-0.08197749
172	0xbd05ed78	-0.03269717
173	0xbdcd1ac7	-0.10014873
174	0x3cd44b02	0.025914673
175	0xba10d5f3	-0.0005525045
176	0x3e6e1c3e	0.23252961
177	0xaef954d8	-1.133828e-10
178	0xbe57dd79	-0.21080579
179	0xbebd8b33	-0.37020263
180	0x2eb069f3	8.022374e-11
181	0xbd48eb81	-0.04905272
182	0x2dc77139	2.2673962e-11
183	0xbe592ded	-0.21208926
184	0x3e1a3c8b	0.15062158
185	0x3ee1c6c8	0.4409697
186	0xbcb26dd4	-0.021780886
187	0x3ea5c391	0.32375768
188	0xbc8b3264	-0.016991802
189	0xbba0b1c8	-0.0049040057
190	0x3e15c018	0.14624059
191	0xbeaca865	-0.33722225
192	0x3e9c5204	0.30531323
193	0xbe34fe2f	-0.17675088
194	0x3e398926	0.18118724
195	0xbc829bb8	-0.015943393
196	0x3d6ec63a	0.058294512
197	0xbbeec1ce	-0.007286287
198	0xbda33da4	-0.079707414
199	0xaef499fc	-1.11231885e-10
200	0xbbc171c4	-0.0059034545
201	0xbf2e3928	-0.68055964
202	0xaee4f027	-1.0410899e-10
203	0x3de658c8	0.112474024
204	0xaee81a1b	-1.0554776e-10
205	0xbc8e9e9d	-0.017409617
206	0x3ca115f9	0.019663798
207	0xbed801c1	-0.42188838
208	0xbecbe40a	-0.39822417
209	0xbd8b3a4d	-0.06798229
210	0x3deb44d7	0.114877395
211	0xbe28e4fe	-0.16493604
212	0xbe39b78b	-0.18136422
213	0xbe7d728c	-0.24750727
214	0xbe5535a7	-0.20821248
215	0x3d1aaa7c	0.037760243
216	0xbd2d76dc	-0.04234968
217	0xbe3fe509	-0.18739714
218	0xbd47dda2	-0.04879535
219	0x3d987d79	0.07445807
220	0x3d53f477	0.05174681
221	0xae7b9d3a	-5.7210438e-11
222	0x3e750208	0.23926556
223	0x3f23efab	0.6403758
224	0x2e9d54ad	7.154575e-11
225	0xbd4890ed	-0.048966337
226	0x2d4ea451	1.174623e-11
227	0x3f245c5c	0.6420343
228	0xbc8febd9	-0.017568516
229	0x3e452ee8	0.19256175
230	0x3dea5046	0.11441092
231	0x3db69cc5	0.0891662
232	0x3b251d36	0.0025194413
233	0x3cdf98e3	0.027294582
234	0xbe1e4b20	-0.15458345
235	0xbe23319c	-0.15936893
236	0xbe05d0b3	-0.13067894
237	0xbdbe5470	-0.09293449
238	0xbd4c6c71	-0.049908105
239	0xbc8e6ec7	-0.017386807
240	0x3dfc4f64	0.1231983
241	0xbbe22373	-0.0069011985
242	0xbd86556b	-0.06559261
243	0xae81113d	-5.869303e-11
244	0xbc4afe0c	-0.012389671
245	0xbdc10007	-0.09423833
246	0xaec054fb	-8.746245e-11
247	0xbd5cb168	-0.053880125
248	0x2e3d2399	4.300524e-11
249	0xbd76a2fb	-0.060214024
250	0xbe4cb423	-0.19990592
251	0x3e4f0197	0.2021545
252	0x3e47be0b	0.1950609
253	0xbf099e71	-0.5375739
254	0xbd66dd82	-0.05636359
255	0xbf081d6d	-0.531699

net.0.0.bias f4 [256]
0	0xbdd71727	-0.10502463
1	0xbc79c1d1	-0.015243963
2	0x3ddec4c7	0.10877376
3	0xbdb760ce	-0.08954011
4	0xbd802939	-0.062578626
5	0xbdc5669c	-0.09638712
6	0xbc2606c5	-0.01013345
7	0xbd44070a	-0.047858275
8	0xbe57dd76	-0.21080574
9	0xbbc16f47	-0.005903158
10	0x3e75021b	0.23926584
11	0xbc4afe80	-0.012389779
12	0xbd8b242f	-0.06794011
13	0xbd053c00	-0.032527924
14	0xbae7fdea	-0.0017699574
15	0x3d15a86a	0.036537565
16	0x3bc720ab	0.0060768924
17	0x3daa7bd6	0.08324401
18	0xbe2c16c7	-0.16805564
19	0xbd93075e	-0.071791396
20	0xbd80c63b	-0.062878095
21	0xbd1ecbd0	-0.03876859
22	0xbd834749	-0.06410081
23	0xbd9df83d	-0.07713363
24	0x3dd405c3	0.103526615
25	0x3ce24597	0.027621074
26	0x3dc915e1	0.09818626
27	0xbca7d1fb	-0.020485869
28	0xbdf47336	-0.11936037
29	0xbcb6a26a	-0.022294242
30	0xbd5f266d	-0.054480005
31	0xbdbfb443	-0.09360554
32	0xbe5d22d0	-0.21595311
33	0xbd8941f0	-0.0670203
34	0x3c0fdaae	0.008780165
35	0xbd36761c	-0.04454623
36	0xbdd8165a	-0.10551138
37	0xbc49bcba	-0.012313062
38	0xbd46cd39	-0.04853556
39	0xbddc8258	-0.107670486
40	0x3c5ed3b2	0.013600277
41	0xbc6115de	-0.013738124
42	0xbd955bca	-0.07292898
43	0xbe1bee82	-0.15227702
44	0xbdb2d837	-0.08732646
45	0x3be0d530	0.0068613514
46	0xbcf634e7	-0.030054523
47	0xbdbfc782	-0.09364225
48	0x3d13587f	0.03597307
49	0xbcb180b3	-0.021667814
50	0xbb9298b6	-0.004473771
51	0x3d8ffd59	0.07030744
52	0xbd86e7e4	-0.065871984
53	0xba8236e7	-0.0009934575
54	0xbb829b01	-0.003985763
55	0xbdbf4c12	-0.09340681
56	0xbdbd7151	-0.09250129
57	0x3d4c8ba5	0.049937863
58	0xbcbfb22d	-0.02340039
59	0xbd5d94c0	-0.054096937
60	0xbca3abdb	-0.019979408
61	0xbd8c2431	-0.068428405
62	0x3e437801	0.19088747
63	0xbc0f55ce	-0.008748485
64	0xbcea30a7	-0.028587652
65	0xbd0db7cd	-0.034599114
66	0xbd1354a9	-0.03596941
67	0x3dc767b1	0.097365744
68	0x3c3943cf	0.011307671
69	0x3bbc77a5	0.0057515674
70	0xbe05583f	-0.13021944
71	0xbd17e9b3	-0.037088107
72	0xbe43b711	-0.19112803
73	0x3dc1ca7a	0.094624475
74	0xbbb763d1	-0.005596616
75	0xbd5d6775	-0.054053742
76	0x3ca13ba7	0.019681765
77	0xbe265385	-0.16242798
78	0x3d35973c	0.04433368
79	0x3e1ebbe4	0.15501362
80	0xbde82e01	-0.113368995
81	0xbcd8cacd	-0.02646389
82	0xbcf13d19	-0.029448079
83	0x3c9a263d	0.018817062
84	0x3becb959	0.0072242436
85	0xbe606e3c	-0.21917051
86	0xbd35054b	-0.0441945
87	0xbb08b681	-0.0020860734
88	0xbd9cc8e8	-0.07655507
89	0xbb8a05bc	-0.0042121094
90	0x3e0dc95f	0.13846348
91	0xbd644ee2	-0.05573929
92	0x3c66da2d	0.014090103
93	0xbd125794	-0.035728052
94	0xbd4b75b3	-0.049672794
95	0xbe00967d	-0.12557407
96	0xbe057c3b	-0.13035671
97	0x3d3bed8c	0.04588084
98	0xbd18dd48	-0.037320405
99	0xbd0f1b2e	-0.03493803
100	0xbd09f2a4	-0.033678666
101	0xbdbbb939	-0.09166188
102	0xbdcc4830	-0.09974706
103	0xbcb12b1d	-0.021627003
104	0x3cdf6af0	0.027272671
105	0x3db7e814	0.08979812
106	0xbd1e6bc3	-0.03867699
107	0x3d2446a6	0.040106438
108	0xbd80cfae	-0.06289612
109	0xbd1a3a3d	-0.037653197
110	0x3e3a95b0	0.18221164
111	0x3db6e38b	0.08930119
112	0xbda01d74	-0.07818118
113	0xbc94d68e	-0.018168714
114	0xbd06e5a6	-0.032933854
115	0xbdeed702	-0.11662103
116	0x3d227668	0.039663702
117	0x3c7fcb66	0.015612459
118	0xbd1292bd	-0.03578447
119	0xbd9a74c9	-0.07541806
120	0xb91e9170	-0.00015122234
121	0xbc9efbf6	-0.019407254
122	0x3e2f33d8	0.1710962
123	0x3c8ac187	0.016937984
124	0xbdcf0b34	-0.10109559
125	0x3d2d0575	0.042241532
126	0xbbc5b2f0	-0.006033294
127	0xbb7a49bc	-0.0038190922
128	0xbd3b613c	-0.045747027
129	0xbe721216	-0.23639712
130	0xbd0a1048	-0.033706933
131	0xbe1f2562	-0.15541604
132	0xbd66b1a5	-0.05632176
133	0x3cc7e33e	0.02440035
134	0xbda1f825	-0.07908658
135	0xbc883ea9	-0.016631441
136	0xbcae6c9c	-0.021292023
137	0x3bf4eae1	0.007474289
138	0x3c82fcec	0.015989743
139	0x3d6d0f5b	0.057875972
140	0xbd3aeaff	-0.045634266
141	0xbba0a0d4	-0.0049019847
142	0xbd641355	-0.0556825
143	0xba3ececf	-0.00072787417
144	0x3c0ff6d0	0.008786872
145	0x3da3d8cb	0.08000334
146	0xbb855258	-0.004068654
147	0xbc1393d3	-0.009007412
148	0xbe10785a	-0.1410841
149	0x3d2fcdb0	0.04292077
150	0xbd83171f	-0.064008944
151	0xbc3ae1c3	-0.011406365
152	0xbdc47506	-0.09592633
153	0x3a85779e	0.0010182743
154	0xbc253554	-0.010083515
155	0xbc48b7b1	-0.012250827
156	0x3b76b2c0	0.0037643164
157	0xbdc36364	-0.09540442
158	0xbcca3f1e	-0.0246883
159	0xbde9d4a2	-0.114175096
160	0x3e0b6404	0.13612372
161	0xbb5bd563	-0.0033543936
162	0x3cccbfb9	0.024993764
163	0x3cd2c150	0.025726944
164	0x3ea48334	0.3213135
165	0xbc8b159d	-0.01697808
166	0xbcc53834	-0.024074651
167	0x3d220b15	0.03956135
168	0xbdcc61ce	-0.09979592
169	0xbcbc8687	-0.023013366
170	0xbdadd967	-0.08488732
171	0xbce0803b	-0.027404895
172	0x3dfce9dc	0.12349293
173	0xbd978264	-0.07397917
174	0x3af2d19f	0.0018525607
175	0x3a8168da	0.0009873167
176	0xbd2208f5	-0.039559323
177	0x3b234771	0.0024914409
178	0xbb80c550	-0.0039297715
179	0x3deef7d1	0.11668361
180	0x3cb4c19f	0.022064982
181	0xbe6b8f54	-0.23003894
182	0x3b69efa6	0.003569582
183	0xbcae04ea	-0.021242578
184	0x3dce9a8f	0.100880735
185	0xbe047cbe	-0.1293821
186	0x3e717924	0.23581368
187	0xbd80d1f2	-0.06290044
188	0xb8b73cf7	-8.7374756e-05
189	0xbd5c2a7b	-0.05375145
190	0xbe0fac0d	-0.14030476
191	0xbd9feafb	-0.07808491
192	0xbb89f054	-0.0042095575
193	0xbbbe5d4d	-0.005809462
194	0xba1d548d	-0.0006001674
195	0xbd679eb3	-0.05654783
196	0xbdd9139f	-0.105994456
197	0xbd13cb03	-0.03608228
198	0xbd8156cf	-0.063153856
199	0xbdb7ccf5	-0.08974639
200	0xbce0ef7d	-0.027457947
201	0xbb203329	-0.0024444556
202	0xbc820e41	-0.015875937
203	0x3de68bf5	0.112571634
204	0xbd5f06d1	-0.05444986
205	0xbd83ec21	-0.064415224
206	0xbd0b7b8b	-0.034053367
207	0x3c57b43a	0.013165528
208	0x3ceab4a1	0.028650584
209	0xbc813a8b	-0.015774986
210	0x3c7f0b38	0.01556664
211	0xbd7bbe81	-0.061460976
212	0xbb053fc7	-0.0020332204
213	0xbca66245	-0.02031053
214	0x3d9797d8	0.07402009
215	0xbcbd752c	-0.023127161
216	0xbe09fec4	-0.13476092
217	0xbda9adae	-0.0828508
218	0xbcefd099	-0.029274272
219	0x3cab1a21	0.020886483
220	0xbd84f089	-0.06491191
221	0xbd77de9f	-0.060515042
222	0xbbc32667	-0.0059555057
223	0x3d0f3610	0.034963667
224	0xbd4267fe	-0.047462456
225	0xbd954747	-0.07288986
226	0xbd6ef874	-0.058342412
227	0xbd240850	-0.04004699
228	0x3d99e44c	0.07514247
229	0x3d6e182a	0.058128513
230	0xbd1985b9	-0.037481043
231	0xbe569c27	-0.20958005
232	0xbdf980a3	-0.12182739
233	0xbd94e770	-0.07270706
234	0xbc2f7197	-0.010708234
235	0xbd7a89c5	-0.061166544
236	0x3d1d9598	0.03847274
237	0xbe3a802b	-0.18212955
238	0xbd34180e	-0.043968253
239	0xbc413acb	-0.0117938025
240	0xbdbc2a72	-0.09187783
241	0x3b852a0e	0.004063851
242	0xbdcc416d	-0.099734165
243	0xbd087f99	-0.03332481
244	0xbdd41baa	-0.10356839
245	0xbcea3ba9	-0.028592901
246	0x3beb8327	0.0071872654
247	0xbd681429	-0.05665985
248	0xbcbf0534	-0.02331791
249	0xbc13648d	-0.008996141
250	0x3d243d83	0.040097725
251	0x3c3c44b3	0.011490989
252	0xbe7a2eae	-0.2443187
253	0xbd4edd64	-0.050504103
254	0xbce06586	-0.02739216
255	0xbd116b27	-0.03550258

net.1.0.weight f4 [256, 256]
0	0x3d65693c	0.056008562
1	0xbb20dd7d	-0.002454608
2	0xbe14f092	-0.14544895
3	0xbdf0561e	-0.117351755
4	0x3c87d95f	0.016583143
5	0xbd547fee	-0.051879816
6	0x3dac3f34	0.084104925
7	0xbc8a6c59	-0.016897367
8	0x3901ad4a	0.00012366954
9	0x3b8313ca	0.004000162
10	0xbd5846b2	-0.052801795
11	0xbbbb6e72	-0.005719953
12	0xbe2e254f	-0.1700642
13	0xbcdb715d	-0.026787454
14	0xbe10aea4	-0.1412912
15	0xbd165563	-0.036702525
16	0x3d4768f0	0.04868406
17	0xbde80124	-0.113283426
18	0x3d3ab69f	0.045584317
19	0xbcecd4ad	-0.028910005
20	0xba63bea6	-0.00086877716
21	0xbce39f67	-0.02778597
22	0xbd1fa8b9	-0.038979266
23	0xba9bcb7b	-0.0011886203
24	0xbe195259	-0.1497282
25	0xbdf8a359	-0.12140531
26	0xbe8c4047	-0.2739279
27	0x3dcbac29	0.09944946
28	0x3d6683b1	0.056277934
29	0xbdd6116b	-0.10452541
30	0x3df5d20c	0.12002954
31	0x3d57965d	0.052633632
32	0x3c0562f3	0.008141267
33	0xbcb748ee	-0.022373643
34	0xbcc20c0e	-0.023687389
35	0xbcbdb6b6	-0.023158412
36	0x3cf3b471	0.029749127
37	0xbcdb8076	-0.026794653
38	0x3c87a66e	0.016558852
39	0x3d3c6696	0.04599627
40	0x3ca6413c	0.020294778
41	0xbbabc2d5	-0.0052417316
42	0xbbd445f6	-0.0064780666
43	0x3e4b0c06	0.19828805
44	0xbd660322	-0.05615533
45	0xbe20358e	-0.1564543
46	0x3d9e2e64	0.07723692
47	0xbdd56e7d	-0.104214646
48	0xbd901c4c	-0.07036647
49	0xbe181317	-0.14851032
50	0x3d205e34	0.03915234
51	0x3dea2951	0.11433662
52	0x3d8635f4	0.065532595
53	0x3d1b2e0a	0.037885703
54	0xbe00f372	-0.12592867
55	0x3d21f834	0.039543346
56	0x3d9620a5	0.07330445
57	0xbb9f85b3	-0.004868233
58	0x3ba6e343	0.0050930097
59	0xbbcb3a88	-0.006202046
60	0xba1daf2f	-0.0006015179
61	0x3d0ddc75	0.034634072
62	0xbe258d86	-0.16167268
63	0x3de01bc1	0.10942794
64	0xbccaf11e	-0.024773177
65	0x3c2f82b5	0.010712315
66	0xbc6bbda1	-0.014388473
67	0xbdfbf96a	-0.12303431
68	0xbd405e0a	-0.046964683
69	0xbd15e8cf	-0.036598977
70	0x3c611306	0.013737446
71	0xbcf8a4c3	-0.030352002
72	0x3b1cf59b	0.0023950103
73	0xbd5f7cf4	-0.054562524
74	0xbc6b3e55	-0.014358123
75	0xbd7139ae	-0.0588929
76	0xbe2b6526	-0.16737804
77	0x3d0bc1d1	0.034120385
78	0xbde8e2d9	-0.11371393
79	0xbcd3dcd7	-0.02586214
80	0x3be64b5e	0.0070280274
81	0xbba22dd5	-0.0049493113
82	0xbd14e7da	-0.036353923
83	0xbe2cfae9	-0.1689259
84	0x3dc00ac1	0.09377051
85	0x3dbe10dd	0.0928056
86	0x3e0f9efd	0.14025493
87	0xbe0ccbd4	-0.1374963
88	0xbc65ed2d	-0.014033598
89	0xbc04ffdc	-0.008117642
90	0xbe1bf2aa	-0.15229288
91	0xbd786486	-0.06064274
92	0xbcf3cde4	-0.029761262
93	0x3d4098cf	0.04702073
94	0xbdbc7538	-0.09202045
95	0x3d997444	0.07492879
96	0x3c69d0dd	0.014270988
97	0xbdc37020	-0.095428705
98	0x3d39f145	0.04539611
99	0xbb7e025e	-0.0038758735
100	0x3d3ab5da	0.045583583
101	0xbcb7c6fb	-0.022433748
102	0x3e403296	0.18769297
103	0xbc1bf090	-0.009517804
104	0x3d71b6fd	0.0590124
105	0xbc05c4c5	-0.008164589
106	0xbda2a00c	-0.07940683
107	0xbd8570f7	-0.06515687
108	0xbd584a01	-0.05280495
109	0xbd0ab80b	-0.033866923
110	0xbd54fa87	-0.051996734
111	0xbdbfebab	-0.09371122
112	0x3cef4b07	0.02921058
113	0xbbb1969d	-0.005419566
114	0xbc9064c5	-0.017626176
115	0xbd83b0b0	-0.06430185
116	0xbddf1014	-0.108917385
117	0xbd7a743f	-0.061146017
118	0x3d8ab600	0.06772995
119	0x3dabc64a	0.0838743
120	0xbc89d7e5	-0.01682658
121	0xbcbc8f64	-0.023017593
122	0x3af8a263	0.0018969293
123	0xbdd2c9b4	-0.10292378
124	0xbca9c6f6	-0.020724755
125	0xbd8a4bed	-0.06752763
126	0x3c03e96d	0.0080512585
127	0xbdc1c1d7	-0.094608
128	0x3cbc4b6f	0.022985188
129	0x3dab1962	0.08354451
130	0xbd42cf14	-0.047560766
131	0x3e5f822b	0.21826999
132	0xbc5ae2a1	-0.013359697
133	0x3c93e078	0.018051371
134	0x3cebbe43	0.028777247
135	0xbd86370d	-0.06553469
136	0xbc5a53cc	-0.013325643
137	0xbd9ff83a	-0.07811017
138	0xbcd9849a	-0.026552487
139	0xbda50df2	-0.080593005
140	0xbd75039c	-0.059817895
141	0xbd18adb3	-0.037275027
142	0xbb961876	-0.0045805527
143	0x3baadd21	0.005214349
144	0xbd96c521	-0.07361818
145	0xbaefac6e	-0.0018285641
146	0xbd64fb65	-0.05590381
147	0xbe64a7f6	-0.22329697
148	0x3ddc1bcb	0.107474886
149	0x3bef4ada	0.007302624
150	0xbca00593	-0.019533908
151	0x3d5119f5	0.051050145
152	0xbd8feb9b	-0.0702736
153	0x3c8d35ec	0.017237626
154	0xbd2c6129	-0.042084847
155	0xbbfe8f70	-0.007768564
156	0xbcf05248	-0.02933611
157	0x3baae298	0.0052150004
158	0xbcd26303	-0.025681978
159	0x3c74271b	0.014901902
160	0xbdb61d8c	-0.08892354
161	0xbcf074aa	-0.029352505
162	0xbd1bd009	-0.038040195
163	0xbcaa67e9	-0.020801501
164	0xbc4406d6	-0.01196452
165	0xbce5dbf2	-0.02805898
166	0xba1884de	-0.00058181386
167	0xbda37b26	-0.07982473
168	0x3c4bd514	0.0124409385
169	0x3e04a8e2	0.12955049
170	0x3d3cfa3a	0.046137072
171	0x3e100098	0.14062726
172	0xbb72224f	-0.003694672
173	0xbca29118	-0.019844577
174	0x3c0916ca	0.00836725
175	0xbd6bc00e	-0.057556204
176	0xbcb0639d	-0.021531874
177	0x3b3249a6	0.0027204542
178	0x3ce11935	0.02747784
179	0xbdd2ecad	-0.102990486
180	0x3d8be8c4	0.06831506
181	0x3ea4ff29	0.32225922
182	0x3d39efea	0.045394816
183	0xbda90e59	-0.0825469
184	0xbe1d9935	-0.15390475
185	0x3d3982f8	0.045290917
186	0xbeb83ab1	-0.35982278
187	0xbe9ae97d	-0.30256262
188	0x3c22c2a1	0.009934098
189	0x3b8a77fc	0.004225729
190	0xbcc5d0ef	-0.024147479
191	0xbc1c765f	-0.009549706
192	0xbceb7d54	-0.028746285
193	0xbd737b73	-0.059443902
194	0xbcb2201b	-0.021743825
195	0xbd68d86b	-0.056847017
196	0x3de8cf2b	0.11367639
197	0xbcd60f5e	-0.026130375
198	0x3b033ee1	0.0020026492
199	0xbd690b72	-0.05689568
200	0xbd25eeca	-0.04051093
201	0xbe05b596	-0.13057551
202	0xbc7302b7	-0.01483219
203	0xbe0e0f91	-0.13873126
204	0x3c14c909	0.009081134
205	0x3c34929e	0.011021284
206	0xbc2f08cb	-0.010683249
207	0x3cc26884	0.023731478
208	0xbdaad86b	-0.0834206
209	0xbd18d219	-0.03730974
210	0xbca8ea59	-0.020619558
211	0xbc37e04f	-0.011222913
212	0xbd4b344e	-0.04961043
213	0x3d43dc4c	0.047817513
214	0xbdf2f92f	-0.11863934
215	0xbd38ea2f	-0.04514521
216	0x3d3d828b	0.046267074
217	0xbd741e3e	-0.059599154
218	0xbb46fd05	-0.0030363214
219	0xbe041ffc	-0.12902826
220	0xbb276098	-0.0025539752
221	0x3dd31a40	0.10307741
222	0x3be26d99	0.0069100377
223	0x3d018672	0.031622358
224	0x3c437b48	0.011931248
225	0xbd75d0b8	-0.060013503
226	0xbb8c689b	-0.004284931
227	0xbb20f4a6	-0.0024559884
228	0x3cbf541c	0.023355536
229	0x3e13c48d	0.14430447
230	0xbd1fee7a	-0.03904579
231	0xbca2bd82	-0.019865755
232	0x3d84f2f5	0.06491653
233	0xbcfa52c4	-0.030557044
234	0xbca6482d	-0.020298088
235	0xbd22f8c2	-0.039788015
236	0xbe9c77ea	-0.30560237
237	0x3d42d8cc	0.047570035
238	0x3bd1e087	0.0064049396
239	0xbdaca9c1	-0.084308155
240	0xbcda4c9c	-0.026647858
241	0xbd355e67	-0.044279482
242	0x3c383b62	0.011244627
243	0xbe188de9	-0.14897884
244	0x3de7faee	0.11327158
245	0xbe9d7ed4	-0.30760825
246	0xbdd331c5	-0.10312227
247	0xbd7331a2	-0.059373505
248	0xba65cd6f	-0.0008766269
249	0xbc983bfa	-0.018583287
250	0xbba5e6c4	-0.00506291
251	0xbdcd2bb8	-0.10018104
252	0x3dd41aeb	0.10356697
253	0xbd0d6bb3	-0.034526538
254	0xbb7b3879	-0.003833322
255	0xbd7039f1	-0.058649007

net.1.0.bias f4 [256]
0	0x3ccd1012	0.025032077
1	0x3ec44550	0.3833413
2	0xbd5b8662	-0.053594954
3	0x3d10b06d	0.035324503
4	0x3d06d8dc	0.032921657
5	0xbe22d9a0	-0.1590333
6	0xbe231e94	-0.15929633
7	0x3e81ab82	0.25326163
8	0xbe12eddf	-0.14348553
9	0xbc51e2f4	-0.0128104575
10	0xbd867829	-0.065658875
11	0x3e12c46f	0.14332746
12	0xbdafd839	-0.08586163
13	0xbd868769	-0.06568796
14	0xbd16a2f3	-0.036776494
15	0x3d3c191a	0.045922376
16	0x3b83559e	0.004008009
17	0x3d80a71e	0.06281875
18	0x3d8f4f55	0.06997553
19	0x3e4fc3e7	0.20289575
20	0xbe94fb5f	-0.2909803
21	0xbdaec448	-0.085335314
22	0xbdf5e9bc	-0.12007472
23	0xbc68f296	-0.014217993
24	0x3ccd991b	0.02509742
25	0x3c950ef4	0.018195607
26	0x3d8f96c8	0.07011181
27	0xbd265171	-0.040605012
28	0x3bd083f5	0.0063633868
29	0xbe527504	-0.2055245
30	0x3de90248	0.11377388
31	0x3e0345b5	0.1281956
32	0x3c926d3c	0.017874353
33	0xbd0c5bd2	-0.034267254
34	0xbece046d	-0.40237752
35	0xbcefd5ee	-0.029276814
36	0x3e3cee5b	0.184503
37	0xbd2602e9	-0.04053012
38	0x3d2b6e04	0.041852966
39	0x3cd7a7d0	0.026325136
40	0x3cc1b516	0.023645919
41	0xbe726537	-0.23671423
42	0x3da61d1e	0.081110224
43	0xbc7be4b4	-0.015374351
44	0x3d9b542d	0.07584415
45	0x3e1b7e49	0.15184893
46	0xbe1bb312	-0.15205029
47	0x3e3be58c	0.18349284
48	0xbdc626b5	-0.096753515
49	0x3b43287f	0.0029778776
50	0x3bb9bd14	0.005668292
51	0x3d7c9517	0.06166562
52	0xbd1d6aee	-0.038432054
53	0xbcd31918	-0.025768802
54	0xbd1f5218	-0.03889665
55	0x3e1d2b74	0.15348607
56	0x3dde44f2	0.10852994
57	0x3d796eca	0.060896672
58	0x3c4e11f5	0.0125775235
59	0x3c8c37d6	0.017116468
60	0x3d050e4d	0.03248434
61	0x3d9a3d2e	0.075312
62	0x3d6c12b4	0.057635024
63	0xbdf54843	-0.119766735
64	0xbd59b965	-0.05315532
65	0xbcad359e	-0.02114373
66	0x3dbd686d	0.09248433
67	0x3dc67b12	0.096914425
68	0xbd957751	-0.072981484
69	0x3d175b22	0.036952145
70	0xbc5840d2	-0.013199048
71	0xbd979d40	-0.0740304
72	0xbc880389	-0.016603248
73	0x3d8f73f4	0.07004538
74	0xbe6f75bd	-0.23384757
75	0x3d1fa910	0.03897959
76	0xbe2e18ac	-0.17001599
77	0x3d0c9a2d	0.03432672
78	0x3d459202	0.048234947
79	0x3ccfc935	0.025364498
80	0x3dd7ebb1	0.105430014
81	0xbacecf16	-0.0015778269
82	0x3e2cfb74	0.16892797
83	0x3d9cf184	0.07663253
84	0x3e28a89a	0.16470566
85	0xbcb6ac91	-0.022299083
86	0x3e07e5fe	0.13271329
87	0x3cce1691	0.025157245
88	0x3d868afc	0.06569478
89	0x3d537903	0.051629078
90	0xbe93228b	-0.28737292
91	0xbcd4e28b	-0.02598693
92	0x3daceee5	0.08444003
93	0xbd07fcdb	-0.033200126
94	0xbdef68ea	-0.11689933
95	0xbdf9bf90	-0.12194741
96	0x3dcad7ce	0.09904443
97	0x3bd7b55b	0.0065828986
98	0xbe5bbb79	-0.21458234
99	0x3c57dd80	0.013175368
100	0x3c45cc4a	0.012072632
101	0xbc9f3070	-0.019432276
102	0xbe29f50b	-0.16597383
103	0xbd238c98	-0.039929003
104	0xbe0691dc	-0.13141578
105	0xbc98c6d1	-0.01864949
106	0xbd1cff02	-0.038329132
107	0x3ce112cc	0.027474783
108	0x3cc8d9a9	0.024517851
109	0x3d502881	0.050819878
110	0x3d81af37	0.06332248
111	0x3ca9b8dd	0.020718032
112	0xbd8cf373	-0.06882372
113	0xbe41a319	-0.18909873
114	0xbe5e2ad3	-0.21696024
115	0xb95f1384	-0.00021274207
116	0x3d428b7a	0.047496296
117	0x3d521f59	0.051299427
118	0x3cc8c4df	0.024507938
119	0xbdb9c541	-0.09070826
120	0x3d1516c9	0.036398683
121	0x3cc75db8	0.02433668
122	0x3c816ed1	0.015799912
123	0x3ccb7ba7	0.024839235
124	0x3cde5a0f	0.027142553
125	0xbbc8b563	-0.0061251386
126	0x2daee2fd	1.9882313e-11
127	0x3d97f0ae	0.07418953
128	0x3d5e2508	0.054234535
129	0xbccbeae6	-0.024892282
130	0x3b31c8c4	0.0027127722
131	0x3d887689	0.06663234
132	0x3d9b5fba	0.07586618
133	0xbd96f3b9	-0.07370705
134	0x3d574b60	0.052562118
135	0xbd930f78	-0.07180685
136	0x3c8a501e	0.016883906
137	0xbe271183	-0.16315274
138	0x3d11b370	0.035571516
139	0x3dce35a8	0.10068828
140	0xbc2809ba	-0.010256225
141	0x3c87b668	0.01656647
142	0x3d93072f	0.071791045
143	0x3d7e300d	0.062057544
144	0xbdb0de61	-0.086361654
145	0xbe518262	-0.20459893
146	0xbd38d39e	-0.04512369
147	0xbddb8107	-0.107179694
148	0xbb70e8a9	-0.003675977
149	0xbe7ccb9c	-0.24687046
150	0xbdd8acb5	-0.10579816
151	0x3c977817	0.01848988
152	0x3ddcedc0	0.10787535
153	0x3de8944b	0.1135641
154	0xbb691ba2	-0.003556945
155	0xbc2c9da5	-0.010535632
156	0x3cc8bb8f	0.024503497
157	0xbdc1c3d1	-0.09461177
158	0xbe2141ae	-0.15747711
159	0x3d49b50d	0.04924493
160	0xbdb35707	-0.087568335
161	0x3d295ec1	0.04135013
162	0xbc4a8b26	-0.012362277
163	0xbd05a287	-0.0326257
164	0x3de62e5a	0.112393096
165	0xbcc42767	-0.02394457
166	0x3ce88399	0.028383063
167	0xbe0d1b46	-0.13779935
168	0x3d31ece3	0.043438803
169	0x3c596676	0.0132690575
170	0x3d1cd910	0.038292944
171	0xbca9b752	-0.020717297
172	0xbeb2aa74	-0.3489567
173	0x3d380c57	0.044933643
174	0xbd8c0644	-0.068371326
175	0xbcf5eb38	-0.030019388
176	0xbcef0eaf	-0.029181806
177	0x3d607fca	0.05480937
178	0x3d757340	0.059924364
179	0x3d95604c	0.07293758
180	0x3ddc1a27	0.10747176
181	0xbdfb495d	-0.12269852
182	0x3d113b55	0.035456974
183	0x3cece8c8	0.028919592
184	0x3d3af773	0.045646142
185	0xbd118c2a	-0.03553406
186	0x3d5536ae	0.0520541
187	0xbe522a30	-0.20523906
188	0x3e0ac21c	0.1355061
189	0x3e472221	0.19446613
190	0x3c969f53	0.018386519
191	0xbe914b5f	-0.28377816
192	0xbe3d1709	-0.18465818
193	0x3d353300	0.04423809
194	0xbe4de4bf	-0.20106791
195	0xbcc4502f	-0.023964016
196	0x3d33600a	0.04379276
197	0x3df24c81	0.11830998
198	0xbd0595d2	-0.032613583
199	0x3d890bd2	0.06691708
200	0x3de1738a	0.110083655
201	0x3da8916f	0.08230864
202	0xbda7058b	-0.08155354
203	0xbcc3feee	-0.02392527
204	0x3dc21bbd	0.09477947
205	0x3d338700	0.043829918
206	0x3ccaaa6c	0.024739467
207	0xbd55a74a	-0.052161492
208	0x3c0af378	0.008480899
209	0x3d086523	0.033299576
210	0x3d102c2d	0.03519838
211	0x3da3c506	0.079965636
212	0x3d7eac69	0.062176142
213	0x3db772b1	0.089574225
214	0x3c824a31	0.015904518
215	0x3d26a7cb	0.040687364
216	0xbd4e8a6d	-0.05042498
217	0x3dd41564	0.103556424
218	0xbe2a6ae0	-0.16642332
219	0x3d19a9a5	0.0375153
220	0xbcbaf272	-0.022820685
221	0x3cf49377	0.029855473
222	0xbd211255	-0.039324123
223	0x3cbbdea9	0.022933321
224	0x3e18236e	0.14857265
225	0xb505eae6	-4.9888183e-07
226	0x3d0c4bcb	0.03425197
227	0x3dd050b8	0.10171646
228	0xbd2a594b	-0.041589063
229	0xaf57b94a	-1.9619964e-10
230	0x3caf89c0	0.021427989
231	0x3df77191	0.12082208
232	0xbdae9459	-0.08524389
233	0x3cbf1349	0.023324626
234	0x3d1c4045	0.03814723
235	0x3dc26c58	0.09493321
236	0x3bfee6fb	0.007779
237	0xbd6c6da6	-0.057721756
238	0xbd989124	-0.074495584
239	0x3c0f736b	0.008755545
240	0xbc90a4fa	-0.017656792
241	0x3cc3e046	0.023910653
242	0xbd655b94	-0.05599554
243	0xbdb714fc	-0.08939549
244	0x3dde985e	0.108689055
245	0xbe8e1b21	-0.27755073
246	0x3d66003c	0.056152567
247	0x3dc6efcd	0.09713707
248	0x3e011d07	0.1260873
249	0xbe4ce53d	-0.20009322
250	0xbe740818	-0.23831213
251	0xbd190844	-0.0373614
252	0x3d3662df	0.044527885
253	0xbd02eaad	-0.031962086
254	0x3da11b92	0.07866587
255	0xbe020d2e	-0.1270034

net.2.0.weight f4 [12, 256]
0	0xbda4c445	-0.08045248
1	0x3d8545a2	0.06507422
2	0x3dcb8ed2	0.0993935
3	0xbf3a39b7	-0.72744316
4	0x3d96d778	0.07365316
5	0x3d28c55c	0.04120384
6	0x3be439d9	0.006964904
7	0x3db4767e	0.08811663
8	0x3dad9065	0.08474807
9	0x3dedee02	0.11617662
10	0x3ed31096	0.41223592
11	0xbaf3f923	-0.0018613677
12	0xbe338258	-0.17530191
13	0xbd3599cf	-0.044336136
14	0xbf125fe7	-0.57177585
15	0xbcf07ad3	-0.029355442
16	0xbcadcda1	-0.021216216
17	0x3d63402b	0.055481117
18	0xbd2c6d8e	-0.042096667
19	0x3ebd5915	0.36982027
20	0xbd821bea	-0.063529804
21	0xbdc240cb	-0.094850145
22	0x3e163c5c	0.14671463
23	0xbc910617	-0.0177031
24	0xbc99697a	-0.018727053
25	0x3e4b9a89	0.19883169
26	0x3d39ee3f	0.045393225
27	0x3ebb484a	0.3657859
28	0xbd8e80f5	-0.0695819
29	0x3d25ac63	0.040447604
30	0x3ec7742e	0.38955826
31	0x3d4c7c24	0.049923077
32	0x3d8df4e7	0.06931477
33	0x3e6d5884	0.23178297
34	0x3d9679ef	0.07347476
35	0x3d30bf23	0.043151032
36	0x3e59c967	0.21268235
37	0xbe052c68	-0.13005221
38	0xbc612dee	-0.013743861
39	0x3dd0135b	0.10159942
40	0xbdc8c1ac	-0.09802565
41	0xbdf67a17	-0.120350055
42	0xbe83c31b	-0.2573479
43	0xbd106796	-0.035255037
44	0xbd122970	-0.03568405
45	0x3f9f3c06	1.2440193
46	0xbd332f9f	-0.043746587
47	0xbe12967b	-0.14315216
48	0xbd374467	-0.044742968
49	0x3d8c41e1	0.06848503
50	0x3cd1a27d	0.025590176
51	0x3da5c2b8	0.0809378
52	0xbe5a1973	-0.2129877
53	0x3ea39c7c	0.31955326
54	0xbdafaf1c	-0.08578321
55	0x3de42f26	0.11141805
56	0xbd87daf2	-0.066335574
57	0x3dd56fce	0.10421716
58	0xbdcc726f	-0.09982764
59	0x3e075eab	0.13219707
60	0x3ee21f9b	0.44164738
61	0x3bd62fe8	0.0065364726
62	0xbce7f9e0	-0.028317392
63	0x3d27d408	0.040973693
64	0x3d98d50f	0.07462513
65	0xbdea17f7	-0.11430352
66	0xbdebfaa8	-0.11522418
67	0xbe1f818b	-0.1557676
68	0x3c05bc3d	0.008162555
69	0x3d9fc411	0.078010686
70	0x3e4e784f	0.20163082
71	0x3e291665	0.16512449
72	0x3e36d630	0.17855144
73	0xbd8cd97b	-0.068774186
74	0x3d0744b6	0.033024512
75	0x3d0d6529	0.034520302
76	0xbd931493	-0.071816586
77	0x3dda40db	0.106569014
78	0xbb1c5bbe	-0.0023858394
79	0x3d989fa9	0.07452328
80	0xbc2b9340	-0.010472119
81	0xbd0e4e64	-0.034742728
82	0xbd34f657	-0.04418024
83	0x3dc3c30d	0.09558687
84	0xbd4fced8	-0.05073437
85	0xbe81031c	-0.25197685
86	0x3d4d6a71	0.05015034
87	0xbea10d64	-0.3145553
88	0xbcb7a714	-0.022418536
89	0xbc2e556e	-0.010640485
90	0x3e9eb0ac	0.30994165
91	0x3e679377	0.22614847
92	0xbe8afdae	-0.27146667
93	0x3cfe7216	0.03106026
94	0x3eaeb430	0.34121847
95	0x3b9bcea6	0.004754859
96	0xbe2f8ce2	-0.17143586
97	0x3f093c8b	0.53608006
98	0x3e3fd888	0.18734944
99	0x3f5d2445	0.8638347
100	0xbe2ee684	-0.17080122
101	0x3cbe3c7d	0.023222202
102	0xbeac3155	-0.33631387
103	0xbd056bc2	-0.03257347
104	0xbd512563	-0.051061045
105	0x3c61a1e0	0.013771504
106	0xbd335805	-0.043785114
107	0xbd7f80ed	-0.062378813
108	0x3d123599	0.035695646
109	0x3e70191a	0.23447075
110	0xbc438cd0	-0.011935428
111	0xbc818184	-0.015808828
112	0xbcae1bbb	-0.021253457
113	0x3c5f29ed	0.013620836
114	0xbe51bfb2	-0.20483282
115	0xbc8e8a2f	-0.017399875
116	0x3d76e8de	0.060280673
117	0x3e22e367	0.1590706
118	0x3e1443fd	0.1447906
119	0x3d4ce101	0.050019268
120	0x3e036778	0.12832439
121	0x3ee6fd5d	0.45115176
122	0x3e0b6f83	0.13616757
123	0xbe875c53	-0.26437625
124	0x3ec03246	0.37538356
125	0x3ea6fdd8	0.32615542
126	0x3047d282	7.269493e-10
127	0xbd9557cb	-0.07292136
128	0xbe013a07	-0.12619792
129	0x3d2eba7d	0.042658318
130	0xbe2cd34a	-0.16877475
131	0xbdb8ccd7	-0.09023445
132	0xbe48f484	-0.19624525
133	0xbe6050be	-0.219058
134	0xbd3592e8	-0.044329554
135	0x3e910401	0.28323367
136	0x3ea04e33	0.3130966
137	0x3dae294c	0.085039705
138	0xbd9978e3	-0.074937604
139	0x3d091783	0.03346969
140	0x3eaacd44	0.3335973
141	0x3d0b6645	0.03403308
142	0xbe0363e6	-0.12831077
143	0xbdf52121	-0.119692095
144	0x3e383de2	0.17992356
145	0x3d9464cd	0.07245789
146	0x3df1d44e	0.11808072
147	0x3e704aba	0.23466006
148	0xbe30ec82	-0.1727772
149	0x3da452e6	0.08023624
150	0x3d8c3939	0.06846852
151	0x3dffd3ee	0.12491594
152	0xbf1527d8	-0.5826392
153	0xbe04e57c	-0.12978166
154	0xbe0afb3f	-0.13572405
155	0xbe5f9ba2	-0.21836713
156	0xbd68be5d	-0.05682217
157	0xbc900c0f	-0.017583875
158	0x3e62a7b3	0.22134285
159	0x3c9405f9	0.018069254
160	0x3c5e825d	0.013580886
161	0xbe1669ab	-0.14688747
162	0x3e9e4eeb	0.30919585
163	0xbdf1dd1f	-0.118097536
164	0xbde55cc5	-0.11199335
165	0x3e0d8cbc	0.13823217
166	0xbe444b42	-0.19169334
167	0xbd4b1996	-0.049584948
168	0xbb888ea3	-0.0041673942
169	0xbe4d5cb6	-0.20054898
170	0x3eeb95ab	0.46012625
171	0xbe19a4a0	-0.15004206
172	0x3db70051	0.08935607
173	0xbcfaca35	-0.030613998
174	0xbd9c8be1	-0.07643867
175	0xbd36a55f	-0.044591304
176	0x3da70dc1	0.0815692
177	0x3e34e11b	0.17663996
178	0x3f2c7c6b	0.67377347
179	0xbdd3acc4	-0.10335687
180	0xbe7b7e53	-0.24559908
181	0xbf0d5aa5	-0.5521644
182	0x3e589e4d	0.21154137
183	0xbe0907ed	-0.1338193
184	0x3d41fa65	0.047357935
185	0x3f1632b5	0.5867112
186	0x3d323b14	0.043513373
187	0x3ea97689	0.33098248
188	0xbe1d2921	-0.1534772
189	0xbe3830ff	-0.1798744
190	0xbf285a8f	-0.6576318
191	0xbc7932f0	-0.015209898
192	0x3e0929d4	0.13394862
193	0xbbbc65c0	-0.005749434
194	0xbe3ec3d9	-0.18629397
195	0x3db8a7c8	0.09016377
196	0xbef1f570	-0.47257566
197	0xbd6c2d2c	-0.057660267
198	0xbcf16776	-0.02946828
199	0xbbf0e7a9	-0.007351835
200	0x3e6b26fe	0.22964093
201	0xbe083a9b	-0.13303606
202	0x3e87c73b	0.26519188
203	0x3fa7587f	1.3073882
204	0xbe14b939	-0.14523782
205	0x3da2e5fe	0.07954024
206	0x3ecbd624	0.39811814
207	0x3f3158ed	0.69276315
208	0xbd8b8431	-0.06812323
209	0xbe52f396	-0.20600733
210	0xbe2b1ff7	-0.16711412
211	0x3dc9aab0	0.09847009
212	0xbe2f1545	-0.17097957
213	0xbe285486	-0.16438493
214	0x3e095ee4	0.13415104
215	0x3d270c2e	0.0407831
216	0xbe8a6b59	-0.27035025
217	0xbc8d5584	-0.017252691
218	0xbd954817	-0.07289141
219	0xbe163b1d	-0.14670987
220	0xbcc26513	-0.023729837
221	0x3d0bddfb	0.034147244
222	0x3c3f4ee7	0.011676527
223	0xbe31cab6	-0.17362484
224	0x3f1130ff	0.5671539
225	0x3631f171	2.6515593e-06
226	0xbcabe323	-0.02098233
227	0xbe79cf18	-0.24395406
228	0x3c4e8a90	0.012606278
229	0xaef1de3b	-1.0998887e-10
230	0xbe71d338	-0.2361573
231	0xbe8b14ce	-0.2716431
232	0x3ad28b07	0.0016063162
233	0x3e1230e0	0.14276457
234	0xbd9f2a8c	-0.07771787
235	0x3de6bd92	0.112666264
236	0xbe826e5f	-0.2547483
237	0xbded03fa	-0.11573024
238	0x3f7dfaf6	0.9921106
239	0x3dd67ac8	0.104726374
240	0x3d9fec45	0.07808737
241	0xbdf06571	-0.117380984
242	0x3de1b6c0	0.11021185
243	0x3b6eb302	0.0036422615
244	0xbd0a5bc7	-0.033778932
245	0x3dca30da	0.09872599
246	0xbe18a750	-0.14907575
247	0x3c88db59	0.016706156
248	0x3dcb3d34	0.09923783
249	0x3deec598	0.11658782
250	0x3bfdbca5	0.0077434354
251	0x3cd9e4f7	0.026598437
252	0xbd8cd36f	-0.06876265
253	0xbbabef8f	-0.0052470635
254	0x3df7e728	0.121046364
255	0xbe872b29	-0.26400116

net.2.0.bias f4 [12]
0	0x3dc8dfdd	0.098083235
1	0x3dbfa3b3	0.09357395
2	0x3d0fa84a	0.035072602
3	0xbc693887	-0.014234669
4	0x3db85060	0.08999705
5	0x3dcf6b74	0.10127917
6	0xbdc651a9	-0.09683544
7	0xbdbf7353	-0.09348168
8	0xbdc18e38	-0.09450954
9	0xbdf3a446	-0.11896567
10	0xbdbf88e8	-0.09352285
11	0xbdc4f09b	-0.09616204
