suboptimal_policies/Walker2DPyBulletEnv-v0.pth (torch, 27671 bytes, 6 tensors)

net.0.0.weight f4 [64, 22]
000000 c2 48 02 3e 67 39 a9 bb e8 57 48 be 9c 9a 20 bf
       0.12723067 -0.0051643136 -0.19564784 -0.62735915
000010 32 88 78 bb 09 cd af 3e a2 a4 86 bb e8 83 3e be
       -0.0037922976 0.34336117 -0.004108981 -0.18605006
000020 84 95 95 3d 53 6f 33 3e 0e 4f b2 3e 6b 22 73 3e
       0.073039085 0.17522936 0.3482594 0.23743598
000030 ae 03 e8 3d 62 74 b3 3d 0a 9b b8 3e d8 5e c5 3c
       0.11328827 0.08762433 0.36055785 0.024093077
000040 56 82 9e 3e 9d 70 07 3e ed 64 38 3e 24 6c 1f 3c
       0.30958813 0.13226552 0.1800725 0.009730373
000050 83 33 2f bd c2 20 7e 3b a5 3a 08 3e fa f9 08 3c
       -0.042773735 0.003877685 0.13303621 0.00836038
000060 8d bf eb bb 5e e4 61 3e 0d f9 0a bc 57 f8 0e be
       -0.0071944655 0.22059771 -0.00848223 -0.13961922
000070 e9 aa 11 bc 73 3f 16 3d 26 e3 50 be 05 7a aa be
       -0.008890846 0.036681604 -0.2039915 -0.3329622
000080 ee 3c 8d 3e fa 48 47 bb 71 94 27 bb 2a 09 e8 bd
       0.27585548 -0.0030408488 -0.0025570656 -0.11329873
000090 79 f3 87 3e ed e8 13 be a8 dd ba be 31 ed f6 be
       0.26552942 -0.14444323 -0.36497235 -0.48227838
0000a0 34 53 de 3d 61 fa 36 3e 60 eb a6 3b 53 1f b8 39
       0.108557135 0.1786895 0.005093977 0.00035118553
0000b0 bb 6e ff bd f0 9f d8 3a 8d 0d fa ba 53 22 b1 3c
       -0.12472292 0.0016527157 -0.0019077525 0.021622812
0000c0 7e b3 0b bb 4c 83 cd 3d 89 04 06 3c e0 77 ee be
       -0.0021316702 0.100348085 0.008179792 -0.46575832
0000d0 c4 38 e0 be 10 3a 88 be ee f6 49 be 2f 98 1e be
       -0.4379331 -0.26606798 -0.19723102 -0.15487741
0000e0 73 62 12 3d 8c b1 38 3d ec 47 3a bd d3 19 8c bc
       0.03573842 0.045091197 -0.045478746 -0.017102158
0000f0 e7 dc 3c 3e c2 a1 f3 3c 1d 75 80 3d 2c 0e eb bc
       0.18443643 0.029740218 0.062723376 -0.028693281
000100 e9 63 5f bc 8c ed c5 bd 52 8a 07 bf 3b 99 ce bb
       -0.01363466 -0.09664449 -0.52945435 -0.0063048876
000110 11 00 97 3d fc 18 13 bf 97 3f 09 3c 1c 0e 0a bf
       0.073730595 -0.5746 0.008376977 -0.5392778
000120 07 80 12 3b a9 da 6c be 38 21 6b be 36 11 1c bd
       0.0022354142 -0.23130287 -0.2296189 -0.03810235
000130 e2 68 4f 3e 5e 64 66 bd 56 19 84 be fa 06 ca bd
       0.20254853 -0.05624806 -0.2580058 -0.09864612
000140 8f c5 84 bd 1f a7 aa 3d 67 83 09 3e cf 07 5a be
       -0.06482994 0.08332657 0.13429032 -0.21292041
000150 82 74 4c 3d e3 5d e6 3d 7b 6f 7d bd d3 57 4c be
       0.049915798 0.11248376 -0.061873894 -0.19955377
000160 10 67 aa be c8 75 1a bb 15 81 6c 3c 88 c0 38 3f
       -0.33281755 -0.0023568738 0.014435072 0.7216878
000170 51 01 0e 3b e5 2a 02 bf 7e 23 02 3a b0 72 cc be
       0.0021668265 -0.508467 0.0004964395 -0.3993125
000180 75 33 a6 be 9e b0 ec bd e8 59 87 be 61 74 32 3d
       -0.32461134 -0.115571246 -0.2643578 0.04356802
000190 db 05 a2 3d 17 b2 14 bd fc a8 16 be d1 45 d4 3d
       0.07911273 -0.036302652 -0.147129 0.10364879
0001a0 25 02 ff bb c9 e9 ad bd ba 7f ef bc 18 d1 a3 bd
       -0.007782238 -0.084918566 -0.02923571 -0.07998866
0001b0 a4 52 d7 bc 36 bd 24 bc e9 99 56 3e 04 2f 28 3b
       -0.026284523 -0.010054877 0.2095715 0.002566279
0001c0 3f 63 12 3e 6d da 12 3e cd 78 36 3a 9f 8b af be
       0.14295672 0.14341135 0.000696075 -0.3428621
0001d0 0c a1 10 3c bb 6a ee 3e 01 b0 95 3e f5 9d 08 be
       0.008827459 0.46565804 0.29235843 -0.13341506
0001e0 5d 61 7c 3e 0f a2 a4 3d ed 77 ef 3d 89 a8 61 3e
       0.24646516 0.08038723 0.11692796 0.22036947
0001f0 ac 97 c7 be 84 f9 f8 bd 38 d5 d8 be 10 03 0b be
       -0.38982904 -0.12156966 -0.42350173 -0.13575387
000200 5b a9 98 bd 25 5a 9d bd 5e 1f 23 3e 82 e1 2d 3e
       -0.07454177 -0.07683209 0.15929934 0.16980556
000210 8d df 01 3f fd 92 bf 3b 23 94 a7 bd 41 7e ef 3e
       0.50731736 0.00584638 -0.08182552 0.46776012
000220 09 a8 7f bb 88 f6 ea 3e da 32 39 bb 76 dc 18 bd
       -0.003901007 0.45891213 -0.002825907 -0.037319623
000230 fd 33 85 3f 63 31 9b bd 7a ca 19 3f 16 ad aa bc
       1.040649 -0.07577779 0.6007458 -0.020834487
000240 58 99 5e 3e bd bf bf 3d e7 9c 20 bf 6c c7 77 3e
       0.21738183 0.09362743 -0.62739414 0.24197167
000250 14 f3 a0 be 23 8c 50 3d df 4e 67 bd 15 8d 45 bd
       -0.31435454 0.050914895 -0.0564717 -0.04823025
000260 4e 52 2b 3d 45 21 ed bd b7 d9 06 3e fa 81 ed 3b
       0.04182654 -0.11578611 0.13168989 0.0072481604
000270 3e 72 67 3d 9a e5 88 3d d2 e4 14 bc c8 6e 8c 3e
       0.056505434 0.06684418 -0.009087758 0.2742827
000280 03 3b ec 3a a5 a5 9e 3d 0d e0 ec bc 71 33 a0 3e
       0.0018022958 0.07746438 -0.02891543 0.31289247
000290 c1 f6 83 bc 77 ea 03 3e 59 d3 2c 3e 7a 10 ef 3d
       -0.016108872 0.1288241 0.16877498 0.116730645
0002a0 a4 4a 0c bc 4f 50 1a be 40 c7 aa be 6a 53 8c 3e
       -0.008562718 -0.15069698 -0.3335514 0.2740739
0002b0 92 af 6c 3d 36 7f 6f 3c d6 12 4b 3d 2d e2 bf 3c
       0.057784624 0.014617732 0.04957851 0.023423279
0002c0 70 31 36 3e 09 70 4c 3a 41 60 73 bb 6d 8a e8 3d
       0.17792296 0.0007798677 -0.003713623 0.113545276
0002d0 ca 4b 65 bb 5c ba 05 bf 4a 54 bb bb 8d 41 61 be
       -0.00349878 -0.52237487 -0.005716835 -0.21997662
0002e0 57 b6 83 3e 50 ec 69 bd f1 3f 8a bd cf fc 33 bf
       0.25725052 -0.05711013 -0.06750477 -0.7030763
0002f0 9d 16 2e be 32 55 81 be 00 cb 83 3d 82 5c ad be
       -0.17000814 -0.2526031 0.064352036 -0.3385964
000300 bc db 07 bd 78 a5 57 3d 29 92 c8 bc 82 d4 df be
       -0.03316854 0.052648038 -0.024483757 -0.43716818
000310 e3 a1 84 3c 48 ad 76 bd ff 82 30 bd c9 cc 18 3c
       0.016190475 -0.060223848 -0.043093678 0.009326168
000320 37 a7 38 be 83 d9 91 bf f3 de 0a bc 72 28 09 be
       -0.18032537 -1.1394504 -0.008476007 -0.13394335
000330 b3 08 94 bb 54 da 7c be c7 04 d2 be 06 7c 2a 3d
       -0.0045176386 -0.2469266 -0.4101927 0.041622184
000340 8c 9b ce 3e 1e 79 2b 3e 1b 12 95 3e 35 55 cb 3c
       0.40353048 0.16745421 0.29115376 0.024820903
000350 3c a5 88 3d 58 ac 7d 3d 2d 62 f9 3e 3b e2 0e 3d
       0.06672141 0.061931938 0.48707715 0.03488372
000360 88 09 10 bd 59 e1 32 be 88 df 63 be 89 0e 50 3d
       -0.03516534 -0.17468776 -0.22253239 0.05079511
000370 1e 77 9b 3e f7 05 05 3a 26 44 ba 3c 5b 5c aa 3e
       0.30364317 0.0005074436 0.022737574 0.33273587
000380 4e 40 96 3a 6b 3b 3b 3e 2a 77 fc 3a ae f1 e7 bd
       0.0011463256 0.18284385 0.0019261588 -0.113253936
000390 e1 ad 4c be 76 02 ef 3c 02 d8 87 3e d9 03 59 3d
       -0.19988205 0.029175978 0.26531988 0.052982185
0003a0 56 ba bd be 9c 99 40 be c2 eb 15 3d f9 9f 9a bc
       -0.37056226 -0.18808597 0.03660179 -0.018875109
0003b0 09 09 a3 3d 21 61 95 3d 30 0b 67 bf 69 c2 e1 3d
       0.07960708 0.072939165 -0.90251446 0.11023409
0003c0 80 aa 32 3e e7 b9 a1 3e 89 20 0c 3e ff 41 07 3c
       0.17447853 0.31587145 0.13684286 0.008255481
0003d0 77 87 28 bd b5 63 f6 be 5b 39 11 bc 34 a2 7e be
       -0.041144814 -0.48122945 -0.008863772 -0.24866563
0003e0 d1 25 3f bb 8a 75 51 be fb 31 d5 3e d0 b4 9c 3d
       -0.0029166827 -0.20454994 0.41639695 0.07651675
0003f0 d8 1e 64 bd a3 19 33 3e bf 92 8b be 43 0d a5 bd
       -0.055693477 0.17490248 -0.27260396 -0.0805917

net.0.0.bias f4 [64]
000000 88 2c 42 be c1 9e 26 bb 1b 42 a1 3b 00 75 9c 3d
       -0.189623 -0.0025424215 0.0049212105 0.076395035
000010 1a ce 8c 3c b3 53 0c 3e 5e 37 b2 bd 25 0f 77 3d
       0.01718812 0.13703804 -0.08701967 0.060317177
000020 da c0 ad bc 95 06 2d be f1 d7 22 3c d4 96 18 bd
       -0.021210123 -0.16897042 0.00993918 -0.037253216
000030 ea d4 8b 3d f8 b2 08 bd a7 0b b5 bd e5 7b d8 bd
       0.068277195 -0.033373803 -0.08840113 -0.10570506
000040 30 c9 c9 bd 23 1d b7 3c c6 61 65 bd 09 73 49 3e
       -0.098528266 0.02235276 -0.056001447 0.19672789
000050 15 e3 55 be 61 a6 fc bd bf 3c 13 3e 24 66 4f 3e
       -0.20887406 -0.12336422 0.14378642 0.20253807
000060 54 5f 29 bd 11 6b f7 bd 81 1d d8 3c 5c 10 1e 3e
       -0.041350678 -0.12080968 0.026381256 0.15435928
000070 5d e3 ef 3e 0a 52 06 3f 11 2c 4b 3e 0a 6d dc bd
       0.46853152 0.5246893 0.19841029 -0.10762985
000080 81 9a bb 3d 8b 7f 07 bd 7e 46 7d 3c 0a fa 3e bc
       0.09160329 -0.03308062 0.015458701 -0.011656294
000090 aa e6 a8 3e cd 47 14 3c 88 39 ab bc ab 35 fe bb
       0.32988483 0.009050322 -0.020901456 -0.0077578626
0000a0 5e 04 21 ba 11 9e a7 bb f4 88 a9 be 31 38 97 3d
       -0.00061423134 -0.0051152785 -0.331123 0.073837645
0000b0 b5 ef a3 bb c3 98 7e be 59 3d b9 bd 38 a0 9b bd
       -0.0050029405 -0.24862961 -0.09044904 -0.07598919
0000c0 9f 5a 77 3e a6 0c 67 bd 4b 83 54 be 68 f7 8f bd
       0.24155663 -0.056408547 -0.2075321 -0.07029611
0000d0 e2 ea 8f 3d fe 67 75 be 22 73 97 bd ea e3 4a 3d
       0.07027222 -0.23965451 -0.07395007 0.049533762
0000e0 28 14 40 bd 72 a0 de 3d 8b 5f b5 3d b8 05 c2 bc
       -0.046894222 0.10870446 0.08856114 -0.023684368
0000f0 ad de 40 3e 5a dc 0f be 84 c2 41 be ff 3b e1 bc
       0.18834944 -0.14048901 -0.18921858 -0.027494429

net.1.0.weight f4 [64, 64]
000000 ec 71 73 be ab c6 69 be 4b a5 ba 3d 14 96 f3 bc
       -0.23773926 -0.22829692 0.091135584 -0.029734649
000010 6a 4c 6a 3e e6 ef 50 3e 3b 61 93 3e 04 5c 05 bc
       0.22880712 0.20404014 0.28785118 -0.008139614
000020 fb 98 8f 3d 19 f6 cc 3d 93 11 0b bd 81 f0 80 be
       0.070116006 0.10007877 -0.033952307 -0.2518349
000030 12 7a e4 3d 88 2f b5 3e 97 c8 47 bd 6b 54 20 3d
       0.111560956 0.35387826 -0.04877528 0.039143007
000040 8a 8a 9f bd 73 a3 bf bd 04 33 e5 3d c7 51 93 bd
       -0.07790096 -0.09357347 0.11191371 -0.07193332
000050 b3 ca 11 bf 40 ca 9e 3d d7 fa ec 3d e7 95 c1 3d
       -0.5694992 0.0775342 0.115712814 0.0945242
000060 a4 db 07 bd 2b 59 c8 3d a2 70 18 3d 76 6f bc bd
       -0.03316845 0.097826324 0.03721679 -0.09200947
000070 83 9f ad 3e 56 3f ee 3b c7 fc 06 3e f5 85 a0 be
       0.3391076 0.007270734 0.13182364 -0.313522
000080 4c d1 2b 3e 3a b7 ff bc 21 22 18 3d c2 68 8b be
       0.16779059 -0.031215299 0.037141923 -0.2722836
000090 4a ec d2 bd 83 68 ff 3d 7b c8 bc 3e 4d 60 d9 3e
       -0.10298975 0.12471106 0.36871704 0.42456284
0000a0 a0 c7 5e 3e 46 bd 01 be f8 93 64 be 3a 76 a0 3d
       0.21755838 -0.12669858 -0.2232207 0.0783505
0000b0 5a c8 95 3c b0 fa 7d 3d 31 8d 2c 3d a5 ae 05 bd
       0.018284012 0.062006652 0.042126838 -0.032637257
0000c0 f5 03 63 bd b2 b3 56 bf 25 c3 27 3d 60 8d 69 ba
       -0.055423696 -0.83867943 0.04095759 -0.0008909311
0000d0 45 1a 4a 3a f2 9c 47 bf c0 20 de bd 9b 97 0e bd
       0.0007709603 -0.77973855 -0.1084609 -0.03481255
0000e0 86 40 00 3e c4 db 0f 3e 48 5c 0f bd 38 09 02 3d
       0.12524614 0.14048678 -0.035000116 0.031747073
0000f0 2b e6 86 be 67 b1 a6 bd 1f 51 e8 bc 83 e1 92 bd
       -0.2634748 -0.081393056 -0.028358994 -0.07171919
000100 11 e0 3b 3e 5a 7e 9a 3c a5 ca c7 be 0b 0e 07 be
       0.18347193 0.018859077 -0.39021793 -0.1318895
000110 2a 44 d2 bf 69 03 15 3b 9c c2 d6 be ea c9 8a bd
       -1.6427052 0.0022737628 -0.4194535 -0.06776793
000120 3d 91 52 be 30 85 ee 3e ef b1 9c 3d 40 68 ee bd
       -0.20563217 0.4658599 0.07651126 -0.11640978
000130 03 75 22 bb a4 3e 07 be 42 22 bf 3e 0f f5 02 3e
       -0.0024788983 -0.13207489 0.37330824 0.12788795
000140 ad 80 0b bf 37 ad 90 3c 5f d5 52 bf b9 90 cf 3d
       -0.5449322 0.01766072 -0.8235683 0.101350255
000150 1e c3 a8 3c d4 c6 f3 3d 3a 68 29 3e 0c 81 e5 bd
       0.020600852 0.11903158 0.16543666 -0.11206254
000160 b1 8f 9e bf 29 12 9e 3c 5f 57 a0 3d 6a a4 c3 bd
       -1.2387601 0.019295769 0.07829165 -0.09552844
000170 35 c3 04 bf 20 d9 c1 be 63 8b cd be dc 76 24 3d
       -0.5186036 -0.37860966 -0.40145406 0.040152416
000180 6d 13 61 3d 0a be 75 3e d3 a4 db bc 0a ec 57 3d
       0.054950166 0.23998275 -0.026811993 0.05271534
000190 11 bd b1 bd 03 7c d9 3c 95 c8 21 bf c5 84 20 bc
       -0.0867864 0.026548391 -0.6319669 -0.00979728
0001a0 a1 3f 2c bd 10 ef ba be a6 af 93 3e 70 ff 8a 3d
       -0.04205287 -0.36510515 0.28844947 0.06787002
0001b0 3d 4b d4 bd 2d b6 06 3e bd bf 00 3e f5 21 4b 3e
       -0.10365913 0.13155432 0.12573142 0.19837172
0001c0 6b 05 4a be 9e ec 4e 3d a9 8c 95 3e b2 e2 11 3e
       -0.1972863 0.050518624 0.29208878 0.14246634
0001d0 8d c0 b6 bd c8 62 1b 3e 85 a2 96 3e b6 c8 8d 3d
       -0.08923445 0.15174401 0.29420868 0.06923048
0001e0 d0 89 5b 3e a7 78 f7 bc 19 0f fb 3d 46 bc b1 bc
       0.2143929 -0.030208899 0.12258739 -0.021696221
0001f0 39 ec 54 3e f9 7d 78 3e f3 d0 5e 3e dc c6 75 3d
       0.20793237 0.24266805 0.21759395 0.0600041
000200 d7 34 87 bd d5 04 7b 3d 3d 6d f5 bd e8 a3 80 bc
       -0.06601875 0.061283905 -0.11983726 -0.015703157
000210 87 9e 8b 3e e0 99 02 3d c8 88 ef be 5c 5d b9 3c
       0.27269384 0.031885028 -0.46784043 0.022627525
000220 bd 5d 0d be 9e 96 75 bc fa 4e 27 3e 16 f0 47 bd
       -0.1380529 -0.014989523 0.16338721 -0.04881295
000230 e8 99 bc 3d f3 43 b6 3c 0b 49 03 be af 1a 26 3d
       0.09209043 0.022249198 -0.12820832 0.04055279
000240 90 c5 49 3e c5 12 c1 3c a0 4c 68 3d 39 7b 55 bc
       0.1970427 0.02356852 0.0567137 -0.013029867
000250 fa e1 75 3d 3f 37 2b 3e ac aa 99 be 5e ee 8e bd
       0.06002996 0.16720293 -0.30013025 -0.06979059
000260 eb 26 f4 bc fc 31 9e 3d 60 a5 74 3c 06 4b 96 bd
       -0.029803714 0.077243775 0.014932007 -0.07338528
000270 2a 01 e1 bd b8 96 fe 3d d6 0b 15 3e 75 4a 27 be
       -0.1098655 0.12431091 0.14555296 -0.16336997
000280 cd 9d 10 3e 67 f4 5c bb 1a b3 5d 3e 63 8e 30 3e
       0.14122696 -0.003371501 0.21650353 0.17241816
000290 70 40 1a bd a6 ed 80 3d 90 e1 ff 3d c6 ed c0 be
       -0.03765911 0.06295328 0.124941945 -0.37681407
0002a0 ee cf ef be de 2d 10 3e 68 66 4f be c8 89 89 bd
       -0.46838325 0.14079997 -0.20253909 -0.06715733
0002b0 d0 97 f2 3d 60 81 01 3d 3b b2 10 3e 76 fc db bd
       0.11845362 0.031617522 0.1413049 -0.107415125
0002c0 70 1c bf 3b 92 e8 0f bd 81 82 80 3d 33 be 0e 3e
       0.0058322474 -0.035133906 0.06274892 0.13939743
0002d0 8c 71 13 bd 4f cb b7 bd 88 dc 46 be a5 60 76 3e
       -0.03599696 -0.08974325 -0.19420063 0.24060304
0002e0 59 57 c8 be 16 56 b8 bd 13 7e ec bd 00 1b 29 be
       -0.3912914 -0.090007946 -0.11547484 -0.16514206
0002f0 64 f0 65 be 60 54 4a be 05 0f 11 bb 08 0f 82 bd
       -0.22454983 -0.19758749 -0.0022134196 -0.06350523
000300 a5 52 13 3e 00 81 70 bb dd 8c 26 3d d1 88 08 be
       0.14386995 -0.0036697984 0.04066168 -0.13333441
000310 96 c0 95 3e 93 88 f2 3c 7f dd bb bd 4b d8 51 bd
       0.29248494 0.02960614 -0.091731064 -0.051231664
000320 15 fd 00 bc 72 b9 c2 3d 85 1a b5 3c 00 5a 08 3f
       -0.007872839 0.09508027 0.022107372 0.5326233
000330 31 7b 11 3e 95 9b b5 bd 46 27 f3 3d ec bb 37 3d
       0.1420715 -0.088675655 0.11872725 0.04485695
000340 df 7b a9 3e 90 a9 13 be af 30 aa be 9b 1f fe bd
       0.3310232 -0.14420152 -0.33240268 -0.12408372
000350 53 a9 c8 bc 77 c4 f9 3b e6 2e eb 3d 57 30 a9 bd
       -0.024494803 0.0076222974 0.114835545 -0.08261173
000360 0b f4 1a bf 3b 2e dd bd d6 46 c8 3d 34 e0 0a be
       -0.6052863 -0.107998334 0.09779136 -0.13562089
000370 84 f4 93 be 43 ec 9b be 69 2b b7 3e ec aa 7d 3e
       -0.28897488 -0.3045369 0.35775307 0.24772233
000380 cf 28 64 be 6a 7c d9 bd 90 58 ff bd 73 fe 81 3e
       -0.22281192 -0.10619433 -0.12468064 0.25389442
000390 12 6a 8d be e9 b1 ce 3d ca 2d e4 bd 08 33 8c 3c
       -0.27619988 0.100925274 -0.11141546 0.017114177
0003a0 79 b2 16 be 84 1d 10 3e a8 de 5c 3d 16 c0 d6 bd
       -0.1471652 0.1407376 0.05392328 -0.10485856
0003b0 50 70 e3 3c f9 d6 f0 3c 11 f8 1b 3e 87 66 4e 3d
       0.027763516 0.029399382 0.15231349 0.050390746
0003c0 fd 13 90 bd f6 58 8a be 66 01 a6 3e 80 28 df bd
       -0.070350625 -0.27020997 0.32422942 -0.10896397
0003d0 14 bd 18 3d 13 44 9e 3e 56 b4 c4 3d df 5d 18 3e
       0.037289694 0.30911312 0.09604709 0.14879559
0003e0 02 9d 47 be 10 25 95 be a8 06 5a be 5e 40 81 3d
       -0.19493487 -0.2912984 -0.21291602 0.06311105
0003f0 69 93 e5 bd da 20 5e bd cb 3c 03 bc d2 37 fe 3c
       -0.11209757 -0.05423055 -0.0080101 0.031032477

net.1.0.bias f4 [64]
000000 f9 18 e2 bc 77 54 90 bd 98 dc d3 3c f5 cb ba bc
       -0.027599799 -0.070473604 0.025862023 -0.022802332
000010 de 7a 55 bc 8e 31 05 3e a3 33 0c bc 7e 69 40 bd
       -0.013029782 0.13007185 -0.008557233 -0.046975605
000020 21 d2 42 be 5f b9 56 3d 8e ca 96 3d b2 14 d2 3d
       -0.1902547 0.052422877 0.07362853 0.102578536
000030 26 4a e0 bd ad 28 02 be 6e e7 04 be 2b 62 29 3d
       -0.10951643 -0.12710829 -0.12978908 0.041353386
000040 d7 3f 84 bb c9 ea d1 3d e9 73 75 bb 12 47 cc bd
       -0.0040359306 0.1024986 -0.003745312 -0.09974493
000050 00 ba f4 3b e4 c8 63 b9 5c 5e ab 3d 8f 7b 1c bb
       0.007468462 -0.00021723245 0.08367607 -0.0023877358
000060 42 89 29 3e dc a1 8e 3d fe d3 76 bd 4e af 16 3d
       0.16556266 0.06964466 -0.060260765 0.036788277
000070 1b 25 0e be 82 4d 00 3e 81 ba e7 3d e5 83 cc bc
       -0.13881342 0.12529567 0.1131487 -0.024965236
000080 df b8 49 be 2d e8 c8 bd 6a 81 d7 bc c8 69 46 be
       -0.19699429 -0.09809909 -0.026306827 -0.1937629
000090 1e 6e 23 bb 0b f0 9d be 26 a9 fe 3a 4a b4 07 3c
       -0.002493746 -0.308472 0.0019429072 0.00828273
0000a0 a2 e6 08 3e 52 41 93 be 4a 50 4f bd 9b cf 00 be
       0.1336923 -0.28760773 -0.05061368 -0.12579195
0000b0 b5 0a b0 bd 3e 56 03 bb 05 46 2d bd e3 99 00 be
       -0.08595792 -0.0020040418 -0.042303104 -0.12558703
0000c0 da dc 4f 3d 1b 79 26 3d ac 74 86 3e bb f9 ae bd
       0.05074773 0.04064284 0.2626089 -0.08543726
0000d0 db 50 d5 3c c6 83 1c 3d e7 f8 1b 3b f9 06 35 bd
       0.026039531 0.038211606 0.002379948 -0.044196103
0000e0 49 06 d7 3d ab 4e be 3e 0c f1 47 bb 86 c1 99 3c
       0.10499246 0.37169394 -0.0030508665 0.018769037
0000f0 3c 46 fd bd 6d 47 c4 bd 9e 13 40 3d 45 9a 95 3d
       -0.12366912 -0.09583936 0.04689371 0.07304815

net.2.0.weight f4 [12, 64]
000000 3e 8e 89 bd e2 75 a5 3d 29 5d 23 3e 4c 50 b6 be
       -0.06716584 0.08079125 0.15953507 -0.35608137
000010 d3 83 3f be 74 db 37 be b8 6b df be be 86 a6 3e
       -0.1870263 -0.17954808 -0.4363687 0.32524675
000020 1f 26 5e 3f 58 bb 18 3e c1 62 c7 3f de 9c 28 bc
       0.8677692 0.14915216 1.5577012 -0.010291306
000030 8a 6f c7 be 22 4d f0 bd ba 5d a0 be 9d 1e c2 3d
       -0.38952285 -0.11733462 -0.31321508 0.09478495
000040 ea 74 22 3d ef 33 80 3d 83 66 10 bf 0e 78 5c bd
       0.03966228 0.062599055 -0.5640642 -0.05382543
000050 de e3 f8 3e db e3 7c 3e 60 d5 d2 3d a1 40 6a 3e
       0.4861135 0.24696295 0.10294604 0.22876216
000060 ab 96 34 3b 68 4d bd bd 2c f6 5c bf ba 8a fb 3c
       0.0027555625 -0.0924328 -0.8631313 0.030705798
000070 09 4e a7 be 57 e8 de 3e 99 e4 7d bd d8 cf 0a bc
       -0.32676724 0.43536636 -0.061985586 -0.008472405
000080 38 e4 7c be c5 53 8a be b7 7d 7f bd 71 a9 55 3f
       -0.24696434 -0.27017036 -0.06237575 0.8346167
000090 27 c8 ad bd a8 3a 36 3f fc 3e 98 3d f0 7f a9 3e
       -0.08485442 0.7118325 0.07433888 0.3310542
0000a0 88 1f 05 3f b3 d4 6c 3d dc fe ab 3e dd e0 de be
       0.5200124 0.057820033 0.3359288 -0.43530932
0000b0 4a 60 54 3e 9c 92 50 3e eb f8 74 3e 59 96 9e 3e
       0.20739856 0.20368427 0.2392308 0.3097408
0000c0 48 09 d5 3d 51 d1 d0 be a4 d3 15 be c9 84 95 3e
       0.10402161 -0.40784696 -0.14631516 0.2920287
0000d0 98 00 2c bd 53 33 7f be d3 b3 13 3f a3 18 60 be
       -0.041992754 -0.24921922 0.57696265 -0.21884398
0000e0 3f ca 95 3e e8 0e 69 3b 4f b7 be be 5d 72 b8 bc
       0.29255864 0.0035561863 -0.37249228 -0.02251547
0000f0 38 3f 59 bd 61 cf 07 3f e2 f6 9f 3b 58 0a e6 bd
       -0.053038806 0.5305081 0.0048817256 -0.11232442
000100 19 9e 54 bb 81 ab 80 3f 39 22 69 be 12 b5 d4 be
       -0.0032442866 1.0052339 -0.22766961 -0.41544396
000110 46 e8 9b 3e 04 f7 24 3f ba 66 c7 bd ed f9 26 3e
       0.30450648 0.64439416 -0.097363904 0.16306277
000120 4b df 8f be 1b f8 4a 3d 6e d4 03 c0 33 2f 31 bd
       -0.28100047 0.049553018 -2.0598407 -0.043257903
000130 8f ad 2b 3e 80 0e c9 3d e7 67 1e 3f 2e f8 50 3e
       0.16765426 0.09817219 0.6187729 0.20407173
000140 33 7a 51 3e eb 17 10 be 26 f5 61 3f ef 0c d6 3e
       0.20456772 -0.14071624 0.8826469 0.41806743
000150 f4 8f a4 be 48 aa ad 3d 98 1f 97 be f5 d6 8e be
       -0.32141078 0.08479744 -0.29516292 -0.27898374
000160 fb c0 95 bd 46 57 27 3e c1 3b dd 3f d3 b9 4e 3e
       -0.07312199 0.16341886 1.728386 0.20188074
000170 d1 18 9a 3e 9d eb 56 3e d0 0b f2 3d 8b 6d f2 3e
       0.30097058 0.20988317 0.11818659 0.473492
000180 c2 9d d5 be d5 f0 c8 be 35 bd 73 be 29 f5 0b bf
       -0.41721922 -0.3924624 -0.23802646 -0.5467096
000190 dd 7d 64 3e 0b 5b 85 3f 46 09 fb bd 09 77 aa 3e
       0.22313638 1.0418409 -0.12257628 0.33293942
0001a0 ba a9 6f be 10 e5 ad 3f 4b 18 d6 3e 78 1e a4 3f
       -0.2340459 1.3585529 0.4181541 1.2821798
0001b0 e8 a2 51 3f f1 6f 45 bd fc 47 0f 3d 12 37 54 3e
       0.818892 -0.04820246 0.03498076 0.20724133
0001c0 fd d0 7c be b4 55 9a be d5 27 5a bf 14 29 3f bf
       -0.24689098 -0.3014351 -0.8521703 -0.74672055
0001d0 58 d9 29 bf 32 28 3a be 1c 73 23 bf 77 94 4b bf
       -0.66347265 -0.18179396 -0.6384752 -0.79523414
0001e0 e9 5a ba 3e e1 d3 fb 3d 30 71 d2 be ae 30 91 be
       0.36397484 0.12296272 -0.4110198 -0.28357452
0001f0 1f e4 75 bf c8 6a 32 bf 58 08 71 3e eb 5a 1d 3d
       -0.9605121 -0.69694185 0.23538339 0.038416784
000200 99 4c 8f 3d 6b d1 f0 be a7 47 95 3e 5a 44 4e 3e
       0.06997032 -0.47034773 0.2915623 0.20143262
000210 94 da c9 bc be 4c 4f be 98 bd 35 be 59 7a fb 3f
       -0.024640359 -0.20244119 -0.17748106 1.9646713
000220 2e 78 de 3d 2a f5 2e be 35 f6 0a bf b4 43 71 3e
       0.10862766 -0.1708571 -0.5428193 0.23560983
000230 05 7f 88 3e 3f 8f fa bf 20 66 52 3e a3 c1 0d bf
       0.26659408 -1.9574965 0.2054677 -0.5537359
000240 73 c4 8d 3e db f6 08 3e 72 51 85 3e 20 0d 59 3d
       0.2768894 0.13375418 0.260387 0.052991033
000250 43 cd bc bd e3 cd 69 be 63 70 e1 3d 16 9d ec 3c
       -0.09218838 -0.22832446 0.11007764 0.028883498
000260 a1 66 1d bf 16 26 a6 3d 35 69 43 3e 2b 91 42 bc
       -0.61484724 0.08112733 0.19083102 -0.011875431
000270 8a 42 85 be 59 34 76 be 34 6f 0c 3e b6 3a fb 3d
       -0.26027328 -0.24043407 0.13714296 0.122670576
000280 24 d8 d6 bf 3f 0d ad bc 08 00 a1 bd 75 ab ca bc
       -1.6784711 -0.02112448 -0.07861334 -0.02473996
000290 7c 23 2d 3f 88 78 8b be 0d 6e 0d 3e 90 5b da be
       0.6763227 -0.27240396 0.13811512 -0.42647982
0002a0 8a 93 d9 3f ea 26 0c 3f 5f 38 4c 3e 41 9b a1 3f
       1.699815 0.5474688 0.19943379 1.2625505
0002b0 53 6b 2f be 47 df f3 3d 77 3b 18 be f9 e1 a0 3e
       -0.17130785 0.11907821 -0.14866434 0.31422403
0002c0 0f aa 4e be c2 8b 02 bf 94 f0 74 bf 78 73 61 3d
       -0.2018206 -0.50994503 -0.95679593 0.05504176
0002d0 41 fb a5 bf a9 1a 0f bf cc 06 4f be 12 3b 0e 3f
       -1.2967302 -0.55900055 -0.20217437 0.55558884
0002e0 c1 7f 01 bf 1a f3 84 bd 13 b5 8f be 11 21 55 3e
       -0.5058556 -0.064916804 -0.28067836 0.20813395
0002f0 b3 14 51 bf 95 c3 ca bd 95 92 d3 3e 3f d9 92 3d
       -0.8167221 -0.099005856 0.4132277 0.07170343
000300 08 02 40 3f f7 cf b3 3e 80 78 11 bd 7d 96 5b 3c
       0.750031 0.35119602 -0.03551531 0.013402578
000310 cd d4 99 be b7 1b a4 3e 1e 00 da 3e f5 59 2a be
       -0.30045167 0.32052395 0.42578214 -0.16635878
000320 db a9 87 bd 83 3d 52 be 91 b8 6e 3f 6d 9f 3c 3e
       -0.06624194 -0.20531277 0.93250376 0.18420191
000330 85 fb 67 3e 5c 3f 59 3d 30 12 72 3e 99 a7 a3 bd
       0.22654541 0.05303894 0.2363975 -0.07990951
000340 e8 d3 ca bd 93 01 a3 3c 12 9b 32 3f 02 bb 15 bf
       -0.09903699 0.019898212 0.6976787 -0.58488476
000350 2b 13 86 be 54 ff 4e 3e 07 14 37 be ab 87 16 3f
       -0.261865 0.20214587 -0.17878734 0.5880076
000360 97 2c 7f 3c d5 6d d8 3d 49 b1 8d 3f f5 af 37 be
       0.015574596 0.10567824 1.1069728 -0.17938216
000370 ce 73 35 bf 56 22 23 bf 1d 69 8e bd cd 80 25 3d
       -0.7087983 -0.6372427 -0.069536425 0.040406037
000380 e2 13 ae be 24 80 df be 3f bd d5 bc 00 89 19 3f
       -0.33999544 -0.4365245 -0.026091216 0.5997467
000390 8f ed 24 bd b8 f7 9f bf 77 a9 0f 3f b7 80 69 3d
       -0.040265616 -1.2497473 0.5611796 0.057007518
0003a0 1d 38 1d bf 79 12 5f 3e f1 5f 78 3f cc c6 6a 3e
       -0.6141375 0.2178439 0.97021395 0.22927397
0003b0 2f 32 7f be 0b ef 08 3e 00 e6 0a be 5a 42 53 3f
       -0.24921487 0.13372438 -0.135643 0.8252312
0003c0 3f 5b 78 3f 8f ae 9a 3e 9c 2e 6f 3d e4 f0 1b 3f
       0.9701423 0.30211303 0.05839406 0.60914445
0003d0 c3 77 80 bc cc bb aa be 24 1e 58 be 82 84 c4 3d
       -0.015682107 -0.33346403 -0.21105248 0.09595586
0003e0 31 03 5e be a3 99 6f 3d 23 64 ac be 64 e9 42 3d
       -0.21680905 0.05849613 -0.33670148 0.04758586
0003f0 8e 72 9c bd f8 2b 17 bf e8 ba 6c bc ff ba d0 3e
       -0.07639037 -0.59051466 -0.014448859 0.40767667

net.2.0.bias f4 [12]
000000 e9 9b 32 3b b2 22 b7 bb 09 32 fc bc 5d 3a 2c 3d
       0.0027253574 -0.005588853 -0.030785577 0.042047847
000010 ab fc 7d bc 51 fb dd 3c b3 c4 b0 bd 41 f6 e9 bc
       -0.015502135 0.027097376 -0.086312674 -0.028559806
000020 5c 1b 35 bd a1 bc 95 bd 34 83 74 bd 67 74 17 bd
       -0.044215545 -0.07311369 -0.059695438 -0.036976244
