suboptimal_policies/Walker2d-v4-2300.pth (torch, 295959 bytes, 6 tensors)

net.0.0.weight f4 [256, 17]
00000000: b0e4 1f3e d18a bfbf 2cd1 e5be b10a 4dbe
00000010: c779 85be 74f5 a03f e820 9bbe ad41 1cbe
00000020: bfd7 4ebe f97f 17bf a89a 8d3d ebf2 423d
00000030: fd07 2d3c a38f d03c 776a aabd 8528 753c
00000040: 3bb6 4dbb 9cd9 883e ec4a 333e 5656 28bf
00000050: 8aa8 1c3f a721 0e3e e2ff 3f3e a05e 453f
00000060: 6222 b5bd 6a01 143e 7f16 5b3e 4f38 a5be
00000070: 6960 3b3e 4b4d 803d c0ce 0c3d b200 353d
00000080: f78e 223e 9989 cbbd 0efd 433e b710 18bf
00000090: c6de 26bf 5904 7dbe 5c53 debe 8f03 813f
000000a0: f416 2b3f 8eb6 283e 76c2 4ebd d3c6 bbbe
000000b0: b9cf f9bd 5ee5 003e 553b 8b3d a26a 883c
000000c0: 6767 85bd a00c 9bbd 94d8 51bd 46b8 7e3e
000000d0: 3fa7 33bf 2bf2 263e 3512 a43e ee30 41be
000000e0: da64 043e a329 2dbf 04a7 8cbe 2827 023e
000000f0: 8138 12be ab87 2bbd 3a1d 183e ee37 8d3d
00000100: 1075 ef3a 23ed 8cbd 01d5 8fbd 599d acbc
00000110: c2ec a1be 1830 91be 4744 b33d 2bf4 973c
00000120: 9914 f43e 1627 9ebe ff52 063e 5e11 963e
00000130: 8cb3 3d3e 6e40 ff3d e541 bd3e 0bc3 aabd
00000140: c66d c0bd 7e3c d3bb 4f4f 99be a8da abbd
00000150: a1b9 8ebc a3bc 18bf 6bb4 7d3f 3076 493e
00000160: b9b8 83be 7384 113d 3312 a4be ba2f 083e
00000170: c75e 823e aa0d a83e 3301 8f3e 2e9b 4b3e
00000180: 9355 0cbe 5bdb d03c 4ffa e43b 43f8 0b3d
00000190: a6ae 873b 276a 543b 8092 b3be 00d6 0dbf
000001a0: b784 84be 1c16 55b9 d575 6dbf 34de a6bf
000001b0: c13c b13d e207 00bc 1f47 213d e19b 29be
000001c0: be31 973e 783f 90bd bf1a 4b3e e2ea b63d
000001d0: d85d 63bc 8de9 d43d 67fb 81bd 782b adbc
000001e0: acc4 5b3e 9eb0 6f3d ab7e 1c3d cad8 af3d
000001f0: b04b ac3e 9550 c23e 63aa 8bbd 5dee b4be
00000200: 41d7 363e 5357 ca3e 8df1 a2be 4583 09be
00000210: 1168 1cbe f29a a4bd 3ba3 89bb 1a22 233e
00000220: 50c9 18be 11ea 49bf 1137 39bf ced6 d03e
00000230: e0c9 843e e821 22bf 727c 423f dfe9 3cbf
00000240: e78d 06be c047 673e 187e 423e d39f a43d
00000250: 5c55 2bbc e3c3 0e3e b8bc 2dbd 9c1c d53d
00000260: 754d df3d d8a3 a33d 0259 0c3d c619 51be
00000270: fc8b 583f fa79 0e3f 19c5 ba3f 322b 6b3f
00000280: a871 0abe e556 c4be 684d febe 8e35 b9bd
00000290: 3239 9cbb 5a23 203d d0cf fdbc b705 51bc
000002a0: 0405 833d 674d 70bc 2de4 3c3e 3902 aebe
000002b0: 8e50 59be c597 9ebc 0a16 223e c3d0 913f
000002c0: 222a 063e fb1e 463e 99c3 0abf a5c7 9d3e
000002d0: df94 033e 1e43 0f3e 1e70 503d 92e4 90bd
000002e0: 12c0 53be e5f3 cf3c 8e3d 37bd 3d7c 4d3d
000002f0: dacd 093f 71b0 ddbe dd85 9f3e 09e3 583e
00000300: 9fa4 0fbf 2192 473f c589 38be a935 10bf
00000310: 76b9 b9be a651 2a3e 83c6 d4bd 2a79 7dbd
00000320: 2cad 21ba 6be5 1f3d 0790 a33d 6872 ff3d
00000330: ca49 4d3e 1e03 bd3e 4621 debf 9d8e 8ebe
00000340: 5102 6c3c f1c1 483f 825b 883f ca67 9cbe
00000350: e66d ebbd d586 323c 45df c7bd 7925 f93d
00000360: 885f ac3d 9939 3cbd 63d1 ab3c 0b10 013d
00000370: 3bde d6bb 53e3 9fbe 4d6a 7c3f 8c55 0cbe
00000380: e657 be3e 42d2 8bbe ceeb fdbc 8b24 e23d
00000390: 6936 1cbf 1688 813c 9cdc b0be f0a6 8b3d
000003a0: 1dcd 8d3d 1faa 3d3d 69e8 163e 79e0 b83b
000003b0: a8ff 25bc 52a6 093e d62a f73d f478 623f
000003c0: 974e 583e 52b2 51be 8b02 183e 4e51 6bbf
000003d0: 74ea d2be 40cd d6bd e891 5fbe 0444 843e
000003e0: 2bf5 523d 4083 9dbd 334d 453d 9bba 83bb
000003f0: b189 1ebe 6576 203c 7053 88bc c9e2 013d
0.15614581 -1.4964238 -0.44886148 -0.2002361 -0.2606947 1.2574906 -0.30298543 -0.15259428
-0.20199488 -0.59179646 0.06914264 0.047594946 0.010560987 0.025459116 -0.08321088 0.014963274
-0.0031389135 0.26728523 0.17509049 -0.6575674 0.6119467 0.13880025 0.18749955 0.7709751
-0.088444486 0.14453664 0.213953 -0.32269523 0.18298496 0.062647425 0.03437686 0.044190116
0.1587485 -0.09938354 0.19139501 -0.59400505 -0.65183675 -0.2470869 -0.43422973 1.0079211
0.668319 0.16475889 -0.05047842 -0.36675128 -0.12197823 0.12587497 0.06798426 0.016652409
-0.06513863 -0.075707674 -0.051231936 0.24874982 -0.7017707 0.16303317 0.3204514 -0.18866321
0.12929097 -0.6764166 -0.27471173 0.1271025 -0.14279367 -0.04187743 0.14854899 0.06895433
0.001826914 -0.06881168 -0.07023049 -0.021071123 -0.31625944 -0.28357005 0.08753257 0.018549046
0.47671965 -0.30889195 0.13117598 0.29310125 0.18525523 0.12463461 0.36964336 -0.08337983
-0.093959376 -0.00644642 -0.2994332 -0.08391315 -0.0174225 -0.59662837 0.9910342 0.19673991
-0.2572687 0.035526704 -0.32045135 0.13299456 0.25462934 0.32822925 0.27930602 0.19883415
-0.13704519 0.025495222 0.006987847 0.034172308 0.0041406928 0.0032411905 -0.35072708 -0.55404663
-0.25882503 -0.000203215 -0.9275792 -1.3036561 0.08654166 -0.007814379 0.039374467 -0.1656337
0.29530138 -0.07043356 0.19834422 0.08931519 -0.013877355 0.10396109 -0.06346779 -0.021138892
0.21461743 0.058518045 0.038206737 0.08586271 0.33651495 0.37952104 -0.06819608 -0.35338107
0.1785555 0.39519748 -0.31824914 -0.13428982 -0.15274073 -0.08037366 -0.004200367 0.15930977
-0.14920545 -0.7887278 -0.7234965 0.40788883 0.25935268 -0.63332987 0.7597114 -0.7379436
-0.13140069 0.22585964 0.18993413 0.080382966 -0.010457363 0.13941912 -0.042416304 0.104058474
0.10903446 0.07990235 0.034264572 -0.20419988 0.845886 0.5565487 1.45914 0.91862786
-0.13519919 -0.38347545 -0.4966843 -0.09043418 -0.0047675604 0.039096214 -0.030982882 -0.01275771
0.06397441 -0.014666892 0.18446417 -0.3398607 -0.21222135 -0.019359479 0.1582872 1.1391834
0.1310201 0.19347756 -0.5420471 0.3081638 0.12849759 0.13990447 0.050888173 -0.07074846
-0.20678738 0.025384853 -0.044736437 0.05016731 0.5382973 -0.43298677 0.31156817 0.21180357
-0.56110567 0.7795735 -0.18021305 -0.5633188 -0.36274308 0.16632709 -0.103894256 -0.06188313
-0.0006167467 0.03903715 0.079864554 0.12472993 0.2004768 0.3691644 -1.7353904 -0.2784318
0.014404849 0.7842093 1.0652926 -0.30547935 -0.11495571 0.010896404 -0.09759382 0.121653505
0.08416659 -0.045953367 0.020973867 0.03150944 -0.0065572537 -0.31228122 0.985997 -0.13704509
0.37176436 -0.2730885 -0.03099623 0.11042126 -0.61020523 0.015811961 -0.34543312 0.0681895
0.06923888 0.04630482 0.14737095 0.0056419936 -0.010131754 0.13442352 0.12068717 0.8846581
0.2112373 -0.2047818 0.1484472 -0.91920936 -0.411945 -0.10488367 -0.21833003 0.25833142
0.05150334 -0.076910496 0.048169326 -0.004020048 -0.15482213 0.009793852 -0.016641349 0.03171042

net.0.0.bias f4 [256]
00000000: c3a9 0ebe b1f0 acbe 0b3e 7abd 22b5 2d3e
00000010: 1e4b c1bd b60a 8ebe f780 f5be ce36 9cbc
00000020: 3e46 e1bd a32a dabd 5277 ab3b 074f cf3d
00000030: b750 4e3e 737c 92be bc83 223a 3d1d 723e
00000040: 5647 65be 3f5a 803d 99f2 aabe c39b 913d
00000050: 9c71 293e dbb9 05bf fcf4 46be dc5e c4be
00000060: e7bb 38be 01c3 d5be 29df 47be 0478 873e
00000070: b3c2 b5bd cabe d73d adec b0bc 3b42 78be
00000080: ede4 e4bd ab03 36be 809f 8d3d 80d9 c13d
00000090: f0c8 20be ac2b 4c3d 498f 6bbe fcc1 c93c
000000a0: eb7d 99be 45c5 0b3c 982d 8cbc 7440 173d
000000b0: 89c0 523e 99d4 3dbc a156 6fbd 0fb4 083e
000000c0: d70d ba3d 1135 c2bd 44d7 51be d115 95bd
000000d0: c74c 98bd 2285 063e ccac 90be 265a c7be
000000e0: 8827 8b3e 146c abbe 0b3e 9abe 7c42 8abe
000000f0: dd95 1abc 7a3d d83d 3961 fdbe 19a3 81be
00000100: a00f a2bd 56ba ec3c c741 26be 57c8 b6bd
00000110: a83d 523e 81cb 303e 6fec e4bd 742f 59be
00000120: 0500 693d d916 06be 86f9 f83d ccff 83be
00000130: d37f 833e 040c adbe 919f 44be 54d2 0bbe
00000140: 2eaf 883d 7e64 b83e 4a2d b13c f432 eabe
00000150: 92a3 343c fbdd 9dbe 2403 6bbd 5136 1cbe
00000160: b60b 63bd 8ab6 623d e404 073d 6cbe 51be
00000170: e72f 03be 23ac 8bbe ab29 46be 11cc 89bd
00000180: 618d 923c ad88 afbd 61e9 50be 0111 67be
00000190: 2a92 b13d cc7e 623c aed1 983d 4da8 afbe
000001a0: a7d5 ccbe 8988 cabd f15d 8cbe 20cb 92be
000001b0: aef4 06bd 8fbc 253e 4d29 8a3d 50c9 b7bd
000001c0: fdde ebbd 687c abbe e78c 72be e3d5 c4bc
000001d0: 5835 f73c e102 f1be 7d38 5b3e e11f 51be
000001e0: 3eed d7be 18bb cebc c2c4 1bbe 1c56 c1bd
000001f0: 3b6e ddbe ae9d fdbe 6760 f23c 420d efbd
00000200: 5fc7 f8be c72f 3a3e 1031 3cbe 8771 5bbe
00000210: 0e73 c53e 6018 d7bd f1d3 d3be 912f 71bd
00000220: 2f5b e0be 2735 883e 047e 833d bdc1 a1be
00000230: 38f8 28be 8c16 04bf 858c 74bd 6309 f2bd
00000240: a22d 9a3d 7d11 64bc 9e1a 41be b5ea 913c
00000250: cca5 02bf 8381 1bbd daae 64bd 6199 e7be
00000260: d8fe 40bd abd9 6bbe 9799 63be 7da0 9fbe
00000270: db47 c13a d82d a03d 223a 4cbe 5c5d d5bd
00000280: a2c3 d0bd 6690 6f3d 62ff 143e 5dfe 113c
00000290: 4d56 113e e73d 863c 917e 2c3e 4dc8 bcbd
000002a0: 85f3 3b3e 899b 80be 645d fabe 7201 1fbf
000002b0: 9379 91bc 7ebd 88bd 11ee 01be 5725 3a3d
000002c0: 856f 2dbc e039 ca3d 3e8b 38be 667e b7bd
000002d0: 334d 6cbc 334e 5e3d 3024 d0bd 047c 073e
000002e0: fc11 333e 32f0 adbd 4baf 363e 6f5f 9c3c
000002f0: d544 b4bd 5ff1 b0bd 3564 463e 554d 9ebe
00000300: abb2 03bf 4870 eabe b437 28bf 2d82 b2be
00000310: 881b dabe 3aa4 803e fa27 d5be 6cbd 153d
00000320: b4a5 d13d 2af9 063e 6c01 26bc a0ce d9bd
00000330: f428 83be 2b31 94be f5e0 ec3c 95e6 c4bd
00000340: bf8d 9fbe cd83 96be 84c6 9bbe b6c3 3d3e
00000350: 73ee 7dbe 3ce3 91bc 64b3 62be 02ad 173e
00000360: 7579 0ebf 8fdb e1bd 0f9f 71be 1389 fbbc
00000370: efe1 1cbd 2ce5 debe 3b44 b63d 3712 c8bd
00000380: 34c9 dcbd 771a e3bd 8c6d 51bd ae10 1dbe
00000390: 7179 c9be a1ba 8f39 2630 5ebc 6968 80be
000003a0: 1b85 123e d846 2f3d 6f05 7e3e 4fbc 42be
000003b0: 89c9 20be 04c4 b13d 5a44 b8be 977b 9ebd
000003c0: 0b29 40be 5109 45be 52f1 8ebe 4137 1a3e
000003d0: b2ea 4a3e 36ba 07be 7bbd 7cbd b387 f8be
000003e0: b9d1 243e 9419 e4be 066c 2b3d a9e3 41be
000003f0: 3f3c 233e 76bb 143d c593 b4be 6ce9 ba3d
-0.13931946 -0.33777383 -0.061094325 0.16963628 -0.094381556 -0.27742547 -0.47949955 -0.019069102
-0.10999726 -0.106526636 0.00523273 0.10122495 0.20147978 -0.28610572 0.00061994395 0.23643966
-0.22390494 0.06267213 -0.33388212 0.07109787 0.16547245 -0.5223672 -0.19429392 -0.38353622
-0.18040429 -0.4175034 -0.19518723 0.26458752 -0.088750266 0.10534437 -0.02159723 -0.24244015
-0.11176477 -0.17774837 0.06915188 0.09465313 -0.15701652 0.049846336 -0.23003878 0.024628632
-0.2997888 0.008530919 -0.017111585 0.0369267 0.20581259 -0.011586332 -0.058432225 0.13349937
0.09084671 -0.09482778 -0.20492274 -0.07279552 -0.07436519 0.13136724 -0.28256834 -0.38935965
0.27178597 -0.33480895 -0.3012546 -0.2700385 -0.009435144 0.10558601 -0.49488238 -0.25319746
-0.079131365 0.028897446 -0.1623603 -0.089249305 0.20531332 0.1726513 -0.11177909 -0.21209508
0.056884784 -0.13094653 0.12156968 -0.25781095 0.2568346 -0.3379823 -0.19201495 -0.13654453
0.06674038 0.3601417 0.02162804 -0.45742 0.011025326 -0.3083342 -0.057376042 -0.15255095
-0.05543109 0.055349864 0.03296365 -0.20482796 -0.12811242 -0.27279767 -0.19351833 -0.06728376
0.01788968 -0.08570991 -0.20401527 -0.2256508 0.08670457 0.013824176 0.07461868 -0.3430809
-0.40006754 -0.09889323 -0.27415422 -0.28670597 -0.03294819 0.1618521 0.06746159 -0.08973944
-0.11517141 -0.33493352 -0.23686562 -0.02402777 0.030176803 -0.4707251 0.21408267 -0.20422317
-0.4217319 -0.025235698 -0.15211776 -0.09440252 -0.43248162 -0.49534363 0.029586984 -0.116724506
-0.48589608 0.18182288 -0.18378091 -0.21430026 0.38564342 -0.10502696 -0.41372636 -0.058883253
-0.43819568 0.26603052 0.0642052 -0.31593123 -0.16500938 -0.51596904 -0.059704322 -0.118181966
0.07528235 -0.013920185 -0.1885781 0.017812112 -0.51034236 -0.03796531 -0.055830814 -0.45234206
-0.047118038 -0.23032252 -0.22226559 -0.3117713 0.0014746146 0.07821244 -0.19944051 -0.104181975
-0.10193564 0.05848732 0.14550546 0.008910743 0.14193077 0.01638694 0.16845156 -0.09217892
0.18354614 -0.25118664 -0.48899376 -0.6211158 -0.017758166 -0.06676768 -0.12688471 0.045445766
-0.01058567 0.0987432 -0.18021867 -0.089596555 -0.014422703 0.054273795 -0.10163152 0.13230902
0.17487329 -0.08493079 0.17840306 0.019088475 -0.08802191 -0.08639788 0.19374163 -0.30918375
-0.514445 -0.4578879 -0.65709996 -0.3486494 -0.4259913 0.25125295 -0.41632062 0.0365576
0.102366835 0.13180986 -0.010132175 -0.10635114 -0.25617182 -0.28943762 0.028915862 -0.096142925
-0.3116283 -0.2939743 -0.30424893 0.18531689 -0.24797992 -0.01780855 -0.22138745 0.14812091
-0.5565408 -0.110282056 -0.23595832 -0.03070501 -0.038301405 -0.4353422 0.08899733 -0.09769099
-0.10780564 -0.11089032 -0.051129863 -0.15338394 -0.39350465 0.00027414135 -0.013561284 -0.2507966
0.14308588 0.04279217 0.2480676 -0.19017147 -0.1570188 0.08679965 -0.35989648 -0.07738417
-0.18765657 -0.19241835 -0.27918488 0.1506014 0.19816092 -0.13254628 -0.06170414 -0.4854103
0.16095628 -0.44550765 0.041851066 -0.18934502 0.15940951 0.03631159 -0.3526899 0.09126553

net.1.0.weight f4 [256, 256]
00000000: 1461 f93c eaf9 05bb 2fc7 483c 1c79 e1bb
00000010: 5459 f73c 5654 353d e23b 173d 81d1 9b3d
00000020: fb12 883c 4684 293e 17c7 343d f919 4b3d
00000030: f019 8a3d b0bb 39be 4d64 8cbd ff98 023d
00000040: 1920 ccbd bc3a 66bb 1639 9e3d cc4e 333e
00000050: fa26 ecbc 30ab e8bb bbda 61bd 035a 86ba
00000060: a7c1 6e3d 16fb a1bd a40b 1c3e f04b d13d
00000070: a961 dc3c f53a 4bb9 f730 083d eacf a1bd
00000080: 1c73 ffbd 5e2b d3bd 6f0e 99bd 8926 a83a
00000090: 0860 13be a663 5dbd 29a0 dabd 304f 3d3c
000000a0: 6686 d23c 90a6 41bd 8897 bbbd 645a 063c
000000b0: aceb 2dbd ac11 a9bd d274 133e 16b4 babc
000000c0: f0e7 10be 843e 18bd c53f 2bbe 3709 9ebd
000000d0: 4c94 94bd bfc6 f6bc 983b de3d d189 5d3c
000000e0: d775 f2bd 95ba cf3c ab6e ebbd d0a9 9e3d
000000f0: ffbe ca3d 0e8f dfbb c91e 0bbe 263b 563e
00000100: bd22 d2bd caaa fdbd 794f 353c 250d c1bc
00000110: 459c 87bd 8db5 db3d d219 2d3e 6b62 e9bd
00000120: e938 1dbd 5289 1b3e ace0 8dbb eeeb 8fbe
00000130: e212 ecbd de15 aa3d ab19 14be 1945 01be
00000140: c646 273d f309 f3bd e4bf 5bbc f833 383e
00000150: 66d5 363c aedd 84bd d822 75bd cc4c 27bd
00000160: 2eba 853d 5db6 0dba 0c96 b33d 5506 733e
00000170: c5d1 67bd eb7f b8b9 c1f6 e93c 7883 703c
00000180: 6f27 333d 908b 7c3d bffa 89bd 9ecd b6bd
00000190: 4c60 c5bd a95c 9c3d ade3 093e b772 cb3d
000001a0: f1e1 0f3c 01ac d43d 218e 383e d511 43be
000001b0: 4562 253d 9128 c6bd 7910 33be 9e8f 893d
000001c0: df05 2f3e 9a9c 8abe f9e2 623c 7f20 013d
000001d0: 67b8 e43d 13ed 293e d069 eabd b722 863c
000001e0: fb98 613d 7c45 4bbe 8539 a5bb aa1e 6d3e
000001f0: ad8f 053e 4b0c 9fbc e17f 41bd 6bf5 c13d
00000200: 221a 7cbe 5283 cabd 8aff a03d fd10 04bd
00000210: d043 af3c 294d d7bd 229e 313d f529 e33d
00000220: 3e39 efbd ec12 b43d 6110 40bd 4239 243d
00000230: dd38 883d 9959 1abd f7b6 4cbe 8675 963d
00000240: 2faf 68bd fded 0b3c 922a f6bb 932a 5abc
00000250: ef20 2e3e 5508 9fbd 4f86 02be e53e 12be
00000260: 9445 0fbd ed45 1fbe 14fb ee3d 7888 173d
00000270: b858 063c 03b2 b63d 5aad 39be 5526 d03d
00000280: c383 923d 7295 43bd 7eb8 82bd c9cc 0dbd
00000290: 296a 84be 2c53 b93d e35f 213e aee8 39bd
000002a0: cf9a 78bd 9c33 17bd f6f3 c0be 82f5 fabd
000002b0: 8b64 f5bd 206b 20be eb5a ecbd e050 15be
000002c0: 2d89 04be 8bd7 aebd b718 803d 6891 9bbd
000002d0: 10f9 0cbd f04f b93c 516e 2c3d f125 b4bb
000002e0: 651b 85bd b16b 53bd 09cf 963d e516 38bd
000002f0: 8fa4 b33d 1902 1c3d 1b5e f9bd 78a0 153e
00000300: e221 013b ba23 093d ba69 053e 389a b6bd
00000310: c5cb 203e 7e09 99bd 2cf4 9fbd 31e0 26be
00000320: 37b6 a73c 7f4b 2b3e f4c9 20bd 3c64 08be
00000330: 0519 d63d 6871 b5bd ccdc 44bd bc2b d73c
00000340: ba3c 0a3e b13d 21be 3c32 6dbe 8a05 913c
00000350: b1b5 9ebd 7f9d 56be b4bc 033d fbc5 1e3e
00000360: cda3 8e3d af23 99bd a396 333b a056 023d
00000370: 87a3 f13c ba49 a03d 4090 903d 08d4 89be
00000380: 1a0d 7c3d 1bfa 56bb eaad aa3d b31c cabd
00000390: 603e 11bd dcea f73d 150f 59be aead 183c
000003a0: d30a af3d 4944 d3bd e6e2 033d 3957 e43d
000003b0: 2187 a23d 2f72 e2bc 6ec3 43be 9c82 a53d
000003c0: e81e e03c 1392 9a3d 9249 833d e4ff 123e
000003d0: b52c 8fbc dbcf 923d 687f e6bb e904 093e
000003e0: f1d2 913c 9206 4fbd 8495 5cbb e0cd 223c
000003f0: a06b dcbc 4572 333e a3ff f8bc 7da8 923e
0.030441798 -0.002044315 0.01225452 -0.0068808924 0.030193962 0.044269882 0.036922343 0.07608319
0.016610613 0.16554365 0.04413518 0.049585316 0.067432284 -0.18138003 -0.06855068 0.03188419
-0.0996706 -0.0035130223 0.07725732 0.17510527 -0.02882718 -0.0071004853 -0.05514024 -0.0010250214
0.05829015 -0.07909219 0.15238816 0.10219562 0.026902037 -0.00019381552 0.03324982 -0.079009846
-0.12473127 -0.10311006 -0.07473456 0.0012828867 -0.14392102 -0.05405011 -0.106750794 0.011554524
0.025698852 -0.047277987 -0.09159762 0.008200262 -0.042461082 -0.08255324 0.14400032 -0.02279095
-0.14150977 -0.037168995 -0.16723545 -0.07716601 -0.07254848 -0.030124066 0.1085121 0.0135216275
-0.118388824 0.025357524 -0.114957176 0.07747233 0.09899711 -0.0068224734 -0.13585962 0.20921001
-0.10260532 -0.12386091 0.011066311 -0.023565838 -0.06621603 0.107279874 0.16904381 -0.11395725
-0.038384352 0.15189102 -0.0043297615 -0.28109688 -0.11527039 0.08304952 -0.14462917 -0.12624015
0.04083898 -0.11867132 -0.0134124495 0.17988575 0.011159277 -0.064875945 -0.059847683 -0.040844724
0.065296516 -0.00054058974 0.087688535 0.23732884 -0.056596536 -0.0003519052 0.028560044 0.014679782
0.04373878 0.061656535 -0.06737279 -0.08925937 -0.09637508 0.07634861 0.13465758 0.099339895
0.008781896 0.1038437 0.18022968 -0.19049771 0.04037692 -0.09675706 -0.17486753 0.06716846
0.17092083 -0.27072603 0.01384806 0.03152513 0.111679845 0.16594343 -0.114459634 0.016373975
0.055077534 -0.19850725 -0.0050422573 0.23156229 0.13043089 -0.019415041 -0.047241095 0.09470638
-0.24619344 -0.098883286 0.0786124 -0.032242764 0.02139464 -0.10512764 0.043363698 0.11091987
-0.1168084 0.087926716 -0.04689062 0.040093668 0.06651471 -0.037683103 -0.1999167 0.073466346
-0.056807693 0.008540628 -0.007512399 -0.013315815 0.1700475 -0.07765261 -0.12746547 -0.14281805
-0.034978464 -0.15554018 0.11668983 0.03699538 0.008199863 0.08920672 -0.18132535 0.10163561
0.07154038 -0.047749944 -0.06382845 -0.034619126 -0.25862244 0.09049067 0.15759234 -0.045387916
-0.060694512 -0.036914453 -0.37686127 -0.12253858 -0.11982068 -0.15665865 -0.11540779 -0.14581633
-0.12942953 -0.08537205 0.06254714 -0.075960934 -0.034417212 0.022621125 0.042097393 -0.005497687
-0.06499366 -0.051616374 0.073637076 -0.04494371 0.087716214 0.038087938 -0.12176152 0.14611995
0.0019704034 0.033481337 0.13028613 -0.08916134 0.15702732 -0.074725136 -0.07810244 -0.1629646
0.020472629 0.16728018 -0.039255098 -0.13319486 0.10453991 -0.08859521 -0.04806213 0.026265971
0.13499728 -0.1574619 -0.23163694 0.017702837 -0.07749499 -0.20958517 0.032162383 0.15505211
0.06964836 -0.07477509 0.002740302 0.031820893 0.029496921 0.07826562 0.070587635 -0.2691958
0.061535932 -0.0032802883 0.08333953 -0.09868755 -0.035459876 0.12105343 -0.2119716 0.009318752
0.085469864 -0.10315759 0.03219881 0.11149449 0.0793593 -0.027642338 -0.1911752 0.080815524
0.027358487 0.07547393 0.06410517 0.14355427 -0.017477373 0.071685515 -0.007034231 0.1338078
0.01780078 -0.050543375 -0.0033658454 0.00993678 -0.026906788 0.17524059 -0.030395335 0.2864417

net.1.0.bias f4 [256]
00000000: bc12 bfbd 63b9 07be 7e70 16be 6c53 97be
00000010: 7b51 c43c 1085 3ebb 12b6 d4bd 9d6e 903c
00000020: 1125 753e 2241 b03d 49fc 66bc 80e1 a03d
00000030: 747e ce3d 9f63 943d 06c6 253d fcca 87bc
00000040: 7e95 09be 4fb9 e33d 3dfa 7cbd 6cf8 043e
00000050: cb33 47be 49c4 ddbe cee5 d4ba 107d 613c
00000060: a819 a9be be0d d03e 1165 703c ddae 2d3e
00000070: df4b 603e b5d6 ccbd e543 1abe 74aa b6be
00000080: 7b23 803c dc06 2abe 8efe d13d 3607 16be
00000090: 695d ec3d d2c8 6fbc b589 0d3e 9902 28be
000000a0: 9bf7 9c3d fa11 2c3e 5bd3 e33b 3eab 3c3e
000000b0: a27d 1f3e 3630 9a3d 3f04 77be 52ce 1e3c
000000c0: c6f9 00bb de0e d03e 3914 4c3e 64e7 9f3d
000000d0: 3e41 2b3e 2189 89bd 6ead cf3d 0b54 f23c
000000e0: b2ff bc3d c510 993e 91af af3d 2b75 2e3e
000000f0: 4ef0 b03e cf44 253d d65e 863d 794c 853d
00000100: a197 163e 0597 ee3d 9d8c 0d3e 8e1c 8a3d
00000110: ad18 03bc 05b0 d63d 8267 a53b f67d 73be
00000120: bf07 93be ea65 7dbd 3f44 fb3d 3e1c 52bd
00000130: 913d 02bf cdfd 64be b176 263e 2cc1 1c3e
00000140: a5a9 a9bc aa36 89bd 82f4 6e3e a0ec 003e
00000150: 8b11 a93c d4b8 b03e 4b20 5c3d 0e6c 2fbe
00000160: 604d 043d 9c19 25bc 62ae dc3d b086 dd3d
00000170: ea95 29be 9dcd 6e3d f4fe 813d 96eb dfba
00000180: 222b 5ebd 6f46 24bd e655 0bbd 3b12 ecbd
00000190: dee0 2e3c 2a53 4a3e 268f 56be 72e1 3a3e
000001a0: 5085 cbbd 813c 0abe 9964 f8bc bc32 1e3e
000001b0: 8826 43bc ce9a 3f3e 612d 89be 3a1e ad3c
000001c0: f4c6 603e 9937 f5bd fc0b 57bd 76e0 7f3e
000001d0: 5053 e33d b816 d7bd 1d8f b1bb 889e 483e
000001e0: 7b30 25bd 1ae4 efbc 0f05 9e3d 0449 9b3d
000001f0: 08f4 ff3d 8fb5 92be d832 9a3e 8e0a 7e3d
00000200: b754 07be 4d23 6b3d 330c 7ebd b9d2 66bd
00000210: 596e cdbd ce40 883e 40d7 cebd fbde 9e3e
00000220: e4c6 33bd 3850 8c3d 5dba 79be a656 df3d
00000230: ffa2 013e 87dd 033d 1030 39bd 7757 783d
00000240: 32d9 4bbd 3ecc 64be fb2a 19bd bcb3 ec3d
00000250: e938 4e3d 764c 803d b397 dbbd a3ad b73d
00000260: 268c 0ebf e1d1 8f3d c144 043e fb15 b5bd
00000270: bd31 6cbd dfb2 8dbe 6a0b 0b3e b779 a5be
00000280: 48fd 023d 6d2a 983f 314f c83d f3ec 003c
00000290: 6cfe e63d 6b14 c7bc c0b3 13bd 2971 463e
000002a0: a993 d8be 95b3 eebc 1e9b 863d ad54 aabe
000002b0: 145a fa3c 07b8 303d 904d ffbd 110d 303d
000002c0: cd72 38be 3792 e2bd b6b6 913d f7c6 0bbe
000002d0: 94c2 2c3e d74d 1bbd 7b81 d83d d1b4 a43d
000002e0: a722 c4bd a9ab 8e3e 4988 5fbd c82b 683d
000002f0: a084 08be 35c6 133e 05df ed3d acfa 9cbd
00000300: a4bb 113d b550 ee3c 7d15 fa3d 3fcc f03d
00000310: bde7 22bd 3d19 153d 89de 033e 33d0 803d
00000320: 71f9 693e d343 e03d 3d0e 2f3e 1b38 593e
00000330: 3bba b73d a8d4 4ebe e231 763e ce29 1c3e
00000340: 8087 b63d 4d58 40bd bb56 4f3e fa0d 163e
00000350: 81d0 0e3e dd72 323e 8aa2 123e b712 3bbe
00000360: 83f9 29bd 599c 88bc 7d83 223e 06cd 1b3d
00000370: c878 183d b0ac b73c 9af9 16be d532 4c3d
00000380: 8dd7 91bd 175d c13d b1c3 2e3e 3695 ba3c
00000390: 431f b6bc 42a3 8c3e bfc8 72bd 426b 8b3e
000003a0: 87c3 243c 6b7a 263e c841 74be 80de c43d
000003b0: 8548 dd3d e761 183e 54e9 643e a931 d0bd
000003c0: 1839 0e3e cd7d 00be 7f11 8ebc 4344 273e
000003d0: c210 6fbd 7b9e 13be c2ba 17be 8e6c 86bc
000003e0: 2d1d 353d 049b ec3d 7250 143e 4c59 2c3d
000003f0: 6056 5bbb 2c8b 3fbe 15b3 233e 320c c23d
-0.09329745 -0.13254313 -0.1469135 -0.29555833 0.023964634 -0.002907101 -0.1038629 0.01763087
0.23939921 0.08606173 -0.014098235 0.07855511 0.10082713 0.07245564 0.040472053 -0.016576283
-0.13435933 0.11119329 -0.061762083 0.1298539 -0.19453351 -0.43313816 -0.0016242804 0.013762727
-0.33027387 0.40635484 0.014672534 0.16961236 0.21903943 -0.100018896 -0.15064962 -0.3567692
0.015641918 -0.16604179 0.102536306 -0.14651188 0.11541254 -0.014635282 0.13822062 -0.16407241
0.076644145 0.16803733 0.006952686 0.18424699 0.15575269 0.07528727 -0.24122714 0.009692745
-0.0019680127 0.40636343 0.1992959 0.07807806 0.16724107 -0.067156084 0.10140501 0.02958109
0.092284575 0.29895607 0.085784085 0.17036884 0.34558338 0.040348824 0.06561057 0.065087266
0.1470628 0.116498984 0.13823171 0.067437276 -0.008001489 0.10482792 0.0050477395 -0.23778519
-0.28716847 -0.06186477 0.12268876 -0.051296465 -0.5087519 -0.22362442 0.16256215 0.15308064
-0.020710776 -0.066998795 0.2333546 0.12590265 0.020638248 0.34516013 0.053741734 -0.17131063
0.032300353 -0.0100769065 0.107754484 0.10816705 -0.16561094 0.058301557 0.063474566 -0.001708376
-0.054240353 -0.040106233 -0.034017466 -0.11526915 0.01067373 0.19758287 -0.20953044 0.18250063
-0.09937537 -0.13499643 -0.030321406 0.15449041 -0.011911042 0.18711397 -0.26792434 0.021132577
0.21950895 -0.11973495 -0.052501664 0.24987969 0.11099875 -0.1050238 -0.0054186718 0.19591725
-0.040329438 -0.029283572 0.077158086 0.07582286 0.12497717 -0.28654143 0.30116916 0.062021784
-0.1321591 0.057406712 -0.062023353 -0.056353305 -0.10030813 0.26611942 -0.100996494 0.31029496
-0.04389085 0.06851238 -0.24387498 0.10905199 0.12659834 0.032193687 -0.04521185 0.060630288
-0.04976768 -0.22343537 -0.037394505 0.11557719 0.050347243 0.06264584 -0.10722294 0.089686655
-0.556826 0.07022453 0.12916853 -0.08842083 -0.05766462 -0.2767553 0.13578573 -0.32319424
0.03197983 1.1887947 0.097807296 0.007868993 0.11278996 -0.024301728 -0.036060095 0.19379105
-0.42300156 -0.029138366 0.06572555 -0.33267727 0.03056053 0.043144252 -0.12465966 0.04298121
-0.18012543 -0.110630445 0.071149275 -0.13650118 0.168711 -0.03791603 0.105715714 0.080423005
-0.09576922 0.2786534 -0.05457333 0.056682378 -0.13331842 0.14431079 0.11614803 -0.07664999
0.03557934 0.029091218 0.1221113 0.11757707 -0.039771784 0.036401022 0.12877859 0.06289711
0.2284906 0.109504364 0.17095275 0.21212809 0.089710675 -0.2019831 0.24042466 0.15250322
0.08912563 -0.04695921 0.20247929 0.14653769 0.13946725 0.1742663 0.14319816 -0.18268858
-0.04149772 -0.016676115 0.15870471 0.038037322 0.03722456 0.022421211 -0.14743653 0.049853165
-0.07121191 0.094415836 0.17066838 0.022776227 -0.022231704 0.27468306 -0.059273478 0.2723027
0.010056383 0.16257636 -0.23853219 0.09612751 0.10804848 0.14881097 0.22354633 -0.10165722
0.13888967 -0.12547989 -0.017342327 0.16334634 -0.05836559 -0.14415924 -0.14817336 -0.016409185
0.044217277 0.115530044 0.14483812 0.042077348 -0.0033468232 -0.18705434 0.15986283 0.09474982

net.2.0.weight f4 [12, 256]
00000000: f4cd 153e a609 4ebe ce7c 19bf 0ae6 87be
00000010: 5591 99be 7ed8 3e3c 1b18 473d e228 ff3d
00000020: eb79 263d 42fc e53d d2b5 023e 8ee8 833e
00000030: 692a a7be 29fc 8f3e bfd8 973c fca1 be3c
00000040: 9259 5b3e d331 13be a9b0 8fbe 3b64 273e
00000050: 4f74 06be e7b9 053e b916 dabb 2f7e 1e3d
00000060: e27a 9dbe 5ca7 303e 7381 273b 0c12 a23d
00000070: bcbc 243d 0cd0 eb3d 89da 093d 3f22 6dbd
00000080: fd7f 52be 9426 52be f162 89be b8c8 fe3d
00000090: 2b78 8cbd 82fe d53c fb46 573d b560 c4bd
000000a0: 2cc9 91bc 7a0c 393c e2d1 bbbc 5df4 413e
000000b0: 5502 d2bd 19a6 de3d f2e0 04be ec4c 99bb
000000c0: 65da 6e3e c2ae 933e 1645 d4bd a6f1 3f3c
000000d0: 83e6 773e 2a1e 01bf 44a6 3c3a ba3d 90be
000000e0: 797d 91bd 8e3e dc3e b780 9e3c 161f 2e3e
000000f0: b077 263e 04b9 5cbe 83b3 893c 0c13 b9bc
00000100: 0d65 e5bd 9553 993d 39c0 a63e 3ef8 f13d
00000110: 87ab e5bd 6054 613d c84e 22bd 8302 52be
00000120: 460d 2fbd 8082 023e 48b1 dd3c 6202 1cbe
00000130: 0ad7 f2bd cddf e23d b0be 0d3e 8670 483e
00000140: dff6 18bd 2701 f7be 67cc 90bd 75c9 673d
00000150: 755c 4abd 82f2 a1bc 9ef9 11bf 6fe4 99bd
00000160: b206 e93d ada6 583a 056f fbbd aeac 4e3d
00000170: 6deb 3fbf 6a17 5ebd f529 d33c 4ef7 80be
00000180: 5ff1 413c d790 bfbd 6e65 c93d e376 5e3d
00000190: 3a18 d03d e2f3 ab3c 0855 9cbe 3c1c 153e
000001a0: 0c67 56be fb7e 91be f913 163e 9210 643e
000001b0: 19ad 053e 003f 013e 3fb5 a63d c48f 56bc
000001c0: 4816 5f3e 8f38 2cbe b0a7 2a3e 540f ea3e
000001d0: 4d92 b53e d0b4 c8be bf16 2bbe 15a3 933c
000001e0: b07f 31bd edbf 6abd 513d 833d 7249 5a3e
000001f0: d83a 24be 3096 edbc ede9 5b3e bae0 093d
00000200: e624 49bf 2579 573e 0c8f 243e 2872 d83c
00000210: 74f4 2c3d 8ea0 8ebe db91 453e 3a29 63bd
00000220: 1dec da3d 6fd5 3abe 1589 77bd cb24 753d
00000230: 1cae 893d 0ffe f03d ca1d af3e 0f78 24bd
00000240: 203a b73d bef1 92be 20be 12be 7a53 893e
00000250: a7a2 58be 6a1c d13d f5ca 3ebf 6677 4ebd
00000260: 1750 15bf 6bad da3d 2e69 55bd fed1 c4bd
00000270: 6c23 a63d 3eb6 d0be 02ad 723e 552b bb3e
00000280: 50fe 8fbe c1a8 d43d 4d27 803d f9b2 97bd
00000290: dda7 99bd 1f4d 683e 366b 94bd e3d2 f53d
000002a0: cd92 77be 24c5 56bd 81bd 96bd 5d7c 943d
000002b0: 49f4 59be 4c0d dc3e aede cdbd b544 bb3d
000002c0: 4736 87be 5296 a2bd 4ed0 8cbd 56f0 193e
000002d0: 4c15 a23d 2f21 18be dcd6 093e b7a7 433d
000002e0: e16c cbbd c63b a0be 2559 ac3d 2b11 eb3d
000002f0: 30b7 25be 2413 98bc e510 293e e637 d13d
00000300: 0a3d fa3d 5682 fcbe b771 36be b49d af3d
00000310: f9e5 e2bd 9ba3 563e cb57 713e ad79 8dbe
00000320: 0128 a4bd d265 b53c db2e e7bd 86cd 023e
00000330: b84b c1bc 4ae5 e33d 71ff 173e 237c ac3e
00000340: 3c70 44bd 6da6 9dbe cbb0 54be ea69 e73d
00000350: 3daf 213d 8f7c 313e 0e48 843e 7dd7 c4be
00000360: 3069 42be ab6b 273c 85dd 8a3d f706 28bd
00000370: 70a8 173e fcf7 9d3e c717 11bf 53d3 d6be
00000380: 3713 b43d e571 07be 37ea 0d3d fad7 253e
00000390: 5800 a3bd cc84 67bd 50fa 9a3d de98 c23c
000003a0: 9b27 263d 12ee a63d 01e7 223e d761 53be
000003b0: dcb7 f03d 84a5 143c 3d54 593e a1c9 f43d
000003c0: 2469 f3bd aec7 1d3e aab9 4e3e 6e15 e93e
000003d0: ba66 4cbe a3eb 84be eb22 e2bd 24fa df3a
000003e0: c02d d2bd 4943 e33d caec 473e a438 93be
000003f0: 8f5e 853e 8084 29bd 9350 d2bd 1cbf 0e3e
0.14629346 -0.20120868 -0.5995606 -0.26542693 -0.29993692 0.011648295 0.048606973 0.1245897
0.040643614 0.11229755 0.12764671 0.25763363 -0.32649544 0.2812207 0.01853597 0.0232706
0.21420887 -0.14374475 -0.28064469 0.16346829 -0.13130306 0.13059197 -0.006655541 0.038694557
-0.30757815 0.17251343 0.0025559335 0.079135984 0.040219054 0.11514291 0.033655677 -0.057893988
-0.20556636 -0.20522529 -0.268333 0.12440628 -0.06858858 0.026122335 0.052557927 -0.09588758
-0.017796122 0.011294479 -0.022927228 0.18940873 -0.10254351 0.10871524 -0.12976435 -0.0046783593
0.23325498 0.28844267 -0.103647396 0.011715328 0.24209027 -0.5043665 0.00071964064 -0.28172094
-0.0710401 0.43016475 0.019348485 0.17004046 0.16256595 -0.21554953 0.01680923 -0.02259209
-0.112009145 0.07486645 0.3256853 0.118149266 -0.11214357 0.055012107 -0.039625913 -0.2050877
-0.042737268 0.12745094 0.027062073 -0.15235284 -0.11857422 0.11077843 0.13842273 0.19574174
-0.03734481 -0.48243067 -0.07070237 0.05658861 -0.04940458 -0.019768957 -0.5702151 -0.075142734
0.1137823 0.0008264583 -0.12277035 0.05045765 -0.74968606 -0.05422155 0.025776843 -0.25188679
0.0118373325 -0.09353798 0.09833799 0.054312598 0.10160871 0.020990316 -0.30533624 0.14561552
-0.20937747 -0.2841719 0.14656056 0.22271946 0.13054313 0.12621689 0.08140039 -0.0130958
0.21785843 -0.1681845 0.1666553 0.4571482 0.3546318 -0.3920045 -0.16707896 0.0180221
-0.043334663 -0.05731194 0.064081796 0.2131708 -0.16038072 -0.029002279 0.21475954 0.03366158
-0.7857193 0.21042307 0.16070193 0.026421621 0.042225316 -0.27856869 0.1929392 -0.05545924
0.10689566 -0.18245481 -0.060433466 0.05984954 0.06722662 0.11767208 0.34202415 -0.04015356
0.08946633 -0.2870006 -0.1433034 0.268215 -0.21155797 0.10210498 -0.7452844 -0.050406836
-0.5832533 0.10677608 -0.05210226 -0.09610365 0.08112225 -0.4076404 0.2369881 0.36556497
-0.28123713 0.1038375 0.06257496 -0.07407183 -0.075027205 0.2268567 -0.07247011 0.12003114
-0.24177094 -0.0524341 -0.07360364 0.07250283 -0.21284594 0.42978895 -0.100522384 0.09143964
-0.26408598 -0.079388276 -0.068756685 0.15033087 0.07914218 -0.14856409 0.13460869 0.047767367
-0.099328764 -0.31295604 0.084154405 0.11477884 -0.16183162 -0.018563814 0.16510351 0.1021574
0.122186735 -0.49318188 -0.17816816 0.08575001 -0.1107902 0.20960848 0.23568647 -0.27631894
-0.08015443 0.022143278 -0.11288234 0.12773713 -0.023595676 0.11127718 0.14843537 0.3368846
-0.047958598 -0.30791035 -0.20770566 0.112994984 0.03947376 0.17332672 0.25836223 -0.38445655
-0.18985438 0.010218541 0.06780533 -0.041022267 0.14810348 0.3085326 -0.56676906 -0.41958103
0.087927274 -0.13227041 0.034647193 0.1619567 -0.0795905 -0.05652313 0.075672746 0.023754533
0.040565114 0.08150877 0.15908433 -0.20642792 0.117538184 0.009072665 0.2122354 0.1195252
-0.11885288 0.15408203 0.20188013 0.45524162 -0.19961062 -0.25961027 -0.11041816 0.0017088098
-0.10262632 0.11096818 0.19523922 -0.2875415 0.26048705 -0.041386127 -0.102692746 0.1394009

net.2.0.bias f4 [12]
00000000: 7212 973e 9c14 6c3d dbb1 e63d 8192 253e
00000010: 3d02 263e 5bd8 b83d 9027 e6be f7f2 28bf
00000020: 2bb6 1abf be0d 1abf a811 cbbe 665b 26bf
0.2950626 0.057636842 0.11264392 0.16169168 0.16211791 0.090256415 -0.4495206 -0.65995735
-0.60434216 -0.6017722 -0.39661908 -0.6498321
