suboptimal_policies/wing.pth (torch, 285137 bytes, 13 tensors)

backbone_net.positional_encoding f4 [1, 64]
-0.3321726 -0.40167055 0.4921584 1.0002114 0.48211342 0.5476455 0.758883 0.75043476
-0.4330702 -0.3381147 -0.9225161 1.6858864 0.68179125 0.28903195 -0.9392284 1.7787236
0.48529813 -0.8309627 -0.2781009 0.41908172 0.5995138 -0.7268125 0.59703755 1.7389963
1.0021002 1.426085 -0.46783093 -1.2548616 -1.0803856 0.2314835 0.9970745 0.70707947
1.2678051 -0.3408091 -1.1064583 0.25233957 -0.63793993 0.46707246 1.0454243 0.48484468
0.31085327 -1.1187844 -0.49168813 -1.8109995 -0.26060212 -0.9654329 0.29302204 1.2641171
1.1652646 0.38595566 1.6155648 0.4980582 1.48562 -0.90860933 -1.0783532 0.58791673
1.1206291 -0.2675755 -1.5355799 0.5632007 -1.1313528 0.72418636 -0.49902508 0.7929669
00000000: 8712 aabe c3a7 cdbe 30fc fb3e ed06 803f
00000010: 92d7 f63e 7f32 0c3f 2846 423f 7e1c 403f
00000020: 61bb ddbe 5f1d adbe 042a 6cbf 20cb d73f
00000030: df89 2e3f fffb 933e 4671 70bf 37ad e33f
00000040: ff78 f83e f9b9 54bf 3e63 8ebe e191 d63e
00000050: bd79 193f 6210 3abf 74d7 183f 6e97 de3f
00000060: d244 803f f489 b63f 8987 efbe 4e9f a0bf
00000070: 134a 8abf 030a 6d3e 4640 7f3f 2903 353f
00000080: 7047 a23f 887e aebe 6da0 8dbf a732 813e
00000090: 0850 23bf 1f24 ef3e 77d0 853f 903d f83e
000000a0: 2928 9f3e 5434 8fbf 8cbe fbbe d5ce e7bf
000000b0: a46d 85be 9c26 77bf fc06 963e 97ce a13f
000000c0: 6427 953f fb9b c53e d4ca ce3f 7c01 ff3e
000000d0: cc28 be3f 9f9a 68bf 7a07 8abf b681 163f
000000e0: c670 8f3f a8ff 88be e28d c4bf ec2d 103f
000000f0: 2bd0 90bf 4764 393f 3780 ffbe e1ff 4a3f

backbone_net.attitude_net.0.0.weight f4 [128, 22]
0.6224548 0.22178182 -0.23416552 1.7510548 0.56640637 0.2318159 0.07642045 -0.2490045
0.36154518 -0.0036212914 0.010069887 -0.07393826 0.019462459 0.02219896 0.21340644 0.030991893
0.41978994 -0.3596684 0.11281876 -0.035255462 -0.2355772 0.12596278 -0.0014009399 0.12099581
0.18435101 -0.11831996 -0.044206485 -0.06381379 0.0150256185 0.1023604 -0.07222391 -0.09536912
0.12156361 0.08745866 -0.07016527 0.21536316 -0.0520762 0.06045607 0.08379784 -0.13470627
0.036523473 0.17640999 -0.12580176 -0.19323044 -0.14054893 -0.19899693 0.33284605 -0.29100284
0.35318375 -0.02632828 0.12054364 -0.07858304 0.2773171 0.103618205 0.041312166 0.10354695
0.17022216 0.17856707 0.16005152 0.072421834 0.13538843 -0.03564109 -0.1674777 0.15690261
-0.17927076 -0.07713287 0.3931355 0.21332265 -0.10672656 0.39154872 -0.21650784 0.533416
-0.062108412 -0.03512725 0.23807824 -0.20259336 0.10024194 -0.18464865 0.47406593 0.17159921
0.1695681 -0.22816391 0.40328524 -0.28890228 -0.023884209 -0.110374145 0.072064385 -0.09020924
-0.022439687 -0.2635291 -0.32609934 0.19544326 0.67222947 -0.17181034 0.112997614 0.031761453
0.07525002 0.054954886 0.08115109 -0.009217307 -0.121089704 -0.08718784 0.18739079 -0.1742285
-0.038599286 0.06378089 0.19969848 -0.06921399 0.05378559 0.044325266 -0.23390639 0.033681136
0.046724852 0.6636057 -0.7827346 0.32012677 -0.12039565 0.196103 0.06659201 -0.012067737
-0.12039951 0.19765824 -0.078712836 0.23111393 -0.19864248 0.1962866 0.026472561 -0.006392941
-0.0634229 0.01208678 0.11423903 0.047913153 0.38382325 0.09406059 -0.47282755 0.044999294
-0.7229195 -0.20008062 -0.10807293 -0.07281273 -0.16765133 0.18817753 -0.08776508 0.15046431
0.3703834 0.064002395 0.11653195 -0.1416333 0.5419241 -0.5368746 0.36230066 -0.18622689
-0.13190413 0.09907714 0.62321466 0.6537894 0.31856686 -0.26375327 -0.80854654 0.22506823
-0.22464377 -0.052557804 -0.9341552 0.052678823 0.14125498 0.071279824 0.7714498 0.085558794
0.077983774 0.11521933 0.6929359 -0.97157204 0.036860727 0.04384158 -0.14242423 -0.19212891
-0.5914459 -0.11151234 -0.04941625 -0.018176042 1.0903366 -0.16540633 0.09924235 -0.14478281
0.29514006 -0.021621142 -0.030519892 -0.21290699 -0.38152033 -0.04514841 0.06503786 -0.001631904
-0.42146987 0.0790759 0.18065323 -0.04892389 -0.09342225 0.15004857 0.18850511 -0.03528386
-0.5809048 -0.3984193 0.80293477 0.16712566 0.017419005 -0.09052114 0.27751553 0.05880083
0.12590647 -0.05465081 -0.14175141 -0.17540385 0.078211084 -0.007422044 0.1539773 -0.07347182
-0.37106615 -0.02476217 0.08271823 0.1272435 0.16866198 0.4188199 -0.5112906 -0.092269495
-0.044987664 0.0033886428 0.20905387 -0.13228792 -0.118504785 0.09742733 0.0686314 -0.3342403
0.106392644 0.07394258 0.15705927 -0.06069388 -0.057776686 -0.074153006 -0.30093127 0.06327595
-0.05239821 0.049388263 0.43789342 0.1851125 0.12218241 -0.15880813 -0.70429134 0.11701138
-0.15700865 0.21110983 -0.3667973 0.21633823 -0.19783042 -0.11363107 0.08779393 -0.09916286
00000000: 3359 1f3f c61a 633e 16c9 6fbe 9022 e03f
00000010: 0200 113f 2661 6d3e 5382 9c3d 09fb 7ebe
00000020: 731c b93e 3053 6dbb 2bfc 243c f16c 97bd
00000030: bc6f 9f3c 98da b53c 3887 5a3e b6e2 fd3c
00000040: b5ee d63e 7526 b8be 860d e73d 0868 10bd
00000050: 263b 71be 63fc 003e be9f b7ba a7cc f73d
00000060: 83c6 3c3e bc51 f2bd dc11 35bd ceb0 82bd
00000070: 032e 763c 54a2 d13d 21ea 93bd e350 c3bd
00000080: 58f6 f83d 871d b33d cfb2 8fbd 2988 5c3e
00000090: da4d 55bd c9a0 773d 349e ab3d 71f0 09be
000000a0: a399 153d d2a4 343e 2dd2 00be 33de 45be
000000b0: 0fec 0fbe dac5 4bbe cc6a aa3e 53fe 94be
000000c0: 80d4 b43e 68ae d7bc 95df f63d 25f0 a0bd
000000d0: 82fc 8d3e c835 d43d f236 293d 6c10 d43d
000000e0: b84e 2e3e 49da 363e 8ce4 233e e651 943d
000000f0: 44a3 0a3e 64fc 11bd 467f 2bbe 14ab 203e
00000100: c192 37be d7f7 9dbd 0e49 c93e 4171 5a3e
00000110: 7493 dabd 1379 c83e 3bb4 5dbe f38d 083f
00000120: 6465 7ebd 97e1 0fbd c8ca 733e a274 4fbe
00000130: a54b cd3d 8914 3dbe c5b8 f23e b4b7 2f3e
00000140: 43a3 2d3e cda3 69be 677b ce3e 00eb 93be
00000150: d1a8 c3bc d70b e2bd 7e96 933d 9fbf b8bd
00000160: 6fd3 b7bc 49ed 86be 7ef6 a6be 4722 483e
00000170: 3b17 2c3f 0def 2fbe 4b6b e73d 4c18 023d
00000180: af1c 9a3d 6018 613d 8b32 a63d 3004 17bc
00000190: e1fd f7bd 8a8f b2bd 5fe3 3f3e f568 32be
000001a0: 491a 1ebd 8e9f 823d c27d 4c3e 10c0 8dbd
000001b0: 474e 5c3d 698e 353d 2885 6fbe 3bf5 093d
000001c0: 8f62 3f3d 10e2 293f 4b61 48bf a8e7 a33e
000001d0: ff91 f6bd 3acf 483e 6461 883d c2b7 45bc
000001e0: 0594 f6bd ec66 4a3e 3234 a1bd 21a9 6c3e
000001f0: ef68 4bbe 5bff 483e fcdc d83c e07b d1bb
00000200: dee3 81bd a107 463c 27f6 e93d 9540 443d
00000210: 7b84 c43e d7a2 c03d 7416 f2be 2e51 383d
00000220: 4111 39bf efe1 4cbe 5755 ddbd d71e 95bd
00000230: caac 2bbe 9cb1 403e 2ebe b3bd 5113 1a3e
00000240: e5a2 bd3e b013 833d 4ea8 ee3d 5208 11be
00000250: 8abb 0a3f 9d70 09bf 797f b93e 43b2 3ebe
00000260: e011 07be f5e8 ca3d ff8a 1f3f be5e 273f
00000270: 321b a33e ab0a 87be e8fc 4ebf 4978 663e
00000280: 0409 66be da46 57bd cc24 6fbf c0c5 573d
00000290: 25a5 103e 28fb 913d bc7d 453f 7339 af3d
000002a0: f5b5 9f3d 1df8 eb3d 3f64 313f f2b8 78bf
000002b0: 46fb 163d 3b93 333d a8d7 11be 71bd 44be
000002c0: 0069 17bf 9560 e4bd b268 4abd ece5 94bc
000002d0: 2690 8b3f 4760 29be 933f cb3d f241 14be
000002e0: 991c 973e d21e b1bc da04 fabc 4a04 5abe
000002f0: a256 c3be 8aed 38bd 9232 853d 9de5 d5ba
00000300: e6ca d7be 8cf2 a13d 29fd 383e 6b64 48bd
00000310: 2a54 bfbd 55a6 193e 7c07 413e cf85 10bd
00000320: 2db6 14bf 9dfd cbbe 228d 4d3f fd22 2b3e
00000330: 4db2 8e3c 2663 b9bd 8416 8e3e 24d9 703d
00000340: a0ed 003e 87d9 5fbd 4827 11be 119d 33be
00000350: 222d a03d 9e34 f3bb 3aac 1d3e 6578 96bd
00000360: 62fc bdbe 09da cabc 2d68 a93d 1f4c 023e
00000370: bab5 2c3e 906f d63e f1e3 02bf caf7 bcbd
00000380: fc44 38bd fe13 5e3b 3812 563e 7c76 07be
00000390: a3b2 f2bd fb87 c73d 9f8e 8c3d 8b21 abbe
000003a0: 63e4 d93d 356f 973d 25d4 203e 259a 78bd
000003b0: 3fa7 6cbd 88dd 97bd aa13 9abe d296 813d
000003c0: 819f 56bd 594b 4a3d 9133 e03e 228e 3d3e
000003d0: c53a fa3d 999e 22be 704c 34bf aaa3 ef3d
000003e0: e0c6 20be 2d2d 583e dbcc bbbe c587 5d3e
000003f0: 0f94 4abe 68b7 e8bd 4ecd b33d e615 cbbd

backbone_net.attitude_net.0.0.bias f4 [128]
0.10397393 -0.42026675 0.19212334 -0.052176967 -0.36978194 0.1343786 -0.016396493 -0.072896145
0.06343706 0.5492269 0.32129467 -0.1988009 -0.114788234 -0.04395517 -0.37283713 -0.1130509
-0.108856454 0.07044059 0.31438595 0.17222038 -0.29074746 0.33591595 -0.029244864 -0.27996975
0.16590743 0.14180663 0.059377328 -0.11599726 -0.2938528 0.11720778 -0.083012015 0.120818555
0.2228799 -0.11468266 -0.112512045 0.42695612 0.093472235 -0.26510108 -0.36613038 -0.17257355
0.31713837 0.0647786 0.13612323 0.1703608 0.38967475 0.119894154 -0.18664306 -0.09297988
0.17755866 0.01720077 0.14148429 -0.039146535 -0.064644955 0.25157824 -0.15363654 0.032309253
0.18020116 0.16640571 -0.3239852 0.09605431 -0.03896981 -0.16222924 0.11310715 -0.39263833
-0.23447554 0.24300596 0.081977755 0.081090935 -0.0047146245 -0.41083252 -0.057381578 0.20155449
0.11220808 0.009055079 -0.05669103 0.038799617 -0.079940654 -0.09242643 0.15185615 -0.053367756
-0.7986846 -0.38075382 0.6107063 -0.17849065 0.18292415 0.2194336 -0.18282336 -0.05680668
-0.011755666 0.21494514 0.06611508 -0.093706615 0.037867796 -0.080959946 0.09625684 -0.4209249
-0.20257336 0.22062498 0.21711834 -0.13748112 0.20158648 -0.13970803 0.04148429 0.415062
-0.1197163 -0.03598123 0.11738732 -0.15279277 -0.040755216 -0.1453769 -0.11504534 0.1856409
0.19988407 -0.11678932 0.06555917 0.1136574 -0.007220994 -0.0048591727 0.19796027 0.07309782
0.2931077 -0.16361591 -0.02200699 -0.4439475 -0.026297387 -0.095628545 -0.15411581 -0.16707546
00000000: 49f0 d43d 342d d7be fbbb 443e 84b7 55bd
00000010: 0f54 bdbe 8b9a 093e f051 86bc 934a 95bd
00000020: 4aeb 813d 229a 0c3f bc80 a43e 7792 4bbe
00000030: 1816 ebbd 560a 34bd 82e4 bebe 3b87 e7bd
00000040: 22f0 debd 2843 903d 32f7 a03e 8a5a 303e
00000050: dadc 94be 2dfd ab3e ed92 efbc 3258 8fbe
00000060: a3e3 293e c235 113e a435 733d f98f edbd
00000070: e073 96be a20a f03d 3402 aabd b86f f73d
00000080: a13a 643e bede eabd b76c e6bd fe99 da3e
00000090: 5f6e bf3d 54bb 87be 7175 bbbe 1fb7 30be
000000a0: f65f a23e a5aa 843d e363 0b3e 1073 2e3e
000000b0: 7383 c73e 118b f53d 5c1f 3fbe 3c6c bebd
000000c0: f0d1 353e a1e8 8c3c 42e1 103e 1e58 20bd
000000d0: 9364 84bd ddce 803e e652 1dbe b556 043d
000000e0: a786 383e 4266 2a3e 63e1 a5be 1fb8 c43d
000000f0: cf9e 1fbd 6c1f 26be b9a4 e73d e407 c9be
00000100: 5b1a 70be 8ed6 783e f4e3 a73d 0113 a63d
00000110: 237d 9abb a458 d2be f208 6bbd 4d64 4e3e
00000120: 5acd e53d c15b 143c da34 68bd 59ec 1e3d
00000130: edb7 a3bd 114a bdbd 2e80 1b3e 2698 5abd
00000140: 9876 4cbf 2af2 c2be 4057 1c3f 41c6 36be
00000150: 7850 3b3e 34b3 603e 0c36 3bbe 1fae 68bd
00000160: d69a 40bc 941a 5c3e 5867 873d 41e9 bfbd
00000170: 431b 1b3d 54ce a5bd 4e22 c53d 7883 d7be
00000180: 646f 4fbe 84eb 613e 4554 5e3e dac7 0cbe
00000190: b06c 4e3e 9f0f 0fbe 6eeb 293d 0283 d43e
000001a0: d22d f5bd 0e61 13bd c368 f03d b575 1cbe
000001b0: f1ee 26bd afdd 14be e49c ebbd a618 3e3e
000001c0: 69ae 4c3e 3d2f efbd e343 863d 36c5 e83d
000001d0: 179e ecbb b239 9fbb 19b6 4a3e 4fb4 953d
000001e0: 3612 963e ee8a 27be 0148 b4bc 164d e3be
000001f0: 9e6d d7bc e6d8 c3bd 89d0 1dbe d415 2bbe

backbone_net.attitude_net.1.0.weight f4 [128, 128]
0.09578383 -0.098105215 0.009915954 0.12687933 -0.009034942 0.048114907 0.0040514898 0.18812563
0.37959245 0.03172902 -0.06577773 -0.18137647 -0.2274244 -0.07664057 0.049645353 0.09834875
-0.086985454 0.094837345 0.053040557 -0.10115569 0.02239698 0.3217224 0.044864073 -0.0060598403
0.05044492 0.09810792 0.110295385 -0.083150394 -0.09258599 0.13769273 -0.22080836 -0.0016444568
0.18327507 -0.037492756 -0.006991401 0.34776425 0.15226334 0.015460705 -0.13532056 0.021520447
0.12886101 0.03174538 -0.14478338 -0.26299873 0.042176206 -0.16311261 0.12743832 -0.012351294
0.10520007 0.13029262 0.005884809 0.43465695 0.04990339 -0.07524605 -0.043498088 -0.03445208
-0.08939901 -0.027871205 -0.058330346 0.068379626 0.11299592 -0.1909125 -0.016423572 0.046014663
0.09503765 -0.006500166 -0.07244732 -0.19583578 -0.055917997 -0.100070864 -0.09812481 0.021119
0.12628877 0.023092754 0.012154188 -0.001627015 0.26159015 -0.0074077537 0.29385334 0.02402652
-0.21976452 0.023284974 0.13983655 -0.0710062 -0.13109095 0.13213 -0.0061734137 -0.02456852
-0.035992518 0.37848055 0.07129084 0.033819612 0.11162173 0.0033032221 0.002336091 -0.1010293
0.12055925 -0.019887142 0.036482815 0.11067272 -0.11557929 0.020859709 0.0412158 -0.039406575
-0.010583449 -0.052861277 -0.013581294 -0.07105086 0.031793684 0.20763655 0.0075100027 -0.0044203927
-0.06245846 0.03314715 0.047494583 0.090809144 0.05896717 0.049976736 -0.10936656 0.21086392
0.35298246 0.10280069 0.053814117 -0.07913003 -0.023309795 0.043172315 0.09650359 -0.11246558
0.02667818 -0.056912657 -0.0012909082 -0.021767093 -0.066439435 -0.04944127 0.032389954 0.0020384614
-0.012915366 0.059300683 0.036168166 -0.024885986 0.05802965 0.022621185 0.059419625 -0.007565672
-0.07320545 0.043563783 0.06835529 0.05046962 -0.06705183 -0.03262477 -0.04700253 -0.086587586
-0.06259097 0.038942065 0.030853476 0.044613723 -0.0736534 -0.05790762 -0.018869048 0.05563507
-0.03903322 -0.017076131 -0.008611564 0.009938524 0.042669494 -0.065420896 -0.096588194 0.054465134
0.068227775 0.03653506 -0.008029638 0.0671224 0.019442927 0.00785856 0.0951194 -0.041533418
0.044946447 -0.08702609 -0.07329436 -0.0145105515 -0.037017006 -0.06986871 0.016825818 0.06936493
0.014427307 -0.0462568 -0.061423846 -0.077028796 0.07269617 -0.016150128 -0.08493999 0.034444395
-0.018271873 0.035503972 -0.0548284 0.010453861 0.014213515 -0.04327677 0.0148068005 -0.07319657
0.075765 -0.1069198 -0.10657733 0.03949016 0.037286215 0.07207412 -0.0032597128 -0.006627769
-0.014682171 -0.069250025 0.016551847 -0.05899162 -0.013960287 -0.05930192 -0.04756983 0.0021458976
0.043323837 -0.06592468 -0.03849026 -0.030163972 -0.05295753 -0.016505098 0.05386765 0.0583781
-0.048066605 0.0070045185 -0.021004084 0.040491015 -0.039289292 -0.04641378 -0.064123236 -0.07292913
0.077802345 -0.036052413 -0.010565697 -0.0847583 -0.034034673 0.07913877 -0.07184159 -0.034892272
-0.022642016 -0.034094363 0.022431621 0.074879155 0.02550309 -0.017406365 -0.019900152 0.03101982
0.0037906512 -0.049309462 0.0031366497 -0.022115253 -0.07279795 0.038664483 -0.086675934 -0.13854122
00000000: 502a c43d 63eb c8bd 8776 223c a8ec 013e
00000010: 4b07 14bc 2314 453d 5cc2 843b 01a4 403e
00000020: f159 c23e 4af6 013d 79b6 86bd c1ba 39be
00000030: f1e1 68be bbf5 9cbd ed58 4b3d 126b c93d
00000040: 6e25 b2bd 153a c23d 0e41 593d b72a cfbd
00000050: df79 b73c ccb8 a43e 64c3 373d a091 c6bb
00000060: 559f 4e3d ceec c83d 8ce2 e13d c14a aabd
00000070: b99d bdbd 53ff 0c3e 961b 62be d08a d7ba
00000080: 76ac 3b3e 0192 19bd 1f18 e5bb 280e b23e
00000090: ecea 1b3e e64e 7d3c 7991 0abe a64b b03c
000000a0: 24f4 033e 7207 023d 1842 14be c5a7 86be
000000b0: f5c0 2c3d fe06 27be 317f 023e 155d 4abc
000000c0: 2273 d73d 6e6b 053e 5bd5 c03b 5b8b de3e
000000d0: 7f67 4c3d 9a1a 9abd 0d2b 32bd a01d 0dbd
000000e0: d416 b7bd 2752 e4bc cdeb 6ebd 9e0a 8c3d
000000f0: 686a e73d 917e 43be ba8a 86bc df79 3c3d
00000100: 19a3 c23d 58ff d4bb 435f 94bd 2d89 48be
00000110: 450a 65bd f4f1 ccbd a9f5 c8bd c101 ad3c
00000120: d851 013e 042d bd3c 5c22 473c 9041 d5ba
00000130: 25ef 853e bebc f2bb f273 963e 44d3 c43c
00000140: f309 61be 21c0 be3c 5031 0f3e b36b 91bd
00000150: b53c 06be 164d 073e 594a cabb ec43 c9bc
00000160: e46c 13bd 34c8 c13e ef00 923d 6f86 0a3d
00000170: ef99 e43d df7a 583b 1a19 193b 73e8 cebd
00000180: c5e7 f63d 5cea a2bc 016f 153d 61a8 e23d
00000190: d6b4 ecbd fbe1 aa3c e6d1 283d ca68 21bd
000001a0: 3466 2dbc 1185 58bd 1384 5ebc 1d83 91bd
000001b0: 183a 023d ad9e 543e 7816 f63b f1d8 90bb
000001c0: 71d4 7fbd 4ec5 073d ae89 423d 25fa b93d
000001d0: 8f87 713d 68b4 4c3d 93fb dfbd b6ec 573e
000001e0: 1eba b43e 2b89 d23d 316c 5c3d ed0e a2bd
000001f0: 2ff4 bebc 74d5 303d ada3 c53d 5b54 e6bd
00000200: 338c da3c 3f1d 69bd b133 a9ba e750 b2bc
00000210: 6611 88bd ee82 4abd 54ab 043d b597 053b
00000220: f99a 53bc 46e5 723d 1225 143d b2dd cbbc
00000230: 80b0 6d3d 1050 b93c fe61 733d 75e9 f7bb
00000240: bdec 95bd f06f 323d dcfd 8b3d 3bb9 4e3d
00000250: 7852 89bd 8da1 05bd ba85 40bd d554 b1bd
00000260: b22f 80bd b781 1f3d 6ec0 fc3c e1bc 363d
00000270: 98d7 96bd 8a30 6dbd 4393 9abc 99e1 633d
00000280: 4ce1 1fbd 3ee3 8bbc 8417 0dbc 31d5 223c
00000290: 35c6 2e3d 64fb 85bd 08d0 c5bd d516 5f3d
000002a0: 01bb 8b3d c9a5 153d be8e 03bc 7877 893d
000002b0: c646 9f3c 31c1 003c f6cd c23d f21e 2abd
000002c0: c419 383d bc3a b2bd 5a1b 96bd aabd 6dbc
000002d0: 259f 17bd 5417 8fbd 4cd6 893c 330f 8e3d
000002e0: 8360 6c3c c577 3dbd 9297 7bbd 46c1 9dbd
000002f0: bbe1 943d 464d 84bc 04f5 adbd 9115 0d3d
00000300: e5ae 95bc 9d6c 113d bf93 60bd ac46 2b3c
00000310: cedf 683c fb42 31bd 3998 723c 15e8 95bd
00000320: ae2a 9b3d c5f8 dabd 3745 dabd 6fc0 213d
00000330: 6eb9 183d 999b 933d e8a0 55bb c22d d9bb
00000340: 7d8d 70bc f5d2 8dbd bd97 873c 32a1 71bd
00000350: b0b9 64bc 92e6 72bd 95d8 42bd 30a2 0c3b
00000360: 5674 313d 8503 87bd f6a7 1dbd 6f1a f7bc
00000370: ffe9 58bd b335 87bc 53a4 5c3d e01d 6f3d
00000380: 7de1 44bd 2986 e53b c210 acbc e8d9 253d
00000390: cfed 20bd 601c 3ebd 0b53 83bd de5b 95bd
000003a0: d656 9f3d b2ab 13bd bf1b 2dbc c295 adbd
000003b0: f167 0bbd 8213 a23d af21 93bd 33eb 0ebd
000003c0: c07b b9bc 88a6 0bbd 85c2 b73c 3e5a 993d
000003d0: dbeb d03c cb97 8ebc a505 a3bc 471d fe3c
000003e0: 936c 783b b8f8 49bd 4090 4d3b 0c2b b5bc
000003f0: 1717 95bd a65e 1e3d 2783 b1bd c0dd 0dbe

backbone_net.attitude_net.1.0.bias f4 [128]
0.077205755 -0.05787696 -0.06360327 0.031920794 -0.0757676 0.034045596 0.08378893 -0.07740123
0.1710556 -0.02744943 0.12923273 -0.080539614 0.03910439 0.02794488 0.0132369 -0.14118871
0.023950119 -0.07968387 0.016772253 0.41148344 0.08334014 0.017484754 0.06625923 0.07593049
0.17299232 0.22549342 -0.021706045 -0.10947221 0.15598759 -0.15985732 0.011812134 0.06139437
-0.0848264 -0.002203529 -0.061070632 0.022467615 0.029117513 0.113683276 0.029966323 0.12841672
-0.06420311 0.021954913 -0.008272728 0.056480974 0.12284819 -0.063708216 0.03710481 0.09828615
-0.090132795 -0.0054744873 0.107072905 0.15655611 -0.03531478 -0.026986374 -0.0070658657 0.00022642534
-0.0025850374 -0.06772057 0.008622973 0.14067192 -0.06681187 0.12551357 -0.13531855 0.02222349
-0.07338106 0.11678624 -0.0032949368 0.046450857 0.014313489 0.08316597 0.020853164 0.022342924
0.012161976 -0.29184365 -0.18099105 -0.08495829 0.089015506 0.03061347 -0.029770704 -0.1847575
-0.12841101 0.08427055 0.098972544 0.123414434 -0.12513603 0.009945531 0.04456509 0.24978961
0.10122696 0.19175604 -0.09066497 0.013569597 0.009235262 0.05882158 0.25221905 0.09864848
-0.016197532 -0.022827247 -0.08142877 0.051293936 0.09736413 -0.10712169 0.11349284 -0.052870378
0.16174065 -0.017914131 -0.13303652 -0.27490976 -0.016619967 0.1021781 0.11096589 0.060823638
0.002426956 -0.12195229 0.12817553 0.047520407 0.112067655 0.06948999 -0.08460921 -0.031821795
-0.005208629 -0.07319154 -0.1664077 0.25221285 -0.015508331 0.20231272 -0.0815153 0.032423675
00000000: 0d1e 9e3d 6410 6dbd 6e42 82bd 61bf 023d
00000010: 0b2c 9bbd 6573 0b3d 8899 ab3d 8984 9ebd
00000020: 3329 2f3e a1dd e0bc 9655 043e f4f1 a4bd
00000030: ed2b 203d a9ec e43c 95df 583c c693 10be
00000040: 0a33 c43c 4c31 a3bd f765 893c f5ad d23e
00000050: 3cae aa3d 303c 8f3c ebb2 873d 7281 9b3d
00000060: e624 313e bfe7 663e e0d0 b1bc f732 e0bd
00000070: 36bb 1f3e a3b1 23be ae87 413c aa78 7b3d
00000080: 77b9 adbd 1569 10bb 3325 7abd 010e b83c
00000090: da87 ee3c c7d2 e83d ef7b f53c ac7f 033e
000000a0: ec7c 83bd cada b33c 568a 07bc 9858 673d
000000b0: d597 fb3d 7479 82bd 37fb 173d 404a c93d
000000c0: 8b97 b8bd 5463 b3bb 0a49 db3d 3f50 203e
000000d0: 3ba6 10bd 8712 ddbc c788 e7bb 976c 6d39
000000e0: bb69 29bb 15b1 8abd 5f47 0d3c 4d0c 103e
000000f0: a9d4 88bd a186 003e f290 0abe 090e b63c
00000100: cf48 96bd a02d ef3d deef 57bb 4143 3e3d
00000110: 2083 6a3c ec52 aa3d 41d4 aa3c 8208 b73c
00000120: 0643 473c 886c 95be b855 39be 9dfe adbd
00000130: c34d b63d 1ac9 fa3c b1e1 f3bc 1231 3dbe
00000140: 2d7e 03be 0a96 ac3d 1eb2 ca3d b5c0 fc3d
00000150: a923 00be 95f2 223c e289 363d d9c8 7f3e
00000160: 1550 cf3d b25b 443e 8eae b9bd 0453 5e3c
00000170: 7f4f 173c e6ee 703d db22 813e 3708 ca3d
00000180: b0b0 84bc 3500 bbbc 21c4 a6bd 9719 523d
00000190: d866 c73d 9e62 dbbd ef6e e83d 9c8e 58bd
000001a0: 579f 253e a8c0 92bc ba3a 08be f9c0 8cbe
000001b0: 9926 88bc c042 d13d 1642 e33d 3522 793d
000001c0: 910d 1f3b 1fc2 f9bd 7240 033e c2a4 423d
000001d0: ba83 e53d c550 8e3d 9847 adbd 9257 02bd
000001e0: 26ad aabb 72e5 95bd c866 2abe 0b22 813e
000001f0: a816 7ebc 112b 4f3e 7ef1 a6bd b0ce 043d

backbone_net.embedding_net.0.0.weight f4 [64, 3]
-0.15007313 -0.26017228 0.03335914 0.42157117 0.021253763 -0.06802405 -0.33952063 -0.40840784
0.13348618 0.29566303 0.40812364 0.4019616 -0.13224564 -0.58163106 -0.20915923 0.10696537
0.22896856 0.3376228 0.42053744 0.55465746 -0.071087085 -0.31172422 -0.00851323 -0.24055688
0.07946725 -0.017461693 0.52954936 -0.3987655 0.5374406 0.26225957 -0.23459205 0.15883651
-0.5960473 -0.08228467 -0.26835018 -0.705408 -0.32292387 0.21406612 -0.2384824 0.37365294
0.23693523 -0.016817534 -0.26423907 -0.18569086 0.4333707 0.44573405 -0.075916365 0.057144344
0.41304374 -0.38355166 -0.018579824 -0.08176531 -0.10792185 0.0625783 0.43919918 -0.31594047
0.06283928 -0.04878903 0.4267601 -0.5123548 0.17849079 0.54977125 0.15356947 -0.06613678
0.31913963 0.10683348 -0.16743803 -0.013373904 -0.2589656 0.54033726 0.41649696 0.25090033
0.12004109 0.18464167 0.2730032 -0.12653145 0.37837896 0.52950716 -0.4496995 -0.052822337
-0.114604555 0.11760783 -0.2212465 0.23089804 -0.46248537 0.42333654 -0.5407355 0.44769427
0.012618627 -0.16619755 0.18020734 -0.42738485 0.39334828 0.22161274 0.554081 -0.24911731
-0.4062301 0.57392305 -0.13756654 -0.19331667 0.4909095 -0.3454314 -0.084000744 -0.100045286
0.35971105 -0.055536307 -0.2821974 -0.3179705 -0.1286637 -0.053239185 0.04361099 -0.11104355
-0.40437263 0.21774626 0.6224227 0.070763454 -0.2054341 -0.49545756 -0.056982327 -0.40032423
-0.3876676 -0.31130475 0.3975062 -0.07446823 0.15823199 0.20273553 0.22951247 -0.13183047
-0.30513167 -0.25972515 0.520807 0.26133353 0.043753535 -0.5703025 0.14281663 -0.17490052
-0.17569855 -0.25140977 -0.49006632 0.22664666 0.25544006 -0.23918785 0.27660114 0.022819262
0.49750692 0.13947065 -0.3857146 0.32639366 -0.32037023 -0.2671995 -0.47563246 -0.26621336
0.27168193 0.3811399 0.0364678 -0.5811349 -0.0070345677 0.58772457 0.077020735 0.032269236
0.5296826 0.25169024 -0.18897039 0.41227326 0.08972468 0.2500968 -0.43495914 -0.010952849
0.19958483 0.33845925 -0.45598117 -0.40538183 0.29805207 -0.102338515 -0.12751374 0.26709598
-0.4793109 -0.185648 -0.16735938 -0.21193293 0.1729912 -0.6356997 -0.24980956 0.30558082
0.14263575 -0.36244297 0.23172645 0.5554397 -0.27004153 0.13644215 -0.2623159 -0.1582053
00000000: c5ac 19be 4d35 85be 98a3 083d 2dd8 d73e
00000010: 5f1c ae3c 3150 8bbd a6d5 adbe d51a d1be
00000020: 9ab0 083e 2561 973e 95f5 d03e e9cd cd3e
00000030: 676b 07be c6e5 14bf d62d 56be a910 db3d
00000040: bc76 6a3e e5dc ac3e af50 d73e 08fe 0d3f
00000050: 1b96 91bd 519a 9fbe 137b 0bbc 8b54 76be
00000060: babf a23d d30b 8fbc 8c90 073f fe2a ccbe
00000070: b595 093f e346 863e e638 70be 0aa6 223e
00000080: 8e96 18bf dd84 a8bd 3265 89be 9e95 34bf
00000090: 4756 a5be 2634 5b3e bb34 74be 704f bf3e
000000a0: 269f 723e edc4 89bc 584a 87be bf25 3ebe
000000b0: c4e2 dd3e 4137 e43e 0a7a 9bbd 3010 6a3d
000000c0: 787a d33e e260 c4be b734 98bc 9274 a7bd
000000d0: 2206 ddbd 0d29 803d b7de e03e f3c2 a1be
000000e0: e1b1 803d 02d7 47bd 4d80 da3e af29 03bf
000000f0: 4ac6 363e cfbd 0c3f 5141 1d3e b872 87bd
00000100: 4566 a33e 83cb da3d e074 2bbe 381e 5bbc
00000110: 2497 84be 8b53 0a3f 173f d53e 0276 803e
00000120: 1ad8 f53d b512 3d3e 13c7 8b3e 7691 01be
00000130: e3ba c13e c88d 073f 033f e6be 3c5c 58bd
00000140: cbb5 eabd 60dc f03d 718e 62be 8970 6c3e
00000150: e2ca ecbe 91bf d83e a46d 0abf 2f38 e53e
00000160: 5cbe 4e3c b12f 2abe 4688 383e 30d2 dabe
00000170: f264 c93e 73ee 623e 41d8 0d3f 9c18 7fbe
00000180: 64fd cfbe 9fec 123f 3ede 0cbe cef4 45be
00000190: 7d58 fb3e 62dc b0be 9508 acbd 8be4 ccbd
000001a0: 0c2c b83e 0a7a 63bd 2d7c 90be 08cd a2be
000001b0: 6bc0 03be 5511 5abd 70a1 323d cd6a e3bd
000001c0: ee09 cfbe e0f8 5e3e 1857 1f3f 6eec 903d
000001d0: 515d 52be 9dac fdbe 4d66 69bd 4cf7 ccbe
000001e0: 5e7c c6be 5663 9fbe ef85 cb3e cd82 98bd
000001f0: 9107 223e e799 4f3e 5105 6b3e 91fe 06be
00000200: 383a 9cbe b2fa 84be 9c53 053f 82cd 853e
00000210: e836 333d 58ff 11bf 863e 123e 1f19 33be
00000220: 52ea 33be c8b8 80be f9e9 fabe 1016 683e
00000230: 0ac9 823e a9ed 74be aa9e 8d3e 76ef ba3c
00000240: 3ab9 fe3e 65d1 0e3e 627c c5be 121d a73e
00000250: 9107 a4be 5fce 88be 1986 f3be 1e4d 88be
00000260: e519 8b3e c524 c33e 435f 153d 42c5 14bf
00000270: 3b82 e6bb 1e75 163f 0cbd 9d3d bf2c 043d
00000280: 4799 073f 8bdd 803e 7481 41be 7b15 d33e
00000290: 93c1 b73d b00c 803e f7b2 debe 9473 33bc
000002a0: f75f 4c3e 884a ad3e 5d76 e9be 358e cfbe
000002b0: 489a 983e db96 d1bd f692 02be cec0 883e
000002c0: 3d68 f5be 821a 3ebe 4260 2bbe f204 59be
000002d0: 9b24 313e 37bd 22bf 14ce 7fbe 1775 9c3e
000002e0: 1b0f 123e 2092 b9be b349 6d3e 4c31 0e3f
000002f0: e242 8abe 7eb7 0b3e 454e 86be 9200 22be

backbone_net.embedding_net.0.0.bias f4 [64]
0.419105 -0.5048326 -0.5076197 -0.15990588 0.08944678 -0.39400482 -0.31319487 0.4304916
-0.13285837 0.20692675 -0.29856825 -0.58223605 0.5691196 -0.26276088 -0.1793302 -0.87260324
-0.13428974 0.332569 0.400086 0.46667987 -0.08083152 0.02358796 -0.5431198 -0.5995643
-0.26890126 -0.37139925 0.23281519 -0.013535019 0.22685839 0.13519986 -0.4098305 0.5907337
0.4839613 0.34480503 -0.0574807 -0.52430946 0.3348372 0.061407816 -0.7005889 0.64741814
0.05534061 0.3230537 0.124339476 0.5827825 -0.025746627 0.2451674 -0.07287585 0.3439543
-0.24467608 0.2842145 0.14931232 -0.27140558 -0.06331833 -0.010334967 0.07125961 -0.55068576
0.6757828 -0.52552617 -0.3045859 0.16446356 0.14948095 0.35087752 0.023687312 0.48345882
00000000: ee94 d63e b63c 01bf 5df3 01bf 5ebe 23be
00000010: e02f b73d 00bb c9be 145b a0be 6569 dc3e
00000020: 060c 08be 9be4 533e f0dd 98be 6c0d 15bf
00000030: d2b1 113f 9888 86be 56a2 37be ed62 5fbf
00000040: 4083 09be 7c46 aa3e 12d8 cc3e aaf0 ee3e
00000050: ff8a a5bd 8a3b c13c e609 0bbf 0c7d 19bf
00000060: 6dad 89be 0b28 bebe 1b67 6e3e fcc1 5dbc
00000070: 914d 683e d571 0a3e 4ed5 d1be 533a 173f
00000080: c7c9 f73e 498a b03e e270 6bbd 2539 06bf
00000090: c86f ab3e c386 7b3d cb59 33bf 32bd 253f
000000a0: d6ac 623d 4b67 a53e b2a5 fe3d 3c31 153f
000000b0: 97ea d2bc 2a0d 7b3e ef3f 95bd c71a b03e
000000c0: 5e8c 7abe 9084 913e 54e5 183e acf5 8abe
000000d0: 0aad 81bd fe53 29bc 8ff0 913d bef9 0cbf
000000e0: 1a00 2d3f e288 06bf aff2 9bbe 2369 283e
000000f0: 8911 193e 38a6 b33e e50b c23c ea87 f73e

backbone_net.target_net.0.0.weight f4 [128, 128]
0.0074780853 -0.018990897 -0.029605556 -0.06615805 0.07676195 -0.060622573 -0.17928647 -0.03456123
-0.013156367 -0.06700705 -0.04805339 0.0595127 0.0033457824 0.02841627 0.031786557 0.017791495
0.050795574 0.047081336 -0.031227795 0.0057409736 0.008166251 -0.04406381 -0.0072678095 -0.06672784
0.004974235 -0.10267821 0.0014945009 -0.088318594 0.0763301 0.037004337 -0.037803542 -0.12608887
-0.07320528 -0.08126753 0.017278863 0.04875198 0.059301767 -0.009391947 -0.03755573 -0.06860284
0.019107511 -0.105597705 -0.050646827 -0.0047363797 0.05267156 -0.0680938 -0.057845764 -0.026926663
-0.09400897 -0.028485319 0.07717592 0.059137575 -0.0059312433 -0.013706845 -0.043172054 0.0549591
0.010698894 0.029961435 0.046036914 0.07079209 -0.022434494 -0.08474174 -0.040808544 -0.039407227
-0.012729992 0.111616194 -0.08620818 -0.10789714 0.017437207 -0.1122199 0.026389321 0.032894667
-0.015125274 0.11701993 0.022377167 -0.037628323 -0.074591726 0.024874032 0.0066416846 0.047657564
-0.10527354 0.042583432 -0.011848915 -0.10750588 0.029656013 0.10489455 0.0048522404 -0.057849303
-0.072151616 -0.009171897 -0.030031191 0.008200242 0.010015609 0.0006887584 0.007394652 -0.073337816
-0.08694552 -0.020352822 0.009929665 -0.06843516 -0.031057026 -0.003416154 0.0520829 -0.0388617
-0.051319733 0.07715263 -0.030548852 -0.029772464 -0.047210228 0.019168751 -0.07497677 0.034405857
-0.09617094 -0.044500347 -0.015724195 -0.10361053 -0.07103516 0.056914046 0.08049442 -0.048237685
-0.08391656 -0.034049068 0.013406419 0.009994915 0.032405436 -0.10170304 0.042753108 0.009806601
-0.06979317 -0.031028684 -0.053653993 -0.028290277 -0.04392927 -0.027976558 -0.20386772 0.025133764
0.047228727 -0.04143968 0.09306211 0.09797678 0.05192806 0.053670056 -0.0796924 0.1114365
0.0769353 0.016021434 0.031681936 0.013025055 -0.09367948 0.06571383 0.13306814 -0.06304375
-0.030642638 -0.1265927 -0.008614445 0.009181249 -0.027264124 0.071930535 -0.063631065 -0.00694126
0.11823534 0.037101146 -0.004137375 0.09235393 0.015471614 0.06857727 0.015732275 -0.0068516023
-0.052853305 -0.06133128 0.096621685 -0.17278917 0.075726904 -0.030693533 -0.13878255 0.023729434
0.075973466 0.04647548 0.046398364 0.10081633 -0.07696929 -0.10794035 0.031293385 0.026861306
0.092885815 0.070980445 -0.011304896 0.0026260456 -0.006743089 0.06921863 -0.11907687 0.022047106
0.050123308 0.006804 0.048401445 0.023592798 0.06667876 0.028721554 -0.046916235 -0.021040963
-0.06703765 0.012447041 -0.051108267 0.07501073 -0.0003035662 0.057201862 -0.010898842 -0.03577697
-0.0037574612 -0.040511478 0.028902771 0.06457148 0.0061216718 -0.060007554 0.04909926 -0.022294719
0.001243063 -0.048148718 0.05629507 0.023954434 0.06834319 -0.006205616 0.090099044 0.028023446
-0.0018297809 -0.036029823 0.016344791 -0.012001843 -0.060836468 0.027812392 -0.049245976 -0.026666818
0.05067135 0.05185028 0.01718958 0.064346716 0.032891963 0.06287795 -0.06431771 0.047458343
0.02410549 -0.025621654 0.021455264 0.017005986 0.023436343 -0.003873077 0.018628184 -0.00089943985
0.09214815 -0.06589955 0.04817044 0.08068113 -0.06365196 -0.009778246 0.0150131285 -0.059237987
00000000: ba0a f53b cc92 9bbc 5a87 f2bc df7d 87bd
00000010: 5f35 9d3d 604f 78bd df96 37be 1490 0dbd
00000020: cd8d 57bc fe3a 89bd a2d3 44bd 97c3 733d
00000030: ea44 5b3b 3dc9 e83c 9f32 023d 78bf 913c
00000040: 050f 503d 5cd8 403d 6fd1 ffbc c71e bc3b
00000050: bdcb 053c 417c 34bd ce26 eebb 9ba8 88bd
00000060: e8fe a23b f448 d2bd 21e3 c33a 61e0 b4bd
00000070: f552 9c3d dc91 173d e3d7 1abd 711d 01be
00000080: a6ec 95bd 976f a6bd 678c 8d3c 28b0 473d
00000090: 69e6 723d aee0 19bc 0ad4 19bd a57f 8cbd
000000a0: 5b87 9c3c 9c43 d8bd 0c73 4fbd a233 9bbb
000000b0: 22be 573d c374 8bbd aeef 6cbd 4e95 dcbc
000000c0: c687 c0bd 0b5a e9bc 690e 9e3d 3e3a 723d
000000d0: e05a c2bb ad92 60bc 2ed5 30bd cb1c 613d
000000e0: 6a4a 2f3c af71 f53c 3491 3c3d 71fb 903d
000000f0: 8bc8 b7bc 148d adbd dc26 27bd 7969 21bd
00000100: 7591 50bc 0897 e43d ea8d b0bd 2df9 dcbd
00000110: 79d8 8e3c 8cd3 e5bd 6b2e d83c 8fbc 063d
00000120: ffcf 77bc 25a8 ef3d 5250 b73c 2820 1abd
00000130: 8cc3 98bd a0c4 cb3c 7da2 d93b 9434 433d
00000140: a799 d7bd f76b 2e3d f421 42bc 0b2c dcbd
00000150: 2bf1 f23c f4d2 d63d 8bff 9e3b 64f3 6cbd
00000160: 3ac4 93bd b945 16bc f903 f6bc 4f5a 063c
00000170: 8218 243c cb8d 343a d64e f23b 2332 96bd
00000180: 7e10 b2bd f6ba a6bc 09b0 223c bc27 8cbd
00000190: 4e6b febc 8ee1 5fbb e154 553d 722d 1fbd
000001a0: a434 52bd 3302 9e3d 9641 fabc 62e5 f3bc
000001b0: 835f 41bd c907 9d3c 6c8d 99bd 28ed 0c3d
000001c0: 45f5 c4bd ff45 36bd 07d0 80bc c231 d4bd
000001d0: e27a 91bd b41e 693d 42da a43d e194 45bd
000001e0: 72dc abbd 0977 0bbd 99a6 5b3c b6c1 233c
000001f0: 90bb 043d af49 d0bd e21d 2f3d deab 203c
00000200: b9ef 8ebd de2f febc 4ac4 5bbd 03c1 e7bc
00000210: 2eef 33bd 182f e5bc b3c2 50be 53e5 cd3c
00000220: e972 413d a7bc 29bd 5997 be3d 0da8 c83d
00000230: 84b2 543d 22d5 5b3d c535 a3bd d238 e43d
00000240: 4190 9d3d 623f 833c ebc4 013d 0a67 553c
00000250: 07db bfbd f994 863d 0443 083e 151d 81bd
00000260: 4506 fbbc 84a1 01be 9a23 0dbc f36c 163c
00000270: 0359 dfbc 5150 933d 0151 82bd 8273 e3bb
00000280: 5f25 f23d 5ff7 173d d192 87bb 0f24 bd3d
00000290: a77c 7d3c 3d72 8c3d f9e0 803c 6883 e0bb
000002a0: b57c 58bd 8236 7bbd 97e1 c53d a5ef 30be
000002b0: b516 9b3d 0171 fbbc 031d 0ebe 3b64 c23c
000002c0: fa97 9b3d 135d 3e3d 360c 3e3d cb78 ce3d
000002d0: 13a2 9dbd d50f ddbd 7e2d 003d 3e0c dc3c
000002e0: eb3a be3d 325e 913d 2c38 39bc bc19 2c3b
000002f0: 21f5 dcbb 7fc2 8d3d 93de f3bd 229c b43c
00000300: 194e 4d3d 17f4 de3b 9840 463d af45 c13c
00000310: e08e 883d 7749 eb3c 3d2b 40bd 195e acbc
00000320: 094b 89bd adee 4b3c e756 51bd 3a9f 993d
00000330: f727 9fb9 804c 6a3d 0e91 32bc df8a 12bd
00000340: bd3f 76bb 5def 25bd 81c5 ec3c 0d3e 843d
00000350: 4e98 c83b 7bca 75bd 4e1c 493d 6aa3 b6bc
00000360: 46ee a23a 9737 45bd a995 663d 173c c43c
00000370: 84f7 8b3d 7b58 cbbb d985 b83d 6d91 e53c
00000380: 42d5 efba 0294 13bd 83e5 853c 61a3 44bc
00000390: a92f 79bd d0d6 e33c 26b6 49bd 5f74 dabc
000003a0: c38c 4f3d f660 543d 29d1 8c3c 36c8 833d
000003b0: b9b9 063d 28c6 803d 01b9 83bd ae63 423d
000003c0: e078 c53c 81e4 d1bc f3c2 af3c 2350 8b3c
000003d0: 93fd bf3c 73d3 7dbb 229a 983c 63c8 6bba
000003e0: 2bb8 bc3d 58f6 86bd 5e4e 453d 263c a53d
000003f0: f55b 82bd f034 20bc a0f9 753c 88a3 72bd

backbone_net.target_net.0.0.bias f4 [128]
0.028235594 -0.067854844 -0.043065272 0.041524872 0.05093494 0.1422194 0.007997388 -0.025595369
-0.002706362 0.092850044 -0.16216078 0.008369411 -0.09413773 -0.07148927 -0.04312298 -0.065889955
-0.021600941 -0.022890035 0.0096372655 -0.014999087 0.0550019 -0.08740158 0.083798006 -0.08330933
-0.1379719 -0.00037788795 -0.03765556 -0.0195597 0.025706029 0.039233826 0.1851719 0.13026409
-0.027985888 0.02312848 0.10525884 -0.2383382 -0.0674109 0.0675266 -0.06347648 0.100710355
-0.040326964 0.01187697 -0.09279237 0.04821207 0.06000431 0.049913738 -0.012847204 -0.083055116
0.032311108 0.049769204 -0.22720511 -0.076323524 0.048534527 0.023041835 -0.0056006927 -0.037397668
0.07625646 -0.0039337636 0.017090492 0.02156787 0.16380006 -0.09209587 0.1350535 -0.002942187
0.082729615 0.16393198 0.018538216 -0.08749631 -0.13412888 0.10792144 0.009861533 0.043337163
0.067115 0.046351805 -0.03164444 0.039032113 0.008712332 -0.040528495 -0.0012625258 0.10004566
-0.10560937 0.057245333 0.12106881 -0.040505115 -0.035229005 0.033951707 0.05747629 0.066815846
-0.084357314 0.03786078 -0.10502878 -0.1789922 -0.0029639702 -0.019525658 -0.08014606 -0.048551682
-0.057308715 -0.04872392 -0.000977502 -0.019129489 0.08063753 -0.23009197 0.030891657 -0.109474845
0.124510296 0.037514612 -0.13255918 0.09937366 0.034125026 -0.031070152 -0.041805252 0.010610839
0.105983585 -0.029976688 0.085919745 -0.00935909 0.07666413 -0.0032375487 0.037539113 0.04825951
0.01352953 -0.011128559 0.026473908 -0.04238657 0.120945126 -0.03183788 -0.00012455214 0.020422854
00000000: 554e e73c 7bf7 8abd 3665 30bd fc15 2a3d
00000010: 28a1 503d f6a1 113e 7a07 033c 61ad d1bc
00000020: 385d 31bb 2a28 be3d 7a0d 26be db1f 093c
00000030: 48cb c0bd f768 92bd b9a1 30bd 50f1 86bd
00000040: 75f4 b0bc e283 bbbc 9fe5 1d3c bbbe 75bc
00000050: ac49 613d 99ff b2bd 4a9e ab3d 159e aabd
00000060: 8148 0dbe 431f c6b9 b73c 1abd aa3b a0bc
00000070: 7395 d23c a6b3 203d b49d 3d3e f363 053e
00000080: a942 e5bc f077 bd3c f291 d73d ee0e 74be
00000090: ba0e 8abd 634b 8a3d f5ff 81bd 3b41 ce3d
000000a0: e32d 25bd 9f97 423c ed09 bebd 057a 453d
000000b0: 14c7 753d 5972 4c3d 147d 52bc cd18 aabd
000000c0: a758 043d cbda 4b3d 75a8 68be 824f 9cbd
000000d0: 24cc 463d 3bc2 bc3c 0486 b7bb 4c2e 19bd
000000e0: 592c 9c3d cde6 80bb 5c01 8c3c 1aaf b03c
000000f0: 34bb 273e c29c bcbd 774b 0a3e b5d1 40bb
00000100: 256e a93d c9dd 273e 75dd 973c 4431 b3bd
00000110: 1559 09be ea05 dd3d 4492 213c 4f82 313d
00000120: 9773 893d 64db 3d3d 9a9d 01bd 23e0 1f3d
00000130: 2bbe 0e3c 3501 26bd 567b a5ba bde4 cc3d
00000140: ba49 d8bd 157a 6a3d edf2 f73d b1e8 25bd
00000150: 4a4c 10bd f210 0b3d 426c 6b3d bfd6 883d
00000160: 87c3 acbd e813 1b3d 5419 d7bd bb49 37be
00000170: 2b3f 42bb 46f4 9fbc 9e23 a4bd 21de 46bd
00000180: 8bbc 6abd bc92 47bd 861f 80ba 72b5 9cbc
00000190: 4a25 a53d 3b9d 6bbe 8010 fd3c 5934 e0bd
000001a0: 41ff fe3d eca8 193d 98bd 07be 6b84 cb3d
000001b0: afc6 0b3d d586 febc fc3b 2bbd 16d9 2d3c
000001c0: ec0d d93d ac91 f5bc b1f6 af3d de56 19bc
000001d0: 1502 9d3d 0e2d 54bb 9dc2 193d c4ab 453d
000001e0: f6aa 5d3c 8f54 36bc cfdf d83c 8a9d 2dbd
000001f0: 14b2 f73d 7068 02bd 369a 02b9 d44d a73c

merge_net.0.0.weight f4 [128, 256]
-0.11108475 0.016070094 0.10639598 -0.009544952 0.10225162 -0.01307132 -0.02174891 0.05538337
-0.1848436 -0.033642847 -0.10428184 0.093276694 0.12153812 0.018337755 -0.009290909 0.012373344
0.015147571 0.038889267 0.0020823164 0.3083044 0.19570643 0.043116648 0.17622069 0.7840934
-0.18668993 0.35531998 -0.05313685 0.024267135 0.026392343 0.03915897 -0.00018697568 0.17264399
0.029798605 0.09612208 -0.2562494 0.047432575 -0.0635014 -0.07478706 0.2698442 -0.059702385
-0.0454033 0.011055712 -0.08158215 -0.28127143 0.022073075 0.038807362 0.13012695 -0.071704134
0.00064062345 -0.016615637 -0.042896405 -0.16755699 -0.0008185776 0.15545452 0.097098835 -0.035334654
-0.13176616 -0.07210144 -0.07000554 0.0012604631 -0.03552272 0.22376491 0.058574762 -0.0028780245
-0.15156063 -0.043299783 -0.020662958 -0.036190614 -0.037596107 -0.04868851 -0.16845876 -0.07798907
-0.0053060665 -0.11933914 -0.18858717 0.023710605 -0.15271124 -0.29651034 -0.009565249 0.013192226
0.019644395 -0.04758331 -0.16483434 0.28253445 0.016931852 -0.032906644 -0.054261643 0.0856333
0.010240099 -0.030563926 0.0023690881 0.15460052 0.0063611437 0.003903471 0.16113277 -0.03309759
-0.007507307 -0.048954528 -0.18844104 0.2593609 -0.17583422 -0.31803188 -0.085000016 0.016608445
0.08088394 0.053105406 -0.22433363 -0.019963803 -0.22530724 -0.03182181 0.03801012 0.09830804
-0.03083446 -0.13116528 0.10019357 0.114966884 0.16600628 0.0040599965 -0.02047504 0.021674521
-0.3322368 0.31792137 -0.032397527 -0.07924707 -0.11891026 0.27589738 0.14400125 0.036461968
0.037278414 0.024688885 -0.0030748209 -0.01348384 -0.17773384 0.0074045365 -0.031354036 -0.0893221
0.017645078 0.010288898 0.13531059 -0.35155582 -0.068463765 0.000105908795 -0.13595863 0.09596831
0.012795935 0.011765722 0.0016771854 0.012590757 -0.071741946 0.04309625 0.09165685 0.0025357697
-0.010772401 -0.0036345902 -0.04859174 -0.0009246276 0.004650607 -0.051092222 0.19005719 0.016775202
0.014347069 -0.003789497 -0.07679349 0.019901128 0.03882107 0.11586206 -0.073394254 -0.050944448
-0.097876824 0.11888051 -0.09400663 0.075846925 0.15307623 0.11308762 -0.061801568 -0.05724278
-0.029086305 -0.16766681 -0.044540796 0.016053371 -0.13226536 0.104523614 -0.015602928 0.010506772
0.0009026496 -0.0568599 -0.026678188 0.049916975 -0.07499481 -0.034819715 -0.07235958 0.32170537
0.1206386 0.24203221 0.028409228 -0.0077817882 0.0046103885 -0.252849 0.013249652 0.019520424
0.1147567 -0.41617644 0.024426607 0.020204462 -0.33593312 0.029793223 -0.00835343 -0.101414606
-0.26131037 -0.0025130261 -0.0111867 0.011960032 -0.032477587 0.043777023 -0.11699666 -0.01510735
-0.12268909 0.060050398 0.017368136 0.07351078 0.033148035 -0.010663768 -0.013884724 -0.24556237
-0.008375154 -0.07064846 -0.017058734 0.19761556 0.2266412 -0.30084106 -0.37390983 -0.01144329
-0.00072623306 0.016684214 0.019570608 -0.21625404 -0.061742697 -0.061369885 -0.14041896 0.020515237
-0.037614696 0.01132205 -0.017277062 -0.014531823 0.0033905932 0.043070514 -0.02402176 0.06444141
0.04519572 -0.035416987 -0.010746644 -0.045863885 -0.037455585 -0.17068584 0.09210306 0.016792936
00000000: 6780 e3bd 6ea5 833c 23e6 d93d 6e62 1cbc
00000010: 4c69 d13d 1729 56bc c52a b2bc acd9 623d
00000020: a447 3dbe 15cd 09bd b891 d5bd da07 bf3d
00000030: fae8 f83d 0f39 963c e638 18bc 91b9 4a3c
00000040: 852d 783c 5a4a 1f3d 7977 083b 13da 9d3e
00000050: 4467 483e 159b 303d 3273 343e 58ba 483f
00000060: a52b 3fbe 80ec b53e 07a6 59bd dfcb c63c
00000070: c134 d83c 2865 203d e70e 44b9 96c9 303e
00000080: 341c f43c a7db c43d 1f33 83be a948 423d
00000090: 060d 82bd f529 99bd 0529 8a3e 7d8a 74bd
000000a0: d0f8 39bd 0423 353c 8b14 a7bd cf02 90be
000000b0: 98d2 b43c 78f4 1e3d 0040 053e 9ed9 92bd
000000c0: 83ef 273a 841d 88bc 24b4 2fbd 0f94 2bbe
000000d0: d095 56ba 782f 1f3e c1db c63d 12bb 10bd
000000e0: b5ed 06be eba9 93bd 115f 8fbd 2036 a53a
000000f0: 4680 11bd a122 653e 17ec 6f3d 3d9d 3cbb
00000100: b632 1bbe 1d5b 31bd 5d45 a9bc 9c3c 14bd
00000110: 60fe 19bd 9a6d 47bd 7480 2cbe bcb8 9fbd
00000120: 83de adbb 1468 f4bd ff1c 41be be3c c23c
00000130: 5660 1cbe 34d0 97be 90b7 1cbc 3524 583c
00000140: 48ed a03c b8e6 42bd 55ca 28be 5ba8 903e
00000150: abb4 8a3c 1ec9 06bd 7541 5ebd 8360 af3d
00000160: 17c6 273c 3361 fabc b442 1b3b 994f 1e3e
00000170: 2471 d03b 60d1 7f3b fdff 243e 5791 07bd
00000180: dbff f5bb 8b84 48bd b0f6 40be f4ca 843e
00000190: e30d 34be 13d5 a2be 7d14 aebd 6f0e 883c
000001a0: 7ba6 a53d 0e85 593d b7b7 65be 218b a3bc
000001b0: f1b6 66be 9657 02bd 80b0 1b3d ba55 c93d
000001c0: 8d98 fcbc 3150 06be 4932 cd3d c273 eb3d
000001d0: 8dfd 293e b809 853b 45bb a7bc c48e b13c
000001e0: f11a aabe 97c6 a23e 45b3 04bd 4a4c a2bd
000001f0: 3987 f3bd 6c42 8d3e 1075 133e 2559 153d
00000200: 40b1 183d 5840 ca3c ef82 49bb 53eb 5cbc
00000210: dcff 35be c1a1 f23b 176d 00bd 81ee b6bd
00000220: 698c 903c c492 283c dc8e 0a3e 20ff b3be
00000230: bb36 8cbd 5a1b de38 bd38 0bbe 098b c43d
00000240: 0ba6 513c 04c5 403c 01d5 db3a 7649 4e3c
00000250: 71ed 92bd b285 303d 96b6 bb3d 282f 263b
00000260: b97e 30bc 4e32 6ebb 2208 47bd b562 72ba
00000270: 1e64 983b 1446 51bd 5a9e 423e 266c 893c
00000280: f80f 6b3c 3659 78bb e845 9dbd b107 a33c
00000290: d802 1f3d 1649 ed3d ba4f 96bd 20ab 50bd
000002a0: a573 c8bd a077 f33d 8c86 c0bd a255 9b3d
000002b0: 04c0 1c3e 7b9a e73d a423 7dbd 6877 6abd
000002c0: 6746 eebc d9b0 2bbe 6970 36bd 5c82 833c
000002d0: 9270 07be 7a10 d63d 6ca3 7fbc 9924 2c3c
000002e0: ca9f 6c3a ede5 68bd 378c dabc be75 4c3d
000002f0: e196 99bd 1e9f 0ebd 4231 94bd 91b6 a43e
00000300: 5f11 f73d 4bd7 773e 78ba e83c 5ffe febb
00000310: be12 973b 6d75 81be 1215 593c 4ce9 9f3c
00000320: 9005 eb3d 1415 d5be 4f1a c83c d483 a53c
00000330: 6dff abbe eb10 f43c d3dc 08bc 76b2 cfbd
00000340: 79ca 85be 95b1 24bb 6c48 37bc 03f4 433c
00000350: 3807 05bd 894f 333d f29b efbd d284 77bc
00000360: 6b44 fbbd 68f7 753d 9f47 8e3c d28c 963d
00000370: 3cc6 073d 16b7 2ebc c17c 63bc b474 7bbe
00000380: f137 09bc 24b0 90bd c2be 8bbc bc5b 4a3e
00000390: a114 683e d707 9abe 1c71 bfbe a37c 3bbc
000003a0: ad60 3eba 55ad 883c 8a52 a03c b371 5dbe
000003b0: e9e5 7cbd fd5e 7bbd fdc9 0fbe 920f a83c
000003c0: de11 1abd 1f80 393c a088 8dbc e216 6ebc
000003d0: b734 5e3b b56a 303d 48c9 c4bc dcf9 833d
000003e0: 261f 393d 6711 11bd b112 30bc c5db 3bbd
000003f0: 076b 19bd 45c8 2ebe 87a0 bc3d 5791 893c

merge_net.0.0.bias f4 [128]
0.010323878 -0.004373905 0.0011556679 0.013357351 -0.05305335 -0.031579506 -0.0012545557 -0.06612731
0.030240629 0.013282083 -0.04044367 0.038343318 0.06941356 0.053470038 0.020736441 0.016580414
-0.02844312 -0.008695317 0.102962844 -0.0037553834 0.068029925 0.11045661 0.010148257 -0.05073743
0.027365757 0.03790652 0.058357447 0.07777687 0.009396887 -0.008320032 -0.08363858 0.0074235997
0.036421582 0.04175492 0.023042906 0.009388123 -6.4889464e-05 -0.0777333 -0.049785037 -0.054835934
0.0043512788 0.043804567 0.004059871 -0.0043843375 -0.03621561 -0.050207958 0.017517041 -0.047000796
-0.068427466 0.023389889 -0.018090691 -0.014633765 0.013412624 0.025573216 0.008885049 0.05765956
-0.008731797 0.0309237 -0.034000743 0.0143445395 0.045992948 0.056997083 0.028473927 -0.05863217
0.044635754 0.02113975 -0.026420025 0.027691282 -0.061320893 0.058801964 -0.0396071 0.015746702
-0.027786698 -0.019050097 -0.0077151177 0.031948533 -0.031404257 -0.03535939 0.028197128 0.042212084
-0.04895288 -0.0388667 -0.02373174 0.0079545025 0.2627044 0.031487267 -0.056138992 -0.09033895
0.067179546 -0.02731386 -0.003255131 0.03891651 -0.03680279 0.052596357 0.06817731 -0.034400463
0.03124473 0.042197365 0.05197991 0.018128453 -0.0095193405 0.07530818 0.07260481 -0.015231501
0.037250645 0.07625567 -0.00067642686 -0.03996679 0.048658557 -0.046908006 0.034061827 -0.03942131
0.019396944 -0.061077904 0.03999309 -0.038459018 0.027425906 -0.061977338 0.019973919 -0.027356636
-0.000483349 -0.05759507 -0.045747366 0.09686499 0.008879547 -0.070069775 0.0029415118 0.02236901
00000000: 7c25 293c f952 8fbb c879 973a cad8 5a3c
00000010: 784e 59bd 8359 01bd e76f a4ba c16d 87bd
00000020: 32bb f73c 189d 593c 43a8 25bd e20d 1d3d
00000030: b228 8e3d 6603 5b3d 78df a93c a6d3 873c
00000040: 8c01 e9bc ce76 0ebc 2fde d23d e11c 76bb
00000050: 4653 8b3d 1337 e23d e044 263c 0dd2 4fbd
00000060: 272e e03c de43 1b3d 3808 6f3d 7b49 9f3d
00000070: 67f5 193c be50 08bc b44a abbd ab41 f33b
00000080: cc2e 153d 3507 2b3d 7ac4 bc3c a4d0 193c
00000090: 4415 88b8 a332 9fbd 65eb 4bbd a59b 60bd
000000a0: 2c95 8e3b 6b6c 333d ab08 853b 7daa 8fbb
000000b0: d256 14bd dca6 4dbd e67f 8f3c e883 40bd
000000c0: b323 8cbd 279c bf3c ee32 94bc 76c2 6fbc
000000d0: 9fc0 5b3c ec7e d13c 9992 113c 6e2c 6c3d
000000e0: d00f 0fbc b353 fd3c 5d44 0bbd 5c05 6b3c
000000f0: 1a63 3c3d c675 693d 2742 e93c 4928 70bd
00000100: fbd3 363d 452d ad3c cf6e d8bc d4d8 e23c
00000110: 9e2b 7bbd 54da 703d 0e3b 22bd 3aff 803c
00000120: eea0 e3bc f30e 9cbc 19cf fcbb 77dc 023d
00000130: c0a1 00bd 02d5 10bd aafd e63c 94e6 2c3d
00000140: d182 48bd b032 1fbd 1169 c2bc 9a53 023c
00000150: 3181 863e cbf8 003d 00f2 65bd a103 b9bd
00000160: 6e95 893d 51c1 dfbc 0954 55bb eb66 1f3d
00000170: 86be 16bd 476f 573d 8ca0 8b3d 80e7 0cbd
00000180: f3f4 ff3c 25d7 2c3d e3e8 543d 1f82 943c
00000190: 02f7 1bbc 2d3b 9a3d d5b1 943d 8c8d 79bc
000001a0: 2294 183d ef2b 9c3d 3d52 31ba 37b4 23bd
000001b0: 324e 473d 9c22 40bd 6a84 0b3d 3d78 21bd
000001c0: 57e6 9e3c d32c 7abd cbcf 233d 3487 1dbd
000001d0: 4bac e03c f3db 7dbd 58a0 a33c 061b e0bc
000001e0: 016a fdb9 cfe8 6bbd 9761 3bbd 2761 c63d
000001f0: 857b 113c be80 8fbd 61c6 403b 373f b73c
