suboptimal_policies/wing.pth (torch, 285137 bytes, 13 tensors)

backbone_net.positional_encoding f4 [1, 64]
0	0xbf8e978f	-1.1140002
1	0x3f0632e3	0.52421397
2	0xbeba54ee	-0.3639292
3	0xbf277201	-0.6540833
4	0xbf63d70a	-0.89
5	0xbfac76ed	-1.3473793
6	0x3f64ed5f	0.894247
7	0x3f148949	0.5802198
8	0x3f76a336	0.9634279
9	0xbefad752	-0.489924
10	0x3f4dccf7	0.80390877
11	0x3f6adf71	0.91747195
12	0x3fc27258	1.5191145
13	0x3eb855b2	0.3600288
14	0xbeefe1a2	-0.46851832
15	0x3f3c85bd	0.7364157
16	0x3f3c62d3	0.73588294
17	0xbf98a478	-1.1925192
18	0x3fff6831	1.9953672
19	0x3f917133	1.1362671
20	0xbf6ef6e3	-0.9334547
21	0xbeefa685	-0.46806732
22	0x3f1d4bd0	0.61443806
23	0x3e9617b2	0.29314953
24	0x3ea187cc	0.31548917
25	0x3fa0c816	1.2561061
26	0xbf363360	-0.7117214
27	0x3e7343aa	0.2375628
28	0xbf9ba5c2	-1.215996
29	0xbf9d8999	-1.2307616
30	0x3f74bb68	0.9559846
31	0xbfc20a51	-1.5159398
32	0x3f9f3c17	1.2440213
33	0x3f155fc8	0.58349276
34	0xbfd3dcc8	-1.6551752
35	0xbf83ca91	-1.0296193
36	0xbf7cfbb2	-0.98821557
37	0x3f55e6b8	0.83555174
38	0x3f8c4774	1.0959306
39	0xbe96f3f9	-0.2948301
40	0xbf642da8	-0.89132166
41	0x3ed1c89f	0.40973374
42	0x3f9125d9	1.1339675
43	0x3faa328f	1.3296679
44	0x400df7d0	2.2182503
45	0xbec1f2e4	-0.37880623
46	0x3e969640	0.29411507
47	0xbeb7ec90	-0.3592267
48	0xbecb4187	-0.3969843
49	0x3ebffc63	0.37497243
50	0x3f577070	0.8415594
51	0xbe8f3968	-0.27973485
52	0x3fbede03	1.4911503
53	0x3f19754d	0.5994461
54	0xbfe649e6	-1.7991302
55	0x3f2043f6	0.626037
56	0x3fc33512	1.5250571
57	0xbf32d66c	-0.6985843
58	0x3f219834	0.6312287
59	0x3f929395	1.1451288
60	0x3f1118df	0.56678575
61	0x3fc2a5e4	1.5206876
62	0xbfcdcae6	-1.6077545
63	0xbf66c5bf	-0.90145487

backbone_net.attitude_net.0.0.weight f4 [128, 22]
0	0xbdf1d7a9	-0.11808712
1	0xbdb35c27	-0.08757811
2	0x3e0920d6	0.13391432
3	0x3fa47dcd	1.2850891
4	0x3f92d2c1	1.1470567
5	0x3c999978	0.018749937
6	0x3d8f3fb0	0.06994569
7	0xbe2bc9e5	-0.16776235
8	0x3e9b6808	0.30352807
9	0xbbeb2189	-0.0071756286
10	0x3cdf2ebc	0.027243964
11	0xbdebd81f	-0.11515831
12	0xbe4eb033	-0.20184402
13	0xbceb100e	-0.028694179
14	0x3e45742b	0.19282596
15	0x3da1d253	0.07901444
16	0xbe99b0e2	-0.30017763
17	0xbd64eb27	-0.05588832
18	0xbdd9cef3	-0.106351756
19	0xbdce3d9f	-0.10070347
20	0x3df87535	0.121317305
21	0xbcebc330	-0.028779596
22	0x3e34deff	0.17663191
23	0xbcdfc928	-0.027317598
24	0xbee8bddc	-0.4545735
25	0x4005aa21	2.0885088
26	0x3f26993f	0.65077585
27	0x3e25db34	0.161969
28	0xbced22af	-0.028947202
29	0xbe48efb9	-0.19622697
30	0x3eac1e3d	0.3361682
31	0x3b7d0968	0.0038610343
32	0xbc81e6fa	-0.015857209
33	0x39d5371b	0.00040667583
34	0x3e84491e	0.25837034
35	0x3db72356	0.08942287
36	0xbe410ba6	-0.188521
37	0xbe4038dc	-0.1877169
38	0x3f1bcec7	0.6086239
39	0xbeefe741	-0.4685612
40	0xbe32aebf	-0.17449473
41	0x3e3cad87	0.1842557
42	0xbcadde0d	-0.021224046
43	0x3e19cb4f	0.15018962
44	0x3cf24590	0.029574186
45	0xbee91af2	-0.4552837
46	0x3cb0467a	0.02151798
47	0xbd3df54d	-0.046376515
48	0xbe724726	-0.23659953
49	0x3e070a78	0.13187587
50	0xbe0efe22	-0.13964131
51	0xbda77086	-0.08175759
52	0x3e1343ef	0.14381383
53	0x3c3d94cc	0.0115711205
54	0xbcf195cc	-0.029490374
55	0x3e8f1ac3	0.27950105
56	0x3d22007e	0.03955125
57	0xbcdfd5b1	-0.027323576
58	0x3e464c1e	0.19364974
59	0x3e127893	0.14303808
60	0xbcefbabc	-0.029263847
61	0x3dd87b1b	0.105703555
62	0xbe047546	-0.12935361
63	0xbe00c6c2	-0.1257582
64	0xbe6919a6	-0.2276369
65	0x3ddfe9e5	0.10933284
66	0xbe709b48	-0.23496735
67	0xbe462a02	-0.19351962
68	0x3f1900c1	0.59766775
69	0xbfa45f33	-1.2841552
70	0xbf9845d0	-1.1896305
71	0x3e148ac4	0.1450606
72	0xbcda36a8	-0.02663739
73	0x3e04e768	0.129789
74	0xbe47f5fb	-0.19527428
75	0xbc9256ec	-0.017863713
76	0xbbf2b07a	-0.0074062916
77	0x3d8d9cb7	0.069146566
78	0xbeacede2	-0.3377524
79	0xbb01c39e	-0.0019800435
80	0xbdcfbde6	-0.10143642
81	0x3e110be8	0.14164698
82	0xbe161fd9	-0.14660586
83	0x3e1ab222	0.15107015
84	0x3d376fd7	0.044784393
85	0xbe328fc6	-0.17437658
86	0x3e1e2d47	0.1544696
87	0x39f1d642	0.00046126737
88	0xbb7f3003	-0.003893853
89	0x3da505d6	0.08057754
90	0xbe07a817	-0.13247715
91	0xbe8d6bb1	-0.27621225
92	0xbe8ee8f6	-0.2791211
93	0xbe47ce7b	-0.1951236
94	0x3e04f98a	0.12985817
95	0x3d6dee48	0.05808857
96	0x3cbfc689	0.023410099
97	0x3d37e728	0.044898182
98	0xbdf4dbb3	-0.11955967
99	0x3d0360e9	0.032074843
100	0x3dbe886e	0.09303366
101	0xbd95595d	-0.07292435
102	0xbd590127	-0.052979615
103	0xbda2c41d	-0.07947562
104	0x3e00a257	0.12561928
105	0x3dd5d9a2	0.10441901
106	0x3e0a23c5	0.13490207
107	0x3e083b2b	0.13303821
108	0x3e9e9578	0.3097341
109	0xbc93ff99	-0.018066214
110	0xbe35c472	-0.17750719
111	0xbd9be610	-0.0761224
112	0x3ae57a39	0.0017507739
113	0x3ea01778	0.31267905
114	0xbeed0cb1	-0.46298745
115	0x3c0bb805	0.00852776
116	0x3da7bae4	0.081899434
117	0x3e0622d0	0.13099217
118	0xbf1ca54c	-0.61189723
119	0xbe0eec50	-0.13957334
120	0xbbcd37b6	-0.006262745
121	0x3d84d35f	0.06485628
122	0xbe63c21b	-0.22242014
123	0x3e78c9d9	0.24295749
124	0xbdbbec24	-0.091758996
125	0x3e19447e	0.14967534
126	0xbd57d024	-0.052688733
127	0x3d6e0201	0.05810738
128	0x3de3343a	0.11093946
129	0xbd7678b0	-0.06017369
130	0x3c8bea8f	0.01707962
131	0x3cdfa1c8	0.027298823
132	0xbe99358c	-0.29923666
133	0x3ea47295	0.3211867
134	0xbe5d17d6	-0.21591124
135	0x3ed6d538	0.41959548
136	0xbf0038f1	-0.50086886
137	0xbdc98156	-0.09839122
138	0x3c2bc02f	0.010482832
139	0x3e006a77	0.12540613
140	0xbe935e3b	-0.2878283
141	0x3d119fbd	0.03555273
142	0xbddfef54	-0.1093432
143	0x3e335b8a	0.17515388
144	0xbe6e7d40	-0.23289967
145	0x3de99855	0.11406008
146	0xbe6dad89	-0.2321073
147	0x3cbfdfff	0.02342224
148	0xbeb609b8	-0.3555429
149	0x3de80082	0.11328222
150	0x3e2e2eaf	0.17009996
151	0xbd67f5c5	-0.05663087
152	0x3d8c9a8f	0.06865417
153	0x3e76c690	0.24099183
154	0x3d0e3154	0.03471501
155	0x3e69432b	0.22779529
156	0x3db4184e	0.08793698
157	0xbd9f1e5f	-0.07769465
158	0x3ea4433c	0.32082546
159	0xbcc81aa9	-0.024426775
160	0xbd990eec	-0.07473549
161	0xbd315d36	-0.043301784
162	0x3e348749	0.17629732
163	0x3e8bb144	0.2728368
164	0xbdbaf547	-0.09128814
165	0xbe38af1f	-0.18035553
166	0x3e2d48d4	0.16922313
167	0xbe4823f4	-0.19544965
168	0x3df27aa4	0.11839798
169	0xbda3b512	-0.07993521
170	0x3db8e9e5	0.09028987
171	0xbe380230	-0.17969584
172	0x3ec93dc8	0.39304948
173	0xbe01edb1	-0.12688328
174	0xbb7aeee9	-0.0038289374
175	0xbdef896a	-0.116961315
176	0x3d778597	0.060430136
177	0x3e1ac211	0.15113093
178	0xbd8e925c	-0.069615096
179	0xbe5ac8ab	-0.21365611
180	0x3d1879ea	0.03722564
181	0x3b7b6b2c	0.003836344
182	0x3dde4754	0.108534485
183	0x3ca27d3c	0.019835107
184	0xbe5cf336	-0.21577153
185	0x3e58f169	0.2118584
186	0x3cf2fda7	0.029661966
187	0xbe04883c	-0.12942594
188	0x3c497754	0.012296516
189	0x3eb27733	0.34856567
190	0x3ded11cd	0.11575661
191	0x3e79b59d	0.24385686
192	0xbdd78655	-0.10523669
193	0xbd579f33	-0.05264206
194	0xbe2808b0	-0.16409564
195	0x3e088096	0.13330302
196	0xbe8a00d6	-0.26953763
197	0x3e7c6c7d	0.2465076
198	0xbe949a41	-0.29023936
199	0x3e6f1d99	0.23351134
200	0x3e636daf	0.2220981
201	0xbf00d3c5	-0.50323135
202	0xbdc195b3	-0.09452381
203	0x3b29a50d	0.0025885731
204	0xbee0ffa6	-0.43945044
205	0xbe9efa39	-0.3105028
206	0x3e1b8ffc	0.15191644
207	0x3da3ecd0	0.08004153
208	0xbe863b60	-0.26217175
209	0x3c1ab423	0.009442362
210	0xbe508df2	-0.20366648
211	0xbd671828	-0.05641952
212	0xbd9374ab	-0.07199987
213	0xbe99a558	-0.3000896
214	0xbe1f0d4d	-0.15532418
215	0x3ea13b9e	0.31490797
216	0x3c5599d1	0.013037161
217	0xbb26a482	-0.0025427644
218	0xbdd715ef	-0.105022304
219	0xbe85513c	-0.2603854
220	0xbeb5f36d	-0.35537282
221	0x3e834b3c	0.25643337
222	0x3ed7ff8b	0.4218715
223	0x3e7b007b	0.24511902
224	0x3fc8f4dc	1.5699725
225	0xbe291203	-0.16510777
226	0x3e27e0fc	0.16394418
227	0xbd9d1126	-0.076692864
228	0x3e4b07ed	0.19827242
229	0xbd21434b	-0.039370816
230	0xbd86a2aa	-0.065739945
231	0xbe55561e	-0.20833632
232	0xbdd67488	-0.10471445
233	0xbeb785b3	-0.35844192
234	0xbbed0fab	-0.007234534
235	0xbd2ff621	-0.042959336
236	0xbe77df77	-0.24206339
237	0x3e81c569	0.25345924
238	0x3ebbdec9	0.3669341
239	0x3d0a9bea	0.033840097
240	0x3d16727b	0.03673027
241	0xbd28b72d	-0.041190315
242	0x3e049f09	0.12951292
243	0x3df9ab11	0.121908315
244	0xbdbdc7a0	-0.09266591
245	0xbe5854b4	-0.21126062
246	0x3bad8b68	0.0052961595
247	0xbe10a969	-0.14127125
248	0xbd8c90eb	-0.068635784
249	0xbdfe4ab9	-0.12416596
250	0x3e641abe	0.22275826
251	0x3d885834	0.066574484
252	0xbe0e56c3	-0.13900284
253	0x3e3582bd	0.17725654
254	0x3da6b0ab	0.081391655
255	0xbe2bae1d	-0.16765638

backbone_net.attitude_net.0.0.bias f4 [128]
0	0xba2756d8	-0.0006383485
1	0x3f11a9b7	0.5689959
2	0x3c1ec146	0.009689635
3	0x3e0ed99b	0.13950197
4	0x3e2985b6	0.16554913
5	0xbe84b930	-0.25922537
6	0xbebb703c	-0.36609066
7	0x3dcb5300	0.0992794
8	0x3e097704	0.13424307
9	0x3de6de1f	0.11272835
10	0xbdf282b6	-0.118413374
11	0xbb122111	-0.002229754
12	0x3d9cbcb4	0.0765318
13	0x3e5fc6ea	0.21853223
14	0x3f15c480	0.5850296
15	0x3b698aa1	0.0035635608
16	0xbebecf77	-0.37267658
17	0xbee8db48	-0.45479798
18	0x3adc2c40	0.0016797855
19	0x3d6c7861	0.05773199
20	0x3e824084	0.25439847
21	0x3eabcee1	0.33556274
22	0x3ed050c4	0.4068662
23	0xbec477b1	-0.38372567
24	0x3e5e504b	0.21710317
25	0x3d98971a	0.07450695
26	0x3e8e2d4e	0.2776894
27	0xbd8eaf5a	-0.069670394
28	0x3e0385e2	0.12844041
29	0xbeb5b550	-0.35489893
30	0xbcec4cb5	-0.02884517
31	0xbe94bad4	-0.2904879
32	0x3dfb8edf	0.1228311
33	0xbea85dc2	-0.32884032
34	0xbd0b6878	-0.034035176
35	0x3f2a0920	0.66420174
36	0xbd6f605f	-0.058441516
37	0xbe4e8e77	-0.20171534
38	0xbe9768a1	-0.29572013
39	0x3e85c4c0	0.2612667
40	0x3ce4ef3c	0.027946107
41	0xbe17582c	-0.14779729
42	0x3e836b5e	0.25667852
43	0xbeedd564	-0.46451867
44	0x3d3a56ee	0.04549306
45	0x3e19abf7	0.15007006
46	0xbe509119	-0.2036785
47	0x3ee1ccba	0.44101506
48	0xbdfbf4a1	-0.12302519
49	0x3e6a120c	0.22858447
50	0xbd7d952f	-0.06190985
51	0xbe066468	-0.1312424
52	0xbe5e50f0	-0.21710563
53	0x3e8624f2	0.26200062
54	0x3e7d0781	0.24709894
55	0x3df1fe93	0.11816134
56	0xbe4f8103	-0.20264058
57	0x3e7480ad	0.23877211
58	0xbe270b19	-0.16312827
59	0x3e74ecaa	0.23918405
60	0x3e81f048	0.25378633
61	0xbeeff1a5	-0.46864048
62	0x3c998424	0.018739767
63	0x3dd31321	0.10306383
64	0xbeeec31c	-0.46633232
65	0x3e848ffe	0.25891107
66	0x3cb3135d	0.02185982
67	0x3c704e51	0.01466711
68	0x3e75ad47	0.23991881
69	0x3c5c88c2	0.01346034
70	0xbe99e1e0	-0.3005514
71	0x3ec20443	0.37893876
72	0x3d31e1d3	0.043428253
73	0x3e52ed0a	0.20598236
74	0x3ec92be6	0.39291304
75	0x3e225eec	0.15856522
76	0x3e7d4046	0.2473155
77	0xbe28e112	-0.16492108
78	0xbd3209da	-0.043466426
79	0xbc49335d	-0.012280312
80	0x3e5ab30c	0.21357363
81	0x3c04bea4	0.008102093
82	0x3e2c9ff4	0.16857892
83	0xbf08ddc6	-0.534634
84	0xbe484503	-0.19557576
85	0xbe91f1dd	-0.2850484
86	0x3e944292	0.2895704
87	0xbe9c474d	-0.30523148
88	0x3e5a0f0b	0.21294801
89	0xbbfdf2a6	-0.007749873
90	0xbe9a5023	-0.30139264
91	0xbeb8990b	-0.36054263
92	0x3bf93ccf	0.007606126
93	0xbe8f998f	-0.28046843
94	0xbe63d1eb	-0.22248046
95	0xbd8e3dd2	-0.06945385
96	0x3d971adf	0.07378172
97	0xbe1826e7	-0.1485859
98	0x3ee1fc99	0.4413803
99	0x3cfefc17	0.031126065
100	0xbe59d484	-0.21272475
101	0x3d9c4fe1	0.07632423
102	0xbddc6daf	-0.10763108
103	0xbe5a313f	-0.21307848
104	0x3c3cd4ac	0.011525314
105	0xbe993ecd	-0.29930726
106	0x3dbce894	0.09224048
107	0x3e84cc72	0.2593723
108	0x3ed181b1	0.4091926
109	0xbda3c5a1	-0.07996679
110	0xbea78e28	-0.32725644
111	0x3d4ae373	0.04953332
112	0xbbcd990f	-0.0062743495
113	0xbe8d280a	-0.2756961
114	0xbeafa35f	-0.3430433
115	0xbe86ef1a	-0.26354295
116	0x3e85ac97	0.26108238
117	0x3e35e62d	0.17763586
118	0xbe2f288f	-0.17105316
119	0x3e1aac72	0.15104845
120	0xbe3fa6d9	-0.18715991
121	0x3f071c82	0.52777874
122	0xbe819e8c	-0.25316274
123	0xbe545ff3	-0.20739727
124	0x3e2f0064	0.17089993
125	0x3f113c5a	0.56732714
126	0x3e4282dc	0.18995231
127	0xbe45dd06	-0.19322595

backbone_net.attitude_net.1.0.weight f4 [128, 128]
0	0xbe47c104	-0.19507223
1	0xbdc7b6d8	-0.097516716
2	0xbe06322a	-0.13105074
3	0xbd4723c4	-0.048618093
4	0x3d1d2a9d	0.038370717
5	0xbc27da23	-0.010244879
6	0x3d8be3cc	0.06830558
7	0xbdd4691c	-0.103716105
8	0xbc632b15	-0.013865252
9	0xbd0bafd8	-0.034103245
10	0xbd08c5aa	-0.033391632
11	0xbd798460	-0.06091726
12	0xbcf77c03	-0.0302105
13	0x3cf750cc	0.030189894
14	0xbe1640d9	-0.14673175
15	0xbd9c431d	-0.07629988
16	0x3cdb8210	0.026795417
17	0xbec597e2	-0.3859244
18	0xbea044ed	-0.31302586
19	0x3e01281e	0.1261296
20	0x3df92f33	0.12167206
21	0x3d50dcf4	0.050991967
22	0xbe580198	-0.21094358
23	0xbe60e8b3	-0.21963768
24	0x3df81413	0.12113204
25	0xbcd22ba3	-0.025655573
26	0xbd396a49	-0.045267377
27	0xbdcd2f1c	-0.10018751
28	0xbd38c8c6	-0.045113347
29	0x3c87bad0	0.016568571
30	0xbd087537	-0.03331491
31	0xbce26a90	-0.027638704
32	0xbdb3699b	-0.08760377
33	0x3c80d6df	0.015727459
34	0xbcfd20b8	-0.03089939
35	0xbec9f116	-0.39441746
36	0xbdc25af6	-0.09490006
37	0x3dda45d6	0.106578514
38	0xbe9b37d0	-0.3031602
39	0xbd3a440f	-0.045475062
40	0xbd910f7b	-0.07083031
41	0xbdfbacf9	-0.12288851
42	0x3cd87743	0.026424056
43	0x3d364891	0.0445028
44	0xbd0b302e	-0.033981495
45	0xbd8a2716	-0.06745736
46	0x3d5ce855	0.053932507
47	0xbd9c5f65	-0.076353826
48	0xbd96634c	-0.07343158
49	0xbefbc68d	-0.4917492
50	0xbdb16e9c	-0.08663675
51	0xbdf17ed8	-0.11791772
52	0xbc89923c	-0.016793363
53	0x3ddd6aff	0.108114235
54	0x3e09821e	0.13428542
55	0xbda68e76	-0.08132641
56	0x3e40b20c	0.1881792
57	0x3a5ff340	0.0008543022
58	0xbce6f6e9	-0.028193908
59	0x3d954e4a	0.07290323
60	0x3e1c010d	0.15234776
61	0xbd339805	-0.04384615
62	0x3cf522c3	0.029923802
63	0x3ab09ce6	0.0013474494
64	0x3cce8c3b	0.025213351
65	0x3cc6b2a5	0.024255106
66	0x3e439f81	0.19103815
67	0x3d7042a7	0.058657315
68	0x3cfa38d1	0.03054467
69	0xbd621a61	-0.055200938
70	0xbd8aa5ba	-0.06769891
71	0xbd72ccf4	-0.05927749
72	0x3d729265	0.059221644
73	0x3e1cbc86	0.15306291
74	0xbd469add	-0.048487533
75	0x3dd1c8de	0.102433905
76	0xbdff09ae	-0.12453018
77	0xbd5a2456	-0.05325731
78	0x3cb41af0	0.021985501
79	0xbda4737b	-0.08029839
80	0x3d8ec608	0.06971365
81	0x3d682bbc	0.056682333
82	0xbdc2bc36	-0.09508555
83	0xbd501ce4	-0.050808802
84	0xbb2d8a24	-0.0026480043
85	0x3dc10f2a	0.094267204
86	0x3e364d36	0.17802891
87	0x3c328896	0.010896822
88	0xbc9e6e7f	-0.019339798
89	0x3e09b56f	0.13448118
90	0x3d851159	0.064974494
91	0xbc96317b	-0.018334141
92	0x3d35bc40	0.044368982
93	0x3d53965e	0.051657073
94	0x3e18a9cb	0.14908521
95	0x3dcabbb6	0.09899084
96	0xbe41dd08	-0.18931973
97	0x3dda3fd8	0.106567085
98	0xbd18359c	-0.0371605
99	0x3db94c79	0.09047789
100	0xbdb9f8e9	-0.09080679
101	0xbe42e5fe	-0.19033048
102	0x3dfaaf8e	0.12240516
103	0x3e21e331	0.15809323
104	0xbd5b6cdd	-0.053570617
105	0xbee03919	-0.43793562
106	0x3d6154f7	0.05501267
107	0xbc358cff	-0.011080979
108	0x3d46d0e8	0.048539072
109	0x3cdb4408	0.026765838
110	0x3da2cc45	0.079491176
111	0xbb0350c1	-0.0020037147
112	0xbe7bd2e1	-0.24592163
113	0xbe1946cd	-0.14968415
114	0x3e591264	0.21198422
115	0xbc434a4e	-0.011919571
116	0x3cfa5293	0.030556953
117	0xbc835ba7	-0.016034914
118	0xbce50fd4	-0.027961649
119	0xbd9b47fe	-0.07582091
120	0x3d828c74	0.063744456
121	0x3df30521	0.11866213
122	0x3cbbc33d	0.022920245
123	0xbd4b9685	-0.049704093
124	0x3e4f2cb4	0.20231897
125	0xbeb5d5b0	-0.35514593
126	0x3b082cc7	0.0020778643
127	0x3d961cad	0.07329688
128	0xbdad9462	-0.084755674
129	0xbdad8265	-0.084721364
130	0xbde69323	-0.11258533
131	0x3ce1cf58	0.02756469
132	0xbb958ae4	-0.004563676
133	0xbe50725d	-0.20356126
134	0xbcc0bd00	-0.023527622
135	0x3c378f5d	0.011203614
136	0xbd9e4023	-0.07727077
137	0xbe25c85e	-0.16189715
138	0xbe32d0f9	-0.17462529
139	0x3e02250e	0.12709448
140	0x3daa7235	0.083225645
141	0xbdea91d5	-0.114535965
142	0x3d6a04f4	0.05713363
143	0xbd31cf17	-0.043410387
144	0x3dc592a8	0.09647113
145	0x3e1eceea	0.15508619
146	0x3d9a0790	0.07520974
147	0x3e6a839d	0.22901769
148	0xbe2181eb	-0.15772216
149	0xbdfb7064	-0.12277296
150	0xbe06642b	-0.13124149
151	0x3de6836d	0.11255536
152	0xbdebd5c2	-0.115153804
153	0xbcb178be	-0.02166402
154	0xbdc2e666	-0.09516601
155	0x3cb5f84e	0.022213127
156	0xbe4ffc42	-0.20311072
157	0x3d9344ea	0.07190879
158	0x3ce47d41	0.027891757
159	0xbd5789c0	-0.052621603
160	0xbe1b78ea	-0.15182844
161	0x3d884211	0.06653226
162	0xbd669f6b	-0.056304377
163	0x3c80bcff	0.01571512
164	0xbda81c39	-0.08208508
165	0x3db95d91	0.090510495
166	0xbcf212e3	-0.029550022
167	0x3c69a2b6	0.014259985
168	0x3d9a1c9a	0.075249866
169	0x3d0b0b35	0.033946235
170	0xbd99ba9b	-0.07506295
171	0x3d0eee42	0.03489519
172	0xbd35ca02	-0.044382103
173	0xbd23681c	-0.03989421
174	0xbd526647	-0.05136707
175	0xbd3f8a25	-0.046762604
176	0xbdebad52	-0.115076676
177	0x3e21c123	0.15796332
178	0x3d977d51	0.07396949
179	0xbdfe0cdb	-0.12404796
180	0x3d210f33	0.039321136
181	0xbda6cc13	-0.08144393
182	0xbe29a537	-0.1656693
183	0x3d3e5119	0.04646406
184	0xbe2e0a2c	-0.16996068
185	0xbd8e74c2	-0.069558635
186	0xbdae4d42	-0.085108295
187	0xbe6b7400	-0.22993469
188	0xbb02e2f8	-0.001997171
189	0x3d8132c2	0.063085094
190	0x3bd4e481	0.0064969664
191	0xbd61f1f4	-0.055162385
192	0x3e8416ba	0.2579859
193	0xbe451ed6	-0.19250044
194	0x3e771823	0.24130301
195	0xbd672de9	-0.056440268
196	0xbe12a136	-0.1431931
197	0xbd33a57b	-0.043858986
198	0xbda96840	-0.08271837
199	0x3d72e649	0.05930165
200	0xbca8d182	-0.020607714
201	0xbd4ab709	-0.049490962
202	0xbd91d392	-0.07120432
203	0xbd37bf9f	-0.04486048
204	0x3d405f0d	0.046965647
205	0xbd00914e	-0.031388573
206	0x3d2bba55	0.041925747
207	0xbc36be57	-0.011153779
208	0x3db925df	0.090404265
209	0xbd17a83f	-0.037025686
210	0xbd66a0ff	-0.05630588
211	0x3d261c94	0.040554598
212	0x3b5856c2	0.0033010696
213	0x3ddec0ef	0.10876643
214	0xbdf718e5	-0.12065295
215	0x3d1c6028	0.03817764
216	0xbdc65be2	-0.09685494
217	0xb940c2b8	-0.00018383085
218	0x3c92da5f	0.017926393
219	0x3d6aab6e	0.057292394
220	0xbe06fc09	-0.13182081
221	0xbd324ca3	-0.043530118
222	0x3dbf3605	0.09336475
223	0xbe1b53f0	-0.15168738
224	0x3e705870	0.23471236
225	0xbd567df0	-0.052366197
226	0xbd00b147	-0.031419065
227	0xbe0aea10	-0.1356585
228	0x3d8c9cbc	0.06865832
229	0x3e1dcc0a	0.15409866
230	0x3e1eaf66	0.15496597
231	0x3e765892	0.24057224
232	0x3b017e31	0.0019759054
233	0x3e249a63	0.16074519
234	0xbe1f7f59	-0.15575923
235	0xbba5d6cc	-0.005061006
236	0xbcd15d68	-0.025557235
237	0xbd8e09d7	-0.069354706
238	0x3d3e3463	0.04643668
239	0x3c560897	0.013063571
240	0x3dc00ebb	0.093778096
241	0x3d5d8b93	0.054088186
242	0xbdaa5eea	-0.08318885
243	0xbd74ffbf	-0.05981421
244	0x3ce21e56	0.027602356
245	0x3ca86c3a	0.020559419
246	0xbd9758e5	-0.07390002
247	0x3c183358	0.009289585
248	0xbd9c69d0	-0.0763737
249	0xbe84be56	-0.25926465
250	0x3c3178a3	0.010831985
251	0x3d9c7b08	0.07640654
252	0xbe34904d	-0.17633171
253	0xbd1a2e92	-0.03764207
254	0xbc0d4ce4	-0.008624289
255	0x3cc19030	0.023628324

backbone_net.attitude_net.1.0.bias f4 [128]
0	0xbc1fa0c1	-0.009742917
1	0xbbf99f3a	-0.0076178582
2	0xbe2f818c	-0.17139262
3	0x3d7d1722	0.06178964
4	0x3e012b5a	0.12614194
5	0xbe000ed5	-0.12505658
6	0xbbde5136	-0.0067845834
7	0x3d236c4c	0.0398982
8	0x3e48a00a	0.195923
9	0xbd84373e	-0.06455849
10	0x3d201dd3	0.039090943
11	0x3d30efaf	0.04319733
12	0x3e34d480	0.17659187
13	0xbd3ab033	-0.045578193
14	0x3d93f2d3	0.072240494
15	0xbcb896d5	-0.02253286
16	0xbce2b895	-0.027675906
17	0x3dc7bacf	0.09752428
18	0x3e00969f	0.12557457
19	0xbd464c7b	-0.04841278
20	0x3d8dec60	0.069298506
21	0xbe9d50e9	-0.30725792
22	0x3c9879b4	0.01861272
23	0x3d4ba407	0.049716976
24	0x3d19304a	0.037399568
25	0x3c87876e	0.01654407
26	0x3e1dd568	0.1541344
27	0xbe18a75c	-0.14907593
28	0x3c7dff95	0.01550283
29	0xbd952223	-0.07281902
30	0xbd985bf7	-0.07439416
31	0x3e9b8084	0.30371487
32	0xbdd18db5	-0.102321066
33	0xbd7cd883	-0.06172992
34	0xbd050e11	-0.032484118
35	0xbcdb8ec8	-0.026801482
36	0xbdd6dd78	-0.104914606
37	0xbc800182	-0.015625719
38	0x3d8e37a5	0.06944207
39	0xbe4c9810	-0.19979882
40	0x3c3b36de	0.011426656
41	0x3dc0c593	0.09412684
42	0xbb81bc05	-0.0039591813
43	0x3e57175b	0.21005003
44	0xbe921d59	-0.28538015
45	0xbde13901	-0.10997201
46	0x3d0cc976	0.034371816
47	0xbbbdec4c	-0.005795991
48	0x3e04a411	0.12953211
49	0x3e115742	0.14193442
50	0x3e64f069	0.22357334
51	0x3e808029	0.25097778
52	0xbd147974	-0.03624864
53	0x3cd0f402	0.025506977
54	0x3d8a933c	0.06766364
55	0xbbecd91d	-0.0072280304
56	0x3dc52022	0.096252695
57	0x3bf2e969	0.0074130786
58	0x3d84f941	0.06492854
59	0xbd88fa9b	-0.06688424
60	0x3e397180	0.18109703
61	0xbd978449	-0.07398278
62	0xbce7fc4f	-0.028318552
63	0x3ec1f2ea	0.3788064
64	0x3d84e251	0.06488479
65	0xbc079837	-0.008276037
66	0x3d6d5315	0.05794056
67	0xbcbd8130	-0.02313289
68	0x3e16d29e	0.14728782
69	0xbd4e9d22	-0.050442822
70	0x3cffb54c	0.031214379
71	0x3e165486	0.1468068
72	0x3d245de8	0.04012862
73	0x3dc41eff	0.095762245
74	0x3ca91f41	0.020644786
75	0x3d09e2eb	0.03366367
76	0xbc1cbac9	-0.009566017
77	0x3d80b322	0.06284167
78	0x3c8b208b	0.016983291
79	0xbccbd982	-0.02488399
80	0xbc881f7b	-0.016616574
81	0x3dd747ab	0.105117165
82	0x3ba52b63	0.0050405725
83	0x3ce0d9b9	0.027447568
84	0xbd465405	-0.04841997
85	0xbb560a38	-0.00326599
86	0x3dc9e696	0.09858434
87	0x3e61f5a1	0.22066356
88	0xbd3d324c	-0.046190545
89	0xbd3f8d55	-0.046765644
90	0x3d48cbf5	0.049022634
91	0x3e1225c2	0.14272216
92	0xbe42ecae	-0.19035599
93	0x3e26cd54	0.16289264
94	0xbd6ebe67	-0.05828705
95	0xbd5298dc	-0.05141531
96	0xbd6f8cf1	-0.05848402
97	0xbd665798	-0.05623588
98	0x3e3551ca	0.17706981
99	0xbd0804c7	-0.03320768
100	0xbdf13550	-0.11777747
101	0x3dd934ff	0.10605811
102	0x3c3af4b9	0.0114108855
103	0xbd21dd51	-0.039517704
104	0xbd7fe175	-0.062470872
105	0x3e053510	0.13008523
106	0x3ba34685	0.004982772
107	0x3d092274	0.033480123
108	0x3dbf138b	0.093298994
109	0x3d15466b	0.03644411
110	0x3d2b8574	0.041875318
111	0xbd82577a	-0.06364341
112	0x3cfa7291	0.030572208
113	0x3d86755d	0.06565354
114	0x3c57fba9	0.013182559
115	0x3e6ed2d1	0.23322608
116	0x3df54dca	0.11977728
117	0x3d601782	0.05470992
118	0x3d88c0e8	0.06677419
119	0x3d2a2af2	0.041544862
120	0xbcaf349a	-0.021387387
121	0xbe20646d	-0.1566331
122	0xbdc43a59	-0.095814414
123	0xbaf38c31	-0.0018581209
124	0xbc22f0da	-0.009945119
125	0xbc8bfa30	-0.017087072
126	0x3b057d12	0.0020368737
127	0xbd574a37	-0.05256101

backbone_net.embedding_net.0.0.weight f4 [64, 3]
0	0xbefa68b5	-0.4890801
1	0xbd6aa7bf	-0.05728888
2	0xbe20a04e	-0.15686151
3	0x3e2a1b57	0.16611992
4	0xbf31b819	-0.69421536
5	0xbcd89696	-0.026438992
6	0x3f03af33	0.5143921
7	0x3e53ff58	0.20702875
8	0xbea40cf3	-0.3204113
9	0xbe87873f	-0.26470372
10	0x3edf6bc7	0.43636915
11	0x3effef85	0.49987426
12	0xbdd22bb5	-0.10262243
13	0xbe80989c	-0.25116432
14	0xbed2c2b0	-0.4116416
15	0xbed9bf7e	-0.4252891
16	0xbd58e9ac	-0.052957222
17	0xbef90865	-0.48639217
18	0xbefe7559	-0.49698904
19	0xbeefef2b	-0.46862158
20	0xbeb46ff6	-0.3524167
21	0x3f0440a5	0.5166114
22	0x3e5b51d7	0.21417938
23	0x3d9a57ad	0.07536254
24	0xbefc939a	-0.4933136
25	0x3eb24db0	0.34824896
26	0xbe7df5d5	-0.24800809
27	0xbe9135ed	-0.28361455
28	0xbea48145	-0.32129875
29	0xbf114c06	-0.5675663
30	0x3dccc3ab	0.09998258
31	0xbc9506d7	-0.018191738
32	0x3ed87fd2	0.4228502
33	0x3ef50d9d	0.4786195
34	0xbecfd8af	-0.40595004
35	0x3edfbd18	0.43698955
36	0x3e9bc9e1	0.3042746
37	0x3ece2d83	0.40269098
38	0xbee875ec	-0.45402467
39	0x3e4d8093	0.20068578
40	0xbf094120	-0.53615
41	0x3c1fada0	0.009745985
42	0xbe4381e2	-0.19092515
43	0xbeabf009	-0.3358157
44	0xbe25a8a7	-0.16177617
45	0xbced8c7d	-0.028997654
46	0x3f05d112	0.5227214
47	0xbda64602	-0.08118822
48	0x3ef290bd	0.47376052
49	0x3dd93347	0.106054835
50	0x3efcb23e	0.49354738
51	0x3e8ce57b	0.2751883
52	0xbf090483	-0.5352251
53	0xbebd74a7	-0.3700306
54	0xbd5bcd81	-0.05366278
55	0x3ee96fe7	0.45593187
56	0x3d54df5e	0.051970832
57	0x3d5eedbc	0.05442594
58	0x3e1b8b65	0.15189894
59	0xbf1ce9b3	-0.61294097
60	0xbef03c60	-0.46921062
61	0x3ec55ed0	0.385489
62	0x3edbdf62	0.42943865
63	0x3e57ecdd	0.2108645
64	0xbb9e8965	-0.004838156
65	0x3e8496fe	0.25896448
66	0xbeaf3de9	-0.3422692
67	0xbeb90288	-0.36134744
68	0xbf13bd61	-0.57710844
69	0x3df6b84c	0.120468706
70	0x3e6ba512	0.23012188
71	0x3e11ccfe	0.14238355
72	0x3ea461cf	0.32105872
73	0xbd3b5534	-0.045735553
74	0xbe6e0dc6	-0.23247442
75	0x3ee85d40	0.45383644
76	0x3e5d4834	0.21609575
77	0x3ec041d2	0.37550217
78	0xbecf4e73	-0.4048954
79	0xbf09d79e	-0.5384463
80	0xbef0a5d2	-0.4700151
81	0xbdc763de	-0.09735845
82	0xbf0f2c40	-0.55926895
83	0x3e84ead8	0.25960422
84	0x3e9ddecb	0.3083404
85	0x3f1cce1c	0.61252
86	0xbdb6bc92	-0.08922686
87	0xbc8fa287	-0.017533554
88	0xbefc243b	-0.49246392
89	0xbe883efd	-0.26610556
90	0x3ee0d138	0.4390962
91	0x3cda0c22	0.026617114
92	0xbeca13c4	-0.39468205
93	0x3e5c78be	0.21530434
94	0xbec6dde0	-0.38841152
95	0xbd69fcea	-0.057125963
96	0x3e1c1499	0.15242232
97	0x3e8f6a2b	0.28010687
98	0x3ea5e86e	0.32403892
99	0x3eefbdd6	0.4682452
100	0x3db84c1c	0.08998892
101	0xbdfdfbc5	-0.12401537
102	0x3c9c64d2	0.019091044
103	0xbed87275	-0.42274824
104	0x3ce7a847	0.028278483
105	0x3d8831db	0.06650134
106	0x3ee515a0	0.4474306
107	0x3d2a7646	0.0416167
108	0x3ee6c978	0.45075583
109	0xbf080fc4	-0.53149056
110	0xbe852ac6	-0.26009196
111	0x3efdc47c	0.49563968
112	0xbc111e68	-0.008857347
113	0x3daa6a30	0.08321035
114	0x3e49b759	0.19698848
115	0xbe3658ef	-0.17807363
116	0xbf1371cd	-0.5759552
117	0xbec1705c	-0.37781036
118	0xbed96a52	-0.42463928
119	0xbeead4f6	-0.458656
120	0x3f12cae8	0.5734086
121	0xbeb764ba	-0.35819036
122	0xbde4cda9	-0.11172039
123	0xbd9117fe	-0.07084654
124	0xbee91b2c	-0.45528543
125	0x3e47f7ad	0.19528075
126	0xbe856643	-0.26054582
127	0x3ec12b50	0.37728357
128	0xbe747bb7	-0.23875318
129	0xbe9f03e9	-0.3105767
130	0x3f0cd0fa	0.5500637
131	0xbe97b2cb	-0.29628596
132	0x3ed3e520	0.41385746
133	0xbe7a5e11	-0.24449946
134	0x3dfc1dd2	0.12310375
135	0x3e9ad903	0.30243692
136	0xbe900ef1	-0.281364
137	0xbecbe0d1	-0.3981996
138	0xbebe9def	-0.3722987
139	0xbf1418d7	-0.578504
140	0x3e10221b	0.1407551
141	0xbea25971	-0.31708863
142	0xbe8d9e72	-0.27659947
143	0x3e7125ac	0.23549527
144	0x3e488ceb	0.19585006
145	0xbe9e0760	-0.30865002
146	0x3ead0c12	0.3379827
147	0x3e885e0e	0.26634258
148	0x3ee2abab	0.44271597
149	0x3ead02be	0.33791155
150	0x3e0e29ad	0.13883086
151	0x3ce3c0cf	0.0278019
152	0x3ee683c7	0.45022413
153	0x3d98508a	0.074372366
154	0x3eb9b8da	0.36273843
155	0xbe8d1d94	-0.2756163
156	0xbef53174	-0.47889292
157	0x3ed8073e	0.42193025
158	0x3dbf582e	0.09342991
159	0xbde35116	-0.1109945
160	0xbe034f55	-0.12823232
161	0x3f0ebcec	0.5575702
162	0x3e7e64c9	0.24843134
163	0x3f081049	0.5314985
164	0xbf00e107	-0.50343364
165	0xbf05567f	-0.5208511
166	0xbe6f8ed8	-0.23394334
167	0x3dc1a728	0.09455711
168	0xbe502ad8	-0.20328844
169	0x3ef7195a	0.4826153
170	0xbf035d4e	-0.51314247
171	0x3e1fc080	0.15600777
172	0xbed9ed8c	-0.42564046
173	0x3e56a150	0.20959973
174	0x3e9a3480	0.3011818
175	0x3dca8711	0.09889043
176	0xbf32ca26	-0.69839704
177	0xbeee8674	-0.46586955
178	0x3e199bc9	0.15000834
179	0xbdfc7816	-0.12327592
180	0x3ef5fa1b	0.48042378
181	0x3ef9b6fa	0.48772413
182	0xbdb85dc8	-0.09002262
183	0x3f077607	0.5291447
184	0x3e6f2989	0.23355688
185	0xbea41a23	-0.3205119
186	0x3d2c6a76	0.042093717
187	0xbe220184	-0.1582089
188	0xbedde00d	-0.43335
189	0x3eb3bd9c	0.35105598
190	0x3f0cfee9	0.5507646
191	0xbe1fb697	-0.15596996

backbone_net.embedding_net.0.0.bias f4 [64]
0	0x3eb5c589	0.3550227
1	0xbdc785c6	-0.09742312
2	0xbf7efc83	-0.9960405
3	0x3eb15baa	0.34640247
4	0x3d61e24a	0.055147447
5	0xbe301146	-0.1719409
6	0x3ee0c85b	0.4390286
7	0xbe5d1fd7	-0.21594177
8	0xbe259c18	-0.16172826
9	0x3d1a5144	0.037675157
10	0x3dcb949e	0.09940456
11	0xbd7a82c4	-0.061159864
12	0xbde1fc0b	-0.110344015
13	0xbc329c6f	-0.0109015545
14	0x3f26d204	0.6516421
15	0x3ea40eb1	0.3204246
16	0x3dd01f83	0.101622604
17	0x3e2dd5db	0.1697611
18	0xbda21ac1	-0.07915259
19	0x3f0b5971	0.5443335
20	0x3e58aa02	0.21158603
21	0xbe660140	-0.22461414
22	0xbef00e82	-0.4688607
23	0x3e93ef79	0.2889364
24	0xbf27e151	-0.6557818
25	0x3ec18ffc	0.37805164
26	0x3e8804e3	0.26566228
27	0xbb4705e9	-0.0030368513
28	0x3e7a68c2	0.24454024
29	0xbe1631ec	-0.14667481
30	0xbebedf9b	-0.37279972
31	0xbef34c40	-0.47519112
32	0xbdbe5a7f	-0.092946045
33	0xbea9052a	-0.33011752
34	0x3d646dcf	0.055768784
35	0x3d86100e	0.06546031
36	0x3f26741b	0.6502091
37	0x3da5e0aa	0.08099492
38	0x3db4a421	0.088203676
39	0x3eeb16fc	0.45915973
40	0xbdf68a27	-0.12038069
41	0xbed286ae	-0.41118377
42	0xbeb3e420	-0.35134983
43	0xbec9a7ff	-0.39385983
44	0xbf0b335d	-0.5437525
45	0x3e74b4a4	0.23897034
46	0x3f2b6755	0.6695455
47	0x3f1c3fda	0.6103493
48	0x3d066235	0.0328085
49	0xbecc5fc2	-0.39916807
50	0xbeef4efa	-0.46739942
51	0xbeb2e64d	-0.3494133
52	0x3e355fe2	0.17712358
53	0xbefc7d46	-0.49314326
54	0xbee85cab	-0.453832
55	0x3ec8f821	0.39251807
56	0xbe31f8b1	-0.17380024
57	0xbf31cc2e	-0.6945218
58	0xbee18a3a	-0.4405077
59	0xbd1e19e1	-0.0385989
60	0xbd4e431b	-0.050356966
61	0x3ef07380	0.4696312
62	0x3e8359c3	0.2565442
63	0xbf2c813c	-0.67384696

backbone_net.target_net.0.0.weight f4 [128, 128]
0	0x3ae2f500	0.0017315447
1	0x3c23918d	0.0099834325
2	0x3da78bd7	0.08180969
3	0x3d46eabb	0.0485637
4	0xbddb76cc	-0.10716018
5	0xbda36020	-0.07977319
6	0x3ccf0e27	0.025275303
7	0x3d67d116	0.056595884
8	0x3d33909a	0.043839075
9	0xbd480edc	-0.048842296
10	0x3bba68ee	0.005688778
11	0xbcc071c5	-0.02349175
12	0x3db2b2d4	0.08725515
13	0xbe3444ac	-0.17604321
14	0xbb69f8be	-0.003570124
15	0x3d5db84e	0.054130845
16	0x3dc56481	0.0963831
17	0xbe1f0503	-0.15529256
18	0x3c13e167	0.009025908
19	0xbda56ea1	-0.080777414
20	0xbd194e6c	-0.037428305
21	0x3d0a5001	0.033767704
22	0xbc8af808	-0.016963974
23	0x3d102f42	0.03520132
24	0xbcbbdd97	-0.02293281
25	0x3dbcc2fe	0.09216879
26	0xbda0bfec	-0.07849106
27	0xbdb381ec	-0.08765015
28	0x3d437fd0	0.047729313
29	0x3c9ad643	0.018900996
30	0x3d9066fe	0.07050894
31	0xbd148f0d	-0.036269236
32	0xbd4ac06f	-0.049499925
33	0x3e150c22	0.1455541
34	0xbdb2c891	-0.08729661
35	0x3d8be4bd	0.06830738
36	0xbc83687b	-0.016041031
37	0x3d0d25ee	0.03446
38	0xbd3d9b9f	-0.04629099
39	0xbc2b3c89	-0.010451444
40	0xbc557ffd	-0.013031003
41	0xbd038ce7	-0.032116797
42	0xbdc33a18	-0.09532565
43	0xbdd12d54	-0.10213724
44	0xbcab2ce2	-0.020895425
45	0xbba4b309	-0.0050262255
46	0x3d63f90d	0.055657435
47	0xbd918b53	-0.07106652
48	0x3d1b13fb	0.03786085
49	0x3ca6db1a	0.020368148
50	0xbd21d655	-0.039511044
51	0x3dba4d02	0.09096719
52	0xbcc1398a	-0.023587007
53	0xbda161d7	-0.078799896
54	0x3d63c6a5	0.055609364
55	0x3d0d61ac	0.034516975
56	0xbb277f5c	-0.002555809
57	0xbe1d2b61	-0.15348579
58	0x3c79f6c2	0.015256586
59	0x3d1fbd6b	0.038999002
60	0x3d86d92c	0.06584391
61	0x3d248c33	0.040172767
62	0xbdb9b388	-0.09067446
63	0x3e0f0cd9	0.13969745
64	0x3d4f5bc5	0.050624628
65	0xbe005692	-0.12533024
66	0x3c8ff40b	0.017572423
67	0xbcb0e455	-0.021593252
68	0xbcb43630	-0.021998495
69	0xbb7acbe0	-0.0038268492
70	0xbda23482	-0.07920171
71	0xbdc4901e	-0.09597801
72	0xbc6746bf	-0.014115988
73	0x3dca1892	0.09867968
74	0xbdca08e2	-0.098649755
75	0xbde53471	-0.11191643
76	0xbc80bc05	-0.015714655
77	0xbe0e1d48	-0.13878357
78	0x3d887458	0.06662816
79	0xbd2390dc	-0.03993307
80	0xbc89df31	-0.016830059
81	0x3dcb24a9	0.09919102
82	0xbdf9b7c9	-0.12193257
83	0xbca556f8	-0.020183071
84	0x3de12b02	0.10994531
85	0x3d7d35ba	0.061818816
86	0xbe047a55	-0.12937291
87	0xbdf23a52	-0.1182753
88	0x3c3988c2	0.0113241095
89	0xbd175e83	-0.036955368
90	0x3e0622d9	0.13099231
91	0xbd421279	-0.0473809
92	0x3d1996e9	0.037497435
93	0xbc9d6303	-0.019212252
94	0xbc9fc3d2	-0.019502554
95	0x3dfdee8b	0.12399014
96	0xbda511f0	-0.08060062
97	0x3ca67f98	0.020324513
98	0xbcaa709f	-0.020805655
99	0x3d48e3e1	0.049045447
100	0x3cfecfcf	0.03110495
101	0xbd286a62	-0.04111708
102	0xbe030179	-0.1279353
103	0x3debb196	0.11508481
104	0x3d1bd470	0.038044393
105	0xbe0594f8	-0.13045108
106	0x3bfb1ae9	0.00766312
107	0xbd89f740	-0.06736612
108	0xbcb5c724	-0.022189684
109	0x3d2e7e33	0.04260082
110	0xbde0aa52	-0.10969986
111	0x3cbea1fc	0.0232706
112	0xbb0c1246	-0.0021373197
113	0xbd7392c9	-0.059466157
114	0xbd561b9d	-0.052272428
115	0x3c1200b0	0.008911297
116	0xbd3ea10a	-0.046540298
117	0xbc11f113	-0.008907574
118	0x3debcf8a	0.11514194
119	0xbd93a023	-0.07208278
120	0x3c5298c2	0.012853803
121	0xbc8ba08e	-0.017044332
122	0xbadfa9b6	-0.0017064128
123	0xbd75d563	-0.060017955
124	0xbdf06a2e	-0.11739002
125	0x3b33e5a6	0.0027450114
126	0x3d89aef5	0.067228235
127	0x3d2f5fca	0.04281596
128	0x3d130f58	0.035903305
129	0x3d247ee3	0.04016007
130	0x3cad4291	0.021149905
131	0x3d890b6f	0.06691634
132	0x3d001b6c	0.03127615
133	0x3c0fdd6a	0.008780817
134	0xbcda0f2b	-0.02661856
135	0x3d316a78	0.043314427
136	0x3cf38fc8	0.029731646
137	0xbcdaa807	-0.02669145
138	0xbd28619f	-0.041108724
139	0xbd4e70b0	-0.050400436
140	0xbcdde8f5	-0.027088622
141	0x3d6e5225	0.058183808
142	0xbd39f369	-0.04539815
143	0x3d79c3ba	0.060977675
144	0x3c9c3589	0.019068496
145	0x3c6da120	0.014503747
146	0x3db18921	0.086687334
147	0xbe06a02e	-0.13147041
148	0xbd70631b	-0.058688264
149	0xbbb5b081	-0.0055447225
150	0xbd8bafa9	-0.06820614
151	0x3d8de14f	0.0692774
152	0x3d62448d	0.055241156
153	0x3d9bd391	0.076087125
154	0xbdefcdff	-0.117092125
155	0xbd41a566	-0.047276877
156	0xbd61d4fc	-0.05513476
157	0xbda61e9f	-0.08111309
158	0x3d47d91e	0.048791043
159	0xbdb8c2a4	-0.090215
160	0x3d64b166	0.055833243
161	0x3d325ac0	0.043543577
162	0x3cab6093	0.020920074
163	0xbd225f56	-0.0396417
164	0xbe12db30	-0.14341426
165	0x3c217747	0.009855098
166	0xbddef25c	-0.1088607
167	0xbc91b2bb	-0.01778542
168	0xbddf0c7d	-0.10891054
169	0xbcad0193	-0.021118915
170	0xbcbe6824	-0.023243017
171	0x3c36dc9f	0.011160999
172	0x3ce585cd	0.028017903
173	0xbe256240	-0.1615076
174	0x3d10871a	0.035285093
175	0x3d580e87	0.05274823
176	0x3cb90975	0.022587517
177	0xbc9a5ef6	-0.018844109
178	0xbd928411	-0.07154096
179	0xbd997365	-0.07492713
180	0xbcf894d2	-0.0303444
181	0x3da33b35	0.07970277
182	0xbc839ba8	-0.016065434
183	0x3d85823a	0.06518979
184	0x3c919061	0.01776904
185	0x3b75de09	0.0037516376
186	0xbcb0bd27	-0.02157457
187	0x3c0f7950	0.0087569505
188	0xbcd5b8e6	-0.026089143
189	0x3ceee959	0.029164003
190	0xbcfc2b1b	-0.030782273
191	0x3d7231a9	0.05912939
192	0x3da7ee81	0.08199788
193	0x3c861512	0.016367469
194	0xbd99aa4d	-0.075031854
195	0x3d9914cf	0.07474672
196	0x3da467b7	0.080275945
197	0x3d378347	0.04480293
198	0xbd5f807d	-0.054565895
199	0xbd4cb6b4	-0.049978927
200	0xbd46cc7f	-0.048534866
201	0x3cf6120a	0.030037899
202	0x3c259bbc	0.010107931
203	0xbd89a1b1	-0.06720293
204	0xbccd130e	-0.0250335
205	0xbc4f716d	-0.01266132
206	0xbd0e82d4	-0.034792736
207	0xbd85b54d	-0.06528721
208	0x3d48b2f5	0.04899879
209	0x3d762547	0.060094144
210	0x3d894128	0.06701881
211	0x3d2730ec	0.04081814
212	0x3daad460	0.083412886
213	0x3c4031dc	0.011730637
214	0x3d5abb64	0.053401366
215	0x3d069c45	0.032863874
216	0x3bedc6a2	0.007256345
217	0xbd8f18ee	-0.06987177
218	0xbd36fd1c	-0.044674978
219	0xbd7e3954	-0.06206639
220	0x3d187085	0.037216682
221	0xbd73d54b	-0.059529584
222	0x3d81d4ab	0.06339391
223	0xbd88d7d1	-0.06681789
224	0x3d8f7652	0.0700499
225	0x3d8db9f3	0.069202326
226	0x3c3a112d	0.011356634
227	0xbc27e9c7	-0.010248608
228	0xbd81d628	-0.06339675
229	0x3d7557b8	0.05989811
230	0xbccd8846	-0.025089394
231	0xb98ff660	-0.0002745865
232	0x3cb6a195	0.022293845
233	0x3d265d8d	0.04061656
234	0x3d8ed5b5	0.06974355
235	0xbd801ebc	-0.06255862
236	0x3d7e3837	0.06206533
237	0x3c3fd382	0.011708142
238	0x3d58eeaf	0.052962
239	0x3ac033e4	0.0014663902
240	0x3da489a7	0.080340676
241	0x3d690957	0.056893673
242	0x3d50889b	0.050911527
243	0xbc7422f9	-0.014900916
244	0x3cc641ba	0.024201263
245	0xbd9c9647	-0.07645851
246	0xbbc25d1e	-0.0059315106
247	0xbcdb33f9	-0.02675818
248	0x3d70dec5	0.0588062
249	0x3d6a2674	0.057165578
250	0x3cbce963	0.023060506
251	0xbd6f4a31	-0.058420364
252	0x3d4c3a5f	0.049860355
253	0xbd01abb4	-0.03165789
254	0x3c343866	0.010999775
255	0x3c9a39ef	0.018826453

backbone_net.target_net.0.0.bias f4 [128]
0	0xbd6781c1	-0.056520227
1	0x3a09d27f	0.00052575016
2	0xbda9b04e	-0.082855806
3	0xbd56ae00	-0.052412033
4	0x3e0fe730	0.14053035
5	0x3c74c77c	0.014940139
6	0xbd4ca627	-0.049963143
7	0xbddc3ecb	-0.10754164
8	0x3d9fae6d	0.07796941
9	0xbd87e43c	-0.06635329
10	0xbd666680	-0.056250095
11	0x3d920645	0.07130102
12	0xbd9eb64d	-0.07749615
13	0x3e2d9437	0.1695107
14	0x3d7fb27b	0.06242607
15	0x3d5645e8	0.05231276
16	0xbc17ea35	-0.009272148
17	0x3c64ed45	0.013972585
18	0x3d747c6c	0.05968897
19	0x3bd24215	0.006416569
20	0x3d518667	0.051153567
21	0xbd46929c	-0.04847966
22	0x3d7bc8eb	0.061470907
23	0x3d965f69	0.07342417
24	0xbcdfed36	-0.02733479
25	0xbce3efe3	-0.027824348
26	0x3d0b82d8	0.03406033
27	0xbd6e724b	-0.058214467
28	0xbd834e53	-0.064114235
29	0x3c4c6824	0.012476001
30	0xbd3f3e52	-0.046690293
31	0x3c11b50e	0.008893264
32	0xbd6d4081	-0.057922844
33	0x3e01ae18	0.12664068
34	0xbd013b1d	-0.031550515
35	0x3b4a0893	0.0030827865
36	0x3d367ed2	0.04455454
37	0xbdae3261	-0.08505703
38	0xbd1fd0e5	-0.039017577
39	0x3c66c11f	0.01408413
40	0xbd9f81c8	-0.07788426
41	0x3e13f9e5	0.14450796
42	0x3d9e5b8c	0.07732305
43	0xbd7eb82c	-0.06218736
44	0xbd5b270a	-0.053504027
45	0x3cc92544	0.024553902
46	0x3cf016b2	0.029307697
47	0x3c8f832d	0.017518604
48	0xbc787069	-0.015163519
49	0x3d174bea	0.03693763
50	0x3be4075d	0.0069588856
51	0x3cf78759	0.030215906
52	0x3db00334	0.08594361
53	0xbe64c92b	-0.22342364
54	0xbe68081d	-0.22659345
55	0x3c006831	0.007837341
56	0x3dd6837c	0.104742974
57	0x3b2662d8	0.0025388505
58	0x3e0a5651	0.1350949
59	0xbb5d3f29	-0.003375957
60	0xbd2b41d7	-0.041810837
61	0xbb849dcd	-0.0040471316
62	0x3dbaa104	0.091127425
63	0x3ca598cc	0.02021446
64	0x3da11863	0.078659795
65	0xbceb858a	-0.0287502
66	0xbd638f03	-0.05555631
67	0xbd1a0411	-0.037601534
68	0xbd9c13e1	-0.07620979
69	0xbc962df1	-0.018332453
70	0xbd8bc541	-0.068247326
71	0xba2f0b9e	-0.00066774513
72	0x3d1841e2	0.037172206
73	0xbc936425	-0.017992089
74	0x3dac2fe1	0.0840757
75	0x3de6bf41	0.112669475
76	0x3d0ad6dd	0.033896316
77	0x3d8979bd	0.06712673
78	0x3d7009c6	0.05860307
79	0xbd87933e	-0.06619881
80	0xbe0ef04e	-0.13958856
81	0xbcfaeb7c	-0.030629866
82	0xbd40e4a5	-0.047093052
83	0x3d1d6623	0.038427483
84	0x3d39cf9a	0.045364
85	0x3c9a6c5a	0.018850494
86	0xbd63c0f5	-0.05560394
87	0xbd4b3a78	-0.049616307
88	0xbc9a09ac	-0.01880344
89	0x3de5e185	0.11224655
90	0x3d893c70	0.06700981
91	0xbcf3e52a	-0.02977236
92	0x3ca38b3c	0.019963853
93	0xbe05fa1d	-0.13083692
94	0xbba5549d	-0.005045487
95	0xbb6377b8	-0.003470881
96	0xbdb6c84b	-0.089249216
97	0x3cd70282	0.026246313
98	0xbdb577d0	-0.08860743
99	0xbd55cc7a	-0.052196957
100	0xbcaaa127	-0.020828797
101	0xbc59d42b	-0.013295214
102	0x3d51aeb6	0.051192008
103	0x3d7e3c0d	0.062068988
104	0xbda6e097	-0.08148306
105	0x3e11b328	0.14228499
106	0xbc9ac77b	-0.018893948
107	0x3ccba8b2	0.024860714
108	0xbba7102d	-0.005098364
109	0x3d4ec37d	0.0504794
110	0xbdd3b28b	-0.10336789
111	0xbd89e036	-0.06732218
112	0x3e51a0b0	0.20471454
113	0x3d462cfb	0.04838274
114	0xbcc83d0a	-0.024443168
115	0xbe173a64	-0.14768368
116	0xbc48241d	-0.012215641
117	0x3d03d741	0.032187704
118	0x3de360f8	0.1110248
119	0x3dcb4846	0.099258944
120	0x3d97e08b	0.07415875
121	0x3c451c1d	0.0120306285
122	0xbd25175f	-0.04030549
123	0x3cea7ca6	0.02862389
124	0xbd3ef31d	-0.04661857
125	0xbe0e70af	-0.13910173
126	0x3c6a2c45	0.014292781
127	0xbdc4b0b6	-0.096040174

merge_net.0.0.weight f4 [128, 256]
0	0x3c5cdb1d	0.013479975
1	0x3aa184cb	0.0012322901
2	0x3d2f34b2	0.042774864
3	0x3df857e7	0.12126141
4	0x3c13ae61	0.009013743
5	0x3b2ac8c3	0.0026059605
6	0x3e25f1ab	0.1620547
7	0xbd34fc7c	-0.0441861
8	0x3d1939ff	0.037408825
9	0xbc0c78f3	-0.008573758
10	0xbd169797	-0.03676566
11	0xbc404059	-0.011734092
12	0x3da4803f	0.080322735
13	0xbc875c0a	-0.01652338
14	0x3cd899e5	0.02644057
15	0xbc9d006a	-0.019165237
16	0x3c758a35	0.014986564
17	0x3d3727cc	0.044715688
18	0x3d41c89c	0.047310457
19	0x3ca55745	0.020183215
20	0x3d896492	0.067086354
21	0x3d870b47	0.06593948
22	0xbcd4a825	-0.025959084
23	0xbd8846a4	-0.06654099
24	0xbc71d44b	-0.014760087
25	0xbd6444d6	-0.05572971
26	0x3b8715db	0.0041224784
27	0xbd3b2535	-0.04568978
28	0x3c7cfe5c	0.015441503
29	0xbce61352	-0.028085385
30	0x3c2cc791	0.010545627
31	0x3da8aa69	0.08235628
32	0x3d3799d8	0.04482445
33	0x3bf48660	0.007462308
34	0xbd5d6a74	-0.0540566
35	0xbc0cbede	-0.008590428
36	0x3c17f01a	0.009273553
37	0xbb103a8d	-0.0022007555
38	0x3c106c65	0.008814906
39	0x3cae4587	0.021273388
40	0x3d696f52	0.05699093
41	0x3d9f1eee	0.07769571
42	0xbd9eaeef	-0.0774821
43	0xbc0f812c	-0.008758824
44	0x3dba2f6d	0.09091077
45	0xbd5b0d2f	-0.05347937
46	0xbcfe9c85	-0.031080494
47	0x3d134c19	0.035961244
48	0xbe50c342	-0.20386985
49	0xbd6ae80a	-0.057350196
50	0xbba2e5f7	-0.0049712616
51	0x3ab15172	0.0013528301
52	0x3c81c821	0.0158425
53	0xbcbb4431	-0.022859665
54	0x3d0a43c1	0.03375602
55	0xbd45bb12	-0.048274107
56	0xbdd6d3cf	-0.10489618
57	0x3c8b1466	0.0169775
58	0xbbb1c5de	-0.005425199
59	0xbd65a016	-0.056060873
60	0xbd69a0fd	-0.057038296
61	0xbca7df80	-0.020492315
62	0x3cc6a07d	0.024246449
63	0xbdba0723	-0.090833925
64	0xbd26efb0	-0.040755928
65	0xbd0ca0ff	-0.034333225
66	0xbdafb51d	-0.085794665
67	0x3e11e1b6	0.14246258
68	0x3caafe4d	0.020873213
69	0xbd432894	-0.04764612
70	0xbce9fcd8	-0.028562948
71	0x3c8e1aea	0.017346818
72	0xbd93401f	-0.071899645
73	0x3d47660a	0.048681296
74	0xbc335e56	-0.010947784
75	0xbc37465e	-0.01118621
76	0xbd837d88	-0.064204276
77	0xbc182575	-0.009286274
78	0x3d403af5	0.046931226
79	0x3c7c8480	0.01541245
80	0x3cd031e8	0.025414422
81	0x3d38f337	0.045153823
82	0xbc3270f6	-0.01089119
83	0xbd9cc576	-0.0765485
84	0x3c95b0e1	0.018272819
85	0xbe0335b1	-0.1281345
86	0xbc8a903b	-0.016914478
87	0x3e064074	0.13110524
88	0x3c8e049b	0.01733618
89	0xbc9deaaf	-0.019276945
90	0xbd14652b	-0.036229294
91	0x3d72df85	0.059295196
92	0x3d1a4ce6	0.037670992
93	0x3d7f62e5	0.062350173
94	0xbd72f58c	-0.059316203
95	0xbcab959b	-0.02094536
96	0x3d03747c	0.03209351
97	0xbd4cfe11	-0.050046984
98	0x3bd487ca	0.006485914
99	0xbde6b038	-0.1126408
100	0xbc76766f	-0.015042885
101	0xbdcbc6ef	-0.09950053
102	0x3cbd890f	0.023136644
103	0x3b74986c	0.0037322296
104	0x3ccbbf01	0.024871351
105	0xbca3f6e7	-0.020015193
106	0x3d478a2f	0.048715767
107	0x3d16d5f6	0.036825143
108	0x3d47fe29	0.04882637
109	0x3b4c6b49	0.0031191877
110	0x3c5ed06d	0.013599497
111	0x3c5ff975	0.013670315
112	0xbdec96c7	-0.11552196
113	0x3d0429eb	0.03226654
114	0xbdf69a7e	-0.12041186
115	0xbbf09754	-0.0073422585
116	0xbd77624b	-0.060396474
117	0xbd2c9dd0	-0.04214269
118	0x3d0df555	0.034657795
119	0xbd3f73c9	-0.04674128
120	0xbc49a627	-0.01230768
121	0xbd5f8e48	-0.05457905
122	0x3b511ee2	0.0031909277
123	0xbc7bf608	-0.015378483
124	0xbd1e965b	-0.03871761
125	0xbbcf4cbe	-0.006326287
126	0x3d7e0508	0.062016517
127	0xbcf705ed	-0.030154193
128	0x3dd70b59	0.10500211
129	0x3d43b630	0.04778117
130	0xbcf0cb7f	-0.02939391
131	0xbcd3eda0	-0.025870144
132	0x3d17367d	0.0369172
133	0x3a988ebc	0.0011639218
134	0x3d9b6a9f	0.07588696
135	0x3d63797b	0.055535775
136	0xbd34470d	-0.04401307
137	0xbc112710	-0.008859411
138	0xbc97ff45	-0.01855434
139	0x3d729537	0.059224334
140	0x3d44d2a4	0.048052445
141	0x3c58901a	0.01321795
142	0x3d26c468	0.04071465
143	0xba41fe10	-0.0007400224
144	0x3cfc6c47	0.03081335
145	0x3d539d44	0.051663652
146	0x3ce19925	0.027538845
147	0xbb05557e	-0.0020345147
148	0xbbcf6802	-0.0063295374
149	0xbd42bfe5	-0.047546286
150	0x3ca0efd0	0.019645602
151	0x3d065830	0.032798946
152	0x3cdfd3fe	0.027322765
153	0x3d1e9cc5	0.038723726
154	0x3ae994f8	0.0017820885
155	0xba51e682	-0.00080070656
156	0xbcbce70d	-0.023059392
157	0xbcb0f1c9	-0.021599667
158	0xbb22252e	-0.00247414
159	0xbc58fef3	-0.013244378
160	0x3d13a63e	0.036047213
161	0x3c610857	0.0137348985
162	0xbce527d2	-0.02797309
163	0x3bb688e0	0.005570516
164	0x3c0da28b	0.00864471
165	0x3d649691	0.055807654
166	0xbd2b4798	-0.041816324
167	0x3cf944e9	0.030428367
168	0xbd7aad6c	-0.061200544
169	0x3ca86e04	0.020560272
170	0xbd49fcef	-0.049313482
171	0xbd6fd94e	-0.058556847
172	0x3cd80e73	0.026374077
173	0x3d346d0c	0.044049308
174	0xbd118158	-0.035523742
175	0x3cccb5ce	0.024989035
176	0xbc92ffb3	-0.017944193
177	0xbd12d5f5	-0.035848577
178	0x3d6ebe9d	0.05828725
179	0x3d5111a0	0.0510422
180	0xbcc37595	-0.023859778
181	0x3c669eab	0.014075915
182	0x3cf5b499	0.029993342
183	0xbd4a9921	-0.04946244
184	0x3d9c22da	0.07623835
185	0xbc241866	-0.010015583
186	0xbd96c5c5	-0.0736194
187	0xba8c00c5	-0.0010681382
188	0xbd29cb3c	-0.041453585
189	0x3d330bc3	0.04371239
190	0x3c6197f2	0.013769137
191	0xbc81c3cd	-0.015840435
192	0x3d4d5c14	0.05013664
193	0xba440438	-0.0007477435
194	0x3cfb9a5f	0.030713258
195	0x3d428f89	0.047500167
196	0xbd3951b7	-0.045243945
197	0xbd0c566d	-0.03426211
198	0x3d192eaa	0.037398018
199	0xbcaeab2a	-0.021321852
200	0x3d4d2479	0.05008361
201	0x3ac962d2	0.0015364534
202	0xbbcfcfcc	-0.00634191
203	0x3c19f643	0.009397092
204	0xbd3acc8e	-0.045605235
205	0x3cd674d5	0.026178757
206	0x3cbd2ec4	0.023093589
207	0x3d3e721e	0.04649555
208	0xbca4d66a	-0.020121772
209	0xbcb438a2	-0.02199966
210	0x3cfc11c7	0.030770196
211	0x3c5f0fb0	0.01361458
212	0x3d0b0885	0.03394367
213	0x3c0b6beb	0.008509616
214	0x3c332d6d	0.010936123
215	0x3c3711b7	0.011173657
216	0x3c210e24	0.009830032
217	0x3d0b201c	0.03396617
218	0xbd22d638	-0.039755076
219	0x3d3d49ed	0.04621308
220	0x3c21c31a	0.009873176
221	0x3d4555f7	0.048177686
222	0xbc9f335e	-0.019433673
223	0xbb6974a1	-0.0035622495
224	0x3c93f888	0.018062845
225	0xbd0fd7c4	-0.03511788
226	0xbb3ca993	-0.0028787598
227	0xbd154845	-0.036445875
228	0xbdb2e46a	-0.08734973
229	0x3d134758	0.03595671
230	0xbc1f735e	-0.0097320955
231	0x3cf89954	0.03034655
232	0x3d147e37	0.03625318
233	0x3d1e4b7e	0.038646214
234	0x3cfe5e06	0.031050693
235	0x3cea04d7	0.028566761
236	0x3d1e04be	0.03857874
237	0x3d0a5685	0.033773918
238	0x3ca3741e	0.01995283
239	0xbd15a034	-0.036529735
240	0xbd5a8e46	-0.05335834
241	0x3cfc257c	0.030779593
242	0x3c2e995e	0.010656683
243	0xbced93e1	-0.029001178
244	0x3d30dace	0.04317742
245	0x3d682bf6	0.05668255
246	0xbd0b4c52	-0.03400833
247	0xbd70eca9	-0.058819447
248	0x3c90370e	0.017604377
249	0x3d41b7d7	0.047294464
250	0x3d7e5954	0.06209691
251	0x3ca736f2	0.020411942
252	0xbca9ad36	-0.020712476
253	0x3d0226be	0.03177523
254	0xbd481ec3	-0.04885746
255	0xbd53b287	-0.05168393

merge_net.0.0.bias f4 [128]
0	0xba3ad34f	-0.00071268243
1	0xbd2010a5	-0.039078373
2	0xbcab0ae4	-0.020879216
3	0x3d00fee5	0.031493086
4	0x3b16def0	0.0023021065
5	0xbcaa8c2e	-0.020818796
6	0xbd4095f3	-0.047018003
7	0xbd139556	-0.03603109
8	0x3bfaeeed	0.0076578767
9	0x3d30e425	0.043186326
10	0x3d484f63	0.048903834
11	0xbcfb0248	-0.030640736
12	0x3d37e07a	0.044891812
13	0x3cd138f9	0.025539862
14	0x3cc21b95	0.023694793
15	0xbc97f685	-0.018550167
16	0x3c0062d5	0.007836063
17	0x3d90c380	0.07068539
18	0x3b555e58	0.0032557454
19	0x3c3cd9ad	0.011526507
20	0x3c883a17	0.016629262
21	0x3d18b388	0.03728059
22	0x3e09435d	0.13404603
23	0x3cee5c00	0.029096603
24	0xbcd8c7d0	-0.026462466
25	0x3cb26e43	0.021781093
26	0x3cf19ee9	0.02949472
27	0xbd7a2156	-0.061066948
28	0xbbeda729	-0.007252593
29	0x3cd60720	0.026126444
30	0xbbaf6f54	-0.0053538475
31	0xbbd4a7f0	-0.0064897463
32	0x3d4f614f	0.05062991
33	0x3dd6eb5b	0.10494109
34	0xbd25c151	-0.040467564
35	0xbd60dba3	-0.054896962
36	0xbd8dc0a5	-0.0692151
37	0x3d88724b	0.06662425
38	0xbc4b5221	-0.012409718
39	0xbba270ac	-0.004957279
40	0x3d458ef6	0.04823204
41	0x3d9f3def	0.07775485
42	0x3c9058f2	0.017620537
43	0xbca37b28	-0.019956186
44	0x3e59ed4a	0.21281925
45	0xbc66c284	-0.014084462
46	0xbbb806a1	-0.0056160246
47	0xbcfc5c30	-0.030805677
48	0xbd0f5da9	-0.03500143
49	0xbc02b0fc	-0.007976767
50	0x3d32929f	0.04359686
51	0xbce42354	-0.027848877
52	0x3da86255	0.0822188
53	0xbd8d19aa	-0.06889661
54	0x3db5b9e7	0.08873349
55	0xbcb0baa9	-0.021573381
56	0x3ceb02b5	0.028687814
57	0x3d19b2b4	0.03752394
58	0x3c4160f7	0.011802903
59	0xbd2b90ce	-0.041886143
60	0xbca40337	-0.020021064
61	0x3d8051ae	0.06265579
62	0x3d1cfc6f	0.038326677
63	0xbd36772b	-0.04454724
64	0xbd015ee9	-0.031584654
65	0x3cad595d	0.021160776
66	0x3c2258c4	0.009908859
67	0x3b6ce48a	0.0036146962
68	0xbc23c702	-0.009996178
69	0x3cda17ee	0.026622739
70	0xbcbd1b3b	-0.023084274
71	0xbcb54431	-0.022127243
72	0x3c0f4989	0.0087455595
73	0x3c265420	0.010151893
74	0x3c35aeaa	0.011089006
75	0xbd1fd5c7	-0.039022233
76	0xbd4fa8c9	-0.050698075
77	0xba09409b	-0.0005235762
78	0x3cb56f23	0.02214772
79	0x3c38ac54	0.011271555
80	0x3d4e6f91	0.050399367
81	0x3b2e2ace	0.0026575807
82	0xbd226f1d	-0.039656747
83	0xbbc1e359	-0.0059169945
84	0x3d539770	0.051658094
85	0x3d0e39d8	0.034723133
86	0xbd733852	-0.059379883
87	0x3d884f34	0.06655732
88	0xbcc6b6d1	-0.024257096
89	0x3c63f567	0.013913489
90	0x3bfced1b	0.007718695
91	0xbd2cc63d	-0.042181242
92	0x3cc89f53	0.024490034
93	0x3c851ca9	0.016249018
94	0x3c79370b	0.015210877
95	0x3c90c077	0.0176699
96	0xbc5787d3	-0.013154942
97	0x3d036050	0.032074273
98	0x3d069236	0.03285428
99	0x3d41c36d	0.047305513
100	0x3d172cc1	0.036907915
101	0xbdb1f5e0	-0.08689475
102	0x3d11808c	0.035522982
103	0x3d086be5	0.03330602
104	0x3d1481b7	0.03625652
105	0x3d14bc31	0.036312286
106	0x3c4131f2	0.011791693
107	0xbd31ada8	-0.043378502
108	0x3d654420	0.055973172
109	0x3d029cd7	0.031887855
110	0x3b9d9f86	0.0048102764
111	0x3c8a0fc0	0.016853213
112	0xbc8b8556	-0.017031353
113	0xbc87ba46	-0.016568314
114	0x3c26bd1d	0.010176924
115	0x3d1ead00	0.038739204
116	0xbd0242ae	-0.031801872
117	0x3cce00e3	0.025146907
118	0x3de1ebb3	0.11031284
119	0xbcbd76b7	-0.023127897
120	0xbce2e5a2	-0.027697388
121	0x3daafac5	0.08348612
122	0x3c6e0fb3	0.01453011
123	0xbcab5d80	-0.020918608
124	0xbbdfa9af	-0.006825648
125	0x3d33779f	0.04381525
126	0x3d4c42b1	0.04986829
127	0xbd080680	-0.033209324
