suboptimal_policies/wing.pth (torch, 285137 bytes, 13 tensors)

backbone_net.positional_encoding f4 [1, 64]
1.1748033 0.5819003 0.2926392 0.7396533 1.3137308 0.5378123 1.850773 -0.2191323
0.72723067 -0.5999309 -1.3881998 1.028822 -0.40720463 0.22786938 -1.2168862 0.54663914
-0.3047348 -0.31521526 1.3407682 -0.58402914 0.24902852 -0.8934095 -0.6503806 -1.4732738
-0.6778392 -1.0205383 0.6588148 -1.4791538 -0.36483836 -0.8005627 0.7211785 0.78110456
-1.5119524 1.0362903 -1.8198748 -1.000821 0.8303185 0.7463062 0.50582695 1.0806746
0.42537215 0.6516025 -0.30966318 0.2903555 0.82492054 0.41201162 1.0254897 -0.7163564
-1.7154306 -0.72903025 0.40785804 0.92643297 -1.9974487 -0.3894495 -1.9234222 -0.7576291
1.0053209 -0.8494519 -0.25354454 0.61217624 -1.2279254 0.8355136 -0.46412155 0.88637275
00000000: f45f 963f 6bf7 143f ced4 953e eb59 3d3f
00000010: 5528 a83f 11ae 093f 21e6 ec3f 3864 60be
00000020: ca2b 3a3f 1295 19bf 88b0 b1bf 70b0 833f
00000030: 207d d0be 9756 693e edc2 9bbf 8bf0 0b3f
00000040: 3306 9cbe e563 a1be 4b9e ab3f ef82 15bf
00000050: 5501 7f3e 7cb6 64bf 587f 26bf 3c94 bcbf
00000060: df86 2dbf 00a1 82bf 16a8 283f e954 bdbf
00000070: 18cc babe adf1 4cbf 279f 383f 78f6 473f
00000080: a887 c1bf 29a5 843f a8f1 e8bf e71a 80bf
00000090: c18f 543f ec0d 3f3f e07d 013f 8c53 8a3f
000000a0: 61ca d93e 6ccf 263f 2c8c 9ebe 7aa9 943e
000000b0: fe2d 533f 30f3 d23e 3f43 833f 2263 37bf
000000c0: 3b93 dbbf baa1 3abf c5d2 d03e b62a 6d3f
000000d0: 66ac ffbf ed65 c7be b332 f6bf fbf3 41bf
000000e0: 5bae 803f ae75 59bf 97d0 81be 95b7 1c3f
000000f0: a92c 9dbf 38e4 553f 57a1 edbe 53e9 623f

backbone_net.attitude_net.0.0.weight f4 [128, 22]
-0.42786437 -0.077085935 -0.50496244 1.5565324 -0.20218076 0.30487645 -0.16692615 -0.15740044
-0.031629916 0.0025649143 0.17850558 -0.13389397 -0.45436674 0.13658445 0.013286706 0.34774393
0.17612909 -0.3299507 0.2663995 -0.03334945 0.03839314 0.33581933 -0.058512818 -0.1736358
-0.03272559 0.034561276 0.97409904 0.5171774 0.21585113 0.15056717 0.08185826 -0.06177948
0.0066171284 -0.005902647 -0.04399344 -0.2385272 0.28311232 -0.17266013 -0.30526167 0.24186224
0.013700543 -0.09362806 -0.10475791 0.059695028 -0.33063293 -0.5755544 -0.1857148 0.37762228
0.49566713 0.24823438 -0.4503827 -0.22188759 0.2258772 -0.18654303 -0.011532536 -0.021809308
-0.35629305 -0.5512871 -0.07509005 0.16072421 -0.7396348 0.6058609 0.22991341 0.16776553
-0.031516176 0.03741956 0.08574851 -0.33605674 -0.15188926 0.6968122 -0.09181352 -0.018475313
-0.26984105 0.124566495 -0.35575834 -0.0028187523 0.12011931 -0.18771602 0.12583461 -0.35098723
0.05245744 -0.045614287 -0.18349615 0.21992724 -0.04174754 -0.14906271 -0.24703573 -0.022880683
0.30828348 0.017060414 -0.73062044 1.0183971 0.5790858 -0.33526543 -0.2183593 0.11878458
-0.27838337 0.016796548 -0.07846942 -0.08969322 0.15558988 -0.1307642 0.61740637 -0.13056883
-0.15129058 0.3085651 -0.007157564 -0.13798182 -0.5297103 -0.21044043 0.6383178 0.021674762
-0.036421657 1.1148844 -0.17663553 -0.0070938165 -0.055673953 -0.04795524 -0.12670775 0.025408974
0.10334933 0.079676636 0.25141683 -0.1009895 0.082968585 0.12010373 0.11951857 -0.09676241
-0.15385808 -0.119299725 0.038389303 0.17737041 0.076259926 -0.5035556 0.19348383 0.4682041
-0.5387821 -0.3034201 0.011921469 0.114431694 0.58451295 0.108915105 -0.03411335 -0.021169573
-0.025975134 -0.31436285 -0.26529282 0.003707631 -0.2906841 0.16314666 0.19769278 0.13099982
0.21722195 -0.24726872 -0.10453723 -0.11628906 -0.084050156 -0.5121174 -0.32515675 -0.292898
-0.07472676 0.025565283 0.22045596 0.10886291 -0.09624136 0.16757013 -0.25443482 0.3171328
0.0067475634 -0.0627637 -0.03565921 -0.21643083 0.43560633 0.123554036 -0.06819137 -0.3766762
-0.38721478 0.35304675 0.0048877816 -0.036404792 -0.20408523 0.052422468 -0.34562334 0.21126762
-0.25279328 0.032738894 0.05643026 0.026622714 -0.1854673 0.5025158 0.53971833 0.0697132
0.41831547 -0.31911665 0.2317883 0.010640722 -0.49469122 0.09007806 -0.08821892 -0.101583235
-0.15021414 -0.039738175 0.42270708 -0.31379604 -0.09256378 0.20055476 -0.109546304 -0.036896486
0.13526422 -0.2726229 0.16011603 0.11044086 0.25000077 0.010126797 -0.0024195288 -0.075975716
0.07164808 0.05116966 -0.11935127 0.13380705 0.006263468 0.13124497 -0.25763956 -0.5302844
-0.37355146 0.10289175 -0.04948111 -0.3245605 -0.089784324 -0.18154882 -0.20105436 -0.17265435
-0.115154 -0.055366658 0.16865793 0.06653629 0.14854255 0.0742224 -0.07907999 -0.12878412
-0.23528257 -0.12965588 0.030445158 -0.8207948 -0.04679323 0.32436416 0.37398207 -0.1617579
0.045219872 -0.010646785 -0.14704514 -0.2160931 0.14439741 -0.20497678 -0.21091078 -0.5039684
00000000: 0a11 dbbe 3bdf 9dbd 3845 01bf 743c c73f
00000010: 7908 4fbe c418 9c3e b0ee 2abe 952d 21be
00000020: 5f8e 01bd 1f18 283b 2bca 363e 801b 09be
00000030: c2a2 e8be cbdc 0b3e 7cb0 593c 7e0b b23e
00000040: 2f5b 343e 4cef a8be 8465 883e 6f99 08bd
00000050: 2042 1d3d 83f0 ab3e 23ab 6fbd 95cd 31be
00000060: 450b 06bd 2090 0d3d 8e5e 793f bd65 043f
00000070: 1408 5d3e 482e 1a3e 4ea5 a73d 7b0c 7dbd
00000080: 7fd4 d83b fe6a c1bb 7732 34bd 7940 74be
00000090: 19f4 903e d1cd 30be 424b 9cbe bcaa 773e
000000a0: 3e78 603c 11c0 bfbd 518b d6bd c682 743d
000000b0: b848 a9be 8857 13bf 052c 3ebe b557 c13e
000000c0: 15c8 fd3e 2731 7e3e 9098 e6be 8036 63be
000000d0: 5a4c 673e 2305 3fbe f6f2 3cbc 6fa9 b2bc
000000e0: 0b6c b6be 2721 0dbf d0c8 99bd e394 243e
000000f0: b558 3dbf b319 1b3f 6c6e 6b3e baca 2b3e
00000100: 1b17 01bd 4145 193d ea9c af3d a10f acbe
00000110: dc88 1bbe 4962 323f ba08 bcbd 8a59 97bc
00000120: 9b28 8abe b81c ff3d f525 b6be d1ba 38bb
00000130: 1d01 f63d a138 40be cada 003e 99b4 b3be
00000140: 9ddd 563d 0cd6 3abd 6ae6 3bbe 9b34 613e
00000150: 78ff 2abd e5a3 18be eff6 7cbe 4570 bbbc
00000160: 55d7 9d3e 48c2 8b3c f109 3bbf d65a 823f
00000170: f83e 143f e9a7 abbe 9599 5fbe 5445 f33d
00000180: 4488 8ebe ea98 893c 93b4 a0bd 14b1 b7bd
00000190: f452 1f3e 0de7 05be 580e 1e3f d6b3 05be
000001a0: ebeb 1abe 3ffc 9d3e 008a eabb 1b4b 0dbe
000001b0: 189b 07bf b27d 57be cc68 233f 458f b13c
000001c0: e02e 15bd 88b4 8e3f f2df 34be 3f73 e8bb
000001d0: 5f0a 64bd b76c 44bd adbf 01be 7b26 d03c
000001e0: d0a8 d33d 812d a33d b5b9 803e 95d3 cebd
000001f0: 6feb a93d f2f8 f53d 27c6 f43d 5f2b c6bd
00000200: f98c 1dbe 6a53 f4bd 1a3e 1d3d 97a0 353e
00000210: 2a2e 9c3d 05e9 00bf a020 463e 73b8 ef3e
00000220: a0ed 09bf e159 9bbe 4452 433c 2a5b ea3d
00000230: a4a2 153f e20e df3d 71ba 0bbd d06b adbc
00000240: cec9 d4bc 2bf4 a0be 76d4 87be bafb 723b
00000250: 8cd4 94be eb0f 273e fa6f 4a3e d124 063e
00000260: 6e6f 5e3e 0334 7dbe 9e17 d6bd f528 eebd
00000270: 7d22 acbd 201a 03bf f27a a6be baf6 95be
00000280: 580a 99bd 496e d13c 35bf 613e 84f3 de3d
00000290: 311a c5bd 8197 2b3e 4845 82be 3b5f a23e
000002a0: aa1a dd3b 418a 80bd 640f 12bd 0ba0 5dbe
000002b0: cb07 df3e e609 fd3d eba7 8bbd b4db c0be
000002c0: 0441 c6be 8bc2 b43e af29 a03b 311d 15bd
000002d0: b8fb 50be f1b8 563d 8bf5 b0be 8a56 583e
000002e0: 1f6e 81be 3819 063d 6b23 673d e117 da3c
000002f0: 24eb 3dbe e0a4 003f fb2a 0a3f cbc5 8e3d
00000300: 722d d63e 4263 a3be ea59 6d3e 6c56 2e3c
00000310: 2b48 fdbe d97a b83d 1fac b4bd df0a d0bd
00000320: bcd1 19be 7fc4 22bd 106d d83e e0a9 a0be
00000330: 1492 bdbd 3a5e 4d3e d059 e0bd c520 17bd
00000340: b482 0a3e 3b95 8bbe 75f5 233e d12e e23d
00000350: 1a00 803e ddea 253c f590 1ebb 2899 9bbd
00000360: 3bbc 923d 4797 513d 706e f4bd b704 093e
00000370: c73d cd3b 1565 063e 55e9 83be b8c0 07bf
00000380: 2342 bfbe e9b8 d23d b4ac 4abd cb2c a6be
00000390: d8e0 b7bd efe7 39be 32e1 4dbe 4dcc 30be
000003a0: dcd5 ebbd 26c8 62bd aab4 2c3e 2e44 883d
000003b0: 8a1b 183e ea01 983d b1f4 a1bd fcdf 03be
000003c0: eaed 70be 83c4 04be 2068 f93c 9c1f 52bf
000003d0: 42aa 3fbd 0f13 a63e 947a bf3e dda3 25be
000003e0: 7938 393d da6f 2ebc 0093 16be 8247 5dbe
000003f0: eadc 133e 6fe5 51be fff8 57be 1304 01bf

backbone_net.attitude_net.0.0.bias f4 [128]
0.11483804 -0.13325556 0.30676535 -0.01898416 -0.111823775 -0.39056543 0.06281396 -0.33980328
0.01752543 -0.04488156 -0.2742733 0.16208048 0.43120253 -0.24020222 -0.12048024 0.29809138
0.1959252 0.10061033 0.20143846 0.21981514 0.38735437 -0.12421342 0.2312301 0.15368634
0.40961915 -0.2184725 -0.27366415 0.44697514 -0.1255269 0.034079038 -0.39874607 -0.18492046
-0.114551015 -0.33898926 0.3701909 0.21818201 0.13929676 0.29154932 0.29186893 -0.2783892
-0.26646405 -0.6131386 0.101171985 0.15592285 0.24039143 0.15874936 0.045201782 -0.12372008
0.2665009 -0.18261668 -0.2088517 -0.2605548 -0.115354925 -0.053764936 -0.26208544 -0.44935325
0.03625434 0.020387009 0.04367443 0.46616676 -0.15404464 0.18051623 -0.042529475 -0.17827971
-0.20638731 -0.08484561 0.2633523 -0.0077558486 0.116481654 0.058199864 -0.0065323813 -0.22183593
0.25639528 0.19084555 -0.032880902 -0.26002994 0.27573046 0.13738872 0.13536367 0.15695484
0.2877112 0.04833539 -0.18330155 0.53055316 -0.072517864 0.01594964 0.4706324 0.045275062
-0.2866545 0.2676192 0.51110303 -0.15201351 -0.16325918 -0.11123678 -0.2761219 -0.3524177
-0.4198234 0.14675075 0.34606516 0.20327657 0.49742457 -0.20936306 0.16173296 -0.055962138
0.11599806 0.23069394 0.19895795 -0.5017402 0.49710155 -0.011707423 0.14303988 0.2165064
-0.29584005 -0.05621792 -0.14593917 -0.10843157 -0.21653593 -0.14977631 -0.1424742 0.09670727
0.39072937 -0.0038075973 0.0105286855 -0.5109831 0.37433344 0.14600454 -0.15475127 -0.19598538
00000000: 3530 eb3d 2574 08be 5910 9d3e ab84 9bbc
00000010: dd03 e5bd 31f8 c7be 9ba4 803d b2fa adbe
00000020: 7e91 8f3c bad5 37bd 8d6d 8cbe 6df8 253e
00000030: 94c6 dc3e 92f7 75be 58be f6bd 6f9f 983e
00000040: 9ea0 483e ca0c ce3d e245 4e3e 3817 613e
00000050: 5053 c63e 9b63 febd 95c7 6c3e f45f 1d3e
00000060: 9ab9 d13e 41b7 5fbe b51d 8cbe edd9 e43e
00000070: 208a 00be 7696 0b3d 7228 ccbe ca5b 3dbe
00000080: b999 eabd 0090 adbe a989 bd3e 1b6b 5f3e
00000090: cfa3 0e3e f445 953e d86f 953e 0789 8ebe
000000a0: fa6d 88be a7f6 1cbf 4233 cf3d 3daa 1f3e
000000b0: 2c29 763e 318f 223e 8125 393d f460 fdbd
000000c0: ce72 883e deff 3abe 38dd 55be 7067 85be
000000d0: 343f ecbd 9f38 5cbd 1030 86be a111 e6be
000000e0: 6e7f 143d a802 a73c f6e3 323d 69ad ee3e
000000f0: e1bd 1dbe 3fd9 383e 6333 2ebd f58e 36be
00000100: 3257 53be 89c3 adbd 1dd6 863e c624 febb
00000110: ef8d ee3d fb62 6e3d 960d d6bb f528 63be
00000120: 3e46 833e 046d 433e 20ae 06bd a522 85be
00000130: 8b2c 8d3e a1af 0c3e c69c 0a3e c5b8 203e
00000140: e24e 933e 54fb 453d 67b3 3bbe 55d2 073f
00000150: 3f84 94bd d2a8 823c bbf6 f03e 5872 393d
00000160: 61c4 92be 6205 893e a6d7 023f 6ea9 1bbe
00000170: 6a2d 27be 1cd0 e3bd da5f 8dbe 1870 b4be
00000180: 18f3 d6be d445 163e 742f b13e bc27 503e
00000190: 6fae fe3e 4563 56be 539d 253e 8e38 65bd
000001a0: 6490 ed3d 083b 6c3e a2bb 4b3e 0c72 00bf
000001b0: 1884 fe3e 7ed0 3fbc 0c79 123e dbb3 5d3e
000001c0: 5978 97be c344 66bd 1471 15be 5f11 debd
000001d0: 98bb 5dbe f65e 19be c2e4 11be 760e c63d
000001e0: ae0d c83e e288 79bb 8280 2c3c cacf 02bf
000001f0: a2a8 bf3e 3782 153e 1e77 1ebe 64b0 48be

backbone_net.attitude_net.1.0.weight f4 [128, 128]
0.06829165 0.053321168 0.11674916 -0.08478378 0.21780957 0.08538086 -0.07017487 -0.027638657
-0.057636276 -0.05092482 -0.15342179 -0.2148185 -0.1217459 -0.014142104 -0.19965422 -0.051095843
-0.036680143 -0.014594705 -0.03352505 0.01909516 -0.010980641 0.10156382 0.0013259135 -0.062397074
-0.010833675 0.0126755135 0.023025861 -0.31816456 0.034519453 0.013419765 -0.028374584 -0.004203356
0.021402761 0.17256247 -0.084020264 0.07653636 0.080619365 0.082033426 -0.070740074 0.080197476
0.058953136 -0.114549436 0.0049642297 0.10023564 -0.09230443 -0.07541164 0.07984082 -0.018748645
-0.033900544 -0.048055507 0.098142974 -0.0045534847 0.06373279 0.07932069 -0.059366662 0.013920866
-0.027555153 -0.039857987 0.028995609 0.010339762 0.056247104 0.022409407 0.04839119 0.04228069
0.056048162 0.039779812 -0.047538128 0.28091338 -0.15949218 0.022894813 0.07356865 0.052353397
-0.001981484 -0.0701413 -0.13318723 -0.056890003 -0.02448131 -0.0485558 -0.09409504 -0.04568516
0.01804442 -0.037666716 -0.011479919 -0.03131736 0.043874867 -0.094648145 0.013685612 -0.040253915
-0.03979599 -0.07426218 0.03189369 -0.068754226 0.028998777 0.047525004 0.06069094 -0.06078438
-0.023460614 0.053258546 0.0031628297 0.012593365 0.025927164 -0.0071873954 -0.08286486 -0.046211995
-0.057462137 -0.044408556 -0.0592817 -0.05470219 0.024194222 0.036943108 -0.034144904 -0.05330156
-0.15144585 0.08090191 0.051552508 0.076620415 0.025598554 0.080291145 0.11726097 0.0020664583
-0.1906199 0.17873472 0.090047784 -0.034158383 -0.053815484 0.036425073 0.055272896 0.050599653
0.034129195 0.0078479955 -0.15140893 -0.0233593 -0.0811596 -0.01640905 0.06397813 0.019854683
0.09123435 0.050445467 0.0149997985 0.035919778 -0.15552562 -0.041102733 0.13123715 -0.40211064
0.055581935 -0.14774367 0.13071948 0.08704698 -0.23828144 0.030523388 -0.062296648 0.018483942
-0.017813671 -0.05375053 0.08921846 -0.22834668 -0.062326428 -0.0028450794 -0.06315226 0.049584337
-0.12790608 -0.10777401 0.078794286 -0.06830788 0.012063464 -0.06476387 0.10295757 0.01037723
-0.02108799 0.11039856 -0.04899386 -0.16250783 0.07270624 0.05768171 -0.10625141 0.08522768
-0.042632483 -0.0056276117 -0.079665035 -0.047156412 0.06347421 0.021966659 0.06315149 -0.025481267
-0.42079142 0.047810722 -0.053645734 -0.07891509 0.097291194 0.054618906 0.026013482 0.33142
0.10699518 0.054158818 0.032452155 0.027560668 0.22537328 -0.060531072 0.024479643 0.08867165
0.0047010356 0.03592126 0.029628739 -0.03563059 0.102152035 0.015624553 0.1611423 -0.068233825
-0.05108651 -0.4239542 -0.038441673 -0.042973615 -0.09160295 -0.17877029 0.16298033 -0.063950725
-0.012730069 0.0633634 0.059335303 -0.14914939 -0.056949597 0.116595715 0.026387714 -0.0037647807
-0.005986288 0.104946226 0.08569029 0.0060812496 -0.015830465 -0.04767775 0.06724077 -0.04740026
-0.06467074 0.038733635 0.054934297 -0.07602113 0.21566962 0.0423917 0.124308206 -0.026028214
0.093087904 0.050265532 -0.069289185 -0.016287135 0.024363644 -0.03829586 -0.038080294 -0.042233493
-0.07848625 -0.05203631 -0.08049434 -0.028232617 0.029308412 -0.16372086 0.064974055 -0.09320038
00000000: 7edc 8b3d 4c67 5a3d 2f1a ef3d 1ea3 adbd
00000010: 7909 5f3e 29dc ae3d d8b7 8fbd 776a e2bc
00000020: 0414 6cbd 8b96 50bd 9a1a 1dbe 62f9 5bbe
00000030: ea55 f9bd 49b4 67bc 2872 4cbe e049 51bd
00000040: eb3d 16bd a11e 6fbc 9051 09bd 746d 9c3c
00000050: 25e8 33bc b100 d03d 46ca ad3a 1394 7fbd
00000060: ba7f 31bc f5ac 4f3c bba0 bc3c 77e6 a2be
00000070: 4564 0d3d 93de 5b3c d171 e8bc 4ebc 89bb
00000080: d854 af3c 37b4 303e d112 acbd 18bf 9c3d
00000090: c41b a53d 2401 a83d 2ce0 90bd 933e a43d
000000a0: d878 713d e598 eabd faaa a23b 5848 cd3d
000000b0: 1b0a bdbd 6b71 9abd 9583 a33d c296 99bc
000000c0: 4cdb 0abd dad5 44bd 2fff c83d 6635 95bb
000000d0: 5686 823d e372 a23d 752a 73bd 5814 643c
000000e0: 58bb e1bc 2142 23bd 3388 ed3c 1b68 293c
000000f0: 5d63 663d ef93 b73c d735 463d 842e 2d3d
00000100: c292 653d 28f0 223d 57b7 42bd e1d3 8f3e
00000110: eb51 23be e78d bb3c 29ab 963d 8470 563d
00000120: c9db 01bb 3ea6 8fbd 3c62 08be 7e05 69bd
00000130: 078d c8bc 72e2 46bd e6b4 c0bd 5d20 3bbd
00000140: e4d1 933c 6a48 1abd 4516 3cbc a246 00bd
00000150: 22b6 333d e3d6 c1bd 9e39 603c 4ae1 24bd
00000160: 1f01 23bd c516 98bd f5a2 023d 04cf 8cbd
00000170: d88e ed3c 94a9 423d 1097 783d 0bf9 78bd
00000180: 7930 c0bc a225 5a3d 7a47 4f3b 6754 4e3c
00000190: 3465 d43c 3e84 ebbb 0db5 a9bd ca48 3dbd
000001a0: 6b5d 6bbd bfe5 35bd 5ed1 72bd 670f 60bd
000001b0: f632 c63c a851 173d 87db 0bbd bd52 5abd
000001c0: 9f14 1bbe e7af a53d b928 533d 2aeb 9c3d
000001d0: 0fb4 d13c af6f a43d 8526 f03d 6b6d 073b
000001e0: dd31 43be 3c06 373e f96a b83d a9e9 0bbd
000001f0: a06d 5cbd 7532 153d d565 623d 9541 4f3d
00000200: 0ecb 0b3d e194 003c f10a 1bbe 015c bfbc
00000210: 0137 a6bd 466c 86bc f706 833d 4aa6 a23c
00000220: 13d9 ba3d e89f 4e3d b7c1 753c 9e20 133d
00000230: 1c42 1fbe 575b 28bd 0863 063e 72e1 cdbe
00000240: e2a9 633d 1e4a 17be 54db 053e b045 b23d
00000250: 0d00 74be 2f0c fa3c c52a 7fbd a36b 973c
00000260: faed 91bc 8429 5cbd 2bb8 b63d b6d3 69be
00000270: ff49 7fbd 8374 3abb f955 81bd f218 4b3d
00000280: d0f9 02be 9fb8 dcbd e65e a13d 00e5 8bbd
00000290: d6a5 453c eba2 84bd 6bdb d23d 4205 2a3c
000002a0: b8c0 acbc a418 e23d c9ad 48bd 7468 26be
000002b0: 02e7 943d a843 6c3d 579a d9bd da8b ae3d
000002c0: 669f 2ebd d467 b8bb 6c27 a3bd 1527 41bd
000002d0: c4fe 813d 6cf3 b33c 9255 813d 17be d0bc
000002e0: f971 d7be 2dd5 433d a1bb 5bbd 3c9e a1bd
000002f0: 9b40 c73d 13b8 5f3d 3a1a d53c e2af a93e
00000300: 4a20 db3d a3d5 5d3d 8dec 043d e9c6 e13c
00000310: 41c8 663e 6eef 77bd 8889 c83c 7b99 b53d
00000320: 250b 9a3b 2c22 133d f8b7 f23c 62f1 11bd
00000330: 1635 d13d 20fe 7f3c 7d02 253e 2dbe 8bbd
00000340: 1740 51bd 8610 d9be 0475 1dbd 1a05 30bd
00000350: 549a bbbd 8f0f 37be 51e4 263e 99f8 82bd
00000360: c891 50bc acc4 813d 9309 733d 9eba 18be
00000370: fb43 69bd bcc9 ee3d 0c2b d83c 8aba 76bb
00000380: a028 c4bb 0cee d63d 647e af3d 3845 c73b
00000390: e4ae 81bc bf49 43bd 87b5 893d c626 42bd
000003a0: 1872 84bd 29a7 1e3d c902 613d f7b0 9bbd
000003b0: 7fd8 5c3e eba2 2d3d 4d95 fe3d 1f39 d5bc
000003c0: dfa4 be3d 3be3 4d3d 7de7 8dbd 996c 85bc
000003d0: 4496 c73c 1fdc 1cbd 15fa 1bbd 07fd 2cbd
000003e0: 66bd a0bd 0724 55bd 37da a4bd 1748 e7bc
000003f0: 3218 f03c 71a6 27be 1e11 853d d7df bebd

backbone_net.attitude_net.1.0.bias f4 [128]
-0.15834078 -0.030686757 -0.27235472 0.10228005 -0.08829295 -0.2346927 0.024405746 -0.029221669
0.03591179 0.29205248 0.07196944 -0.06212039 0.226147 -0.05844748 0.11322196 0.0073105246
0.16627432 0.08447862 -0.056483623 -0.08378065 0.0756481 -0.0291526 0.072265446 0.26693803
-0.09958921 -0.22113231 -0.012927146 -0.26938972 -0.24257006 0.06438533 0.07712123 0.08164326
-0.07609189 -0.10244557 -0.03588361 -0.092662595 0.1075547 -0.045045033 -0.06357818 0.2911423
0.046359777 0.30571082 -0.08523729 -0.03903868 0.084781766 -0.05892984 0.18384346 -0.20250921
0.06372669 -0.102627605 0.22408693 -0.017498726 -0.13105021 -0.28258035 0.08516815 -0.0011372932
-0.050165433 -0.25283444 0.10766973 -0.017132828 -0.00473014 0.050651524 0.011400621 -0.11795576
0.20123309 -0.04815179 0.04222655 0.011798555 0.056961138 0.43932414 -0.14584447 0.016701765
0.1286124 -0.060907323 0.21375349 0.096797206 0.10842971 -0.021012466 -0.06883322 -0.03912584
-0.0520739 0.03185831 0.06546464 -0.04210645 0.105439745 0.099829845 0.17390446 -0.03210221
0.094537795 -0.073791526 0.11165629 -0.07097619 0.010288625 -0.21929814 -0.087676264 0.07142384
-0.06479137 -0.14303963 0.10801896 -0.017352529 -0.06289381 0.104120485 -0.10772654 0.020745656
0.076723985 -0.16702464 -0.026117101 -0.2809305 -0.15317228 0.00075435993 -0.15372422 0.04540666
0.22065096 0.035825886 -0.16168362 0.14503245 -0.019248221 -0.018573735 0.07252143 -0.06023596
0.0969005 0.1889991 0.026032282 0.060568526 -0.053188067 0.104431555 -0.06819713 -0.08435855
00000000: 1624 22be cb62 fbbc 1472 8bbe 3478 d13d
00000010: efd2 b4bd 4853 70be 8fee c73c 4862 efbc
00000020: 3e18 133d e787 953e b764 933d f371 7ebd
00000030: 1493 673e a066 6fbd eae0 e73d 208d ef3b
00000040: d143 2a3e 2003 ad3d 5f5b 67bd 3095 abbd
00000050: 64ed 9a3d 6fd1 eebc e8ff 933d 1aac 883e
00000060: 6df5 cbbd 8270 62be 61cc 53bc 73ed 89be
00000070: 4964 78be 75dc 833d bcf1 9d3d 9534 a73d
00000080: 11d6 9bbd fcce d1bd b1fa 12bd e3c5 bdbd
00000090: a345 dc3d 2481 38bd 4735 82bd 9b10 953e
000000a0: c0e3 3d3d 2186 9c3e e390 aebd 06e7 1fbd
000000b0: 10a2 ad3d 6a60 71bd 7641 3c3e 935e 4fbe
000000c0: 2483 823d 6c2e d2bd 0b77 653e 7d59 8fbc
000000d0: 0732 06be 5fae 90be a46c ae3d 3a11 95ba
000000e0: 457a 4dbd 8473 81be f381 dc3d 255a 8cbc
000000f0: 4aff 9abb f977 4f3d acc9 3a3c ca92 f1bd
00000100: 0c10 4e3e d03a 45bd bff5 2c3d ba4e 413c
00000110: 1550 693d 18ef e03e 4158 15be 24d2 883c
00000120: f8b2 033e f579 79bd 32e2 5a3e 9d3d c63d
00000130: 6510 de3d 5622 acbc 6ef8 8cbd 6b42 20bd
00000140: 714b 55bd dc7d 023d 5312 863d d077 2cbd
00000150: cbf0 d73d 9773 cc3d 0314 323e 9b7d 03bd
00000160: 089d c13d 0320 97bd 0eac e43d f75b 91bd
00000170: 9f91 283c b18f 60be 9d8f b3bd aa46 923d
00000180: 56b1 84bd fb78 12be 0b39 dd3d e426 8ebc
00000190: 78ce 80bd 1f3d d53d bb9f dcbd cbf2 a93c
000001a0: 7721 9d3d 8208 2bbe 88f3 d5bc 1fd6 8fbe
000001b0: 32d9 1cbe 3dc0 453a e269 1dbe 55fc 393d
000001c0: 53f2 613e 2abe 123d 6490 25be 6383 143e
000001d0: 72ae 9dbc f227 98bc 1e86 943d fbb9 76bd
000001e0: c573 c63d fb88 413e a741 d53c b416 783d
000001f0: bbdb 59bd 36e0 d53d f0aa 8bbd 2dc4 acbd

backbone_net.embedding_net.0.0.weight f4 [64, 3]
0.1337729 -0.479364 -0.24174024 -0.32423294 -0.04695337 0.2779304 0.07775326 -0.25424016
-0.46771628 -0.20733297 -0.37072113 -0.17663695 -0.59443533 -0.1696388 -0.10391328 -0.06739656
-0.45482695 0.10740931 -0.582522 0.057718765 0.2903719 -0.13688694 -0.18170057 0.06409683
0.43759245 0.45126313 0.04919088 0.46701977 -0.4823282 -0.268025 -0.6098233 0.034877032
0.13396685 0.36166918 0.46054396 -0.41812372 0.42472526 -0.42344344 -0.062359143 0.4530522
-0.31019965 0.19568445 0.4096284 -0.21813327 -0.06029121 0.08316306 -0.34773707 -0.016429402
-0.39887306 0.3546444 -0.016084429 0.37640554 -0.20740622 -0.36431906 -0.112657286 0.09703389
-0.67193055 -0.28199524 0.34329492 0.25542274 -0.21755715 -0.2058645 0.34733438 0.068795525
-0.19012338 -0.69337904 0.37227276 0.20593536 -0.31236812 0.55936545 0.046274886 -0.42345044
0.05942733 0.25501016 0.3079668 -0.4408835 -0.22228022 -0.2143604 0.4959981 0.055018462
0.011002365 -0.13885392 0.31223527 0.44714388 -0.57471836 -0.12563537 0.34091705 0.7886454
0.17584325 -0.23912078 0.27996117 0.015759926 0.19934162 0.48449478 0.11220737 -0.5206934
0.053120337 -0.041758858 0.27717915 -0.2073611 -0.12538508 0.1302672 0.36407706 0.06363069
0.11371117 0.6006068 -0.17661335 -0.044942286 -0.11255948 -0.12890673 0.335142 0.47917524
-0.30883053 -0.5624096 0.5846289 -0.08787036 -0.059856553 0.101685666 0.035184022 -0.7854122
0.02011132 0.52192837 -0.26484334 0.28530455 0.28948656 -0.33504453 -0.43568787 -0.14431371
0.30536896 -0.053188786 -0.234159 -0.16335753 0.39681235 0.45129997 0.21863161 -0.24361071
-0.10886111 -0.6545445 -0.072330914 0.04537605 -0.694009 0.118284225 -0.32543945 -0.13608049
0.020407414 0.3696435 -0.5495425 -0.3337788 0.2874994 -0.3054824 -0.7451306 0.2941608
-0.30227304 0.2878229 -0.40251797 0.31290743 0.6697359 -0.0053433687 -0.1176956 0.53272665
0.1494871 0.47366637 0.16211775 -0.23100427 0.12813999 -0.29475316 -0.3031493 -0.42134583
0.52846354 -0.19006938 -0.40589908 -0.49209133 0.49765185 -0.27526766 -0.07795476 0.2911082
-0.68712384 0.20683275 -0.10659897 0.25744474 -0.050670013 0.46979126 0.09724949 0.6007761
-0.14649984 -0.1189345 0.25015453 0.3537618 -0.106404334 0.32963896 -0.3946118 0.006888336
00000000: c3fb 083e 336f f5be c18a 77be dc01 a6be
00000010: 2d52 40bd e54c 8e3e 1a3d 9f3d c42b 82be
00000020: 8278 efbe 184f 54be 29cf bdbe 51e0 34be
00000030: ea2c 18bf cbb5 2dbe 7cd0 d4bd 3507 8abd
00000040: 14df e8be 6af9 db3d 2920 15bf 836a 6c3d
00000050: a0ab 943e 172c 0cbe b70f 3abe 3345 833d
00000060: 1e0c e03e f60b e73e 607c 493d 371d ef3e
00000070: b9f3 f6be 933a 89be 611d 1cbf 38db 0e3d
00000080: 9b2e 093e b42c b93e 6bcc eb3e 5014 d6be
00000090: 9775 d93e 94cd d8be 4d6c 7fbd 75f6 e73e
000000a0: 7dd2 9ebe 8161 483e d0ba d13e 545e 5fbe
000000b0: eaf3 76bd 6551 aa3d 980a b2be f496 86bc
000000c0: 1739 ccbe f393 b53e 7ec3 83bc 3ab8 c03e
000000d0: 4c62 54be 0788 babe ddb8 e6bd b4b9 c63d
000000e0: a403 2cbf ae61 90be 5ac4 af3e c5c6 823e
000000f0: 4dc7 5ebe 25ce 52be d0d5 b13e abe4 8c3d
00000100: b4af 42be 4a81 31bf 899a be3e b8e0 523e
00000110: b7ee 9fbe 9332 0f3f bc8a 3d3d 7fce d8be
00000120: 126a 733d b190 823e d3ad 9d3e 7bbb e1be
00000130: 6d9d 63be 4b81 5bbe 77f3 fd3e 0a5b 613d
00000140: 4343 343c b92f 0ebe 4ddd 9f3e 0bf0 e43e
00000150: be20 13bf 8fa6 00be ae8c ae3e aae4 493f
00000160: 4110 343e 14dc 74be 1257 8f3e f61a 813c
00000170: 3620 4c3e b30f f83e facc e53d 2a4c 05bf
00000180: b694 593d 560b 2bbd 6dea 8d3e 7856 54be
00000190: f264 00be c464 053e 4f68 ba3e cf50 823d
000001a0: 67e1 e83d 5ec1 193f 21da 34be 6715 38bd
000001b0: 9685 e6bd 2000 04be bb97 ab3e 7556 f53e
000001c0: 091f 9ebe 13fa 0fbf 3daa 153f 60f5 b3bd
000001d0: 252c 75bd 9340 d03d 1f1d 103d c610 49bf
000001e0: 7fc0 a43c 199d 053f 8c99 87be 7013 923e
000001f0: 9537 943e f58a abbe 7b12 dfbe f9c6 13be
00000200: 5259 9c3e 7cdc 59bd 60c7 6fbe 3247 27be
00000210: fd2a cb3e ca10 e73e f7e0 5f3e 1675 79be
00000220: 93f2 debd 3a90 27bf 3b22 94bd 3ddc 393d
00000230: 93aa 31bf 003f f23d 00a0 a6be af58 0bbe
00000240: 732d a73c ea41 bd3e d1ae 0cbf 0ee5 aabe
00000250: 1f33 933e 3068 9cbe e1c0 3ebf 3f9c 963e
00000260: 88c3 9abe 865d 933e d616 cebe 6735 a03e
00000270: d073 2b3f 6d17 afbb 640a f1bd c660 083f
00000280: 2513 193e 6684 f23e 3202 263e 628c 6cbe
00000290: 2137 033e e3e9 96be 6336 9bbe a4ba d7be
000002a0: 6349 073f 8ca1 42be 01d2 cfbe 65f3 fbbe
000002b0: 39cc fe3e e2ef 8cbe bfa6 9fbd 220c 953e
000002c0: 59e7 2fbf f7cb 533e 9050 dabd cccf 833e
000002d0: 5c8b 4fbd 7b88 f03e be2a c73d 76cc 193f
000002e0: 0e04 16be ee93 f3bd 4114 803e 4420 b53e
000002f0: 84ea d9bd 70c6 a83e 8f0a cabe 8db7 e13b

backbone_net.embedding_net.0.0.bias f4 [64]
0.784187 0.1056342 0.41999736 0.036349814 0.729454 0.22672531 0.0720189 0.69312215
0.5096489 0.12476726 0.43121827 0.25648883 0.15593496 0.895376 0.035362303 0.07395584
-0.22007388 0.056371856 1.0959427 0.078431964 -0.19676763 0.48667789 0.27071002 0.24847241
-0.23361228 0.38608706 -0.32076976 -0.40016076 0.31132 -0.319255 -0.2493263 -0.11428101
-0.14670344 0.56861454 -0.34050333 0.44132096 0.41018605 0.1599504 0.099812075 -0.081906915
-0.7620941 -0.58678114 0.22581972 -0.7024307 -0.34041774 0.06507477 -0.023717415 -0.27044195
-0.056800578 -0.92481565 -0.27081975 0.7975529 0.10859109 -0.22813094 0.7644312 -0.4231851
0.25396344 0.43832788 -0.023339942 0.14622541 -1.0624155 0.2946399 0.18190336 -0.28079718
00000000: 7bc0 483f be56 d83d e509 d73e 8be3 143d
00000010: 7fbd 3a3f ae2a 683e a57e 933d 7470 313f
00000020: 5a78 023f fa85 ff3d a4c8 dc3e 8152 833e
00000030: 6aad 1f3e 5d37 653f 10d8 103d 2976 973d
00000040: 0c5b 61be 2de6 663d da47 8c3f f0a0 a03d
00000050: 747d 49be d82d f93e 819a 8a3e 8d6f 7e3e
00000060: 0f38 6fbe 34ad c53e ef3b a4be dfe1 ccbe
00000070: 5665 9f3e 6475 a3be 654f 7fbe 2a0c eabd
00000080: 6d39 16be b990 113f 7456 aebe d2f4 e13e
00000090: e803 d23e 0aca 233e 466a cc3d d0be a7bd
000000a0: 9918 43bf 4a37 16bf 493d 673e 80d2 33bf
000000b0: 3c4b aebe ec45 853d 064b c2bc 5e77 8abe
000000c0: b9a7 68bd b8c0 6cbf e3a8 8abe 6d2c 4c3f
000000d0: 0165 de3d 289b 69be c3b1 433f b8ab d8be
000000e0: 7f07 823e 836c e03e 6833 bfbc 1dbc 153e
000000f0: 3bfd 87bf 0adb 963e e044 3a3e a6c4 8fbe

backbone_net.target_net.0.0.weight f4 [128, 128]
-0.06772728 0.027140718 0.009699268 -0.060818512 0.03574531 0.016027438 0.014216382 0.0066609196
-0.07464738 0.04068535 -0.070423804 -0.0636639 0.034671072 0.0028737546 0.05322006 -0.04697925
0.10914341 0.046448637 -0.032611962 -0.013090798 0.035771623 -0.029407812 -0.04600117 0.068765685
-0.09270963 -0.03182861 0.028445153 -0.04486253 0.0430615 -0.014800093 0.026967164 0.0021837705
0.009415032 0.04169943 0.0397938 0.048118807 -0.078444 0.024355844 0.054440334 0.043806773
-0.14635289 -0.009178319 -0.07983299 -0.021489317 -0.06881242 0.06698335 0.029667726 -0.051013526
-0.1300205 0.018959649 0.06838894 -0.032229416 0.0018009505 -0.050763592 0.08112441 -0.053556148
0.10369238 0.06869809 -0.034945577 0.007072839 -0.05321175 0.059608735 -0.06795381 0.029234685
0.01993852 0.010769583 0.029584205 -0.04072117 -0.042545706 0.02910991 -0.032398313 0.0631818
0.0011462504 0.0048732734 0.032923758 0.06088807 0.06285578 -0.081752494 0.0798364 0.0024513516
0.03440868 0.05317633 0.021651316 0.07991504 0.013355562 -0.018382393 -0.035924535 0.07248364
-0.058111515 0.010958796 -0.06901407 0.02266674 0.074573144 -0.013739448 -0.05091305 0.047949422
-0.058721274 0.0070556514 0.031592876 0.009116652 0.042510655 -0.062981114 0.043614823 -0.0044623534
0.05501916 -0.020573203 0.044081345 -0.032456722 -0.011122977 0.03156287 -0.016903 -0.038193494
0.05352514 0.052595403 -0.07391362 0.020425819 0.06579945 -0.04816386 -4.6256127e-06 0.0089836465
0.00318328 0.07791323 -0.053752787 0.043358687 -0.05009391 0.033179417 0.086367026 0.016616138
0.035403628 -0.11955186 0.056963507 0.048636254 -0.055581994 -0.029848931 0.04021376 -0.0732016
0.083109334 0.026933186 0.042267695 0.097841 0.02911713 -0.06321475 0.016724836 0.08428118
0.0045456807 -0.0058455397 0.08339088 -0.026578577 -0.08453844 0.10147269 -0.01328154 0.052827787
0.043905918 -0.052894082 0.0023978646 0.011616318 -0.20032448 0.05570453 0.04981319 -0.005710259
-0.10489191 -0.12008025 0.030894497 0.059623435 -0.12932308 0.026142206 0.04779385 0.010321585
-0.03230473 0.10662733 -0.16134724 0.08223807 -0.042188924 -0.03666764 0.0821971 -0.027362863
0.047702353 -0.0024640178 -0.037652794 -0.08491648 -0.08107288 -0.037996158 -0.10335859 0.08683222
0.05501408 0.009768785 0.011053148 -0.06837926 0.005195938 -0.031066583 0.069750644 -0.03742268
-0.0061583323 0.005471756 0.043713186 0.0059779496 -0.023461254 0.009685667 -0.030048648 -0.04683758
0.012432813 0.042070463 0.037103053 0.036408707 -0.07005405 0.039334584 0.055991065 -0.058823746
0.055908903 0.036306035 -0.048110172 -0.02044489 0.038394175 -0.07264911 -0.060567103 -0.025789589
-0.046906948 -0.0073587145 -0.050231103 0.0090646325 -0.0030971845 0.06436944 -0.041961577 -0.046467807
0.029225836 -0.02114538 0.039646856 -0.0543124 -0.007565377 -0.035544373 0.0014851195 0.04894983
0.022104522 0.00822286 -0.009076884 0.012894999 0.02764921 0.070214756 -0.027759751 -0.027367266
-0.0043636416 0.034367394 0.060923755 -0.0032860087 0.0637064 -0.03129937 0.06120395 0.0076270145
-0.04603272 0.029498529 0.0037178132 0.05778953 -0.0033080732 -0.030278146 0.024358692 0.042188328
00000000: 9ab4 8abd 3656 de3c aee9 1e3c d51c 79bd
00000010: ad69 123d f94b 833c d4eb 683c d843 da3b
00000020: bae0 98bd aea5 263d 5b3a 90bd 3862 82bd
00000030: 4103 0e3d 9a55 3c3b 47fd 593d 506d 40bd
00000040: 9586 df3d ed40 3e3d 1f94 05bd c97a 56bc
00000050: 4485 123d a7e8 f0bc b96b 3cbd 06d5 8c3d
00000060: 8cde bdbd b75e 02bd cf05 e93c c6c1 37bd
00000070: 4161 303d 177c 72bc 3eea dc3c 971d 0f3b
00000080: 8241 1a3c 06cd 2a3d d3fe 223d 3a18 453d
00000090: 3fa7 a0bd e885 c73c d4fc 5e3d bb6e 333d
000000a0: 88dd 15be a960 16bc 7b7f a3bd 5d0a b0bc
000000b0: 87ed 8cbd 912e 893d bb09 f33c 8ff3 50bd
000000c0: 1824 05be 4451 9b3c 800f 8c3d fe02 04bd
000000d0: df0d ec3a 7ced 4fbd 8e24 a63d b15d 5bbd
000000e0: ac5c d43d 96b1 8c3d 1823 0fbd 46c3 e73b
000000f0: 90f4 59bd 4a28 743d 5e2b 8bbd 947d ef3c
00000100: 1b56 a33c e872 303c 935a f23c 3ecb 26bd
00000110: 6844 2ebd e877 ee3c 18b4 04bd 7665 813d
00000120: c83d 963a fbaf 9f3b 10db 063d c565 793d
00000130: 88ba 803d da6d a7bd 4481 a33d dba6 203b
00000140: 1ef0 0c3d 6ccf 593d 1a5e b13c 7faa a33d
00000150: 4ad1 5a3c ac96 96bc 9b25 13bd 4d72 943d
00000160: 5706 6ebd 868c 333c 4057 8dbd 99af b93c
00000170: ceb9 983d 6c1b 61bc 348a 50bd 9d66 443d
00000180: b885 70bd 1833 e73b 8867 013d 035e 153c
00000190: a71f 2e3d 3efc 80bd 75a5 323d ef38 92bb
000001a0: c55b 613d 2289 a8bc a48e 343d 57f1 04bd
000001b0: 263d 36bc 1148 013d 2978 8abc c870 1cbd
000001c0: 2d3d 5b3d 476e 573d 0660 97bd 0c54 a73c
000001d0: ddc1 863d 7847 45bd b635 9bb6 2530 133c
000001e0: 939e 503b f990 9f3d e22b 5cbd e198 313d
000001f0: 462f 4dbd 24e7 073d 32e1 b03d 911e 883c
00000200: 6503 113d 9bd7 f4bd 9152 693d cf36 473d
00000210: f2a9 63bd bf85 f4bc 2fb7 243d b8ea 95bd
00000220: 3a35 aa3d fca2 dc3c e420 2d3d dd60 c83d
00000230: 0c87 ee3c bc76 81bd 8602 893c 9c9b ac3d
00000240: eff3 943b f18b bfbb d6c8 aa3d 51bb d9bc
00000250: 7d22 adbd ead0 cf3d d19a 59bc f361 583d
00000260: b1d6 333d 77a7 58bd 7e25 1d3b 5e52 3e3c
00000270: dc21 4dbe 6f2a 643d ea08 4c3d 201d bbbb
00000280: 92d1 d6bd a2ec f5bd 7516 fd3c b437 743d
00000290: 456d 04be 2e28 d63c 7cc3 433d de1b 293c
000002a0: f751 04bd 6e5f da3d 3638 25be 6f6c a83d
000002b0: 4bce 2cbd cf30 16bd f456 a83d 1528 e0bc
000002c0: 8b63 433d 5c7b 21bb d139 1abd b1e8 adbd
000002d0: 8a09 a6bd dca1 1bbd abad d3bd 17d5 b13d
000002e0: 7256 613d 410d 203c 4318 353c 6d0a 8cbd
000002f0: b042 aa3b 597f febc 6dd9 8e3d 8648 19bd
00000300: d6cb c9bb 6b4c b33b 990c 333d ade2 c33b
00000310: d131 c0bc a2b0 1e3c 9528 f6bc c3d8 3fbd
00000320: ffb2 4b3c 1452 2c3d 5ff9 173d 4c21 153d
00000330: 7f78 8fbd 4d1d 213d e356 653d 2bf1 70bd
00000340: bc00 653d a3b5 143d 2c0f 45bd 0b7c a7bc
00000350: 3643 1d3d 0ec9 94bd 3615 78bd b044 d3bc
00000360: 8021 40bd 5f21 f1bb 21bf 4dbd d383 143c
00000370: 22fa 4abb 20d4 833d e7df 2bbd 0755 3ebd
00000380: 056b ef3c 1339 adbc be64 223d ae76 5ebd
00000390: fbe6 f7bb fa96 11bd 57a8 c23a 9e7f 483d
000003a0: 8b14 b53c 2db9 063c 36b7 14bc 8c45 533c
000003b0: 9980 e23c c1cc 8f3d 6b68 e3bc 5131 e0bc
000003c0: e1fc 8ebb d3c4 0c3d 308b 793d 145a 57bb
000003d0: 8078 823d c533 00bd feb0 7a3d 09ec f93b
000003e0: ce8c 3cbd e6a6 f13c 8ea6 733b b7b4 6c3d
000003f0: 42cc 58bb e009 f8bc e18b c73c abcd 2c3d

backbone_net.target_net.0.0.bias f4 [128]
-0.06516738 0.0475414 -0.025375592 -0.054408565 -0.0072165793 -0.055371407 0.1372833 0.07525124
0.0636807 0.011963837 -0.09376551 -0.041332804 -0.22824484 -0.019798012 -0.18294327 -0.06648235
0.07857529 0.025139162 0.16502449 0.12065824 0.07908601 0.011950197 -0.008204954 0.063614994
0.01079469 -0.07476844 -0.13803148 0.1038159 -0.090545304 0.05417315 0.16105786 0.09836832
0.015727207 -0.06353647 -0.0696859 -0.09351401 -0.1250979 0.021249063 0.062310252 -0.057691503
0.004565034 0.05265398 0.008173557 0.0059950068 0.124650545 -0.060313497 0.036731496 -0.056522187
-0.14265537 0.051420297 -0.11881094 -0.26590046 -0.0030696748 -0.079225935 -0.04636604 0.111493446
-0.04251184 -0.10284445 -0.025667055 -0.052258287 -0.031857282 0.051953886 0.037214193 0.017465407
0.020924956 -0.010284759 0.12336389 -0.0851415 0.03073442 0.033164665 0.16057226 0.025082814
0.11960027 0.008786163 0.08155079 -0.07042818 -0.070757955 0.01285554 0.014318073 0.07841041
0.020653047 0.039015234 0.14850703 0.100366 0.05523394 -0.016696887 0.11472648 -0.04650309
0.074709356 0.044769537 -0.09075437 0.057936292 0.03490445 -0.14671712 0.10120147 0.06776338
-0.05834021 0.05721376 0.061080478 0.06662243 -0.028762886 0.048100095 0.050062586 -0.007031421
0.08123407 -0.027958034 0.0078330105 0.0755728 -0.056773987 0.033878516 -0.08125528 -0.0020652062
-0.2111542 0.048034698 -0.09707373 0.03882264 -0.18406682 -0.1088637 0.019595843 -0.0022775568
0.020263005 0.024904974 -0.0038612238 -0.07804858 -0.19984515 -0.029047685 -0.019633606 -0.08409703
00000000: 7a76 85bd c5ba 423d 79e0 cfbc 84db 5ebd
00000010: 0e79 ecbb 21cd 62bd fe93 0c3e 521d 9a3d
00000020: 076b 823d f803 443c 2208 c0bd 964c 29bd
00000030: 04b9 69be 712f a2bc 7b55 3bbe e627 88bd
00000040: 15ec a03d a5f0 cd3c 2efc 283e ab1b f73d
00000050: d9f7 a13d c2ca 433c 126e 06bc 9448 823d
00000060: 36dc 303c 3220 99bd 2058 0dbe 6e9d d43d
00000070: d16f b9bd aae4 5d3d 5aec 243e 5475 c93d
00000080: 58d6 803c 691f 82bd 7bb7 8ebd 4684 bfbd
00000090: aa19 00be 8412 ae3c 0939 7f3d ed4d 6cbd
000000a0: 4896 953b b3ab 573d 62ea 053c c371 c43b
000000b0: c948 ff3d 490b 77bd c473 163d cf83 67bd
000000c0: 4014 12be 179e 523d 2653 f3bd 1b24 88be
000000d0: 992c 49bb 3541 a2bd 51ea 3dbd ad56 e43d
000000e0: e520 2ebd 1ca0 d2bd b743 d2bc c90c 56bd
000000f0: c87c 02bd 99cd 543d e96d 183d 9d13 8f3c
00000100: d06a ab3c 6881 28bc 35a6 fc3d ab5e aebd
00000110: c0c6 fb3c acd7 073d 0e6d 243e 797a cd3c
00000120: fdf0 f43d d7f3 0f3c 1a04 a73d a63c 90bd
00000130: 8ce9 90bd 0ba0 523c 5a96 6a3c a395 a03d
00000140: 9430 a93c 70ce 1f3d 3a12 183e b08c cd3d
00000150: fc3c 623d e9c7 88bc b7f5 ea3d 067a 3ebd
00000160: 3801 993d 4360 373d 6ddd b9bd 9b4e 6d3d
00000170: f8f7 0e3d 033d 16be b742 cf3d 87c7 8a3d
00000180: 25f6 6ebd fa58 6a3d 862f 7a3d 5771 883d
00000190: 25a0 ebbc 9b04 453d 6d0e 4d3d d667 e6bb
000001a0: 0c5e a63d 3f08 e5bc 0756 003c eac5 9a3d
000001b0: d78b 68bd 33c4 0a3d 2b69 a6bd 6958 07bb
000001c0: ce38 58be 08c0 443d 97ce c6bd 7d04 1f3d
000001d0: 037c 3cbe eef3 debd 7687 a03c 1043 15bb
000001e0: 9afe a53c 8405 cc3c 960c 7dbb efd7 9fbd
000001f0: 35a4 4cbe 69f5 edbc a8d6 a0bc 103b acbd

merge_net.0.0.weight f4 [128, 256]
-0.11073581 0.026045058 -0.03314818 -0.22486022 -0.036508374 0.02900343 0.17424192 0.0013507599
-0.090487495 0.084730506 -0.12663154 0.038158167 -0.05337531 -0.1864832 -0.18617219 -0.25060996
-0.025608376 -0.08980837 0.01909653 -0.068122335 0.10793973 -0.20510732 0.09164938 0.15243538
0.02562659 -0.104616866 -0.08400299 0.06269724 -0.01208408 -0.009304707 -0.025850223 -0.07997806
-0.04161379 -0.055720273 -0.0504434 -0.18930319 0.012396427 -0.013921936 -0.045082167 -0.111575
-0.0118101025 -0.09086834 -0.07073693 -0.21891294 0.059136886 -0.13828152 0.06930957 0.022993494
0.28099173 -0.38623607 -0.1600573 0.014416796 -0.090381235 -0.0816795 0.03667211 0.05402373
-0.15111281 -0.02297372 0.073312454 -0.13541184 -0.12032664 0.19730118 0.056837853 -0.033229444
0.16111304 0.031214885 0.019469269 -0.14981094 -0.07223315 -0.16862771 0.032460283 -0.011422083
0.033851195 -0.004657409 -0.067939445 -0.11485289 0.13165872 0.08797755 0.005797392 -0.037224665
0.050624765 0.08307583 -0.052438166 0.26877347 0.1856043 0.009919796 -0.03405448 -0.022223698
-0.083036475 -0.027380375 0.0007072271 -0.02797158 -0.104374275 -0.027974695 -0.08892753 -0.008859761
0.0046079885 -0.2930017 0.06935898 -0.041969847 -0.060818803 -0.067138426 -0.2391855 -0.017402137
-0.0303165 0.033639945 -0.0088789165 -0.055872455 -0.26833218 -0.07228232 0.0053633866 0.11259935
0.01865918 0.028421419 -0.0056693857 -0.30837134 -0.023614848 0.03031186 0.00906048 -0.07749829
0.02713044 -0.3441094 0.0015439815 0.03837967 -0.12470235 -0.17675406 -0.008457978 -0.011003888
-0.08150765 -0.017164119 0.041681446 0.10370358 0.026029484 -0.0029064238 -0.10149543 -0.1379376
-0.10245074 -0.21235658 -0.015472817 -0.05763909 -0.1607644 -0.120455615 -0.025799226 -0.008967406
-0.11260838 0.059378125 0.006027558 0.09535116 0.055687495 0.04261287 0.024789955 0.11035781
0.04008577 0.1670198 -0.015177177 0.047014564 -0.0030153533 -0.022684226 -0.018396012 0.0008925441
0.08000906 -0.0089723 0.053132284 -0.07646651 -0.008715411 0.03777278 -0.1831687 -0.06932618
0.077811554 -0.039010767 0.0022833864 0.07377869 -0.20563363 -0.04716867 -0.018245332 -0.14096339
-0.10347818 -0.05615645 0.018659482 0.0037171182 0.07869438 0.027523374 -0.04381654 -0.19319853
0.06649157 -0.024350198 0.0027379766 -0.0685671 0.010889515 0.06692922 0.05122745 0.0614177
-0.13477963 -0.01213653 0.07965236 -0.052051257 0.0037712008 0.077736124 0.014156322 0.0045460924
-0.2219399 0.08490588 0.093440235 0.021423796 0.06372116 0.04596269 0.029755684 -0.05546289
-0.047005292 -0.050435476 -0.19182561 -0.05611931 -0.10665827 -0.009012809 -0.10311568 -0.072274394
0.005720109 -0.05589853 -0.033879887 0.04645824 -0.12253989 -0.1202904 -0.026555037 -0.0039802003
-0.12656948 -0.024602704 0.081923224 0.030500295 -0.049572483 -0.09523865 0.016470034 0.035543326
-0.35998836 0.14048946 -0.033477996 -0.027767679 -0.048542317 0.12823945 -0.0365248 -0.055385694
-0.15953396 -0.030394094 -0.02768204 -0.029822556 0.039391626 -0.048602384 0.017278798 -0.048624918
0.075039655 0.028403211 0.04781672 0.08159082 -0.07039323 0.013574745 -0.07083198 -0.008461273
00000000: 75c9 e2bd 725c d53c 63c6 07bd c241 66be
00000010: ce89 15bd 9a98 ed3c 796c 323e fb0b b13a
00000020: 8251 b9bd 3087 ad3d b3ab 01be bd4b 1c3d
00000030: 12a0 5abd 74f5 3ebe eca3 3ebe f34f 80be
00000040: a8c8 d1bc 73ed b7bd 5370 9c3c b983 8bbd
00000050: 810f dd3d a707 52be acb2 bb3d 0518 1c3e
00000060: dbee d13c 5e41 d6bd c209 acbd 6967 803d
00000070: 4efc 45bc c572 18bc d9c3 d3bc 8acb a3bd
00000080: 3973 2abd f13a 64bd bd9d 4ebd b2d8 41be
00000090: 621a 4b3c d518 64bc 14a8 38bd 6f81 e4bd
000000a0: 297f 41bc 2e19 babd 86de 90bd b72a 60be
000000b0: 8539 723d ac99 0dbe 2df2 8d3d da5c bc3c
000000c0: 26de 8f3e bcc0 c5be 10e6 23be 6d34 6c3c
000000d0: cc19 b9bd 9547 a7bd 7f35 163d fd47 5d3d
000000e0: 51bd 1abe 6233 bcbc d724 963d 67a9 0abe
000000f0: d06d f6bd 5209 4a3e cfce 683d 991b 08bd
00000100: d1fa 243e 5cb6 ff3c 047e 9f3c 0a68 19be
00000110: f9ee 93bd beac 2cbe 13f5 043d b023 3bbc
00000120: 8da7 0a3d 2e9d 98bb d623 8bbd fe37 ebbd
00000130: 8bd1 063e 932d b43d 0df8 bd3b e478 18bd
00000140: ea5b 4f3d a923 aa3d 67c9 56bd ad9c 893e
00000150: 0e0f 3e3e a486 223c b67c 0bbd 790e b6bc
00000160: 070f aabd cf4c e0bc 3565 393a a824 e5bc
00000170: 2ec2 d5bd 302b e5bc a31f b6bd 8828 11bc
00000180: 9cfe 963b 5204 96be 150c 8e3d 93e8 2bbd
00000190: 231d 79bd df7f 89bd 0bed 74be ed8e 8ebc
000001a0: 4f5a f8bc 0aca 093d e078 11bc 84da 64bd
000001b0: d662 89be c108 94bd 59bf af3b 7d9a e63d
000001c0: 23db 983c 09d4 e83c 41c6 b9bb d9e2 9dbe
000001d0: ed73 c1bc 9450 f83c 6872 143c 6cb7 9ebd
000001e0: a840 de3c 1b2f b0be 6c5f ca3a 0034 1d3d
000001f0: f263 ffbd 04ff 34be 5593 0abc a749 34bc
00000200: 7ced a6bd c49b 8cbc 2aba 2a3d 8b62 d43d
00000210: c93b d53c b379 3ebb d6dc cfbd 843f 0dbe
00000220: b2d1 d1bd 0174 59be b381 7dbc f716 6cbd
00000230: 6c9f 24be 6fb1 f6bd e658 d3bc 07ec 12bc
00000240: 399f e6bd 7a36 733d d282 c53b 7847 c33d
00000250: 9218 643d d58a 2e3d 4e14 cb3c 4703 e23d
00000260: fa30 243d 3d07 2b3e b2a9 78bc 5892 403d
00000270: 3c9d 45bb 45d4 b9bc 3cb3 96bc 9ff9 693a
00000280: cadb a33d 8e00 13bc 3da1 593d 799a 9cbd
00000290: 15cb 0ebc a1b7 1a3d 9390 3bbe e2fa 8dbd
000002a0: aa5b 9f3d c1c9 1fbd dea4 153b 4819 973d
000002b0: 9f91 52be ef33 41bd 3c77 95bc b558 10be
000002c0: 5eec d3bd 4e04 66bd c5db 983c e59a 733b
000002d0: 852a a13d b378 e13c f978 33bd d6d5 45be
000002e0: bb2c 883d 117a c7bc a06f 333b e86c 8cbd
000002f0: f069 323c 3012 893d e0d3 513d 2091 7b3d
00000300: ac03 0abe 4cd8 46bc c720 a33d b333 55bd
00000310: 4026 773b 1e34 9f3d ebef 673c 63f7 943b
00000320: 3744 63be 22e3 ad3d 985d bf3d f580 af3c
00000330: 3d80 823d 6043 3c3d 31c2 f33c 0e2d 63bd
00000340: 9f88 40bd 6e95 4ebd ef6d 44be 5ddd 65bd
00000350: a76f dabd 76aa 13bc 502e d3bd 9904 94bd
00000360: c16f bb3b dbf5 64bd a3c5 0abd ff4a 3e3d
00000370: 32f6 fabd d05a f6bd f389 d9bc 576c 82bb
00000380: 6e9b 01be 9c8b c9bc 5dc7 a73d c1db f93c
00000390: 840c 4bbd 7b0c c3bd 2aec 863c e195 113d
000003a0: 6550 b8be 78dc 0f3e 3920 09bd 0b79 e3bc
000003b0: 4fd4 46bd 3451 033e 079b 15bd 1cdc 62bd
000003c0: df5c 23be 09fd f8bc 72c5 e2bc 6f4e f4bc
000003d0: 1d59 213d 4b13 47bd 448c 8d3c ec2a 47bd
000003e0: 64ae 993d daad e83c 77db 433d 1619 a73d
000003f0: 532a 90bd 9b68 5e3c 5b10 91bd 27a1 0abc

merge_net.0.0.bias f4 [128]
0.05146312 0.012612401 0.03329189 0.06001176 -0.0020892748 0.027537728 0.091433324 0.026398882
0.16451143 0.04759893 -0.022648225 -0.024381263 -0.0020614094 -0.036982693 0.02987848 0.04739416
0.029859703 0.04664221 0.007370684 -0.008203612 -0.050976 -0.00417068 0.082674645 -0.024661548
-0.037227377 0.10922375 -0.033492375 0.017913798 -0.09236056 0.024659073 -0.050627083 0.008657639
0.030519871 0.024352595 0.016701188 -0.015650205 0.036816042 -0.06823555 0.024443291 0.013530281
0.0019324826 0.062112886 0.047143694 -0.02030486 -0.024144126 -0.014077532 -0.047264695 -0.02446759
0.08969614 0.0058708675 -0.01917716 0.20937504 -0.0031911847 0.033464335 0.08925232 0.062335253
-0.018376358 0.009543419 0.0057570785 0.014624514 -0.002626758 -0.03111057 0.010422435 0.015790379
0.014789603 0.038783826 0.034203324 0.013303756 -0.04336049 0.046579245 0.03136763 0.016947549
-0.030259795 0.027522411 0.09114013 0.032503683 0.003338238 0.024653427 0.047575776 -0.02505917
0.046593033 -0.01977131 0.09253268 0.029357983 -0.011152299 -0.016191147 0.057669953 0.05957973
0.046329547 0.0012188585 0.0021386785 -0.05362733 -0.048642676 0.061817907 -0.042307533 -0.086375624
0.029955264 -0.0038083643 -0.062052917 -0.027536053 -0.04751142 0.02145662 -0.0072796517 -0.033520114
0.034346722 -0.004039784 0.18901074 -0.011735946 0.0001395026 0.06342114 0.036951184 0.04451486
0.0027685543 0.014268964 0.048995882 0.031743392 0.017173298 0.042927932 -0.03876561 0.011444575
-0.025547924 0.084226556 -0.006968185 -0.050948087 0.036132354 -0.060128644 -0.016165081 -0.026158545
00000000: feca 523d 3ea4 4e3c 145d 083d e4ce 753d
00000010: 37ec 08bb cd96 e13c 6541 bb3d 7842 d83c
00000020: af75 283e 18f7 423d c588 b9bc 37bb c7bc
00000030: b618 07bb 2a7b 17bd b7c3 f43c 6120 423d
00000040: 569c f43c e70b 3f3d c785 f13b 7168 06bc
00000050: 36cc 50bd 33aa 88bb 5351 a93d 0407 cabc
00000060: bc7b 18bd b4b0 df3d 4d2f 09bd f5bf 923c
00000070: 8927 bdbd d301 ca3c 585e 4fbd c5d8 0d3c
00000080: cf04 fa3c 187f c73c eed0 883c dc34 80bc
00000090: 6bcc 163d 14bf 8bbd 4c3d c83c 1dae 5d3c
000000a0: 5b4b fd3a 156a 7e3d bf19 413d 6156 a6bc
000000b0: e7c9 c5bc 73a5 66bc a098 41bd 4170 c8bc
000000c0: 9cb2 b73d 6860 c03b 6b19 9dbc 6966 563e
000000d0: 3223 51bb e611 093d ecc9 b63d 4053 7f3d
000000e0: 048a 96bc 005c 1c3c e0a5 bc3b a89b 6f3c
000000f0: b025 2cbb 98db febc dcc2 2a3c d35a 813c
00000100: 1750 723c cadb 1e3d c918 0c3d fff7 593c
00000110: c59a 31bd e1c9 3e3d 587b 003d 96d5 8a3c
00000120: 64e3 f7bc ae76 e13c ada7 ba3d 9522 053d
00000130: 57c6 5a3b fcf5 c93c d1de 423d e348 cdbc
00000140: 56d8 3e3d 71f7 a1bc c681 bd3d 2780 f03c
00000150: 22b8 36bc 4ca3 84bc 5437 6c3d e009 743d
00000160: 0dc4 3d3d 1bc2 9f3a 1229 0c3b 55a8 5bbd
00000170: 8b3d 47bd c634 7d3d aa4a 2dbd b4e5 b0bd
00000180: be64 f53c c095 79bb 332b 7ebd 4a93 e1bc
00000190: 569b 42bd cbc5 af3c 258a eebb 634c 09bd
000001a0: 26af 0c3d 2a60 84bb 088c 413e 2048 40bc
000001b0: 7247 1239 f1e2 813d 205a 173d 3755 363d
000001c0: a270 353b 5fc8 693c e8af 483d 5c05 023d
000001d0: 04af 8c3c 33d5 2f3d b0c8 1ebd 0782 3b3c
000001e0: e149 d1bc f97e ac3d 5f55 e4bb f1ae 50bd
000001f0: 85ff 133d 7449 76bd a26c 84bc 724a d6bc
