suboptimal_policies/wing.pth (torch, 285137 bytes, 13 tensors)

backbone_net.positional_encoding f4 [1, 64]
-0.4303513 0.30477685 0.41063583 -0.41499418 0.46737233 1.356464 -1.1782131 -1.007788
1.5315833 0.24773738 -0.9991445 1.2353626 0.37845275 1.0725564 -0.747029 -1.3672286
-0.34694085 -0.4948407 0.670138 -0.31185877 1.733995 -0.64453363 1.1471754 -0.48413703
0.26053113 0.83338976 -2.3153913 0.4308438 -0.27227354 -0.16322999 -1.0221496 -0.9142484
1.1262348 -0.59627485 0.27628228 -0.3073462 -0.68270785 0.68226683 0.26654813 -1.0278316
-1.0202518 0.21549843 1.6803027 -0.33942056 0.6566492 -0.28080738 -1.3701222 -0.55010724
-0.8203923 1.5524571 1.5362695 1.8605826 0.9028813 0.9348062 -0.656612 -0.92985183
1.2875047 0.41688323 -0.50758374 0.9543595 0.9786664 -0.73104453 -0.6337649 -0.45410615
00000000: 0157 dcbe b60b 9c3e dc3e d23e 1e7a d4be
00000010: 6d4b ef3e 9da0 ad3f b0cf 96bf 32ff 80bf
00000020: ec0a c43f deae 7d3e efc7 7fbf 5d20 9e3f
00000030: 8fc4 c13e 8749 893f 4b3d 3fbf 5901 afbf
00000040: 3ba2 b1be c35b fdbe 2a8e 2b3f f4ab 9fbe
00000050: 8cf3 dd3f 2800 25bf a5d6 923f cfe0 f7be
00000060: 5664 853e 0859 553f 5f2f 14c0 8f97 dc3e
00000070: 7067 8bbe c325 27be ccd5 82bf 2f0c 6abf
00000080: 7628 903f 78a5 18bf df74 8d3e 7b5c 9dbe
00000090: f1c5 2ebf 0aa9 2e3f ff78 883e fc8f 83bf
000000a0: 9c97 82bf 9fab 5c3e 2914 d73f 88c8 adbe
000000b0: 291a 283f fcc5 8fbe 2a60 afbf d4d3 0cbf
000000c0: 3b05 52bf eab6 c63f 7ba4 c43f 9227 ee3f
000000d0: 3b23 673f 764f 6f3f b917 28bf c50a 6ebf
000000e0: f4cc a43f b871 d53e 02f1 01bf e750 743f
000000f0: e289 7a3f bc25 3bbf 6b3e 22bf 9a80 e8be

backbone_net.attitude_net.0.0.weight f4 [128, 22]
-0.017511852 0.049996775 -0.1345354 0.18213996 -0.26681557 0.09692477 0.055486802 0.092580065
-0.2801334 -0.06433398 0.14319818 -0.055634372 0.04760571 0.07033544 -0.18011142 0.15198012
0.036645744 -0.088494055 -0.18228619 0.079275526 0.08388963 0.23669806 -0.6803057 0.09860754
0.69304544 -0.25620702 -1.1094217 0.49562052 -0.087484404 0.17622502 0.32364082 0.15510723
0.031423938 -0.016856689 -0.36447284 0.25656614 -0.25612444 -0.21287253 -0.21678887 0.12036654
0.24133366 0.15023719 0.22493848 -0.25614378 0.027238077 0.20131002 -0.070277326 -0.13553599
-0.36215273 -0.272946 0.107870124 -0.36107275 -0.37473506 -0.019350091 -0.10553655 -0.074465625
-0.03794782 0.029782759 0.40913785 0.28113145 -0.13111335 0.064775236 -0.1785063 -0.11078962
-0.6634861 0.13447589 -0.07311586 -0.14789397 -0.00093514164 2.2993407 -0.21053131 -0.103405386
-0.044203624 0.08173978 -0.1324851 -0.0076159304 -0.022770412 0.119476505 0.15550001 -0.18819237
-0.0662232 -0.10821773 -0.055576075 0.14490877 -0.21427742 0.086823165 0.075518146 -0.0055072727
0.3298432 0.12943706 -0.62854785 0.2853781 0.49630013 0.36079034 -0.14139922 -0.1955207
-0.06037115 0.18835275 0.07795743 -0.034657292 0.14608918 0.05063062 -0.080690674 -0.09115893
0.26589346 -0.22732127 -0.08557711 0.096309744 0.09275682 -0.13663833 -0.07024973 0.4094755
0.41225332 0.7090594 -1.4377468 0.20155361 0.024308408 -0.1507996 0.10604694 0.093376234
-0.0072291438 0.16569826 -0.2580483 -0.08930952 0.33738163 -0.0024973517 -0.33201846 0.11910449
0.05534703 -0.11686008 -0.15321916 0.12371599 -0.22236198 0.040070094 -0.053348817 0.84395236
-0.4565491 -0.15982689 -0.34051442 -0.0019979074 -0.12945886 -0.32615367 0.21126777 -0.01819289
-0.0689749 0.08731341 0.5076939 -0.17172527 -0.12891798 0.122205235 -0.018640382 -0.07513601
-0.46474642 -0.21476674 -0.4101274 -0.15285237 0.36422193 0.28188977 0.8059924 0.4062135
0.073591016 0.08231891 0.1307117 -0.0010465388 0.006274055 0.07391235 -0.5723779 0.20888533
0.16479315 -0.18327993 -0.34480822 0.37465122 0.19472167 -0.1532868 -0.111782104 -0.33498108
-0.12914298 0.10667923 -0.03240347 -0.49022648 -0.3085356 -0.20181371 -0.044188615 0.22900553
0.03481207 -0.21173044 0.07626229 0.07467099 -0.016594583 -0.0076829335 -0.23735449 0.21534096
-0.36495656 0.17604896 0.057762872 0.025695803 0.36384937 0.2646299 0.2568816 -0.2062389
-0.14707355 -0.15709984 1.7957909 -0.27388287 0.13531916 0.08246664 0.029435627 0.093199216
-0.05106381 -0.28910533 0.02366089 0.30752596 -0.0034717293 -0.14502436 0.24387513 -0.07827404
0.22539169 0.126558 0.009545803 -0.002845587 -0.12461476 0.17515858 -0.16534562 0.11846492
0.19967857 -0.3157719 0.115518376 -0.039149314 0.04684921 0.07191984 -0.02239837 0.017569665
-0.024744824 0.11928749 -0.24405202 -0.16624938 -0.24002524 0.38653675 -0.05598676 0.00021637954
0.13264723 -0.20870115 -0.10847396 -0.061500322 0.020136543 0.38678205 0.021576984 0.69371146
0.053443875 0.14164667 -0.16260985 -0.049109142 -0.13078395 -0.022903983 -0.022142198 -0.17847769
00000000: 0475 8fbc 6bc9 4c3d a6c3 09be e682 3a3e
00000010: 0d9c 88be 7e80 c63d 2146 633d 9e9a bd3d
00000020: a56d 8fbe 89c1 83bd 8ba2 123e dee0 63bd
00000030: 34fe 423d 070c 903d 216f 38be ada0 1b3e
00000040: d919 163d 5f3c b5bd 3ba9 3abe 355b a23d
00000050: 54ce ab3d fa60 723e 8428 2ebf c0f2 c93d
00000060: 6d6b 313f 912d 83be 8801 8ebf f9c1 fd3e
00000070: 062b b3bd 5574 343e 40b4 a53e 6ed4 1e3e
00000080: 63b6 003d 0a17 8abc 2f9c babe a35c 833e
00000090: be22 83be 42fb 59be e7fd 5dbe bc82 f63d
000000a0: 2c20 773e c7d7 193e 4656 663e 4725 83be
000000b0: 6322 df3c 3724 4e3e 8fed 8fbd f2c9 0abe
000000c0: 156c b9be 94bf 8bbe 03eb dc3d 87de b8be
000000d0: 46dd bfbe 1584 9ebc 8c23 d8bd 6f81 98bd
000000e0: 2c6f 1bbd f9fa f33c 847a d13e 76f0 8f3e
000000f0: 9442 06be e1a8 843d 5bca 36be abe5 e2bd
00000100: 3ada 29bf 0cb4 093e c5bd 95bd 8471 17be
00000110: 4b24 75ba 6628 1340 8595 57be 34c6 d3bd
00000120: dc0e 35bd 3067 a73d 2daa 07be 0e8f f9bb
00000130: 0489 babc 19b0 f43d 653b 1f3e 80b5 40be
00000140: 07a0 87bd 42a1 ddbd bda3 63bd f762 143e
00000150: 8a6b 5bbe 58d0 b13d 42a9 9a3d 5a76 b4bb
00000160: 35e1 a83e 268b 043e 83e8 20bf 141d 923e
00000170: 0d1b fe3e 83b9 b83e f5ca 10be 9436 48be
00000180: bd47 77bd 8bdf 403e 25a8 9f3d cef4 0dbd
00000190: 6798 153e 0e62 4f3d 2741 a5bd 88b1 babd
000001a0: 3023 883e e8c6 68be 0d43 afbd 0b3e c53d
000001b0: 4af7 bd3d ebea 0bbe 17df 8fbd c6a6 d13e
000001c0: de12 d33e eb84 353f 1608 b8bf 1264 4e3e
000001d0: 6d22 c73c 366b 1abe 232f d93d 0a3c bf3d
000001e0: 74e2 ecbb ceac 293e e81e 84be e9e7 b6bd
000001f0: 49bd ac3e 9caa 23bb 53fe a9be 0eed f33d
00000200: 91b3 623d 5654 efbd 7ce5 1cbe cf5e fd3d
00000210: dcb2 63be 8a20 243d 4a84 5abd 430d 583f
00000220: cec0 e9be a9a9 23be e857 aebe 53ef 02bb
00000230: dd90 04be 9dfd a6be 9456 583e 4109 95bc
00000240: b642 8dbd 60d1 b23d 3af8 013f c0d8 2fbe
00000250: 1303 04be bd46 fa3d b7b3 98bc e9e0 99bd
00000260: 3ef3 edbe d0eb 5bbe 38fc d1be 5585 1cbe
00000270: 4c7b ba3e db53 903e 8555 4e3f 37fb cf3e
00000280: e3b6 963d d196 a83d 4ad9 053e 042c 89ba
00000290: 9796 cd3b 5c5f 973d 5c87 12bf 09e6 553e
000002a0: 89bf 283e bcad 3bbe b48a b0be 49d2 bf3e
000002b0: 1e65 473e 37f7 1cbe 04ee e4bd a482 abbe
000002c0: 0f3e 04be a47a da3d 80b9 04bd f7fe fabe
000002d0: 61f8 9dbe 41a8 4ebe 1fff 34bd 6d80 6a3e
000002e0: 1a97 0e3d ddcf 58be 672f 9c3d 1bed 983d
000002f0: 5df1 87bc 1ec1 fbbb 0e0d 73be 5782 5c3e
00000300: 96db babe 2e46 343e c398 6c3d 0180 d23c
00000310: 774a ba3e 927d 873e fc85 833e 4a30 53be
00000320: 739a 16be c8de 20be 7adc e53f 603a 8cbe
00000330: 1b91 0a3e 45e4 a83d fc22 f13c 3bdf be3d
00000340: 4928 51bd 9d05 94be 7cd4 c13c 0b74 9d3e
00000350: f485 63bb 4481 14be 67ba 793e 244e a0bd
00000360: 14cd 663e 6c98 013e 0066 1c3c 077d 3abb
00000370: 0636 ffbd c55c 333e 5d50 29be bc9d f23d
00000380: 8a78 4c3e dbac a1be e694 ec3d 085b 20bd
00000390: f5e4 3f3d b64a 933d c97c b7bc 42ee 8f3c
000003a0: a8b5 cabc 004d f43d c6e8 79be 473d 2abe
000003b0: 2dc9 75be 25e8 c53e 5f52 65bd f1e3 6239
000003c0: add4 073e c1b5 55be 9827 debd c3e7 7bbd
000003d0: 64f5 a43c 4c08 c63e 37c2 b03c 1397 313f
000003e0: f7e7 5a3d d30b 113e 3283 26be ab26 49bd
000003f0: 3aec 05be 22a1 bbbc 8e63 b5bc dbc2 36be

backbone_net.attitude_net.0.0.bias f4 [128]
0.047470164 -0.04267831 0.06246197 0.22400929 -0.026246583 0.03410167 -0.11803681 -0.55170274
0.033910744 -0.03354452 -0.039419446 -0.42650434 0.15877728 0.07304336 0.14746796 0.44048414
0.01947522 -0.20010243 0.17772162 0.19669825 -0.24002115 0.1628251 -0.23066999 0.4284151
0.062349584 0.19123513 -0.130009 0.18503731 0.21400711 0.12862952 -0.087628394 -0.31985968
0.047332246 -0.09031842 -0.2781741 -0.19995958 0.20706166 0.09825351 -0.0634072 -0.18376455
-0.122139536 -0.12629865 -0.1924716 0.16052863 -0.32897627 -0.065290794 0.07399397 0.20835069
0.033240844 0.043079212 -0.053034786 -0.2737835 0.1559435 -0.19454385 -0.277546 0.31272233
-0.26722208 -0.17981951 -0.047771912 0.13510878 0.12786032 -0.14950667 -0.47387 -0.18665676
-0.0731873 0.09832004 -0.036423344 -0.024433402 0.028598612 -0.1525853 -0.2106034 0.14248382
-0.052488185 -0.2109764 0.0013884346 -0.0057227667 0.15514806 -0.20432176 -0.27868265 -0.29750305
-0.07204793 0.074131116 -0.07191247 -0.026110824 0.013743122 0.046873882 0.17614412 0.112043425
-0.13664451 0.13290533 -0.2766833 -0.010196825 0.24245913 -0.34428042 0.09729268 0.10468842
-0.25306198 0.043828543 0.090632126 0.048678495 0.34218374 -0.22189996 -0.0059977057 0.20575622
-0.02993647 -0.2837141 -0.111132376 -0.368573 0.022775812 0.2895185 0.2845552 0.19011813
0.17052738 0.04704242 -0.08632769 0.047747713 -0.046157844 -0.38464049 0.19321899 -0.19920968
0.24730961 0.13496783 0.20546728 0.11291552 -0.28546605 -0.12687324 0.37374017 -0.14644788
00000000: 1370 423d 74cf 2ebd 1fd8 7f3d b162 653e
00000010: 1303 d7bc 31ae 0b3d 48bd f1bd 643c 0dbf
00000020: fee5 0a3d fb65 09bd 4976 21bd c75e dabe
00000030: 8396 223e c297 953d d701 173e 2387 e13e
00000040: 7f8a 9f3c a7e7 4cbe a8fc 353e 446b 493e
00000050: 1bc8 75be 9fbb 263e c134 6cbe 3959 db3e
00000060: 4762 7f3d 24d3 433e 1421 05be 6c7a 3d3e
00000070: ae24 5b3e 75b7 033e 8476 b3bd a6c4 a3be
00000080: 75df 413d ddf8 b8bd d66c 8ebe 34c2 4cbe
00000090: f907 543e 2339 c93d a2db 81bd c62c 3cbe
000000a0: 4b24 fabd 6f54 01be 4617 45be 9e61 243e
000000b0: 946f a8be 2eb7 85bd 278a 973d e259 553e
000000c0: 8d27 083d d473 303d 013b 59bd 5a2d 8cbe
000000d0: a7af 1f3e 8136 47be 821a 8ebe 241d a03e
000000e0: 55d1 88be 9b22 38be 7bac 43bd f559 0a3e
000000f0: d1ed 023e 4718 19be 179f f2be f322 3fbe
00000100: 39e3 95bd 045c c93d a530 15bd 8f28 c8bc
00000110: a347 ea3c 523f 1cbe 6ba8 57be 47e7 113e
00000120: dafd 56bd 330a 58be 22fc b53a 0c86 bbbb
00000130: 22df 1e3e b939 51be 7eaf 8ebe 5252 98be
00000140: dd8d 93bd 0ed2 973d d846 93bd 5ee6 d5bc
00000150: d52a 613c d4fe 3f3d 205f 343e 0677 e53d
00000160: 8aec 0bbe 5618 083e 6fa9 8dbe 9510 27bc
00000170: 3547 783e 8645 b0be 6241 c73d e266 d63d
00000180: 5791 81be 8f85 333d 569d b93d 1a63 473d
00000190: b532 af3e be39 63be 6788 c4bb c2b1 523e
000001a0: 543d f5bc f942 91be 5f99 e3bd 9ab5 bcbe
000001b0: 5794 ba3c c53b 943e 38b1 913e 54ae 423e
000001c0: bb9e 2e3e 8daf 403d 92cc b0bd 1b93 433d
000001d0: 0210 3dbd 99ef c4be 33db 453e 9ffd 4bbe
000001e0: bb3e 7d3e 0235 0a3e 0466 523e 4140 e73d
000001f0: 9b28 92be 0feb 01be df5a bf3e 6ff6 15be

backbone_net.attitude_net.1.0.weight f4 [128, 128]
-0.02920533 -0.06558423 0.036531974 0.00020003734 -0.02080195 -0.007970839 0.03604733 -0.0073218485
0.05092484 -0.06498002 0.011686847 0.009421565 0.008863004 -0.045339644 -0.037883148 0.033633668
0.05015898 -0.00887122 0.025530463 -0.040991887 -0.035187043 -0.039011788 -0.05664767 -0.0034676238
0.037739348 0.011591763 -0.050120212 -0.013089652 -0.04209026 -0.035961438 -0.01558167 -0.041230224
-0.003397714 0.012443957 -0.09037364 -0.05995647 0.05127287 -0.029585855 0.046740383 0.028630229
0.034282334 -0.03081273 -0.07034798 0.025101732 -0.01971245 -0.052348327 -0.028407577 -0.07914035
-0.06346424 -0.05320167 0.02829005 -0.023277082 -0.060338765 -0.0015524596 0.039206795 0.017710285
-0.035621125 -0.08297506 -0.082502894 -0.053622156 -0.013376613 -0.046762533 -0.031061348 -0.016320817
-0.029945172 -0.041841954 -0.042866413 -0.0066172094 0.026590869 0.04082154 -0.07854318 -0.023644663
-0.0779598 -0.04506641 -0.025631132 -0.05148103 0.043741185 -0.028897008 0.014528254 -0.01632035
-0.049458586 0.019788085 0.0048983293 -0.05483749 -0.050853778 0.024402529 -0.059103787 0.013535963
-0.028085863 -0.051160064 0.0032565787 -0.04042276 -0.07735522 -0.008141553 0.0061621387 0.03110385
-0.0070104543 -0.049352925 -0.07053105 -0.04466986 -0.03148447 -0.007608971 0.033385947 0.0440628
-0.0013957649 -0.03617357 -0.04311495 0.024485122 0.038978584 -0.005188711 -0.06502677 -0.025674392
-0.04361638 0.037749205 0.0065140324 0.054556437 -0.07553407 -0.021174945 -0.056458894 0.006623327
-0.050789163 -0.04230338 0.02668655 -0.03395429 0.020241547 -0.0360006 -0.058531675 -0.031369247
0.11351449 -0.059310492 0.011764256 -0.11883392 -0.079118416 -0.084423795 -0.09000739 0.12084322
-0.059247762 0.028280437 0.052813772 0.070170686 0.110273585 -0.0021247687 -0.00047507425 -0.16699924
-0.09328158 -0.04170551 -0.015794268 -0.00648245 0.0054087597 -0.42498997 -0.08831523 -0.16695309
0.036745314 -0.06566671 -0.00534628 0.08805585 -0.4495213 -0.16337533 0.094857164 0.102169156
0.04172551 -0.007589357 0.023753574 0.00485902 -0.20235257 -0.20518088 -0.07283421 -0.024263559
-0.167892 0.11793753 0.003399413 0.047262415 0.06545896 0.085482575 0.033846628 0.020589735
-0.021026725 -0.50322014 0.063583404 0.06053404 -0.32447332 0.036876466 0.08278014 -0.17389624
0.007772704 -0.028818658 0.18460712 -0.00399442 0.019621544 0.036355235 0.107260935 0.0017166621
-0.16057965 -0.0402714 -0.3282542 -0.15047355 0.07421528 -0.013983904 -0.023494013 -0.28876296
-0.00020106754 0.057275143 5.201553e-05 -0.23681636 -0.09989543 0.105213545 0.009286432 0.13861293
0.0971412 -0.055953056 0.013382174 0.031647254 0.06147478 0.13078967 0.002331961 -0.100161664
-0.1108635 0.1483634 -0.057764232 -0.19691776 -0.11756625 0.04800558 -0.026673323 -0.19469447
-0.041792806 0.050537564 0.13073565 -0.05342614 -0.34485146 -0.06860133 0.04531973 0.027400196
0.0037774737 -0.048701614 0.09495542 0.017145509 0.17162564 -0.07012074 0.055749897 -0.17156519
-0.3225605 0.013906003 -0.10754478 0.03514755 0.0025666112 0.031177811 -0.12685446 0.037238102
-0.07549453 -0.03670846 -0.12110382 -0.20802426 0.16276415 0.066497676 -0.08723543 0.05566525
00000000: 0440 efbc 0651 86bd 8da2 153d 1dc1 5139
00000010: da68 aabc 1f98 02bc 5da6 133d 1eec efbb
00000020: 9196 503d 3f14 85bd 307a 3f3c e85c 1a3c
00000030: 2236 113c 10b6 39bd 5c2b 1bbd 75c3 093d
00000040: 8173 4d3d 9858 11bc 4325 d13c 1ce7 27bd
00000050: 4a20 10bd d3ca 1fbd 6307 68bd 1341 63bb
00000060: 9394 1a3d 61eb 3d3c da4a 4dbd fb75 56bc
00000070: d666 2cbd 4d4c 13bd 434a 7fbc 06e1 28bd
00000080: 2fac 5ebb bde1 4b3c d115 b9bd ea94 75bd
00000090: 8003 523d 095e f2bc d872 3f3d f189 ea3c
000000a0: a26b 0c3d fa6a fcbc 9a12 90bd 26a2 cd3c
000000b0: 017c a1bc 336b 56bd 02b7 e8bc 5614 a2bd
000000c0: 8af9 81bd ffe9 59bd 89c0 e73c 94af bebc
000000d0: c825 77bd e67b cbba 4e97 203d 2915 913c
000000e0: 75e7 11bd d4ee a9bd 47f7 a8bd e8a2 5bbd
000000f0: 9529 5bbc 128a 3fbd 5e74 febc 3cb3 85bc
00000100: 944f f5bc 7862 2bbd b194 2fbd 2dd5 d8bb
00000110: 18d5 d93c 7d34 273d 3fdb a0bd 74b2 c1bc
00000120: 63a9 9fbd 8e97 38bd 61f8 d1bc c6dd 52bd
00000130: f529 333d 6bb9 ecbc ea07 6e3c 41b2 85bc
00000140: 1695 4abd 9f1a a23c 2a82 a03b 479d 60bd
00000150: 0d4c 50bd d0e7 c73c d016 72bd f2c5 5d3c
00000160: 5314 e6bc 378d 51bd 536c 553b 5692 25bd
00000170: 6a6c 9ebd 2664 05bc c4eb c93b 80cd fe3c
00000180: f4b7 e5bb 4b26 4abd 9572 90bd bef7 36bd
00000190: dcf5 00bd ad54 f9bb b4bf 083d 327b 343d
000001a0: 19f2 b6ba bd2a 14bd 4d99 30bd 0695 c83c
000001b0: 02a8 1f3d 1006 aabb c12c 85bd 1a53 d2bc
000001c0: 17a7 32bd e99e 1a3d aa73 d53b 9276 5f3d
000001d0: 9bb1 9abd 1477 adbc 7141 67bd 7e08 d93b
000001e0: 4c08 50bd 4f46 2dbd c09d da3c a713 0bbd
000001f0: 9ad1 a53c 5d75 13bd e9be 6fbd 0a7d 00bd
00000200: 497a e83d 8fef 72bd debe 403c 335f f3bd
00000210: d608 a2bd 62e6 acbd cb55 b8bd a67c f73d
00000220: c8ad 72bd 60ac e73c 4153 583d a6b5 8f3d
00000230: 1ed7 e13d b43f 0bbb 6313 f9b9 d901 2bbe
00000240: 6a0a bfbd 66d3 2abd fb62 81bc bb6a d4bb
00000250: f73b b13b 4998 d9be 9ede b4bd c0f5 2abe
00000260: 4182 163d 457c 86bd d92f afbb a056 b43d
00000270: a827 e6be dd4b 27be 7944 c23d 103e d13d
00000280: 5ee8 2a3d 24b0 f8bb db96 c23c 6a38 9f3b
00000290: 8335 4fbe f01a 52be 1a2a 95bd 5fc4 c6bc
000002a0: e1eb 2bbe 3b89 f13d b0c8 5e3b 3c96 413d
000002b0: 590f 863d 7d11 af3d c3a2 0a3d ceab a83c
000002c0: 3d40 acbc 09d3 00bf 0438 823d 8bf2 773d
000002d0: 5e21 a6be c70b 173d a288 a93d db11 32be
000002e0: 2bb2 fe3b 1b15 ecbc a609 3d3e a0e3 82bb
000002f0: 5cbd a03c 3ae9 143d 9fab db3d 9f01 e13a
00000300: fe6e 24be a0f3 24bd ef10 a8be bd15 1abe
00000310: 2efe 973d bf1c 65bc 8476 c0bc bdd8 93be
00000320: a8d5 52b9 5799 6a3d 402b 5a38 fd7f 72be
00000330: fa95 ccbd 337a d73d 1e26 183c 8cf0 0d3e
00000340: f7f1 c63d 082f 65bd e840 5b3c 8da0 013d
00000350: fbcc 7b3d baed 053e d0d3 183b 8f21 cdbd
00000360: 670c e3bd 93ec 173e 309a 6cbd cfa4 49be
00000370: 93c6 f0bd 80a1 443d 0382 dabc fd5d 47be
00000380: ef2e 2bbd 7a00 4f3d 91df 053e 5ed5 5abd
00000390: 5f90 b0be db7e 8cbd 2ea1 393d 6076 e03c
000003a0: 7e8f 773b 587b 47bd fd77 c23d bd74 8c3c
000003b0: a2be 2f3e 769b 8fbd 015a 643d c9ae 2fbe
000003c0: a626 a5be 01d6 633c 7040 dcbd e1f6 0f3d
000003d0: 9734 283b 9c68 ff3c 23e6 01be fb86 183d
000003e0: e09c 9abd 9c5b 16bd 4805 f8bd 5004 55be
000003f0: a5ab 263e ef2f 883d 7da8 b2bd 3f01 643d

backbone_net.attitude_net.1.0.bias f4 [128]
-0.035944756 -0.15519251 0.08925511 -0.015940098 0.22189893 -0.07494368 -0.00310042 0.06415019
0.074029386 -0.05486697 0.11289058 0.0727641 0.00868169 -0.008883175 0.05776388 0.21457371
0.1370363 -0.054852508 -0.04451313 -0.037535634 -0.1804837 0.09387529 0.121885076 0.024896493
0.21297288 0.18859018 0.06877847 -0.0079327375 0.23036489 -0.17535679 0.11277852 -0.10712597
-0.13821676 0.02779286 -0.04935363 -0.03177576 -0.050224494 -0.0227933 0.077782415 -0.04479328
0.01752973 -0.02723005 0.063547306 0.11427129 0.019768486 -0.063552365 -0.07314184 -0.037767105
-0.052330755 -0.010578835 0.13339427 -0.09648946 -0.00573414 0.14266543 0.14792345 0.21412148
-0.05275873 -0.074539125 0.031345174 -0.05681875 -0.08466008 0.14100933 -0.017906189 0.06937837
0.15956372 -0.097642556 -0.18507174 0.019407049 -0.069009155 0.10148865 0.1017843 0.19763349
-0.05449803 0.21336064 0.09162433 -0.043086562 -0.22690393 -0.0715222 0.122409396 0.1206547
-0.02445115 -0.23245041 -0.0034122686 -0.08896779 0.31112742 0.14150724 -0.09536978 -0.05316344
0.25534597 -0.009322755 -0.014468068 0.14474653 -0.09166298 -0.017675849 0.15348019 -0.12339534
0.09874801 -0.04405268 -0.032572698 0.03406817 -0.070729546 -0.04138466 -0.07745083 -0.12348525
-0.02396722 -0.053833976 0.05603189 0.106655926 -0.020845277 0.32421187 -0.18172973 -0.1723069
-0.13740757 0.0723386 -0.03631515 -0.097894505 -0.11620715 0.14681251 0.016650004 0.061445355
-0.0693826 -0.060315136 0.037463687 -0.08903132 0.00089022494 -0.03551342 -0.2695324 0.035368882
00000000: cf3a 13bd c9ea 1ebe 62cb b63d cf94 82bc
00000010: 7939 633e 127c 99bd 6b30 4bbb 2d61 833d
00000020: b89c 973d 30bc 60bd 2d33 e73d 5805 953d
00000030: a63d 0e3c bd8a 11bc d199 6c3d 36b9 5b3e
00000040: 3e53 0c3e 06ad 60bd 6653 36bd f7be 19bd
00000050: b8d0 38be b041 c03d e29e f93d bbf3 cb3c
00000060: 9015 5a3e c91d 413e badb 8c3d 50f8 01bc
00000070: c6e4 6b3e bb90 33be 6df8 e63d dc64 dbbd
00000080: b288 0dbe daad e33c 0827 4abd 4d27 02bd
00000090: 33b8 4dbd 04b9 babc 634c 9f3d 2979 37bd
000000a0: 829a 8f3c 8e11 dfbc 1725 823d 1107 ea3d
000000b0: 85f1 a13c be27 82bd 64cb 95bd aeb1 1abd
000000c0: c658 56bd da52 2dbc 8298 083e 449c c5bd
000000d0: 74e5 bbbb e316 123e 3f79 173e a942 5b3e
000000e0: 8a19 58bd f8a7 98bd cc63 003d c7ba 68bd
000000f0: 4462 adbd c064 103e 00b0 92bc 3f16 8e3d
00000100: ac64 233e d2f8 c7bd 7283 3dbe 88fb 9e3c
00000110: ac54 8dbd 48d9 cf3d 4974 d03d 6f60 4a3e
00000120: 5439 5fbd 367b 5a3e 89a5 bb3d 897b 30bd
00000130: 8159 68be 3b7a 92bd c7b1 fa3d d019 f73d
00000140: c74d c8bc 7b07 6ebe 5ea0 5fbb bf34 b6bd
00000150: 184c 9f3e 46e7 103e 3b51 c3bd e8c1 59bd
00000160: b5bc 823e 78be 18bc 7a0b 6dbc 6f38 143e
00000170: cdb9 bbbd f1cc 90bc e929 1d3e b2b6 fcbd
00000180: 663c ca3d 9570 34bd f36a 05bd 118b 0b3d
00000190: a7da 90bd f682 29bd 8a9e 9ebd d6e5 fcbd
000001a0: e756 c4bc 0481 5cbd b281 653d 6c6e da3d
000001b0: b7c3 aabc 19ff a53e 5c17 3abe 3871 30be
000001c0: 92b4 0cbe 4326 943d 32bf 14bd ea7c c8bd
000001d0: 04fe edbd 0556 163e 9765 883c 20ae 7b3d
000001e0: 7718 8ebd 010d 77bd 8673 193d 0d56 b6bd
000001f0: fc5d 693a 8576 11bd 2700 8abe f6de 103d

backbone_net.embedding_net.0.0.weight f4 [64, 3]
-0.35249162 -0.091278255 -0.4316127 -0.3589235 0.17325078 0.09471904 -0.1826574 -0.32657567
-0.7530873 -0.3855884 -0.17873062 -0.1255161 -0.14503571 0.0011209005 0.2288065 0.09164803
1.011077 -0.18050474 -0.21845928 0.051570423 -0.52542096 0.10966216 -0.4308717 0.19353816
0.16147695 -0.5955328 0.031214118 0.01761679 -0.116497956 0.36968634 0.427531 0.27776566
-0.48853257 -0.50074196 -0.11433089 -0.35304645 -0.43613005 -0.436325 0.39710775 -0.17802545
-0.1867817 0.30508327 -0.1218544 0.21416114 0.34159774 -0.25217092 0.3087168 -0.78326416
-0.1941241 0.28655955 0.23461513 -0.3003031 -0.5427928 -0.0096174395 0.00053436554 0.36353332
-1.3700635 0.26514113 -0.0025083702 -0.9954745 -0.12987716 0.9702224 -0.01913506 0.19828913
0.30819476 0.49960688 0.1480939 -0.48523477 -0.56712705 0.048760597 -0.3930784 -0.7150058
0.091414586 -0.41658518 0.34803975 -0.42943776 -0.5054312 -0.53459847 0.45960128 -0.5324316
0.04544239 -0.0634117 -0.48554072 0.3321983 -0.19411382 -0.37152967 0.31073305 0.42228162
-0.23065875 -0.6242323 -0.12991637 0.22600149 -0.013289913 0.2799992 -0.15678348 0.18380776
-0.2556729 0.24990256 0.06068652 0.45121342 -0.031233309 -0.23560604 0.3468598 -0.13323088
0.07213642 -0.025217962 -0.654764 -0.20482895 -0.058387473 0.7452456 -0.2169738 0.10300476
-0.124102406 0.4825248 -0.07942528 0.27247393 0.18077603 -0.13620922 -0.5052049 0.11788433
0.43821082 0.040887408 0.046117317 -0.35745093 0.29850775 -0.051525414 0.31728095 0.24974002
0.1405401 -0.18580206 0.37783888 0.16862628 0.30061415 0.40876994 -0.1623767 0.2959412
0.65843064 -0.34547588 -0.3437321 0.32444647 -0.25917786 0.31121117 -0.5246875 -0.3003206
0.1283885 0.6292713 0.047424402 0.12184712 0.4845673 -0.4582527 0.35957015 0.3186017
0.012072276 0.012361004 0.32933357 0.35442817 -0.22276409 0.63215196 0.15106376 0.16421452
-0.5617521 0.12983121 0.38644385 -0.13015762 -0.43176103 -0.15809675 0.32353255 0.038848348
0.033126462 -0.54686993 0.14887112 0.37364104 0.36065328 -0.31697866 -0.4305431 0.36291188
-0.41397932 -0.1795074 0.30260748 0.30390033 0.3397684 -0.31394225 -0.6803794 -0.13865538
-0.23302187 0.17469577 0.29731604 0.092866145 -0.38602862 -0.24930367 -0.19335677 0.31153327
00000000: c879 b4be 18f0 babd 57fc dcbe d2c4 b7be
00000010: a768 313e 0efc c13d 8b0a 3bbe ed34 a7be
00000020: 54ca 40bf d86b c5be 2905 37be 4b87 00be
00000030: 3e84 14be 2eeb 923a 404c 6a3e f6b1 bb3d
00000040: f96a 813f 3cd6 38be cab3 5fbe 823b 533d
00000050: fd81 06bf 8e96 e03d 379b dcbe de2e 463e
00000060: 375a 253e d674 18bf c0b4 ff3c 1651 903c
00000070: 7b96 eebd 8747 bd3e 58e5 da3e 4d37 8e3e
00000080: f120 fabe a030 00bf 5026 eabd 81c2 b4be
00000090: 704c dfbe fe65 dfbe b551 cb3e 4e4c 36be
000000a0: b443 3fbe e033 9c3e cd8e f9bd 0f4d 5b3e
000000b0: e6e5 ae3e 8c1c 81be 2110 9e3e 0084 48bf
000000c0: 78c8 46be efb7 923e f33e 703e 54c1 99be
000000d0: 78f4 0abf 7792 1dbc aa14 0c3a 0a21 ba3e
000000e0: 3e5e afbf 94c0 873e 7863 24bb 6bd7 7ebf
000000f0: 85fe 04be 7f60 783f 21c1 9cbc 4e0c 4b3e
00000100: b4cb 9d3e 79cc ff3e eda5 173e b170 f8be
00000110: 3d2f 11bf 31b9 473d 9241 c9be 9f0a 37bf
00000120: 9237 bb3d a74a d5be 4432 b23e 44df dbbe
00000130: f063 01bf 72db 08bf dc50 eb3e 704d 08bf
00000140: cd21 3a3d fedd 81bd cb98 f8be e515 aa3e
00000150: c6c5 46be 2339 bebe 6718 9f3e 4c35 d83e
00000160: cf31 6cbe b0cd 1fbf cc08 05be ef6c 673e
00000170: efbd 59bc 0e5c 8f3e d98b 20be 1a38 3c3e
00000180: 8fe7 82be 75e6 7f3e 6e92 783d 7205 e73e
00000190: ffdc ffbc b642 71be 9c97 b13e ad6d 08be
000001a0: 42bc 933d e695 cebc 9d9e 27bf aebe 51be
000001b0: b427 6fbd 6ac8 3e3f 612e 5ebe 29f4 d23d
000001c0: 6729 febd 7e0d f73e b9a9 a2bd b481 8b3e
000001d0: 5a1d 393e 6e7a 0bbe 1c55 01bf 576d f13d
000001e0: 2b5d e03e 8e79 273d 83e5 3c3d cf03 b7be
000001f0: 02d6 983e 500c 53bd a672 a23e d9bb 7f3e
00000200: bee9 0f3e e542 3ebe 1974 c13e 5eac 2c3e
00000210: 19ea 993e 4b4a d13e 1446 26be 9b85 973e
00000220: e98e 283f 37e2 b0be a7fd afbe d91d a63e
00000230: f6b2 84be 1257 9f3e ec51 06bf 9fc3 99be
00000240: 4678 033e ed17 213f 1740 423d fc8a f93d
00000250: 3519 f83e 19a0 eabe 9419 b83e c31f a33e
00000260: ccca 453c cf85 4a3c 699e a83e 9c77 b53e
00000270: 451c 64be b6d4 213f 75b0 1a3e da27 283e
00000280: fcce 0fbf 79f2 043e f8db c53e 0a48 05be
00000290: c80f ddbe 1de4 21be 0fa6 a53e 721f 1f3d
000002a0: 9daf 073d abff 0bbf ac71 183e e14d bf3e
000002b0: 8ca7 b83e 074b a2be 2570 dcbe 96cf b93e
000002c0: 19f5 d3be cad0 37be 5eef 9a3e d398 9b3e
000002d0: 20f6 ad3e 0abd a0be 582d 2ebf adfb 0dbe
000002e0: 499d 6ebe 73e3 323e cf39 983e 9b30 be3d
000002f0: 8ba5 c5be 7649 7fbe 51ff 45be 4a81 9f3e

backbone_net.embedding_net.0.0.bias f4 [64]
0.7067409 -0.09470381 0.29702425 -0.20586057 0.21325415 -0.6077863 -0.34292716 -0.4684796
0.058198247 0.01403814 -0.69579196 0.46628863 0.31815073 0.19494219 0.30637452 0.51364243
0.47169954 0.77360976 0.26188126 0.14577249 -0.2960061 -0.32694462 -0.32114422 0.054180574
-0.58875084 0.38627315 -0.36342064 -0.3907286 -0.15853843 -0.6874229 0.45666704 -0.31019455
-0.06812414 0.31064582 -0.51184726 -0.2720225 -0.18513417 -0.23784816 0.32099268 0.22200906
0.06922289 0.4902728 -0.29073998 -0.02719393 -0.21974027 -0.7777074 0.7040591 -0.6785389
0.107433364 -0.2837109 -0.61982876 -0.227653 0.041858118 -0.10078891 -0.25683826 0.5334815
-0.14947478 -0.19438918 0.20933536 -0.06410586 -0.6649536 0.31000662 0.19805437 1.054923
00000000: f9ec 343f 12f4 c1bd 9013 983e 1dcd 52be
00000010: 4c5f 5a3e e297 1bbf 2694 afbe 8fdc efbe
00000020: 4961 6e3d 3a00 663c 6c1f 32bf 62bd ee3e
00000030: a7e4 a23e ed9e 473e 1fdd 9c3e 127e 033f
00000040: 9a82 f13e 4a0b 463f 4d15 863e 6245 153e
00000050: 1d8e 97be 4965 a7be 046d a4be 73ec 5d3d
00000060: 60b8 16bf 98c5 c53e 4512 babe 940d c8be
00000070: e657 22be f2fa 2fbf 43d0 e93e d2d1 9ebe
00000080: ab84 8bbd f80c 9f3e 6c08 03bf 8846 8bbe
00000090: d093 3dbe 788e 73be 2759 a43e 5856 633e
000000a0: bbc4 8d3d 0905 fb3e dfdb 94be cec5 debc
000000b0: 9803 61be d517 47bf 383d 343f bab4 2dbf
000000c0: 0606 dc3d 8e42 91be 19ad 1ebf de1d 69be
000000d0: 6b73 2b3d 6b6a cebd 4e80 83be 3e92 083f
000000e0: eb0f 19be f50d 47be 025c 563e ef49 83bd
000000f0: 663a 2abf 30b9 9e3e c4ce 4a3e b807 873f

backbone_net.target_net.0.0.weight f4 [128, 128]
-0.022195727 -0.11754836 -0.03864127 -0.0831819 -0.019017464 -0.10088186 -0.049241703 0.023200845
0.15041585 0.024851954 -0.09061719 -0.012761641 -0.02581902 -0.062375575 -0.0741249 -0.033599265
0.018296823 -0.07568303 -0.025002345 -0.08599239 0.012542662 -0.03353543 0.059504792 0.025253585
0.11373325 0.039333146 0.10587868 0.087400824 -0.00518394 -0.076733686 -0.026429135 0.04278395
0.0038915453 -0.039831176 -0.046489604 -0.09306082 0.0929208 0.06521586 -0.07823182 -0.064404935
0.014608401 -0.011163858 0.02097805 -0.001366946 -0.00962311 0.015771559 -0.009147112 0.02143815
-0.072739184 0.073180795 -0.056158874 -0.03204039 -0.041561052 -0.030300865 -0.04655594 -0.05916612
0.016001208 -0.03909351 -0.039787643 0.02892884 -0.026469499 0.06744225 0.039970275 -0.06266612
0.021641077 0.06456352 -0.0030149994 -0.05540466 0.047813583 -0.029876323 -0.0511246 -0.036905076
0.045485415 -0.013050161 0.033048388 -0.004805018 0.049671452 0.015639476 -0.033203818 -0.023494773
-0.046376497 0.03226001 -0.0140529275 -0.026765747 0.039669164 -0.06456278 0.032495342 0.03865545
0.028063428 -0.016635709 -0.05613971 -0.03161938 -0.08240067 -0.046498287 0.02112996 -0.036594577
0.033154726 -0.063140385 -0.025512598 -0.045434117 0.032820575 0.06564352 0.052438203 -0.06181495
-0.02655864 0.08830419 0.09243884 -0.027777663 0.020603843 -0.008523536 -0.08521465 0.009348874
-0.084937885 0.055142652 0.016513888 0.073463045 0.02638281 0.035379093 -0.016527437 0.012451259
0.018560171 0.06375814 -0.036692932 -0.03494346 0.085120015 0.0015402988 -0.0046458105 -0.025876105
-0.053918652 -0.042446446 -0.15609929 0.055157002 -0.00083564175 -0.18762642 0.0132132545 0.042049926
0.101407655 0.025511254 0.063880645 -0.007466857 0.03428181 0.033202097 -0.016319338 -0.17460915
-0.10349578 0.06601581 -0.062244754 0.119536966 -0.1724999 -0.103474826 -0.22870667 -0.31358185
0.06802365 -0.09396284 0.041837398 -0.077383675 -0.0056739007 0.11370323 0.018027706 0.045414697
0.037379537 0.12336023 0.091135636 -0.11641924 -0.09122219 -0.07427425 -0.2425134 0.000461868
-0.009860019 -0.00073071296 0.010012454 -0.022649942 0.103127025 0.031468797 -0.10518697 0.05236801
-0.028979791 0.03098134 0.045944832 -0.2366608 -0.09987279 -0.08498211 0.09322873 -0.0712717
-0.051004793 0.01741499 -0.06327309 0.01148247 -0.041656733 -0.00057934766 0.058769636 0.058154896
0.0010930132 -0.047305513 0.067304455 -0.03764021 -0.018943917 -0.019271784 0.037954874 -0.024789456
0.011835236 -0.039336614 0.033863585 -0.057124767 -0.005806882 0.029058766 -0.017557878 -0.026260823
0.012108804 -0.05230305 0.015666781 -0.0724692 -0.04278537 -0.049604524 -0.042318158 0.002317318
0.056288578 0.051384937 -0.024283826 -0.027975652 -0.028571809 0.022118866 0.028794242 -0.05634098
-0.017494721 -0.0071587674 -0.044402078 0.049422868 0.00094191835 0.032557305 0.0757676 -0.036796857
0.021725902 0.04843688 0.032913253 0.057109043 0.02116553 -0.0036951024 -0.024101024 0.0013296267
0.054045 -0.043237075 -0.045890257 -0.021312512 0.020386321 0.02836059 0.0581273 0.035333123
-0.010994333 -0.033369258 -0.04576832 -0.0076895766 -0.050478343 0.0156124225 -0.0656975 -0.04568139
00000000: d0d3 b5bc 32bd f0bd 4f46 1ebd 465b aabd
00000010: 83ca 9bbc 269b cebd abb1 49bd b30f be3c
00000020: 9d06 1a3e 5396 cb3c 8195 b9bd 3416 51bc
00000030: 6982 d3bc 887d 7fbd ccce 97bd 629f 09bd
00000040: 38e3 953c b4ff 9abd b8d1 ccbc c71c b0bd
00000050: bd7f 4d3c 725c 09bd 4cbb 733d 9be0 ce3c
00000060: faec e83d cb1b 213d ecd6 d83d 34ff b23d
00000070: 0ade a9bb 8d26 9dbd ea81 d8bc 393e 2f3d
00000080: 4c09 7f3b 0426 23bd e26b 3ebd ac96 bebd
00000090: 434d be3d e58f 853d 0138 a0bd bce6 83bd
000000a0: 1358 6f3c 9de8 36bc 29da ab3c 192b b3ba
000000b0: 40aa 1dbc 5b33 813c c5dd 15bc 0f9f af3c
000000c0: 48f8 94bd d0df 953d d906 66bd c93c 03bd
000000d0: ec3b 2abd 8539 f8bc 71b1 3ebd 2c58 72bd
000000e0: f714 833c 8420 20bd 5ef8 22bd 2dfc ec3c
000000f0: 90d6 d8bc 2a1f 8a3d dfb7 233d 1857 80bd
00000100: a148 b13c e139 843d 4c97 45bb ffef 62bd
00000110: 2dd8 433d 31bf f4bc 0768 51bd c729 17bd
00000120: ea4e 3a3d 58d0 55bc bf5d 073d 6a73 9dbb
00000130: 4b74 4b3d 5c1e 803c ba00 08bd 1c78 c0bc
00000140: 48f5 3dbd 1223 043d 403e 66bc d743 dbbc
00000150: 227c 223d 7e39 84bd d619 053d 2d55 1e3d
00000160: 46e5 e53c 9c47 88bc c1f2 65bd 5383 01bd
00000170: afc1 a8bd fd74 3ebd bd18 ad3c 32e4 15bd
00000180: 40cd 073d bf4f 81bd ccff d0bc 2019 3abd
00000190: de6e 063d 1c70 863d 71c9 563d ac31 7dbd
000001a0: 8191 d9bc d4d8 b43d 9350 bd3d fb8d e3bc
000001b0: 64c9 a83c 4da6 0bbc 0585 aebd 052c 193c
000001c0: eaf3 adbd 43dd 613d 2248 873c cb73 963d
000001d0: c320 d83c abe9 103d 8c64 87bc 5e00 4c3c
000001e0: 800b 983c a193 823d 544b 16bd e020 0fbd
000001f0: 6753 ae3d dae3 c93a e23b 98bb 20fa d3bc
00000200: ced9 5cbd 53dc 2dbd 7ed8 1fbe 4fec 613d
00000210: f80e 5bba 2421 40be 687c 583c 8b3c 2c3d
00000220: d1ae cf3d fafc d03c dbd3 823d 89ac f4bb
00000230: 156b 0c3d ecfe 073d 22b0 85bc becc 32be
00000240: 98f5 d3bd 4c33 873d 5bf4 7ebd cccf f43d
00000250: d0a3 30be 9cea d3bd 1532 6abe cd8d a0be
00000260: fc4f 8b3d 976f c0bd b15d 2b3d 557b 9ebd
00000270: 21ec b9bb 3ddd e83d d7ae 933c c304 3a3d
00000280: 491b 193d 4aa4 fc3d 52a5 ba3d 366d eebd
00000290: b3d2 babd 191d 98bd 6f55 78be e026 f239
000002a0: eb8b 21bc 518d 3fba 470b 243c 5f8c b9bc
000002b0: 4334 d33d 6de5 003d 446c d7bd d77f 563d
000002c0: 0767 edbc 94cc fd3c a630 3c3d 3557 72be
000002d0: 1b8a ccbd 1a0b aebd b4ee be3d e6f6 91bd
000002e0: 67ea 50bd e2a9 8e3c 5295 81bd f820 3c3c
000002f0: 40a0 2abd 5ddf 17ba 6eb8 703d d433 6e3d
00000300: 7043 8f3a 6dc3 41bd ebd6 893d 9f2c 1abd
00000310: 4630 9bbc dcdf 9dbc 9276 1b3d 4213 cbbc
00000320: 94e8 413c 6e1f 21bd 8bb4 0a3d a9fb 69bd
00000330: a847 bebb a60c ee3c 8ad5 8fbc f020 d7bc
00000340: 0164 463c b93b 56bd 9f57 803c bb6a 94bd
00000350: b63f 2fbd 1d2e 4bbd ce55 2dbd 25de 173b
00000360: da8e 663d 0379 523d e0ee c6bc 322d e5bc
00000370: 6d0f eabc a032 b53c e7e1 eb3c cdc5 66bd
00000380: 1751 8fbc 1894 eabb f4de 35bd a26f 4a3d
00000390: 12eb 763a cf5a 053d 0b2c 9b3d 4db8 16bd
000003a0: 85fa b13c c065 463d 0cd0 063d 2ceb 693d
000003b0: 5563 ad3c 8829 72bb 836f c5bc de46 ae3a
000003c0: 4a5e 5d3d 5c19 31bd 6cf7 3bbd 9497 aebc
000003d0: 3701 a73c 7854 e83c e416 6e3d 77b9 103d
000003e0: 9321 34bc 34ae 08bd 9077 3bbd d8f8 fbbb
000003f0: 61c2 4ebd 3fcb 7f3c 698c 86bd 691c 3bbd

backbone_net.target_net.0.0.bias f4 [128]
-0.038402513 -0.024844144 0.0575981 0.0856601 -0.34622315 -0.09528142 -0.06579729 -0.036900528
0.13921982 -0.11422439 0.05999841 -0.0557025 0.06479526 0.04301085 0.15464108 0.00027923888
-0.06918279 0.10367699 0.12597774 -0.09834635 0.053930443 0.06665212 -0.0073698256 0.018167976
-0.08918723 0.15678743 -0.1713803 0.06429523 -0.064301684 -0.10655133 0.01980043 -0.0219596
0.0070527582 -0.15695474 0.1359277 -0.036810387 0.0058107274 0.0624164 -0.1547504 -0.021337358
0.113232106 0.07464421 -0.09499438 0.13875009 0.12477624 0.013667806 0.09619383 0.09940045
0.06354705 -0.012660634 0.0381613 -0.25529835 0.004799368 -0.2404814 -0.06243314 0.06262056
-0.20246252 0.03813253 0.054621506 -0.049665567 0.118089065 0.00566995 0.040055986 -0.04518233
0.075752206 -0.11554893 -0.071915634 0.02478166 0.038492944 0.02343049 0.031076506 0.06479695
0.011778132 0.06247454 -0.12513413 0.0206555 0.15634987 0.030479256 -0.09815983 -0.0087287715
-0.0955524 0.010566579 0.040499717 -0.16661839 0.13114291 -0.05693896 0.014119307 0.13796018
0.073296994 0.103284314 0.05056858 0.012118954 0.0274049 0.059726838 -0.17806582 0.17037165
-0.19171457 -0.0146163115 -0.22674981 0.06650093 0.052631892 0.18138109 -0.0456402 0.110396944
0.08679448 -0.061313134 -0.030032823 0.09462924 0.034320906 0.09721726 -0.1838017 -0.16050358
-0.05885433 -0.026067171 0.0018799496 0.080804504 -0.09594677 0.051795695 0.069890775 -0.07843669
-0.08048025 -0.14000684 -0.14198695 0.13937332 0.03874807 0.045970853 -0.10452984 0.013908753
00000000: f44b 1dbd f285 cbbc fceb 6b3d 906e af3d
00000010: 2944 b1be e822 c3bd bbc0 86bd 0225 17bd
00000020: a48f 0e3e 7aee e9bd e5c0 753d 4e28 64bd
00000030: 61b3 843d 252c 303d 3b5a 1e3e cf66 9239
00000040: b5af 8dbd 9a54 d43d 4f00 013e d069 c9bd
00000050: 2be6 5c3d e880 883d 947e f1bb 02d5 943c
00000060: cba7 b6bd e28c 203e 517e 2fbe 38ad 833d
00000070: 9ab0 83bd 9537 dabd 8334 a23c 9ee4 b3bc
00000080: d31a e73b beb8 20be a230 0b3e 7dc6 16bd
00000090: ea67 be3b 57a8 7f3d e476 1ebe afcb aebc
000000a0: 3ce6 e73d 10df 983d 6a8c c2bd 8114 0e3e
000000b0: af8a ff3d efee 5f3c 4501 c53d 7792 cb3d
000000c0: f524 823d 8c6e 4fbc 064f 1c3d 77b6 82be
000000d0: 0444 9d3b c240 76be e4b9 7fbd 353f 803d
000000e0: 5652 4fbe db30 1c3d cdba 5f3d 1f6e 4bbd
000000f0: aed8 f13d fdca b93b bf11 243d 1b11 39bd
00000100: f923 9b3d eba4 ecbd 8148 93bd e802 cb3c
00000110: c7aa 1d3d 4df1 bf3c 2894 fe3c 43b4 843d
00000120: 11f9 403c 4ee5 7f3d 2923 00be b935 a93c
00000130: 2e1a 203e a2af f93c 0508 c9bd 1f03 0fbc
00000140: fab0 c3bd 721f 2d3c 08e3 253d 039e 2abe
00000150: 544a 063e d438 69bd aa54 673c 6f45 0d3e
00000160: bc1c 963d ba86 d33d 0021 4f3d 948e 463c
00000170: 3e80 e03c 21a4 743d e356 36be e875 2e3e
00000180: d350 44be 4179 6fbc 1a31 68be a431 883d
00000190: 8a94 573d f7bb 393e 38f1 3abd cb17 e23d
000001a0: 4ec1 b13d 7b23 7bbd 6507 f6bc facc c13d
000001b0: 1494 0c3d d819 c73d 8336 3cbe 0d5b 24be
000001c0: 3d11 71bd d28a d5bc a468 f63a d57c a53d
000001d0: bd7f c4bd b927 543d e522 8f3d 6aa3 a0bd
000001e0: d4d2 a4bd f45d 0fbe 0765 11be e1b7 0e3e
000001f0: 4cb6 1e3d ef4b 3c3d be13 d6bd 8ae1 633c

merge_net.0.0.weight f4 [128, 256]
0.015134388 -0.016260799 -0.0442513 0.0157937 -0.08780059 -0.012249274 0.0076036258 0.004695263
-0.026995944 -0.0018726053 -0.108610936 -0.028152004 0.0031139592 0.044087302 -0.02610543 -0.0010735631
0.0014856994 0.0299157 0.021802586 0.0033396801 0.032385334 -0.08085767 0.023008266 0.041835032
0.054607555 -0.022700766 0.016418261 0.03457123 -0.029510494 -0.012884806 0.01640623 0.017217124
0.031081514 0.029531727 0.024307251 0.005772017 0.0020244035 -0.034113925 -0.008501429 0.049724698
-0.009917112 0.017714353 -0.04217837 -0.0090057645 0.09095056 -0.044998556 0.016415238 0.028141282
-0.018922118 -0.024140516 -0.041916985 0.018248579 -0.021715516 0.0069213263 0.0066475905 -0.00013199596
0.009747401 0.012678635 -0.06960163 0.02381222 0.00063659373 -0.028608896 -0.0050505954 -0.004438638
0.033501446 0.029149301 -0.022163676 0.0052706753 0.03491666 0.034034636 -0.02404838 0.020559195
0.03169586 -0.07402967 0.0017168102 0.030210529 -0.0058133737 -0.015934898 0.029660277 -0.030119915
0.012044062 0.03929217 -0.029152883 0.06787707 -0.038912933 -0.021779265 0.006818865 -0.01554655
-0.084920324 -0.0007034549 0.044894643 0.075201176 -0.03336988 -0.01988176 -0.05326599 0.0014828986
-0.0014829176 0.015712459 -0.017343206 -0.03234834 0.04962721 0.022064075 0.04927479 0.01763406
0.033662707 -0.021246517 -0.032565337 0.002178264 0.03328683 0.026431056 -0.037759043 0.01591804
0.04242406 0.017825356 -0.028183414 -0.039068922 0.048505574 0.026111115 0.047716055 0.0055937613
0.042614955 -0.12914322 -0.016027007 0.02291935 0.022405412 -0.017301299 0.00217377 -0.0049076346
0.08145182 0.09581168 0.0662844 -0.039879866 -0.0143187605 0.0009923177 -0.025511254 0.03847657
0.07876603 -0.095825456 0.033088133 0.0942577 -7.1680166e-05 0.07267847 -0.03722255 -0.07464577
0.04828099 0.0008159023 0.13879979 0.074405186 0.11059043 0.019273585 -0.004551033 -0.0064581777
-0.0021960957 0.10147738 -0.08597316 0.01954833 0.023611039 0.008243414 0.04440021 -0.013574645
0.049195003 -0.05975906 0.033950765 0.0050886017 0.06920751 0.016002044 -0.081086464 0.0028203996
-0.056208827 0.08016711 -0.013521259 -0.031684645 0.01991471 -0.045028564 0.031457454 0.08236712
-0.004024213 0.037374545 0.07249814 0.020604502 0.1203832 9.0359266e-05 -0.012072297 -0.0042290287
-0.037535235 0.050395362 0.15785448 -0.021249115 0.18368511 0.11115017 0.15694049 0.064604126
-0.04008191 0.024077415 0.087097585 0.016873991 0.14842905 0.15666668 0.11495201 0.09108138
0.04251804 -0.06868257 -0.06385045 -0.014003631 -0.06953264 0.047093328 0.07079532 0.085146464
0.0058463104 0.081405535 -0.009344007 -0.029442968 -0.06244074 -0.00400794 0.07581183 -0.08480237
0.26616016 -0.043006394 -0.072160244 0.08758984 0.045483053 0.0032476229 -0.049315274 0.021352053
-0.08801411 0.039163377 -0.052422855 0.026295144 0.080341846 -0.075963676 0.10370032 -0.05100791
-0.09897138 0.001960655 0.051437847 0.25909692 -0.03121702 0.10981485 -0.050122395 -0.075297065
0.04615478 0.11064221 0.031164875 0.033770066 -0.013048071 0.048373632 0.15877469 0.01951562
-0.06839054 -0.09630291 -0.077432826 0.1463313 0.041077156 0.067455575 0.03358171 0.08186282
00000000: 39f6 773c 5e35 85bc da40 35bd ca61 813c
00000010: ccd0 b3bd 2eb1 48bc d627 f93b b9da 993b
00000020: 9926 ddbc 3572 f5ba 696f debd 089f e6bc
00000030: 9113 4c3b e394 343d 0edb d5bc cdb6 8cba
00000040: cdbb c23a c511 f53c 569b b23c 89de 5a3b
00000050: 7ca6 043d b598 a5bd d57b bc3c 365b 2b3d
00000060: 2cac 5f3d f5f6 b9bc 977f 863c 909a 0d3d
00000070: febf f1bc cb1a 53bc 5c66 863c ed0a 8d3c
00000080: a99e fe3c 85ec f13c 0020 c73c 3023 bd3b
00000090: dbab 043b 0bbb 0bbd 9449 0bbc 20ac 4b3d
000000a0: 627b 22bc b11d 913c 3ac3 2cbd ea8c 13bc
000000b0: 4a44 ba3d 6850 38bd 4079 863c 8c88 e63c
000000c0: 8f02 9bbc 55c2 c5bc 25b1 2bbd 0b7e 953c
000000d0: bde4 b1bc 4bcc e23b 08d4 d93b 6568 0ab9
000000e0: 90b3 1f3c 0dba 4f3c 4d8b 8ebd d811 c33c
000000f0: 15e1 263a 345d eabc 777f a5bb ff71 91bb
00000100: d038 093d 84ca ee3c 9990 b5bc a1b5 ac3b
00000110: c604 0f3d e767 0b3d 1c01 c5bc c26b a83c
00000120: 85d3 013d de9c 97bd 9706 e13a 127c f73c
00000130: 1d7e bebb e789 82bc 1cfa f23c 0abe f6bc
00000140: 7554 453c d4f0 203d 07d2 eebc 2203 8b3d
00000150: 2b63 1fbd 6e6a b2bc c970 df3b f5b6 7ebc
00000160: b5ea adbd 0f68 38ba 72e3 373d 1303 9a3d
00000170: dbae 08bd 13df a2bc 702d 5abd d25d c23a
00000180: 755e c2ba 6ab7 803c 5713 8ebc b17f 04bd
00000190: e745 4b3d b8bf b43c 5dd4 493d 4e75 903c
000001a0: e8e1 093d 2d0d aebc 3b63 05bd 35c1 0e3b
000001b0: c557 083d f185 d83c 3aa9 1abd 8d66 823c
000001c0: dac4 2d3d 7b06 923c e7e0 e6bc bc06 20bd
000001d0: c8ad 463d fae6 d53c e971 433d df4b b73b
000001e0: 058d 2e3d 1f3e 04be 124b 83bc 5cc1 bb3c
000001f0: 8e8b b73c 74bb 8dbc cf75 0e3b 39d0 a0bb
00000200: 36d0 a63d ea38 c43d 1ec0 873d 1259 23bd
00000210: 3c99 6abc a810 823a fafc d0bc 9c99 1d3d
00000220: 1650 a13d 2340 c4bd 6c87 073d 2e0a c13d
00000230: ff52 96b8 73d8 943d ac76 18bd e2df 98bd
00000240: 4ac2 453d 47e2 553a 8821 0e3e bf61 983d
00000250: 3c7d e23d a3e3 9d3c d520 95bb 1f9f d3bb
00000260: 5fec 0fbb 5fd3 cf3d b212 b0bd d223 a03c
00000270: f06b c13c 620f 073c ffdc 353d 3068 5ebc
00000280: b380 493d ebc5 74bd f50f 0b3d 49be a63b
00000290: abbc 8d3d b816 833c a910 a6bd 74d6 383b
000002a0: 3a3b 66bd a72e a43d 4588 5dbc c2c7 01bd
000002b0: 2d24 a33c df6f 38bd 88d9 003d 18b0 a83d
000002c0: 8cdd 83bb 0d16 193d e879 943d c6ca a83c
000002d0: 788b f63d 437f bd38 e2ca 45bc aa93 8abb
000002e0: 8cbe 19bd 5e6b 4e3d 9ba4 213e a012 aebc
000002f0: f317 3c3e b3a2 e33d 02b5 203e 2b4f 843d
00000300: ee2c 24bd 003e c53c 3860 b23d 533b 8a3c
00000310: c9fd 173e 3b6d 203e f66b eb3d e088 ba3d
00000320: 6527 2e3d 72a9 8cbd 06c4 82bd 7c6f 65bc
00000330: 2167 8ebd efe4 403d 23fd 903d 4561 ae3d
00000340: 6892 bf3b f2b7 a63d 9b17 19bc 6132 f1bc
00000350: ddc1 7fbd 0a55 83bb 3c43 9b3d ddac adbd
00000360: 2546 883e 7927 30bd c0c8 93bd 4d62 b33d
00000370: 704c 3a3d 12d6 543b d0fe 49bd 80ea ae3c
00000380: be40 b4bd c769 203d 59b9 56bd ea68 d73c
00000390: 448a a43d d892 9bbd d560 d43d aced 50bd
000003a0: 82b1 cabd 557e 003b 7eb0 523d 5aa8 843e
000003b0: d6ba ffbc 9ce6 e03d 244d 4dbd 5935 9abd
000003c0: cb0c 3d3d 6298 e23d 7b4d ff3c 7b52 0a3d
000003d0: 94c7 55bc 6e23 463d d595 223e 39df 9f3c
000003e0: 5710 8cbd 763a c5bd 1a95 9ebd dfd7 153e
000003f0: 8540 283d 2626 8a3d fa8c 093d b2a7 a73d

merge_net.0.0.bias f4 [128]
0.43960106 0.15264381 -0.072827615 0.027980166 0.0199055 -0.005772394 0.0016680383 -0.012104194
-0.034106124 -0.0010795132 -0.014663647 -0.003004407 0.017671168 0.069974944 0.049561393 -0.014918245
0.059978705 -0.0077177184 0.028900234 0.017640088 -0.047183502 -0.091048114 0.010460239 0.035957154
0.011475913 0.13994469 0.05451996 -0.09154869 -0.027602177 0.11198843 0.07677883 -0.036576856
0.016601544 0.038580235 0.015297778 -0.072996356 -0.0032055564 -0.027787754 -0.013429506 -0.039119042
-0.022636728 -0.051850323 0.013737314 -0.031464573 -0.033275023 -0.0313419 0.013132487 0.033436578
-0.02525166 0.068038344 0.017395074 -0.009774395 0.04435281 -0.008430245 -0.015721064 0.00315508
-0.0028681706 0.03932789 -0.01546274 0.00061629387 0.007721782 0.032426737 0.027144123 0.026506549
-0.0093323765 -0.050235108 -0.03784184 -0.02452531 -0.06541844 0.022470472 -0.01715942 -0.038581762
0.060575467 0.014488948 0.053853773 -0.024593849 0.041486084 -0.0016237019 0.03030915 0.04595891
0.023300096 0.0185233 -0.076969385 0.04138459 -0.019841366 0.039142556 0.0464269 0.054613166
0.023908848 0.04429024 0.011768703 -0.0051211654 0.06361732 -0.0020308038 -0.016107494 0.047901515
-0.0051649357 -0.010679269 0.03340176 0.07265702 -0.025016885 -0.0070286114 0.010140915 -0.023596318
0.029754696 0.054865554 -0.019183967 0.0016568584 -0.0563494 0.053423285 0.007478214 -0.0029270698
0.013384082 -0.07359675 0.042594757 -0.03858075 0.0011172175 0.020871302 0.03244778 -0.07716569
-0.018090121 -0.034581084 0.0018359533 -0.024114225 0.11037256 0.06406549 0.02546477 0.048058767
00000000: 6413 e13e a94e 1c3e a526 95bd a936 e53c
00000010: dc10 a33c 5a26 bdbb 14a2 da3a ab50 46bc
00000020: ddb2 0bbd 747e 8dba cb3f 70bc 96e5 44bb
00000030: 20c3 903c 064f 8f3d e300 4b3d a86b 74bc
00000040: 3bac 753d eae4 fcbb 2fc0 ec3c f281 903c
00000050: 7d43 41bd 6f77 babd 6c61 2b3c cf47 133d
00000060: 7805 3c3c a94d 0f3e 5250 5f3d e17d bbbd
00000070: f61d e2bc 315a e53d 383e 9d3d 9dd1 15bd
00000080: f6ff 873c 4f06 1e3d 88a3 7a3c 1d7f 95bd
00000090: 5014 52bb 25a3 e3bc 6e07 5cbc 4a3b 20bd
000000a0: a970 b9bc 0161 54bd 7912 613c ffe0 00bd
000000b0: 644b 08bd 5d60 00bd a529 573c cbf4 083d
000000c0: 92dc cebc b057 8b3d 1d80 8e3c c924 20bc
000000d0: 4bab 353d 031f 0abc 76c9 80bc 75c5 4e3b
000000e0: ebf7 3bbb 4816 213d 6f57 7dbc c88e 213a
000000f0: 0107 fd3b e6d1 043d 5a5d de3c 4324 d93c
00000100: d3e6 18bc 54c3 4dbd 0c00 1bbd 4ee9 c8bc
00000110: 1afa 85bd ff13 b83c e991 8cbc e907 1ebd
00000120: fb1d 783d 0d63 6d3c c695 5c3d 0a79 c9bc
00000130: 50ed 293d 65d2 d4ba e54a f83c 693f 3c3d
00000140: d8df be3c 2dbe 973c 20a2 9dbd e382 293d
00000150: 5c8a a2bc f253 203d 222a 3e3d 0eb2 5f3d
00000160: 7ddc c33c af69 353d 85d1 403c 73cf a7bb
00000170: cc49 823d 3c17 05bb ddf3 83bc 6134 443d
00000180: 9f3e a9bb 1af8 2ebc 49d0 083d 34cd 943d
00000190: 36f0 ccbc 4450 e6bb 1526 263c 114d c1bc
000001a0: 1fc0 f33c b4ba 603d b227 9dbc f12a d93a
000001b0: a1ce 66bd 60d2 5a3d ce0b f53b 15d4 3fbb
000001c0: e948 5b3c e5b9 96bd d777 2e3d d906 1ebd
000001d0: 996f 923a 4bfa aa3c f7e7 043d 0c09 9ebd
000001e0: bc31 94bc e5a4 0dbd 5fa4 f03a 328b c5bc
000001f0: 020b e23d c534 833d 7e9b d03c 45d9 443d
